models/baseline_noweight_gat_model.pt (torch, 260304 bytes, 10 tensors)

conv1.att_src f4 [1, 4, 64]
0	0x3dc8a496	0.09797017
1	0x3e28ca32	0.16483381
2	0x3e62cb24	0.22147804
3	0x3d2fcb91	0.042918745
4	0xbda86700	-0.08222771
5	0xbd064e7a	-0.032789685
6	0xbe0e1c49	-0.13877977
7	0x3e0d34b8	0.13789642
8	0xbda1f982	-0.07908918
9	0xbdd0e739	-0.10200352
10	0x3e00fe56	0.12597021
11	0x3d933044	0.0718694
12	0x3d2c219f	0.04202425
13	0x3c050397	0.008118532
14	0xbe0fc9f7	-0.14041887
15	0xbde0c4e4	-0.10975054
16	0x3e28fc33	0.16502456
17	0xbe36e2d3	-0.17859964
18	0x3de0c326	0.109747216
19	0xbcf4d8f8	-0.029888615
20	0x3e87f143	0.26551256
21	0x3e370f89	0.1787702
22	0x3e16cd81	0.14726831
23	0x3dd81d9e	0.10552524
24	0x3da96b59	0.08272428
25	0x3de8474b	0.11341723
26	0xbe712a66	-0.2355133
27	0x3e6b47ed	0.22976656
28	0xbd98c0fe	-0.07458685
29	0x3dd70d52	0.105005875
30	0xbe23217f	-0.15930746
31	0x3e6e1422	0.23249868
32	0x3de0a894	0.10969654
33	0xbd555d6c	-0.052091047
34	0x3db94b17	0.090475254
35	0xbdf0b169	-0.11752588
36	0x3e5eb878	0.21750057
37	0x3c229158	0.009922348
38	0xbdae7e90	-0.08520234
39	0x3dc023b7	0.09381812
40	0x3eb8d534	0.3610016
41	0x3c9a6805	0.018848429
42	0xbd89f55f	-0.06736254
43	0xbe0982f4	-0.13428861
44	0x3d19cf5d	0.037551273
45	0x3c22c2fa	0.009934181
46	0xbdf7245c	-0.12067482
47	0xbe1d1aec	-0.15342301
48	0xbdbf9862	-0.093552366
49	0x3de72395	0.112860836
50	0xbd00ed00	-0.03147602
51	0xbe2b185f	-0.16708516
52	0xbd176f48	-0.03697136
53	0xbd9046e6	-0.07044773
54	0xbd78244f	-0.0605815
55	0xbd440b1e	-0.047862165
56	0xbdc85e8b	-0.09783658
57	0xbd33dcbf	-0.04391169
58	0x3ce7589a	0.02824049
59	0xbe526dd1	-0.20549704
60	0xbdf2532c	-0.1183227
61	0x3dc92620	0.09821725
62	0x3c4b132d	0.012394709
63	0x3d903e31	0.07043112
64	0x3d1e014d	0.03857546
65	0xbe1c6e20	-0.15276384
66	0x3e341738	0.17586982
67	0xbdc6c969	-0.09706385
68	0xbe3dd0ba	-0.18536654
69	0xbd73e461	-0.05954397
70	0xbe23f873	-0.16012745
71	0xbd101db1	-0.035184566
72	0xbc851bae	-0.01624855
73	0x3d23a8fb	0.039956074
74	0x3e361bff	0.17784117
75	0x3e06f483	0.13179211
76	0xbe59bb15	-0.21262772
77	0x3d4478b0	0.04796666
78	0xbd03d607	-0.032186534
79	0x3e297b97	0.16551052
80	0xbd82f1d7	-0.063937835
81	0x3b1f3016	0.0024290136
82	0x3dd50b33	0.10402527
83	0x3dc8e4ad	0.098092414
84	0x3e2cf060	0.16888571
85	0x3dd11b7b	0.102103196
86	0xbe018536	-0.12648472
87	0x3e1cb822	0.15304616
88	0xbd06215d	-0.03274666
89	0x3d9b67d6	0.075881645
90	0x3e10e4b6	0.14149746
91	0x3dd38469	0.103279896
92	0x3e2f7f10	0.17138314
93	0xbd828aeb	-0.06374153
94	0xbe5b37d6	-0.21408018
95	0x3ce95e46	0.028487336
96	0x3e27651d	0.16347165
97	0xbd0c01f9	-0.03418157
98	0xbdcf5fa7	-0.10125666
99	0x3e03c5fd	0.12868495
100	0x3e541b1f	0.20713471
101	0x3d12223d	0.035677183
102	0xbd598726	-0.053107403
103	0xbba9c3a2	-0.005180792
104	0x3e7e9f74	0.24865514
105	0x3dd4692f	0.10371625
106	0x3cece310	0.028916866
107	0xbded2315	-0.11578957
108	0x3d1faa5c	0.038980827
109	0xbd978634	-0.07398644
110	0x3d9f2cca	0.07772215
111	0x3dd9938e	0.10623847
112	0x3d7f4591	0.062322203
113	0xbe23b9e7	-0.15988885
114	0x3e3dd173	0.1853693
115	0x3db7932f	0.0896362
116	0xbce6bc53	-0.028165972
117	0xbd3d204b	-0.046173375
118	0x3db9834d	0.09058247
119	0x3dd12536	0.102121755
120	0x3e0805ef	0.13283513
121	0x3df0050d	0.11719713
122	0x3db59a02	0.08867265
123	0xbe4abbfc	-0.19798273
124	0xbd3a4da1	-0.04548419
125	0xbe1f03f5	-0.15528853
126	0x3d2e447d	0.042545784
127	0x3d49ba2b	0.04924981
128	0xbca26557	-0.019823713
129	0x3c1f6e5f	0.009730904
130	0xbdf945d6	-0.12171523
131	0xbe28a2be	-0.16468331
132	0xbe35b807	-0.17745982
133	0x3ca50fd8	0.020149156
134	0xbe864815	-0.2622687
135	0x3dde6b67	0.10860329
136	0x3e337be7	0.17527734
137	0xbe0f3586	-0.13985261
138	0x3d531d9a	0.051541902
139	0x3d9a9ce4	0.07549456
140	0xbe96e99d	-0.29475108
141	0xbda02dfa	-0.07821269
142	0xbc82b394	-0.01595477
143	0xbd1908a4	-0.037361756
144	0x3dc770cd	0.09738312
145	0xbe34f56f	-0.1767175
146	0xbe853c7b	-0.26022705
147	0xbe15de5d	-0.14635606
148	0xbe63d723	-0.22250037
149	0x3dc94b11	0.09828771
150	0x3cbd7476	0.023126822
151	0x3e083ce2	0.13304475
152	0x3e2bd1d3	0.1677926
153	0x3cd65af6	0.02616642
154	0xbcb9b4ba	-0.022669185
155	0x3d24be6a	0.040220656
156	0x3dabef81	0.08395291
157	0x3d9fa823	0.077957414
158	0xbdb9d663	-0.09074094
159	0x3e764166	0.24048385
160	0x3e45ee52	0.19329193
161	0xbd58f293	-0.05296571
162	0xbe3c8ae9	-0.18412365
163	0x3d91a103	0.07110789
164	0xbe8c04ca	-0.27347404
165	0x3d39fe8b	0.045408767
166	0xbda36f1e	-0.07980178
167	0x3d56d49f	0.052448865
168	0xbcd69a33	-0.026196575
169	0x3b0eb97c	0.0021778038
170	0xbdaaae1c	-0.0833399
171	0x3d95f955	0.07322947
172	0x3e10bcfd	0.14134593
173	0x3db1a646	0.08674292
174	0xbdb8da81	-0.09026051
175	0x3d95384a	0.07286127
176	0x3de7a2c7	0.11310344
177	0xbdcc0f55	-0.09963862
178	0xbc205a97	-0.009787223
179	0x3bd9e13f	0.006649166
180	0x3e68b169	0.22723927
181	0xbe315b76	-0.17320046
182	0xbdd7a516	-0.105295345
183	0xbea01809	-0.31268337
184	0xbe0de468	-0.13856661
185	0x3ce8b410	0.028406173
186	0xbe4d77cb	-0.20065229
187	0xbdbaa448	-0.091133654
188	0x3e1e7ced	0.15477343
189	0x3e2da7a2	0.16958478
190	0x3d71d758	0.05904326
191	0xbe768638	-0.24074638
192	0xbe3c6b48	-0.184003
193	0xbe05fbfb	-0.13084404
194	0xbdfec5c7	-0.12440067
195	0x3da7cf27	0.08193808
196	0xbe367d76	-0.17821297
197	0xbe168ff2	-0.14703348
198	0x3da16b8e	0.078818426
199	0x3dfabc1a	0.12242909
200	0xbe2a0aab	-0.16605632
201	0xbe0d8495	-0.13820107
202	0x3e18f1b8	0.14935958
203	0xbdb70939	-0.08937306
204	0x3d8cbc9d	0.06871913
205	0xbe6a2c91	-0.22868563
206	0xbda52c8f	-0.080651395
207	0x3cab0221	0.020875039
208	0xbca14343	-0.019685393
209	0xbdc48191	-0.09595025
210	0xbe24e821	-0.16104175
211	0xbe2244a4	-0.15846497
212	0xbe1dc31f	-0.15406464
213	0x3d75eb47	0.06003883
214	0xbdf52dcb	-0.11971625
215	0xbd206d43	-0.0391667
216	0x3d2e6eb3	0.04258604
217	0xbcf701a1	-0.030152144
218	0x3cceeadc	0.025258474
219	0xbdf73d03	-0.12072184
220	0x3ca5befa	0.020232666
221	0xbc415bba	-0.0118016545
222	0x3c62a347	0.013832874
223	0xbdb35643	-0.087566875
224	0x3d57d2e0	0.05269134
225	0x3b402b2e	0.0029322612
226	0xbc8c0031	-0.017089935
227	0xbdbc8f88	-0.09207064
228	0x3b6bf3d8	0.0036003496
229	0xbda432ec	-0.08017525
230	0xbe47ca5d	-0.19510789
231	0x3daebe92	0.08532442
232	0x3e395bbf	0.18101405
233	0xbc14abbd	-0.009074149
234	0x3d4f8c44	0.050670877
235	0xbe77be8c	-0.24193782
236	0xbd97da0f	-0.07414638
237	0x3dad3f17	0.08459299
238	0xbdc30171	-0.09521759
239	0xbdf6317a	-0.12021156
240	0xbdb705c0	-0.089366436
241	0x3d28a2ce	0.041170888
242	0xbe15f32a	-0.14643541
243	0x3d8f1eb0	0.06988275
244	0xbe4fae48	-0.20281327
245	0x3ca11dac	0.019667469
246	0xbdc8f38a	-0.098120764
247	0xbe179efd	-0.14806743
248	0xbb5382e6	-0.0032274066
249	0x3d1fb3ca	0.03898982
250	0xbd595871	-0.05306286
251	0xbde2c36c	-0.1107243
252	0x3e23aa29	0.1598288
253	0x3d59f9bc	0.05321668
254	0xbd49e75e	-0.049292915
255	0x3df80bda	0.121116355

conv1.att_dst f4 [1, 4, 64]
0	0x3c87b84e	0.016567376
1	0x3d213996	0.03936156
2	0xbcf983f3	-0.030458426
3	0xbbfb9498	-0.007677626
4	0x3d8c8fe4	0.068633825
5	0xbca099b7	-0.019604547
6	0x3d507d5b	0.0509008
7	0xbcc44f01	-0.023963453
8	0x3d9c8aed	0.076436855
9	0x38205b45	3.8231974e-05
10	0xbc83c801	-0.01608658
11	0xbd3ed23e	-0.04658722
12	0x3d93ef21	0.072233446
13	0x3d2163f9	0.039401982
14	0x3bfad701	0.007655025
15	0x3c9409f0	0.018071145
16	0x3be28b2e	0.006913564
17	0xbe48d0b7	-0.19610868
18	0x3d3f99c4	0.0467775
19	0xbcb82c63	-0.022482103
20	0xbd0c6a9d	-0.03428136
21	0x3c3411b4	0.010990549
22	0x3de8342a	0.113380745
23	0x3d592c53	0.053020786
24	0x3c34faa7	0.011046088
25	0xbd0f5066	-0.034988783
26	0xbd1f4468	-0.038883597
27	0xbd070004	-0.032959
28	0x3dcccc4d	0.09999905
29	0xbd12ba9c	-0.035822496
30	0xbd436990	-0.047708094
31	0xbcbf522d	-0.023354614
32	0xbda82dac	-0.08211836
33	0x3d3bf448	0.04588726
34	0x3bf6742d	0.0075211735
35	0x3cd3a08a	0.025833387
36	0xbda072c7	-0.07834392
37	0x3cbdfe39	0.023192512
38	0x3d7a81f0	0.061159074
39	0xbe13351c	-0.14375728
40	0x3d8368b5	0.06416456
41	0x3c20b23b	0.009808118
42	0x3bab10a5	0.00522049
43	0x3dc69042	0.09695484
44	0x3b99486b	0.0046778223
45	0x3d758c54	0.05994828
46	0xbcb6569e	-0.0222581
47	0xbebdff9b	-0.37109074
48	0x3c9bb28b	0.019006034
49	0xbc88736b	-0.016656598
50	0xbc9c273c	-0.019061677
51	0x3d876d26	0.06612615
52	0x3e0aa4d8	0.13539445
53	0xbdd6bf64	-0.104857236
54	0xbd50a9c0	-0.050943136
55	0x3cc69004	0.024238594
56	0xbd8673f5	-0.06565086
57	0x3cd66004	0.02616883
58	0xbd1cfc97	-0.038326826
59	0x3d9475ee	0.07249056
60	0x3c81f2c3	0.015862828
61	0xbc4c68ac	-0.012476128
62	0x3d027038	0.0318453
63	0xbcedb9b8	-0.029019222
64	0x3e3e2a06	0.18570718
65	0xbd077c09	-0.033077274
66	0xbd69bf6e	-0.057067327
67	0x3d9ed261	0.0775497
68	0xbe3c7e1f	-0.18407486
69	0xbd890d75	-0.0669202
70	0x3e2eb94e	0.17062876
71	0x3dcb5b05	0.0992947
72	0xbcdc8a19	-0.026921319
73	0xbe073173	-0.13202457
74	0xbc0c46c5	-0.008561795
75	0xbc3a8a4f	-0.011385514
76	0xbcdd5948	-0.027020112
77	0xbaf34959	-0.0018561288
78	0x3e40837f	0.18800162
79	0xbdc428eb	-0.09578117
80	0x3d301f51	0.042998616
81	0x3d682ea8	0.05668512
82	0x3e61afda	0.22039738
83	0xbd3133f3	-0.043262433
84	0x3c17fc58	0.009276472
85	0xbcaf197a	-0.021374453
86	0x3da33079	0.0796823
87	0x3c54b90c	0.012983572
88	0x3e08b376	0.13349709
89	0xbd068d82	-0.032849796
90	0x3df25278	0.11832136
91	0xbd7939dc	-0.060846195
92	0xbdba1710	-0.0908643
93	0xbd3da333	-0.046298217
94	0xbda3120f	-0.07962429
95	0x3c1bc3bb	0.009507115
96	0xbd8f3ac2	-0.06993629
97	0xbe02ba29	-0.12766327
98	0x3d3d25b1	0.046178523
99	0x3d4e49ad	0.05036323
100	0x3d180d03	0.037121784
101	0xbd898a73	-0.0671586
102	0x3d87e64d	0.06635723
103	0x3d04335e	0.03227555
104	0xbe81b1c4	-0.25330937
105	0x3d3d8672	0.046270795
106	0xbe117e7b	-0.14208405
107	0xbcd50210	-0.02600196
108	0x3b4ea532	0.003153157
109	0x3d4707fa	0.04859159
110	0x3d05e04f	0.03268462
111	0xbcade15e	-0.021225628
112	0x3d22efcd	0.039779473
113	0x3d968d23	0.073511384
114	0x3ccbee80	0.024894
115	0xbdc14e97	-0.09438818
116	0x3d078428	0.03308502
117	0x3e4d3cab	0.20042674
118	0x3d8e927a	0.06961532
119	0x3e30e227	0.1727377
120	0xbd13b47f	-0.036060806
121	0x3e6eba5d	0.2331328
122	0x3df1c476	0.1180505
123	0x3d2e3632	0.042532153
124	0xbdc7925a	-0.09744711
125	0x3d1af4ba	0.037831046
126	0xbdd0bc58	-0.10192174
127	0xbda5200e	-0.080627546
128	0xbdafb1fb	-0.08578869
129	0xbe4792c8	-0.19489586
130	0xbdbed127	-0.093172364
131	0xbe5a1cc7	-0.2130004
132	0xbd62c9ac	-0.05536811
133	0x3cc4e55a	0.024035145
134	0xbcea4f40	-0.028602242
135	0xbcbf7e4f	-0.023375658
136	0x3d859c25	0.06523923
137	0xbe0be55b	-0.13661711
138	0x3daa3492	0.08310808
139	0x3cf260a8	0.029587105
140	0xbe1b0188	-0.15137303
141	0x3c78753b	0.015164669
142	0xbd1a114a	-0.037614144
143	0x3e02dd1d	0.1277966
144	0x3e07fcfd	0.13280101
145	0xbd164bad	-0.036693264
146	0x3d9480ae	0.07251106
147	0xbd9dd7f4	-0.077072054
148	0xbd196c33	-0.037456702
149	0x3d5950f0	0.053055704
150	0xbda83b01	-0.08214379
151	0x3cc38524	0.023867197
152	0xbdbd5cf4	-0.09246245
153	0x3e11976e	0.14217922
154	0xbdb0bad4	-0.08629385
155	0xbd774ed1	-0.0603779
156	0x39e028d1	0.0004275502
157	0xbd92e933	-0.071733855
158	0xbda91297	-0.08255499
159	0x3e1a8e5f	0.15093373
160	0x3b4481b1	0.0029984529
161	0x3d849ee8	0.064756215
162	0xbcf3b778	-0.02975057
163	0x3cad3294	0.021142282
164	0xbe0b0ff0	-0.13580298
165	0xbdf5cc18	-0.120018184
166	0x3d9a439c	0.07532427
167	0xbdc7a74c	-0.09748706
168	0xbcb4dff9	-0.022079455
169	0xbe058c6a	-0.13041845
170	0xbcb5cecc	-0.022193335
171	0x3cc7022e	0.024293032
172	0x3d1883fe	0.037235253
173	0xbdfdf014	-0.12399307
174	0xbc61597d	-0.013754246
175	0x3d33cb9a	0.04389534
176	0x3b0b064e	0.0021213475
177	0xbd47c161	-0.048768405
178	0x3c6b99a5	0.014379893
179	0xbd3c0d7a	-0.04591129
180	0x3d9348aa	0.07191594
181	0x3cd243eb	0.025667151
182	0x3d1bd43a	0.038044192
183	0xbbfb9817	-0.0076780426
184	0x3c92cb0a	0.017919082
185	0x3cb37c42	0.021909837
186	0x3c6aff2f	0.014343067
187	0xbe2efe3e	-0.17089173
188	0x3db94f8f	0.09048378
189	0xbd96c03d	-0.07360885
190	0x3bdf49f5	0.0068142363
191	0xbddaf5b8	-0.106913984
192	0xbd301953	-0.0429929
193	0x3c0c23d1	0.008553461
194	0xbd8aba79	-0.06773848
195	0x3e0183e8	0.12647974
196	0x3d4aec60	0.04954183
197	0x3dc9af15	0.09847847
198	0x3d24db9e	0.040248506
199	0xbd931a95	-0.071828045
200	0xbdc54a9f	-0.096333735
201	0xbda6dd2f	-0.08147656
202	0xbd808907	-0.06276136
203	0x3d075dc9	0.033048425
204	0xbe2c2376	-0.16810402
205	0xbb542d67	-0.0032375695
206	0x3d0a1ac5	0.033716936
207	0xbb9324b8	-0.004490461
208	0x3cc4bce7	0.024015857
209	0x3c9e11fb	0.019295683
210	0x3c4d38f4	0.012525786
211	0x3d090cc9	0.03345946
212	0x3dfb2685	0.122632064
213	0xbd28fcd6	-0.04125675
214	0xbdfbaa63	-0.12288358
215	0x3cf353b5	0.029703
216	0xbe221634	-0.15828782
217	0xbcc3559f	-0.023844538
218	0x3e546aa9	0.20743813
219	0x3db5a89b	0.088700496
220	0xbd99a6b9	-0.07502503
221	0x3c2c99a2	0.010534676
222	0xbd89af46	-0.06722884
223	0xbea3ad7d	-0.319683
224	0xbd37cc1d	-0.044872392
225	0xbdb20610	-0.086925626
226	0xbb97548e	-0.004618234
227	0x3de5dd06	0.112237975
228	0xbd43391d	-0.04766189
229	0x3d04f430	0.032459438
230	0x3c93ca87	0.018040909
231	0x3d2b29ae	0.041787796
232	0x3b9cfa72	0.0047905976
233	0xbdba2469	-0.09088976
234	0xbe1c201d	-0.15246625
235	0x3ccdf179	0.025139557
236	0x3d59d7e9	0.053184424
237	0xbdd3e131	-0.10345686
238	0xba7c670b	-0.00096283917
239	0x3d84947e	0.06473635
240	0xbe5b48ab	-0.2141444
241	0xbcd33689	-0.02578284
242	0xbd68f4cb	-0.056874078
243	0x3c3bd815	0.011465092
244	0xbdd95798	-0.1061241
245	0x3b9329a9	0.0044910503
246	0x3d4e21c0	0.050325155
247	0xbccbb2e9	-0.024865584
248	0xbc7577ee	-0.014982207
249	0xbd234712	-0.0398627
250	0xbdaa8241	-0.08325625
251	0xbbe7849a	-0.007065368
252	0x3d3462e1	0.04403961
253	0xbdcef45c	-0.101052016
254	0xbe9239d4	-0.28559744
255	0xbd34e67f	-0.04416513

conv1.bias f4 [256]
0	0xbd07e701	-0.033179287
1	0x3da39635	0.07987634
2	0xbc66e47c	-0.014092561
3	0xbcdc94a2	-0.026926342
4	0x3da3bcee	0.0799502
5	0xbb84449e	-0.0040365
6	0x3d1ad945	0.03780486
7	0xbaa138a9	-0.0012300211
8	0x3dc00f50	0.09377921
9	0x3d5d7177	0.054063287
10	0x3d427473	0.047474336
11	0x3da45259	0.08023519
12	0x3d982275	0.07428447
13	0x3da6cc12	0.08144392
14	0x3ceb4035	0.02871714
15	0x3dcaac2f	0.09896123
16	0xbcbc3659	-0.022975134
17	0x3d902404	0.070381194
18	0x3dab852f	0.08375012
19	0x3d81f90a	0.063463286
20	0x3db30c4e	0.08742581
21	0x3d8cfbe8	0.06883985
22	0xbd5b43c2	-0.053531416
23	0xbd288e55	-0.041151363
24	0x3ce905f3	0.02844522
25	0xbcf1db64	-0.029523559
26	0x3cb43388	0.021997228
27	0xbd0d2095	-0.0344549
28	0x3cb95e08	0.022627845
29	0x3c92f787	0.017940296
30	0x3d70b48a	0.058765925
31	0xbccf1cb6	-0.025282245
32	0x3d7883b3	0.060672473
33	0xbcecc073	-0.02890036
34	0x3d9a49d6	0.07533614
35	0x3d059eb0	0.03262204
36	0x3d8f418f	0.06994926
37	0xbba9da8d	-0.005183524
38	0x3dd83379	0.10556693
39	0x3da92dde	0.082607016
40	0x3d66dbfa	0.05636213
41	0x3d639b75	0.055568177
42	0x3c8b526f	0.01700708
43	0x3d1038e0	0.03521049
44	0xbd303cd4	-0.04302676
45	0xbb81e6b8	-0.0039642714
46	0x3d6d85f1	0.057989065
47	0x3d62e782	0.055396564
48	0xbcacb264	-0.021081157
49	0xbd4339cb	-0.047662538
50	0xbd213a74	-0.039362386
51	0x3d76e459	0.060276363
52	0xbcdf42a8	-0.027253464
53	0x3da0ee40	0.078579426
54	0x3d00fe22	0.03149236
55	0x3cbf9f69	0.023391442
56	0x3dbb3116	0.09140222
57	0x3dd2a1e8	0.102847874
58	0x3d863c58	0.065544784
59	0x3d74967c	0.059713826
60	0xbd90a592	-0.0706283
61	0xbc8111c2	-0.015755538
62	0x3db79bb7	0.08965247
63	0x3d2e9c31	0.042629424
64	0xbd5129d9	-0.0510653
65	0x3dad165b	0.084515296
66	0x3d950ec1	0.07278205
67	0x3c5a2913	0.013315457
68	0x3d9972fb	0.07492634
69	0x3c5a4b16	0.013323566
70	0x3d255216	0.040361486
71	0x3d4ddccf	0.050259408
72	0xb9f6a67d	-0.0004704482
73	0x3da39ed0	0.079892755
74	0x3dcaf5fc	0.09910199
75	0x3d683e12	0.05669982
76	0xbce09311	-0.027413877
77	0x3d9e1e8e	0.077206716
78	0x3dc8586b	0.097824894
79	0xbc895fd0	-0.01676932
80	0x3d9f95af	0.07792222
81	0x3db84702	0.08997919
82	0xbbcc9790	-0.0062436536
83	0x3d9e1ece	0.07720719
84	0x3d9d152c	0.07670054
85	0x3cbec42d	0.023286903
86	0x3da7a27b	0.081852876
87	0x3db56a74	0.08858195
88	0x3dcc15a1	0.09965063
89	0x3d7081b4	0.058717445
90	0x3de6ce4a	0.11269815
91	0x3caf7049	0.021415846
92	0xbd49c9d2	-0.049264736
93	0xbca71aa4	-0.020398445
94	0xbc4ee02c	-0.012626689
95	0x3d6036c5	0.054739732
96	0x3d5901fe	0.052980416
97	0x3b2a0e25	0.0025948372
98	0x3d9808da	0.07423563
99	0x3dcb638f	0.09931099
100	0x3dda8eff	0.106718056
101	0x3dacede1	0.08443809
102	0x3d9873d5	0.07443968
103	0xba6ee344	-0.0009112845
104	0x3d9470ad	0.07248054
105	0x3db44cbc	0.088036984
106	0xbd5b9616	-0.05360993
107	0x3dbfc02e	0.09362827
108	0x3d756794	0.059913233
109	0xbadc7ee2	-0.0016822482
110	0x3d6d12dc	0.057879314
111	0xbc8e8b24	-0.017400332
112	0x3d9ba9d4	0.076007515
113	0x3d450e40	0.048109293
114	0x3dfd4e68	0.123684704
115	0x3d4bf579	0.049794648
116	0xbd2d7dc9	-0.042356286
117	0xbd0e3de9	-0.03472701
118	0xbb2b3fcd	-0.0026130558
119	0x3dace33f	0.08441781
120	0x3d2ad897	0.041710462
121	0x3dac4425	0.08411435
122	0x3d2e35e2	0.042531855
123	0x3d9599f4	0.07304755
124	0x3cadc16e	0.021210399
125	0x3d186970	0.037209928
126	0x3d9adb96	0.07561414
127	0x3db4650d	0.088083364
128	0x3d4c1ce9	0.04983226
129	0x3ca5d0a2	0.020241085
130	0xbd5db73f	-0.054129835
131	0x3cd861d6	0.02641384
132	0x3d5f58ac	0.054527923
133	0x3d8ac0b0	0.067750335
134	0x3d22ad64	0.03971614
135	0xbd83ba8d	-0.06432066
136	0xbd6dc748	-0.058051378
137	0xbd2969b2	-0.041360565
138	0xbd0a0a68	-0.03370133
139	0x3d654747	0.05597618
140	0x3d0e78b0	0.034783065
141	0x3d499255	0.04921182
142	0xbcaea108	-0.02131702
143	0xbc7509ed	-0.01495598
144	0xbd50f635	-0.05101605
145	0xbd3f8a62	-0.04676283
146	0x3d25663c	0.0403807
147	0xbc080d7b	-0.008303995
148	0xbcacd585	-0.021097908
149	0xbd3304e3	-0.043705832
150	0xbd23e121	-0.04000962
151	0x3d966832	0.073440924
152	0x3cd404f4	0.025881268
153	0x3c9a30ad	0.018822039
154	0x3d11f249	0.03563145
155	0xbc6b4520	-0.014359742
156	0x3d04b564	0.03239955
157	0xbd549074	-0.051895574
158	0x3d8519b1	0.06499041
159	0x39bfe3e8	0.00036600162
160	0x3d27d1d0	0.040971577
161	0x3c28ddf9	0.010306829
162	0x3d4b18cb	0.04958419
163	0xbd27b6d9	-0.04094586
164	0xbc7acca9	-0.015307584
165	0x3d7cd228	0.061723858
166	0xbcdb89db	-0.026799133
167	0xbb0f956e	-0.0021909135
168	0x3d6c48e1	0.05768669
169	0xbb51c25c	-0.0032006716
170	0xbd0d9078	-0.034561604
171	0xbd1f2132	-0.038850017
172	0xbd0e7450	-0.034778893
173	0xbd25b9e0	-0.040460467
174	0x3d3fb06e	0.046799116
175	0x3c53d931	0.0129302
176	0x3d8890f4	0.066682726
177	0xbcf71f52	-0.030166302
178	0xbd452a4c	-0.04813604
179	0x3d8a026a	0.06738742
180	0xbd4b94f6	-0.049702607
181	0x3d628940	0.055306673
182	0x3cb9732c	0.022637926
183	0x3d756ba0	0.059917092
184	0x3d1110bb	0.035416346
185	0x3d000a31	0.03125972
186	0x3d6b02d7	0.057375755
187	0x3d88c251	0.06677688
188	0xbd2cc85d	-0.04218327
189	0x3d74eba3	0.059795033
190	0x3da0af81	0.07845975
191	0x3da7bf1d	0.08190749
192	0xbd433fca	-0.047668256
193	0x3d85cb70	0.06532943
194	0x3d5dc760	0.054145217
195	0xbd4a4154	-0.049378708
196	0x3dcf1297	0.101109676
197	0x3d7adc28	0.061245114
198	0xbd2fbdb9	-0.042905543
199	0x3d85931c	0.065221995
200	0x3d23e00a	0.040008582
201	0x3d96e249	0.07367379
202	0x3dd49807	0.103805594
203	0x3b2a46e5	0.0025982198
204	0x3cf569df	0.02995771
205	0x3d280bdd	0.04102694
206	0xbd15b2bb	-0.036547404
207	0xbcdc4a9b	-0.026891043
208	0xbce0020f	-0.027344732
209	0xbcad6856	-0.021167915
210	0xbc9eb372	-0.019372676
211	0xbcd12a88	-0.025532976
212	0x3d3a6848	0.045509607
213	0x3c17602e	0.00923924
214	0xbd0bb6a0	-0.03410971
215	0x3cf75251	0.030190619
216	0x3d8e89e5	0.06959895
217	0x3d01b9d5	0.031671364
218	0xbd388310	-0.045046866
219	0x3d3480f9	0.04406831
220	0xbd25ee04	-0.040510193
221	0xbd62b5f5	-0.05534931
222	0x3d8d49b9	0.06898827
223	0xbb774325	-0.003772923
224	0xbbf56b5b	-0.0074896044
225	0x3d638b88	0.05555299
226	0x3d2e5330	0.042559803
227	0x3d4429b7	0.047891345
228	0xbd2ffc2d	-0.042965103
229	0xbd661157	-0.05616888
230	0x3d903911	0.070421346
231	0x3d9d76b6	0.07688658
232	0xbcf02702	-0.029315475
233	0xbd4a2ebc	-0.049360976
234	0xbd38c84c	-0.045112893
235	0xbd5a475c	-0.05329071
236	0xbc04fcb1	-0.008116887
237	0x3d6b4052	0.057434388
238	0xbd15e101	-0.036591534
239	0xbc33cdba	-0.010974342
240	0xbbb81442	-0.0056176493
241	0x3d351faf	0.04421967
242	0x3ccdd7f7	0.025127394
243	0xbd550cdf	-0.052014228
244	0x3a17a9dd	0.00057855045
245	0x3c4e635d	0.012596932
246	0x3c15fbc9	0.009154269
247	0xbcd7154b	-0.02625527
248	0x3d68b984	0.056817546
249	0x3d5785eb	0.05261795
250	0x3d849dea	0.06475432
251	0xbd69300e	-0.056930594
252	0x3d86a531	0.065744765
253	0x3d8ab2ed	0.06772409
254	0xbccf6027	-0.025314404
255	0xbce30b7f	-0.027715443

conv1.lin.weight f4 [256, 182]
0	0xbd83cc3f	-0.06435441
1	0xbcdbbd04	-0.026823528
2	0xbc8b08f3	-0.01697204
3	0xbd067410	-0.03282553
4	0xbcf2bfa2	-0.029632393
5	0xbd7b7377	-0.061389413
6	0x3a8724e0	0.0010310672
7	0x3d0e72d5	0.03477748
8	0xbd5ed691	-0.054403845
9	0xbc4ea042	-0.012611451
10	0xbd290db0	-0.04127282
11	0x3b47041c	0.003036744
12	0x3c5b4d74	0.0133851655
13	0xbc3b1613	-0.011418837
14	0xbb82951d	-0.003985061
15	0xbc294514	-0.010331411
16	0xbd2c8aaa	-0.042124428
17	0xbd9b9e3f	-0.075985424
18	0x3d2f8329	0.042849693
19	0x3d7a7ba9	0.061153088
20	0x3d4f1ce2	0.050564654
21	0xbc5610b2	-0.013065504
22	0xbc0a1190	-0.008427039
23	0x3c3c4a10	0.011492267
24	0x3cc01c47	0.023450984
25	0x3cf2aac0	0.029622436
26	0x3d150fab	0.036391895
27	0xbc9d343e	-0.01918995
28	0xbc8e5c24	-0.01737792
29	0xbc6e0baf	-0.014529153
30	0xbbc173ca	-0.0059036957
31	0x3cb0b3bf	0.021570085
32	0x3d046abf	0.032328364
33	0xbce6068f	-0.0280793
34	0xbbd22862	-0.0064135054
35	0xbbbe4057	-0.0058060098
36	0xbb8aeac7	-0.0042394134
37	0xbc87a979	-0.016560303
38	0xbc3a3038	-0.011364035
39	0xbc8520a1	-0.01625091
40	0xbcf979d8	-0.030453607
41	0xbcf3b7f5	-0.029750803
42	0xbbfd66ae	-0.0077331876
43	0x3d100696	0.03516253
44	0x3aabfe98	0.001312214
45	0xbcad55f8	-0.021159157
46	0xbb5a53e5	-0.0033314165
47	0xbc920e32	-0.017829034
48	0xbcfd207e	-0.030899283
49	0x3d04d235	0.03242703
50	0xbcce43e0	-0.02517885
51	0xbd1b8eb1	-0.037977878
52	0x3bd5277e	0.006504952
53	0x3b131f07	0.0022448914
54	0x3c2ea320	0.010659009
55	0x3c8bbc0f	0.017057447
56	0x3b36db1c	0.0027901595
57	0xbc43929b	-0.011936809
58	0x3c9fbf22	0.019500319
59	0xbca3d08c	-0.019996904
60	0xbb062c55	-0.0020473201
61	0x3d262cc5	0.04057004
62	0x3d3174d8	0.04332432
63	0xbc07a6eb	-0.008279542
64	0xbc54892b	-0.0129721565
65	0xbb387a0a	-0.0028148913
66	0x3a368a61	0.0006963369
67	0x3d1688c3	0.03675152
68	0x3d0b71f0	0.034044206
69	0xbc3f612e	-0.011680884
70	0xbc5a7eb3	-0.0133358715
71	0xbc05310d	-0.00812937
72	0xbb898e75	-0.0041978904
73	0xbc9f36be	-0.019435283
74	0xbd3850ed	-0.04499905
75	0xbd75dc50	-0.06002456
76	0xbce20926	-0.027592253
77	0xbd37621c	-0.0447713
78	0xbd0a2533	-0.033726882
79	0x3c84e102	0.016220573
80	0xbcd2b092	-0.02571896
81	0xbcd93106	-0.026512634
82	0xbca5db73	-0.020246243
83	0xbcd9b323	-0.026574677
84	0xbcdcce0e	-0.026953723
85	0x3c0993a5	0.008397018
86	0xbd0a3f28	-0.033751637
87	0xbcb47f12	-0.022033248
88	0xbd59fccf	-0.053219613
89	0xbcbf1dfc	-0.023329727
90	0xbcf59e71	-0.029982777
91	0x3c876eba	0.01653229
92	0xbbe6567d	-0.007029353
93	0x3d61b752	0.05510647
94	0xbd5a0de2	-0.053235896
95	0xbd56bc91	-0.052425925
96	0xbcebe37d	-0.028794998
97	0xbb038bc4	-0.002007232
98	0xbc017f1f	-0.007903843
99	0x3ca14428	0.01968582
100	0x3c84582c	0.016155325
101	0x3c9a76cf	0.01885548
102	0x3cec49a1	0.028843703
103	0xbd1e70db	-0.038681846
104	0xbd0aaf2e	-0.03385847
105	0xbcaf3fb5	-0.021392683
106	0xbd16d7fd	-0.036827076
107	0xbcfecaff	-0.031102655
108	0xbb8701de	-0.0041200956
109	0xbd28e320	-0.04123223
110	0xbcaa27a6	-0.020770859
111	0x3c8a3ada	0.016873766
112	0xbc9051b8	-0.017617092
113	0xbd2ec2d4	-0.04266627
114	0x3cb2ca91	0.021825107
115	0xbd16733d	-0.036730994
116	0xbd3ee25e	-0.0466026
117	0xbd1e1689	-0.03859571
118	0xbd560b2c	-0.052256748
119	0xbd745db8	-0.05965969
120	0xbc49746e	-0.012295825
121	0xbc3712ed	-0.011173946
122	0x3c12752f	0.008939072
123	0xbd17295c	-0.036904678
124	0x3a64330c	0.00087051163
125	0x3cdc3d37	0.026884658
126	0xbce48b95	-0.02789859
127	0xbc45d986	-0.012075787
128	0xbc8e6596	-0.017382424
129	0x3ce0b2bb	0.027428975
130	0xbca213ab	-0.019784769
131	0xbca98ec9	-0.020697968
132	0xbcb209d3	-0.0217332
133	0x3c53f1c2	0.0129360575
134	0xbc1454e8	-0.009053446
135	0x3c6736a2	0.014112147
136	0x3c978443	0.018495684
137	0xbc495293	-0.012287754
138	0xbc06beb6	-0.00822418
139	0xbcd5e1a4	-0.02610857
140	0xbc26b67a	-0.010175342
141	0x3c855a8b	0.016278526
142	0xbda0dccc	-0.07854614
143	0xbd89e71f	-0.06733536
144	0xbd5325fc	-0.051549897
145	0xbbaa281a	-0.0051927688
146	0xbd255efc	-0.040373787
147	0x3cd55ebb	0.026046148
148	0xbc4a5284	-0.012348775
149	0xbd0e5177	-0.03474566
150	0x3cc657be	0.02421176
151	0xbcb10f97	-0.02161388
152	0x3b687f05	0.00354761
153	0x3d35eb6b	0.044413965
154	0xbd9106a5	-0.070813455
155	0xbd94884c	-0.07252559
156	0xbd377cc4	-0.04479672
157	0xbd193ffd	-0.03741454
158	0x3b9455d0	0.004526831
159	0xbd385f7f	-0.045012947
160	0xbc8fd7c8	-0.017558947
161	0xbd026c69	-0.03184167
162	0xbd45974c	-0.04823999
163	0xbcddee5f	-0.027091203
164	0xbd1a4168	-0.037660033
165	0xbc944448	-0.018098965
166	0xbd9826c0	-0.07429266
167	0xbca04bac	-0.019567333
168	0xbc27615e	-0.010216085
169	0xbd1b04cd	-0.037846375
170	0xbd44e07b	-0.048065644
171	0xbd2eb94a	-0.042657174
172	0xbc7c6736	-0.015405467
173	0x3d4be439	0.049778197
174	0x3dc63fe0	0.09680152
175	0xbd3d07e0	-0.04615009
176	0xbccc9f8a	-0.024978418
177	0xbbde79ad	-0.006789407
178	0x3d00c1a4	0.03143467
179	0x3d913210	0.07089627
180	0xbd048d65	-0.032361407
181	0xbc762bb1	-0.015025065
182	0xbdb299d4	-0.08720747
183	0xbca1cc01	-0.019750597
184	0xbbb3b333	-0.0054840087
185	0xbd41ca11	-0.047311846
186	0x3d44c9cc	0.04804401
187	0xbcf2f74f	-0.029658942
188	0xbda8e2e0	-0.08246398
189	0xbbb514d2	-0.0055261636
190	0xbd393a7b	-0.045221787
191	0xbcfb9741	-0.030711772
192	0xbd32b4bb	-0.04362939
193	0x3a55414b	0.00081350346
194	0x3cd25309	0.02567436
195	0x3c790688	0.015199311
196	0xbb23a1c5	-0.0024968248
197	0xbd771b01	-0.060328487
198	0xbc3d9d4a	-0.011573145
199	0xbda85496	-0.082192585
200	0xbd812629	-0.063061066
201	0xbc8427dc	-0.016132288
202	0xbd8f01a0	-0.06982732
203	0xbb7b84a4	-0.003837862
204	0xbc97c39d	-0.018525893
205	0xbc8462cb	-0.01616039
206	0xbd11eef2	-0.035628267
207	0xbd06e1cf	-0.03293019
208	0xbd3fb052	-0.04679901
209	0xbbeb8897	-0.0071879136
210	0xbccdaec7	-0.025107754
211	0xbca02892	-0.019550595
212	0xbc9400ca	-0.018066783
213	0xbcbc312f	-0.022972671
214	0xbce20ac0	-0.027593017
215	0xb9b95adc	-0.00035353645
216	0xba8d550d	-0.0010782793
217	0xbbb53148	-0.0055295564
218	0x3c24abf7	0.010050765
219	0xbd1c9c96	-0.03823527
220	0xbcfb09c3	-0.030644303
221	0xbd7aa30b	-0.061190646
222	0xbd1513b5	-0.036395747
223	0xbc52fd90	-0.012877837
224	0xbd695307	-0.056963947
225	0xbd7c7b54	-0.061641052
226	0xbd4a90bb	-0.049454432
227	0xbd61c2a7	-0.055117276
228	0xbd320865	-0.043465037
229	0xbcc3dc1a	-0.023908664
230	0xbd766ba6	-0.060161255
231	0xbd185448	-0.037189752
232	0xbd00cb57	-0.03144392
233	0xbcb08018	-0.021545455
234	0xbd01d748	-0.03169945
235	0x3ce705f4	0.02820108
236	0xbc97bf64	-0.01852388
237	0xbd865a81	-0.06560231
238	0xbd603c8b	-0.05474524
239	0x3cd23354	0.02565924
240	0xbbd52b6c	-0.0065054204
241	0xbcec6ed9	-0.02886145
242	0xbc92a15f	-0.017899213
243	0xbcb62f13	-0.022239244
244	0xbcf07e94	-0.029357232
245	0x3c94e104	0.018173702
246	0xbd298c13	-0.04139335
247	0xbd05e4ba	-0.032688834
248	0xbcd05cb9	-0.025434839
249	0x3c8ab7af	0.01693329
250	0xbce78d2b	-0.028265556
251	0x3cfa784c	0.03057494
252	0xbcc9bf7e	-0.024627443
253	0xbcd14696	-0.025546353
254	0xbcff5171	-0.031166764
255	0xbd0d530f	-0.03450304

conv2.att_src f4 [1, 1, 64]
0	0x3b8ec2e7	0.0043567303
1	0x3e3a8404	0.18214422
2	0x3cce5350	0.02518621
3	0x3e56322c	0.20917577
4	0xbe0dda07	-0.13852702
5	0xbd66ae49	-0.056318555
6	0x3dbbba75	0.09166423
7	0x3e43b618	0.19112432
8	0x3e12b1ff	0.14325713
9	0xbdca2579	-0.098704286
10	0x3d01a288	0.031649143
11	0xbdc0a529	-0.09406502
12	0xbe651fd4	-0.22375423
13	0x3c12c966	0.00895915
14	0x3ddb8c9c	0.107201785
15	0x3e23d7cc	0.16000289
16	0xbe1a5029	-0.15069641
17	0x3d4756bc	0.0486667
18	0x3e2b23de	0.16712901
19	0xbd99dc31	-0.07512701
20	0x3d0f3f0c	0.034972236
21	0x3e2d82ac	0.16944379
22	0xbbe16542	-0.006878526
23	0xbe026e6a	-0.12737432
24	0x3de9bb5d	0.1141269
25	0x3e1613dd	0.14656015
26	0x3e86e773	0.26348457
27	0x3d17033e	0.036868326
28	0xbe28f3ce	-0.16499254
29	0xbe652d15	-0.22380479
30	0xbde6d88c	-0.11271772
31	0x3cbf66a8	0.02336438
32	0x3e3ceae3	0.18448977
33	0xbccc35df	-0.024928031
34	0x3d2b8150	0.04187137
35	0x3c4aa141	0.0123675475
36	0xbe2abee8	-0.16674387
37	0xbe21e73d	-0.15810867
38	0x3e27e29a	0.16395035
39	0xbdb29687	-0.08720117
40	0xbe0e2d82	-0.13884547
41	0xbdf0672a	-0.11738427
42	0x3c246b30	0.010035321
43	0xbe187ef0	-0.14892173
44	0xbdccd9e8	-0.100025
45	0x3cc71e67	0.02430649
46	0xbdb45597	-0.088053875
47	0x3d96729f	0.07346081
48	0xbdc34e21	-0.09536386
49	0xbceb66cb	-0.028735539
50	0x3e7cd5f6	0.24690995
51	0x3d258092	0.040405817
52	0xbdc62b2c	-0.09676203
53	0xbd906ede	-0.07052396
54	0x3ddbe49f	0.107369654
55	0x3db3624d	0.08758984
56	0x3e08f96b	0.13376395
57	0xbdca97e9	-0.09892256
58	0xbdb366ee	-0.08759867
59	0x3e16de67	0.14733277
60	0xbbe2c9b5	-0.006921018
61	0x3e36c530	0.17848659
62	0x3d8409f3	0.0644721
63	0x3d21ba23	0.039484154

conv2.att_dst f4 [1, 1, 64]
0	0x3e367fb0	0.17822146
1	0xbcb5944f	-0.022165446
2	0x3e38e846	0.18057355
3	0xbcc66f69	-0.024223046
4	0xbe031062	-0.12799218
5	0x3d04acfa	0.032391526
6	0xbc6eb249	-0.014568874
7	0x3d0ec5b9	0.03485653
8	0xbca82609	-0.02052595
9	0x3cfe2cde	0.031027254
10	0x3d54e056	0.051971756
11	0x3d7f6b9a	0.062358476
12	0x3e5d9366	0.2163826
13	0xbe097ca2	-0.1342645
14	0xbc885852	-0.016643677
15	0xbddad17a	-0.10684486
16	0x3c1cae4c	0.00956304
17	0x3de94e9a	0.11391945
18	0x3df2829a	0.118413165
19	0xbd0c57ce	-0.034263425
20	0x3d910172	0.07080354
21	0x3e067f32	0.13134459
22	0x3d80d368	0.062903225
23	0xbd2f82b4	-0.042849258
24	0xbcde5bf7	-0.027143462
25	0xbdb3ea16	-0.08784883
26	0x3e8117e6	0.25213546
27	0xbcf86507	-0.030321611
28	0x3d2759a9	0.04085699
29	0x3bbf042c	0.0058293547
30	0xbd5ce9af	-0.053933796
31	0x3da832fe	0.08212851
32	0x3ad73804	0.0016419892
33	0xbc08dc98	-0.008353375
34	0x3de90f92	0.11379923
35	0x3bf898fe	0.0075865975
36	0xbe027060	-0.1273818
37	0x3dc1957d	0.09452341
38	0x3dcbfca9	0.099603005
39	0x3dca2f82	0.09872343
40	0x3da4acf4	0.08040801
41	0xbd7680de	-0.06018149
42	0xbd681de1	-0.05666912
43	0x3dfd2600	0.123607635
44	0x3ca3e343	0.020005828
45	0xbc077345	-0.0082672285
46	0x3d56d0eb	0.052445333
47	0x3c9eb2ee	0.01937243
48	0x3d4c1d9e	0.049832933
49	0x3a881642	0.001038261
50	0xbd07f0df	-0.033188697
51	0xbcd5346a	-0.02602597
52	0x3dcd3fee	0.10021959
53	0x3d7dce3f	0.06196427
54	0xbd858dea	-0.065212086
55	0x3deef755	0.116682686
56	0x3d9e2855	0.077225365
57	0xbe1bc29c	-0.15210956
58	0xbe3ec96e	-0.18631527
59	0xbdbbfa71	-0.09178627
60	0xbc1ed232	-0.009693669
61	0x3ddceab2	0.10786952
62	0xbd8db396	-0.06919019
63	0x3e01517d	0.12628742

conv2.bias f4 [64]
0	0x3e551d1d	0.20811887
1	0xbde6f407	-0.11277013
2	0xbdb41ffe	-0.087951645
3	0x3e63e190	0.22254014
4	0x3e656695	0.22402413
5	0xbdf8a805	-0.12141422
6	0x3e845552	0.25846344
7	0x3ae9a643	0.0017826039
8	0xbddec1b7	-0.10876792
9	0x3e3995e3	0.18123583
10	0xbd47e389	-0.04880098
11	0x3d4fa16b	0.05069105
12	0xbdd5e731	-0.10444487
13	0x3e3845df	0.17995404
14	0x3e65eff9	0.22454824
15	0x3df89331	0.121374495
16	0xbdbfc0fb	-0.0936298
17	0xbdddc011	-0.108276494
18	0xbdd1d284	-0.10245231
19	0x3c9f0b77	0.019414647
20	0x3e4b971a	0.1988186
21	0xbd8b835f	-0.068121664
22	0x3e912a1c	0.2835244
23	0x3e6699c7	0.22519599
24	0x3e403508	0.1877023
25	0xbdf07471	-0.117409594
26	0x3e6977f8	0.2279967
27	0x3e407e8a	0.18798271
28	0xbddc7803	-0.10765078
29	0x3e6f08ed	0.23343249
30	0xbe038a3b	-0.128457
31	0x3e309b6e	0.17246792
32	0xbdfe8a28	-0.12428695
33	0x3e136910	0.14395547
34	0x3e58ef5f	0.21185063
35	0x3e767775	0.24069007
36	0x3e788432	0.24269179
37	0x3e4df81c	0.20114177
38	0xbcbe1fe4	-0.023208566
39	0x3e60412a	0.21899858
40	0xbdcb0dea	-0.09914763
41	0x3e6b3695	0.2297004
42	0xbdc00aaf	-0.09377038
43	0x3e744a20	0.23856401
44	0xbdcbce23	-0.09951427
45	0x3e54997c	0.20761675
46	0x3e63c225	0.22242029
47	0xbdf15d5c	-0.11785385
48	0xbddfd30f	-0.10928928
49	0xbd817c90	-0.063225865
50	0x3e4fbf0d	0.20287724
51	0x3e4e4df2	0.20146921
52	0xbde66fdf	-0.112518065
53	0x3e71f3b9	0.23628129
54	0x3e5c9d4f	0.21544383
55	0x3e68f310	0.22748971
56	0x3e6854a1	0.22688533
57	0x3e6dbbce	0.23216173
58	0x3e5700ab	0.20996349
59	0x3e56cc33	0.20976333
60	0x3e760412	0.2402499
61	0x3e7fc6c4	0.24978167
62	0x3e13eb59	0.14445247
63	0x3e5c3713	0.21505384

conv2.lin.weight f4 [64, 256]
0	0xbd13c1e8	-0.036073595
1	0xbcf8ab7d	-0.03035521
2	0x3b8ee3a3	0.0043606325
3	0x3c58262f	0.013192697
4	0x3c1c63ce	0.00954528
5	0x3c8bd11c	0.017067485
6	0xbd0f019a	-0.034913637
7	0xbbafcccc	-0.00536499
8	0xbc97c765	-0.018527696
9	0xbcc48d9c	-0.023993306
10	0x3cbd19fe	0.023083683
11	0x3c988e4a	0.018622536
12	0x3d0d9ee1	0.034575347
13	0xbc965d41	-0.018355014
14	0x3ccd6123	0.025070732
15	0xbcb0528e	-0.02152374
16	0x3ce2c289	0.027680652
17	0x3c5b2949	0.013376542
18	0xbc60b584	-0.013715152
19	0xbc9aa53e	-0.018877622
20	0x3c690ec1	0.014224709
21	0x3d930f5f	0.07180666
22	0x3bf2b3bd	0.0074066804
23	0x3b7453b6	0.003728134
24	0xbc8df8a3	-0.017330473
25	0xbbff2715	-0.0077866414
26	0x3d288d3a	0.04115031
27	0xbc8586b8	-0.01629959
28	0x3cf1f591	0.02953604
29	0x3c13aaf7	0.009012929
30	0x3cdec18b	0.027191898
31	0xbc5d9852	-0.0135250855
32	0x3d468728	0.04846874
33	0x3c1ac07e	0.009445308
34	0xbd065ccf	-0.032803353
35	0x3bc2fdc2	0.0059506604
36	0xbb464808	-0.0030255336
37	0x3ac1e895	0.0014794046
38	0xbc4f482f	-0.012651487
39	0x3d9c9d71	0.07647217
40	0xbce2b9e1	-0.027676525
41	0x3d4fe118	0.050751776
42	0x3c732661	0.014840693
43	0x3d81c658	0.06336659
44	0x3d49f363	0.049304377
45	0x3cf0ba95	0.029385844
46	0xbd6d86b9	-0.05798981
47	0xbb91ea2d	-0.0044529648
48	0x3c9703a4	0.018434353
49	0x3d4ea0e3	0.050446402
50	0x3d0a52c6	0.033770345
51	0x3d0412bf	0.03224444
52	0xba57f414	-0.00082379696
53	0x3d34da96	0.044153772
54	0x3d726907	0.059182193
55	0x3d3cfbe5	0.046138663
56	0x3d1d9603	0.03847314
57	0x3c9e3cc7	0.01931609
58	0x3ce6ca66	0.028172683
59	0xbd242a45	-0.040079374
60	0xbb95fa5a	-0.0045769634
61	0x3caf4f8a	0.021400232
62	0xbc7226ae	-0.01477973
63	0x3c58cbe5	0.013232206
64	0x3c277de9	0.01022289
65	0xbc432f8f	-0.011913194
66	0xbd257124	-0.040391102
67	0x3c064a86	0.008196479
68	0xbc523b1c	-0.012831476
69	0xbd11cd0f	-0.03559595
70	0x3c056416	0.008141538
71	0xba785e34	-0.00094744866
72	0xbd4b0f37	-0.049575057
73	0x398bc200	0.00026656687
74	0x39bc327a	0.00035895762
75	0xbd3d8f1b	-0.046279054
76	0xbc9ba627	-0.019000126
77	0x3c32e5c9	0.010919043
78	0x3d9b693d	0.07588432
79	0xbc7f926e	-0.015598876
80	0x3d869a51	0.06572402
81	0xbb8c4366	-0.0042804955
82	0xb9a20775	-0.00030904604
83	0xbcee8af9	-0.029119002
84	0x3b6d2619	0.0036186038
85	0xbca6e6c6	-0.020373713
86	0x3d5063aa	0.050876297
87	0xbc81713f	-0.01580107
88	0x3d6933a6	0.05693402
89	0x3daa036a	0.083014324
90	0xbba2b63c	-0.0049655717
91	0xbcf80bcc	-0.030279063
92	0x3d4df515	0.050282557
93	0x3d9dd64e	0.07706891
94	0x3c81cadc	0.015843801
95	0x3c277735	0.010221292
96	0xbacf61ca	-0.001582199
97	0xbc6edd45	-0.014579122
98	0xbc1953fe	-0.009358404
99	0xbd185b47	-0.037196424
100	0xbc9076f7	-0.017634852
101	0x3cdb5c90	0.026777536
102	0x3df4e80b	0.11958321
103	0x3b8aef5c	0.0042399596
104	0xbd3a92e8	-0.045550257
105	0xbb9991d8	-0.0046865754
106	0xbcd342de	-0.02578872
107	0xbc8a8f36	-0.016913991
108	0x3c8d7188	0.01726605
109	0xbd821152	-0.0635096
110	0x3d8a6e06	0.067592666
111	0x3e04ac25	0.12956293
112	0x3c7b0eff	0.0153234
113	0x3bcb17ad	0.0061978907
114	0x3d8c1f7c	0.06841943
115	0xbd814302	-0.06311609
116	0xbcb07f60	-0.021545112
117	0x3cf1aeb3	0.029502248
118	0xbcef17bb	-0.02918612
119	0x3cbff903	0.023434168
120	0x3db9be67	0.090695195
121	0x3d56ca06	0.05243876
122	0xbcbc59ff	-0.022992132
123	0xbc5119b0	-0.012762472
124	0x3d9affd4	0.075683266
125	0x3c29d186	0.010364896
126	0x3e2f09de	0.17093608
127	0x3cf77b1e	0.030210074
128	0xbc4e1739	-0.012578779
129	0x3db67c90	0.08910477
130	0x3d866049	0.06561334
131	0x3c8a0d6e	0.016852107
132	0x3cddc0aa	0.027069408
133	0x3cc3a8a3	0.023884123
134	0x3aaddcd7	0.0013264668
135	0x3dcda0be	0.10040425
136	0x3da5d66b	0.080975376
137	0x3dc622d9	0.096746154
138	0x3d6f3de6	0.05840864
139	0x3d512042	0.051056154
140	0xbd37e643	-0.04489733
141	0xbd46cca3	-0.048535
142	0x3db13345	0.08652357
143	0xbce6a686	-0.028155576
144	0xbc99d146	-0.018776547
145	0x3dfccd0a	0.123437956
146	0x3cfed9ff	0.031109808
147	0x3c01d796	0.007924935
148	0x3da5d4ee	0.08097254
149	0x3d4c1c4d	0.049831677
150	0xbcd6cf15	-0.026221791
151	0x3dece07c	0.115662545
152	0x3cff2d57	0.03114955
153	0xbc739c03	-0.014868739
154	0xbc75d473	-0.015004265
155	0x3bcc3577	0.0062319594
156	0xbd27f971	-0.04100937
157	0xbd0dc662	-0.03461302
158	0xbce9b684	-0.028529413
159	0xbcf723d1	-0.030168446
160	0xbdb5a32a	-0.08869012
161	0xbd053ab6	-0.032526694
162	0x3d03e050	0.032196343
163	0x3b48e38f	0.0030653214
164	0x3d37c489	0.044865165
165	0xbc15a004	-0.009132389
166	0xbaf480df	-0.0018654129
167	0xbcc2fb6b	-0.023801526
168	0x3ce0125f	0.02735251
169	0x3ba48b11	0.005021461
170	0x3c676abb	0.014124568
171	0x3d44c9f2	0.048044153
172	0xb9e6be1b	-0.00044010658
173	0xbc87d3e8	-0.016580537
174	0xbb9797d9	-0.004626256
175	0xbd0871e5	-0.033311743
176	0xbd5a0301	-0.05322552
177	0x3ca00f7a	0.01953863
178	0xbcc19c37	-0.02363406
179	0xbd2e46e1	-0.042548064
180	0xbd38b1ed	-0.04509156
181	0xbd43fc0a	-0.047847785
182	0xbd057fff	-0.03259277
183	0x3d234c47	0.039867666
184	0xbb910f4a	-0.0044268714
185	0xbb51c0a8	-0.0032005701
186	0xbb92aebf	-0.0044763978
187	0x3c9b80f1	0.018982382
188	0x3ca54098	0.020172402
189	0x3ce090c7	0.027412785
190	0x3cb33af3	0.021878695
191	0xbc0f7a72	-0.008757221
192	0x3d81a12b	0.063295685
193	0xbd1cc1f6	-0.038270913
194	0xba1f9c82	-0.000608869
195	0x3d140cbc	0.036144957
196	0x3ca9000d	0.020629907
197	0x3cdd2ede	0.026999887
198	0x3c4f3d31	0.0126488665
199	0xbca0ab08	-0.019612804
200	0xbd282eb9	-0.041060183
201	0xbd057d3d	-0.03259014
202	0xbd20d3a9	-0.039264355
203	0x3d1d367b	0.038382035
204	0xbc4d85a1	-0.012544067
205	0x3c04d1a8	0.008106627
206	0x3c21c666	0.009873962
207	0xbca16881	-0.019703152
208	0xbccd3ae0	-0.025052488
209	0xbc85ce4c	-0.016333722
210	0xbcd24f19	-0.025672482
211	0x3cc55945	0.024090419
212	0x3c8b8dc9	0.017035382
213	0xbd15f1cc	-0.03660755
214	0x3d132d19	0.03593168
215	0x3d0a11b8	0.033708304
216	0x3c3581d3	0.011078316
217	0x3c8a58f3	0.016888117
218	0x3ccbfe31	0.024901481
219	0x3dc05fc1	0.093932636
220	0xbc302528	-0.010751046
221	0x3cda16cf	0.026622204
222	0x3b750dce	0.0037392261
223	0x3cdbedfa	0.026846875
224	0x3bb397e8	0.005480755
225	0x3d1ae78c	0.037818477
226	0x3d09ee37	0.033674445
227	0x39dce110	0.00042129355
228	0x3c4d6645	0.01253659
229	0x3db0ab95	0.08626477
230	0x3d87be26	0.06628065
231	0xbb79cd3b	-0.0038116712
232	0x3ca5d6aa	0.020243961
233	0xbc2f10b9	-0.010685139
234	0xbcfb29c3	-0.030659562
235	0xbce58b69	-0.028020578
236	0x3d5807bd	0.052741755
237	0x3d909452	0.0705954
238	0xbd06acfb	-0.03287981
239	0x3cc09d68	0.023512557
240	0xbcbbc256	-0.022919815
241	0xbc614304	-0.013748888
242	0xbd30a0d0	-0.043122113
243	0x3b4eb869	0.0031543022
244	0x3c303ac4	0.010756198
245	0x3d302889	0.043007407
246	0xbc87b33f	-0.016564963
247	0xbc11deb5	-0.008903195
248	0xbcc634e8	-0.02419515
249	0x3d1ba478	0.037998646
250	0x3dc44a53	0.09584489
251	0x3bd3cdee	0.0064637577
252	0x3d0ad849	0.03389767
253	0x3bd7b09f	0.006582334
254	0x3d192c15	0.037395556
255	0x3d073677	0.033010926

classifier.weight f4 [2, 64]
0	0x3c79fb73	0.015257704
1	0xbdef6e18	-0.116909206
2	0xbdb6787f	-0.089097016
3	0x3df868a8	0.121293366
4	0x3e169130	0.14703822
5	0xbd935ed3	-0.07195821
6	0x3e063e3a	0.13109675
7	0x3d58bb7e	0.05291318
8	0xbccde20b	-0.0251322
9	0x3d9c5793	0.07633891
10	0xbd1f5889	-0.038902793
11	0xbd8b9fa4	-0.068175584
12	0xbd984c83	-0.074364685
13	0xb9200ee5	-0.00015264338
14	0x3dd27a12	0.10277189
15	0xbb2b4efd	-0.002613961
16	0x3bab4e28	0.005227823
17	0xbd73d03a	-0.059524752
18	0xbd93d510	-0.07218373
19	0x3df4109a	0.11917229
20	0x3e2b48b1	0.16726948
21	0xbd1b8fb2	-0.037978835
22	0x3d04083d	0.03223442
23	0x3df9f62b	0.12205156
24	0x3de8eeb2	0.113736525
25	0xbc1b4310	-0.009476438
26	0xb9e4ca5c	-0.00043638318
27	0x3da488d3	0.0803391
28	0xbd935f85	-0.07195953
29	0x3d4ca0e2	0.049958117
30	0xbdb785cc	-0.089610666
31	0x3dfc4628	0.12318069
32	0xbc77076a	-0.015077451
33	0x3c8bbe8a	0.01705863
34	0x3da49d95	0.08037869
35	0x3e0279ec	0.12741822
36	0x3e06746d	0.1313035
37	0x3e233a60	0.15940237
38	0x3d4bde6c	0.049772665
39	0x3db3ff6f	0.087889545
40	0xbceb487a	-0.028721083
41	0x3ddfa069	0.10919268
42	0xbd945681	-0.07243062
43	0x3dd629be	0.104571804
44	0xbda089a7	-0.07838755
45	0xbd07974b	-0.03310327
46	0xbd95821a	-0.073002055
47	0xbda6a2d5	-0.081365265
48	0xbc5ff457	-0.013669095
49	0x3c9fa325	0.019486973
50	0x3e22e6dd	0.1590838
51	0x3ca9c204	0.020722397
52	0xbd60469b	-0.054754835
53	0x3de2518c	0.1105071
54	0x3dd1f5ff	0.10251998
55	0x3db09e94	0.086239964
56	0x3db2c991	0.08729852
57	0x3db831f0	0.089939
58	0xbc482b9c	-0.012217429
59	0x3d9143b2	0.0709299
60	0x3d689d87	0.056790855
61	0x3d961707	0.07328611
62	0x3db9e15f	0.09076189
63	0x3df11132	0.11770858
64	0xbde3d551	-0.11124671
65	0x3da2b8cf	0.07945406
66	0x3db75fd3	0.08953824
67	0xbd8047dd	-0.06263707
68	0x3db3d5ed	0.087810375
69	0x3d644fa6	0.05574002
70	0xba232c05	-0.0006224516
71	0x3baa0b61	0.0051893448
72	0x3d08734f	0.03331309
73	0xbd98c64c	-0.07459697
74	0xbd8a6abf	-0.067586415
75	0x3dd7bfe5	0.10534648
76	0xbd088dc5	-0.033338327
77	0xbc6ea982	-0.014566781
78	0xbc932b11	-0.017964872
79	0xbdbad056	-0.09121768
80	0x3d83d21e	0.06436561
81	0x3dff55c1	0.12467528
82	0xbd05488c	-0.03253989
83	0x3d5a7074	0.0533299
84	0x3d204c43	0.03913523
85	0xbd41bca8	-0.047299057
86	0xbdf1d881	-0.11808873
87	0xbdc4a4fd	-0.096017815
88	0xbbdb7c08	-0.0066981353
89	0x3dafc06d	0.08581624
90	0xbe210694	-0.15725166
91	0xbd9f394c	-0.077746004
92	0xbc03ba4b	-0.008040021
93	0xbd280186	-0.041017078
94	0x3c8601f9	0.016358363
95	0x3c5c4d9b	0.013446237
96	0x3d98b73e	0.07456826
97	0xbdbdffc1	-0.09277297
98	0xbd9fa2cb	-0.07794722
99	0x3aba2c2c	0.0014203838
100	0xbb9458b3	-0.0045271753
101	0xbdb0aae5	-0.086263455
102	0x3ca6e4ca	0.020372767
103	0xbd99aa4a	-0.07503183
104	0x3da30267	0.079594426
105	0xbdf01382	-0.11722471
106	0xbd83e5a9	-0.064402886
107	0x3c8e9a0c	0.01740744
108	0xbd28dc33	-0.041225623
109	0xbdaa7e94	-0.08324924
110	0xbe1fa70d	-0.15591069
111	0x3dc73ca3	0.097283624
112	0x3c993003	0.018699652
113	0xbb14c58e	-0.002270076
114	0xbdfd3fa8	-0.12365657
115	0xbd9f6ce6	-0.077844426
116	0x3ceade97	0.028670592
117	0xbd7f7d0a	-0.062375106
118	0xbdfb2691	-0.12263215
119	0xbd4010cc	-0.04689102
120	0xbd38fa88	-0.0451608
121	0xbd20c7de	-0.03925311
122	0xbdef24ad	-0.11676917
123	0xbe237f6c	-0.15966576
124	0xbd10d65a	-0.03536067
125	0xbd61262c	-0.054968044
126	0xbc95c95d	-0.018284494
127	0x3cc5bc4f	0.024137644

classifier.bias f4 [2]
0	0x3e9ce110	0.3064046
1	0xbe92b082	-0.2865029
