models/baseline_noweight_gcn_model.pt (torch, 130064 bytes, 6 tensors)

conv1.bias f4 [128]
00000000: b449 5dbd 6c28 cdbd 4a59 a0bd fc70 e3bc
00000010: 0618 f5bd 2c8c 02be 776f 4a3c 64b7 8cbd
00000020: e118 723d 49f4 87be 739f 2fbe 20ee a63d
00000030: 1cc8 0a3d 4e6a d63a b9d0 06bc b239 8c3d
00000040: 603e 70be 766e 35be 5b94 4abd 11d5 d0bc
00000050: a5af a3bd 36d0 a03d d8e0 fc3c ab6e 1bbe
00000060: daae 8d3d 5016 b2bd 211e 39be 608b 05be
00000070: f968 f5bd 97ff 77bd 869d e8bd 8701 f73c
00000080: e222 96bd cb9b e8bd fb76 e8bc 9cd7 4b3c
00000090: b123 1fbb 52ff f23b 98db c03c cfc9 b4bd
000000a0: 31ae 43bd 3c23 6a3c 84ef a0b9 e17e 993d
000000b0: 087d 8a3d f005 633d 853c 2e3c dc4a 533d
000000c0: 64cc a33c 7552 9cbd 6a04 353d 1c90 0abe
000000d0: 4ff3 99bd d89b c33d 57e6 1ebc 644a 12be
000000e0: f845 ecbc 3980 593d 7ee0 a2bc 832b a5bd
000000f0: f4fb a33d 1441 95bd bace ce3c 729d 1b3d
00000100: 9f50 48bd e357 0dbe c3ae 413d 51d5 1f3d
00000110: 7e68 ad3c 2a2e 14bd ba95 86bd c13e 78bc
00000120: 83f3 a8bc a18b 94bb a68e 7c3d 20da 62be
00000130: 4b23 e3bd 369a 3bbe fd4f 3b3d 8ded e5bd
00000140: 7792 03bd 7987 0f3c ae01 a1bd 243f 6fbd
00000150: ec14 a4bb c744 d2bd 8a91 4ebe 2906 6dbe
00000160: 4914 503d 518f 5f3d 7253 6e3d 6bd1 69bd
00000170: 38c1 8ebd 611d d53d c47a 6b3d b6ac 3d3d
00000180: 433c 1ebd 5ff7 4f3d 8fab 123d 795f eab9
00000190: 2f4e 15bb 9548 92be f5a5 89bc 97d1 adbc
000001a0: e81c d73c 1200 363c 73c4 7c3c c9b5 00be
000001b0: 93c8 13bd 0be6 e0bd 377b 513d 18aa 4abe
000001c0: 29bb 583d cd44 5bbe bf0f 97bd 2eb4 0abe
000001d0: 556d 53bd b62a eabc 9bbe 69be 3336 4cbe
000001e0: 960f 89be 8ace 90be 6bac 1bbd 5a60 53bd
000001f0: 0ef9 56bd 0387 933d 0ade 8ebd 9201 fdbd
-0.054025367 -0.100174755 -0.078295305 -0.027763836 -0.11967473 -0.12748784 0.012355677 -0.068709165
0.059105758 -0.26553562 -0.17150669 0.081508875 0.033882245 0.0016358586 -0.008228474 0.06846942
-0.23461294 -0.17717919 -0.04945789 -0.025492223 -0.07992486 0.07852213 0.030868933 -0.15178935
0.06918116 -0.08695662 -0.180779 -0.13041449 -0.119829126 -0.060546484 -0.1135817 0.030152095
-0.07330872 -0.1135784 -0.028377047 0.012441542 -0.0024282748 0.0074156905 0.02354221 -0.088275544
-0.047773544 0.014290627 -0.0003069603 0.07494903 0.06762129 0.055425584 0.010634546 0.051585063
0.019994922 -0.07632915 0.044193663 -0.13531536 -0.075171106 0.09551209 -0.009698472 -0.1428619
-0.028841957 0.0531008 -0.019882437 -0.0806494 0.080070406 -0.07287803 0.02524506 0.03799195
-0.04890501 -0.13803057 0.047285806 0.039021794 0.02116799 -0.036176838 -0.06571527 -0.01515168
-0.020623928 -0.0045332466 0.061659478 -0.2215352 -0.11090716 -0.18320546 0.04573058 -0.1122695
-0.0321221 0.008760327 -0.078616485 -0.058409825 -0.005007377 -0.102670245 -0.20172706 -0.23146881
0.050800595 0.054580037 0.05818505 -0.057084482 -0.06970447 0.10405994 0.057490125 0.046307288
-0.03863169 0.05077302 0.035808142 -0.0004470309 -0.0022782197 -0.28571 -0.016802767 -0.021218104
0.0262589 0.011108415 0.0154276965 -0.12569346 -0.036079954 -0.10981377 0.051142897 -0.19791448
0.052912865 -0.21412964 -0.0737605 -0.13545296 -0.05161794 -0.02858482 -0.22826616 -0.1994255
-0.26769704 -0.28282577 -0.038006227 -0.05160556 -0.05248361 0.07203486 -0.06975944 -0.12353815

conv1.lin.weight f4 [128, 182]
00000000: f602 81bb 0e9e 2fbc 7774 303c ec59 bcbb
00000010: b9ea 61ba c460 d4bb 8b26 e53a bc65 88b9
00000020: 3acf 6bbb 496b cebb 3fbe 06bb 135d 883c
00000030: 41c7 963c 36f4 28bb bcaa 263e 8c5e 603c
00000040: cae5 83bb e793 49bb 2c8f 173b 253a 16bb
00000050: e186 84ba 6e6d a13c dace 303c 1182 0bbb
00000060: e440 783c b7fe b039 dacc d439 17ce a13c
00000070: 3eba 2f3c eb1c 0abb 472d 7c3c 6c58 1239
00000080: d924 f139 c4b1 0b3d 6ce9 e83c 7cc1 20bc
00000090: cdfa 033d 9d7f 19bc 72ec 1bbc a99f ad3d
000000a0: 4c28 933d 13ba bebb cfdf a13d cf5d 91bb
000000b0: a547 83bb bbf5 a83d b27f 9d3d 3d1e aabb
000000c0: ae8e a43d 6bfe 0dbc 4a9f d0bb cd51 bcbc
000000d0: 3121 a5bc cf78 92bb f900 b0bc b0d4 13bc
000000e0: 0a7b 90bb d495 e4b9 36bd 1e3c 91a1 073c
000000f0: b0a9 f73b 748b efbb 4bb7 debb c97a e2b9
00000100: a020 1f3c a9c7 083c 1771 f33b 0c39 ddbb
00000110: 2c74 d1bb c689 26ba f81c 833b 5d9a 3dba
00000120: 5da4 a9bb 849b 503d fcb0 543d 21c2 5bbb
00000130: a87e 783d 7fbe 7b3d d76c 763d 2205 fcbb
00000140: e2ff c8bb c061 08bc 863e 963d e685 983d
00000150: 58ea 963d 77b7 b3b9 5c80 2e3a 371d e6bc
00000160: a590 92bc fc93 80bb 91e4 c7bc 273d c5bc
00000170: 46e0 bfbc 4bcf 58bb ffcb c9bb 4c4f cabb
00000180: 4b5f 95bb b822 113c d415 263c a276 af3b
00000190: f8e3 383c ac39 823a 8a5f 013b 32d2 8a3c
000001a0: fbd0 6c3c eff3 533b c0e3 1cbb 5430 d4bb
000001b0: c30f 8f3a 3203 9ab9 f0e5 27bb 2464 4bbb
000001c0: 4327 09bc 8f8d 0fbc 152d 1fbc d02c a1bb
000001d0: c8cb b5bb 70ff ccba 8903 0bbc d64f 8fbc
000001e0: b77d 0bbc bcd0 913b db26 c43b 4ae3 c6ba
000001f0: ea7d c7bb 187e babb 15d0 17bb 20ee 273c
00000200: 008f d43b 2504 dbba 10b4 94bb ecc3 71bb
00000210: 9f42 acbb 4d37 a1bc e790 98bc 7bb1 99ba
00000220: 2a69 8bba 837d 35bc cd9f e437 79f0 2e3c
00000230: f08d 1c3c fc75 42bc f92d 7f3b b7ef 9d3b
00000240: 8353 2d39 7f62 883c 5d46 963c 4e99 01bc
00000250: de0a 1737 65ea c4bb bf24 883b 8ed9 1a3c
00000260: 6e3e 113c a88c b7bb f074 b13b b20c c93b
00000270: d1a6 073b 815e b23c baab b73c 2b60 02bc
00000280: 5029 3a3b 97da 7f3b 16dd 07ba 5a40 0a3c
00000290: a636 203c 5713 d9b7 e0c4 63bb e525 7fbb
000002a0: 9ec1 2ebc 3332 babb d1e6 bbbb b9ee c0ba
000002b0: 8003 84b9 f83c 68bb a730 05bb 5ec1 fcba
000002c0: a664 78bb 14f8 5c3c fee6 8dbb 0850 183b
000002d0: 1efa a13b fa92 75bb 17be eabc fa79 253d
000002e0: c6f2 80bc 87c3 2d3d c436 6cbc 618e 603d
000002f0: 4ff5 d83d fdc1 66bd 4574 6ebc 893d 7b3d
00000300: e886 5ebd 6f3f 3abd b131 7ebd 8e38 64bc
00000310: d3a6 da3c 5deb bf3d 77b4 6dbd f39f 18be
00000320: 08db c6bd b1a7 dcbb 2450 6fbd 8fb1 da3c
00000330: 811c 513c a20d 753d 557f e33c 7634 b8bb
00000340: 1c53 053d feb2 aa3b 9186 833d 98a6 803d
00000350: 80bf 053d 3cf6 d0bc 3578 c03c b1e8 b03c
00000360: 18c6 873c 9241 0fbc d226 9c3c 0a7f 733d
00000370: 78f0 413d a454 a1bc a7c2 44bc f158 33bd
00000380: 46bc e73c 899c 03bd f3d3 873d e9fd 75bc
00000390: 6a3e 343d b5c7 723c d777 7b3d ac55 abbd
000003a0: 693d 3d3c 1742 52bd 1039 09be 1622 8abd
000003b0: 9fcd 5abd 7587 37bc ce2e 82bc a5eb e1bc
000003c0: da50 873d 980e 063d adbe 1a3d d46b c53b
000003d0: 7a51 093d 7163 e1bc b097 0b3c 6976 113d
000003e0: f1bc 7c3d af31 febb c016 233c 57dc 6fbc
000003f0: dea1 ffba 8e74 1cbc d930 55bc 4629 433e
-0.0039371205 -0.0107188355 0.010769955 -0.005748024 -0.0008618045 -0.006481262 0.00174828 -0.0002601574
-0.003598167 -0.0062994105 -0.0020560173 0.016645944 0.018405559 -0.0025780327 0.16276067 0.013694417
-0.0040251957 -0.0030758323 0.0023126109 -0.002292284 -0.0010110998 0.0197055 0.010791505 -0.0021287242
0.01515219 0.00033759113 0.00040588417 0.019751592 0.010725556 -0.0021074365 0.015391654 0.00013956585
0.00045994556 0.034105077 0.028431617 -0.009811755 0.032221604 -0.009368804 -0.009516822 0.084777184
0.071854204 -0.0058205216 0.07904016 -0.0044362317 -0.0040063434 0.08249994 0.076903716 -0.005191593
0.080350265 -0.008666615 -0.006366645 -0.022988224 -0.020157428 -0.004469968 -0.021484839 -0.009022877
-0.0044091986 -0.0004359918 0.009688666 0.0082782665 0.00755807 -0.0073103253 -0.0067967526 -0.0004319756
0.009712368 0.008348384 0.007429253 -0.0067511853 -0.0063920226 -0.00063529273 0.004001256 -0.000723278
-0.0051770643 0.05092956 0.051926598 -0.0033532458 0.060667664 0.061460968 0.06016239 -0.0076910416
-0.0061340192 -0.008324087 0.07336144 0.07447414 0.07368916 -0.00034278232 0.00066567 -0.028090103
-0.017891238 -0.003923891 -0.024400981 -0.024077011 -0.023422372 -0.003308254 -0.0061583514 -0.0061740037
-0.004558479 0.008858375 0.01013704 0.0053547183 0.011284821 0.00099354 0.0019740784 0.016945932
0.014454122 0.003234144 -0.002393946 -0.0064754877 0.0010914732 -0.0002937555 -0.0025619231 -0.003103503
-0.008371177 -0.008761778 -0.009715338 -0.004918672 -0.0055479743 -0.0015640091 -0.00848473 -0.017494123
-0.0085138595 0.004449932 0.0059860772 -0.0015173939 -0.006088008 -0.005691301 -0.0023164798 0.0102496445
0.0064867735 -0.0016709609 -0.0045380667 -0.003689046 -0.0052569653 -0.01967969 -0.018623782 -0.0011725867
-0.00106362 -0.011077288 2.7254131e-05 0.01067745 0.009555325 -0.01186895 0.0038937314 0.004819836
0.00016529676 0.01664853 0.018344099 -0.007910086 9.002832e-06 -0.0060093873 0.004154771 0.009451283
0.008864982 -0.0056014843 0.0054155514 0.0061355466 0.0020698796 0.021773579 0.022420753 -0.007957499
0.0028405972 0.0039040202 -0.00051827857 0.008438194 0.009778654 -2.5877422e-05 -0.0034754798 -0.00389325
-0.010666279 -0.0056822537 -0.0057343026 -0.0014719582 -0.0002517961 -0.003543673 -0.0020323189 -0.0019283702
-0.0037901788 0.013486881 -0.004330515 0.0023241062 0.0049431464 -0.0037471638 -0.028655095 0.04039953
-0.015740763 0.042422798 -0.014417354 0.054823283 0.10593664 -0.056337345 -0.014554088 0.06133798
-0.054327875 -0.04547065 -0.06205911 -0.013929499 0.026690876 0.09371064 -0.058033433 -0.14904766
-0.09709746 -0.0067338576 -0.058426037 0.026695995 0.0127631435 0.059827454 0.027770678 -0.005621488
0.032549962 0.005209326 0.06422151 0.06281775 0.03265333 -0.025508039 0.02349482 0.02159533
0.01657395 -0.0087436605 0.01906148 0.059447326 0.04734847 -0.01969368 -0.012009299 -0.043785993
0.028288018 -0.032131705 0.06632223 -0.01501415 0.044004835 0.014818122 0.061393585 -0.0836595
0.011550286 -0.05133256 -0.13400674 -0.067447826 -0.05341875 -0.011201729 -0.015891459 -0.027578184
0.06607218 0.03272876 0.0377795 0.006024817 0.033524968 -0.027513238 0.008520052 0.035513315
0.061703626 -0.0077573876 0.0099541545 -0.014639935 -0.0019503196 -0.009549273 -0.0130121345 0.19058713

conv2.bias f4 [64]
00000000: 6e08 a53c 6f8b 94bd 00bd e839 21be e139
00000010: a58e 18bd b442 803c 01a7 5cbc a77a 29bd
00000020: b87b 48bc e035 473c d08e 853e ec83 f3bb
00000030: 274f 2d3c eefc 29bd 55b4 893c bf05 2e3c
00000040: 66e5 f13b a812 0d3c 98cc 2bbd 1947 f3bc
00000050: f993 47bc 264b 15bc a3bd 03bb 5fa3 383c
00000060: 178e e13b 05a9 013c f4e5 abba 179b c7ba
00000070: 5765 33bc 1e07 503c 50ef 9b3e dba4 55bc
00000080: b1df 243c 58bf c23a 197b 903c 6c66 0cbc
00000090: aa7f 0b3c 9d11 19bd 37eb 4fbd ec7c 8e3c
000000a0: a3e6 56bd ba7a 6d3c 2b47 2b3e 018f 4abd
000000b0: 36d5 41ba 1216 ecbc 70f2 97bb 406d 9b3c
000000c0: 27c8 f83e 2ebf 193c 8dc6 153a a62e 873b
000000d0: 3240 893c 4dc2 e6bb a21b 48bc 49bd b63a
000000e0: d2a4 3fbb 93e7 543c c348 463e 3507 f5bc
000000f0: b800 353b 5334 14bd b2f3 8f3e aa81 22bd
0.020145621 -0.07253157 0.00044391304 0.00043057 -0.03724541 0.015656807 -0.013467551 -0.041376736
-0.012236528 0.012158841 0.2608552 -0.007431498 0.010577953 -0.04150098 0.016809622 0.010621487
0.0073820828 0.008610405 -0.041943163 -0.029696988 -0.0121812755 -0.009112155 -0.0020102046 0.011269419
0.0068833935 0.007913833 -0.0013114796 -0.0015228715 -0.010949454 0.012697009 0.30456018 -0.013039793
0.010063098 0.001485805 0.017636823 -0.008569341 0.008514324 -0.037370313 -0.050761428 0.017393552
-0.052466046 0.014494592 0.16726367 -0.049452785 -0.00073941366 -0.028819118 -0.004637055 0.018972993
0.48590204 0.00938396 0.00057134853 0.004125434 0.016754244 -0.0070422054 -0.012213619 0.001394191
-0.0029242528 0.012994665 0.19363694 -0.029910663 0.0027618837 -0.036182713 0.28115612 -0.03967444

conv2.lin.weight f4 [64, 128]
00000000: 0781 c4bc 93fe f4bd 276b 443d 9a15 9a3c
00000010: afeb a23d a7a8 b3bd 9b09 e83c 6556 a63d
00000020: 15a6 e13d 9ef8 ee3d 2da9 823d 73a5 393d
00000030: e3d1 40bd 7347 1c3d 538b 7e3c 1521 8d3d
00000040: 7442 b03d b66a 4c3d d6d1 163d 2ac7 88bd
00000050: bd79 783d 20d4 6abd 5da9 2d39 c6d4 b83d
00000060: 4f85 103d 3a9d c7bd 26c1 84bd 9ff6 05be
00000070: c332 aabc b031 393d 0f0f dbbc 1ceb 793d
00000080: 6c8e babd 99b7 b7bd 1dde a6bc de30 0b3d
00000090: 08e4 8a3d fa96 d03c 206f 603d 9af7 003d
000000a0: 4746 4b3d 8def 2c3d 0f33 6f3d da23 993d
000000b0: 523f 833d 70ab a03d 22d0 1eba b056 eb3d
000000c0: d5e6 8a3b 7b89 213d 492a ad3d fb2f 1d3c
000000d0: 9b03 ff3d 44d0 b33d 782b 1d3d 333c 5bbd
000000e0: adb0 963d ab10 023d 7853 a9bc 29b8 813d
000000f0: 857d 763d 72ef f5bc 70c7 e03c b6dc 553d
00000100: bd08 2a3d c3cf 383d d760 4d3d 2bc3 523d
00000110: 2d22 8f3c b3e4 043d 3ff3 e23c f1d0 443d
00000120: e879 983d e9ed d43d ef91 523d b33d 663d
00000130: 3a59 b6bd 9a5e ad3c ae01 313d fea3 5abd
00000140: 09f8 8d3d 4739 443d 5a19 3e3d 4290 243d
00000150: 4ff6 cc3d 0b6a d8bd 7586 333d 965a ba3d
00000160: c369 833d 5f31 663d 2f99 3c3d 9121 41bd
00000170: ff1e f03c 41f4 333c 8186 483d 806c 483d
00000180: 997c 3c3d 3ec0 cb3d 2cb1 003d 8691 1b3d
00000190: b88b 433d 5f0d b73d fa3d 59bd b517 fb3c
000001a0: 4760 d93d fa37 353c d3ee 833d 2435 bfbd
000001b0: e05b 343a 61b7 3ebd 2df0 8b3d 2bc7 433d
000001c0: 67db 5f3d 4ecd bc3d aae1 423d a601 02be
000001d0: b5d2 2f3d 380c e23d 5973 283d 62b5 863d
000001e0: 810e 0a3d c0d8 af3d bc78 e53c ce01 fbbc
000001f0: 8216 203d dadb 5e3d 8bb3 5dbd bee4 dd3c
00000200: 7385 433d 3c04 163d 9462 e2b9 7be8 b83b
00000210: d009 5539 a25f eb3d 8bce 163c 6ee4 c5bc
00000220: 0604 c1bb c921 873b aced 17bd 3785 e13b
00000230: 27e0 89bd 030d 793a 27ea 223c a4fb 233c
00000240: da81 bdba 0f4b 373a 4185 70ba 252e a23d
00000250: ac44 28bd f655 18bd d933 8e3b ec61 f2ba
00000260: bca6 a93b 6f50 31bc a2f6 2fb9 a1e7 8b3d
00000270: 8237 84bb f559 953a 2bf4 863b 4fb5 683d
00000280: 1c7f 673d 61aa b73c 2e79 efbb a486 843c
00000290: 0db2 ab3c 4edf 73bd b3a4 78bb 9ef0 e9bb
000002a0: 934e f03b 440d db3b 2f7e cb3c 3c68 cd3c
000002b0: d435 df3b 5f0c 0d3c e6ba 893c 2d07 68bb
000002c0: 2278 2abc 5007 bfbc dc9e 953b 280d 8ebb
000002d0: 34ec 093c f99e 003c 43eb 69bb 51a6 87bb
000002e0: 664a b7bb b2eb 0b3c 356c 37bb 8bd5 c43b
000002f0: 783a 61bb eb99 ba3a 55d2 413d deb5 043b
00000300: 4455 a43b eec8 a6ba 090a 7e3b 73a3 503d
00000310: 1337 ad3c cd5a 263b 7f95 1a3b f8fd 0d3c
00000320: 9806 db3b 951c 283b c122 96bb 7640 ecbb
00000330: f938 12bc a628 07bb 8d31 203c 2609 5e3b
00000340: 76e4 9e3c 06f8 343c a104 ac39 9b6d 5cbb
00000350: eeb1 9fbb 5d7d 8d3d f3ff a53b 2604 9839
00000360: fb95 4e3b 65ff 893d bc49 9f3b d5c3 273c
00000370: 0d59 54bb b118 0e3b 143a 2f3c e75e d73b
00000380: 8ab6 a43c 8fa4 26ba ed4b 273b 0b69 103d
00000390: 6477 223d d096 77bb a320 87bc 8d3f 213b
000003a0: 66b5 b13b 8514 f5bb 49b1 133c c67e 43bc
000003b0: e987 9e3c 1fad acbd 44c1 2d3d b551 393b
000003c0: 19cf b43b bdf8 b7ba 3ed7 b23b 2834 0f3d
000003d0: 22f9 1e3c 3263 023c cb47 93bb a746 9cba
000003e0: 2e17 86bb 5e39 473a b15d 063b e3e6 eb3b
000003f0: 202c 6b3c ef38 0c3b e8b6 6d3d 48b8 84ba
-0.023987306 -0.11962619 0.04795375 0.018809129 0.07955109 -0.08772402 0.028324893 0.08121947
0.11018006 0.11668514 0.06379924 0.0453238 -0.047075164 0.038154077 0.015536147 0.068910755
0.08606425 0.049906455 0.03682121 -0.066786125 0.060662974 -0.057331204 0.00016561658 0.09024958
0.035283383 -0.097467855 -0.06482153 -0.1308236 -0.020776158 0.0452134 -0.026740579 0.061015233
-0.09109196 -0.08970565 -0.020369584 0.03398215 0.06781775 0.025462616 0.054793477 0.03148613
0.04962757 0.04222064 0.058398303 0.07477541 0.06408562 0.07845199 -0.0006058236 0.11491144
0.004238943 0.039437752 0.08455331 0.009593959 0.124518596 0.08779958 0.038371533 -0.053524207
0.07357917 0.031754177 -0.020669684 0.06333954 0.0601783 -0.030021403 0.02743885 0.05221244
0.04151224 0.045120012 0.05014118 0.051455658 0.017472351 0.032444667 0.02770388 0.048050825
0.07445127 0.1039694 0.051408704 0.056211185 -0.08903737 0.021163274 0.043214492 -0.05337905
0.069320746 0.047906186 0.046410896 0.040176637 0.10007917 -0.10567101 0.0438294 0.09099309
0.06416657 0.056199428 0.046044525 -0.047151152 0.029311655 0.010983528 0.048956398 0.0489316
0.046017263 0.09948777 0.031418964 0.03798058 0.047740668 0.08938097 -0.05303762 0.030650953
0.106140666 0.011060709 0.064420365 -0.09336308 0.00068801455 -0.046561603 0.06832919 0.047797363
0.054652598 0.09218846 0.04757849 -0.12695941 0.042925555 0.11037487 0.04112563 0.06577565
0.03370524 0.08586264 0.028011672 -0.030640509 0.039083965 0.054408886 -0.054126304 0.027086612
0.04773469 0.036625132 -0.00043179526 0.005642948 0.00020316918 0.1149285 0.009204517 -0.024156775
-0.005890372 0.0041239006 -0.037091896 0.0068823355 -0.06732207 0.0009500535 0.009943522 0.010008726
-0.0014458254 0.00069920806 -0.000917513 0.079189576 -0.041081116 -0.037191354 0.004339677 -0.0018492318
0.005177347 -0.0108223995 -0.00016781178 0.06831289 -0.0040349374 0.0011394607 0.0041184626 0.056813534
0.056517705 0.02242011 -0.007308147 0.016177483 0.020958925 -0.05953913 -0.0037939965 -0.0071392795
0.0073335855 0.006684931 0.024840442 0.025074117 0.0068118367 0.0086089065 0.016812753 -0.0035404668
-0.010404618 -0.023318917 0.0045660567 -0.0043350644 0.008418132 0.007850402 -0.0035693205 -0.0041396995
-0.005593586 0.008540081 -0.002798808 0.0060069016 -0.0034367125 0.0014236545 0.04731973 0.0020250003
0.0050150473 -0.0012724677 0.0038763306 0.050937127 0.021144425 0.0025383711 0.0023587642 0.008666508
0.0066841356 0.0025651802 -0.0045817797 -0.007209833 -0.008924716 -0.0020623594 0.009777439 0.0033879965
0.019396048 0.0110454615 0.00032809845 -0.0033634666 -0.004873506 0.06908677 0.005065912 0.0002899479
0.00315225 0.06738166 0.0048610847 0.010239561 -0.0032401711 0.0021682198 0.010694999 0.0065725925
0.020106573 -0.00063569186 0.0025527433 0.035256427 0.03966464 -0.00377791 -0.016495055 0.002460453
0.0054232357 -0.0074792528 0.009014436 -0.011932081 0.019351916 -0.08431458 0.04242064 0.002827746
0.005517852 -0.0014035922 0.005457788 0.03496185 0.009702953 0.00795822 -0.0044946424 -0.0011922912
-0.0040921187 0.0007599796 0.0020502622 0.0071991547 0.014353782 0.002139624 0.05803576 -0.0010125721

classifier.weight f4 [2, 64]
00000000: a567 103e 7b63 7b3d 6148 1b3e bb09 453e
00000010: 4b47 243d bed0 883e e63e c13e 7e58 b43c
00000020: 554b 563e 7915 133d ac44 94be 24a7 c03e
00000030: 33a5 9c3d 880d 83bd a346 d63c c214 aa3e
00000040: 4d60 323e 2af1 a03d c77e 3e3d 0f1f 323d
00000050: 9441 103e 7b4c 0b3e 194e 923e f5d8 0f3e
00000060: 684a 1f3e 4510 723e 1660 023e ae13 353e
00000070: 5a59 c63e ca74 543d 0690 c4be d4d4 d73e
00000080: 9782 ac3d cb60 bd3d 79e8 8e3d 6223 973e
00000090: 7338 0b3e 4615 dd3d 53eb 4cbd 9e25 fe3c
000000a0: 806b 5c3d b417 1f3e d297 77be 6b57 7f3d
000000b0: 3942 183e 5879 91ba ba0b 563e 5d8b 183e
000000c0: aecb 11bf 47e9 e93d 031e 5d3e 53f1 5b3d
000000d0: 6ecd 5e3e b015 c73e e4e2 a43e a717 8f3e
000000e0: 8580 133e f9bc 3d3e 7ba4 a3be bdea 10bd
000000f0: 80ae cb3d 02df 173d e089 97be dfcf 79bd
00000100: 377a 56be 1563 2dbd c643 6dbe 29e5 58be
00000110: 1fa8 263c b95c 8dbe c276 cdbe 18a5 513d
00000120: 05b4 52be 35c7 61be dd38 603e 0b99 c3be
00000130: f5d6 42be f475 9abc 3054 febd a8bd 56be
00000140: 1469 ddbd 5750 9ebd f41b 8a3c f7de 2f3d
00000150: a1b3 463c 1def ebbc 07f5 57be 1e2f 6cbe
00000160: f8a4 16be 7969 10be 5b43 c3bd 4dd3 4bbe
00000170: c186 ddbe c9d1 63be 6fcb ca3e 7fbf ccbe
00000180: 054e 94bd 56af e3bd 76f4 6fbe 02e7 7ebe
00000190: f94c 03bd 83a8 633d 0c15 18bd 1ffd 03be
000001a0: c407 0e3c 8e13 08be fad0 533e ee53 cd3c
000001b0: af67 adbe 0955 98bc bf28 9bbe fea6 d6bd
000001c0: f0ec 1b3f 834c 95bd 50ca 69be e625 bcbc
000001d0: cd0f 5b3c 4324 88be d972 96be 99e0 6fbe
000001e0: d393 01be 0374 fabc 5b1c a43e 0d0c 8ebd
000001f0: 9581 40be b649 363d 54e6 913e 5142 cbbd
0.14102037 0.06137417 0.15164329 0.19241993 0.040107053 0.26721758 0.377433 0.022014853
0.20927174 0.03590915 -0.28958642 0.37627518 0.07648697 -0.06399065 0.02615673 0.33218962
0.17419548 0.078584984 0.046507623 0.04348665 0.14087516 0.13603394 0.2857521 0.14047606
0.15555727 0.23639019 0.12731966 0.17683288 0.38740045 0.05186919 -0.3839113 0.42154562
0.084233455 0.092469774 0.069779344 0.29519182 0.13595752 0.10795073 -0.05002911 0.031023797
0.053813457 0.15536386 -0.24179009 0.062339228 0.14869012 -0.0011098785 0.20902911 0.14896913
-0.56951416 0.11421447 0.2159348 0.05369694 0.21758053 0.38883734 0.32204354 0.27947733
0.14404495 0.18529119 -0.31961426 -0.035380114 0.099453926 0.03707791 -0.29597378 -0.060989257
-0.20945059 -0.04233082 -0.23170385 -0.21181168 0.010171919 -0.27609804 -0.40129668 0.051182836
-0.20576485 -0.22048648 0.21896692 -0.382027 -0.19027312 -0.018855073 -0.12418401 -0.20970786
-0.10811058 -0.07730167 0.016859032 0.042937245 0.012127788 -0.028800542 -0.21089564 -0.23064849
-0.14711368 -0.14102735 -0.095343314 -0.19904824 -0.43266872 -0.22247995 0.39608333 -0.3998985
-0.072414435 -0.11117427 -0.23433098 -0.2489281 -0.03205583 0.055580627 -0.037129447 -0.12889527
0.008668844 -0.1328871 0.20685187 0.025064435 -0.33868167 -0.018595235 -0.30304524 -0.1048107
0.6090841 -0.07289984 -0.22831082 -0.02296729 0.013370466 -0.26590165 -0.29384497 -0.23425521
-0.12654047 -0.030572897 0.32052884 -0.06935892 -0.18799432 0.04450389 0.2849604 -0.09924758

classifier.bias f4 [2]
00000000: bd46 68be a934 f23d
-0.22683235 0.118264504
