models/baseline_weight_graphsage_model.pt (torch, 256672 bytes, 8 tensors)

conv1.lin_l.weight f4 [128, 182]
00000000: 77e7 58bd 34c0 673d f5f4 5bbe c834 e3bb
00000010: 4f1a 33bd a518 3cbc 24e0 acbc 77c7 37bb
00000020: a845 25bd e6d8 bfbd 509d a0bc 9b1c 20be
00000030: c725 16bd 76ef 33bd 0d2a c13c d6be acbc
00000040: 75b0 4ebd 9200 8bbd 681e afbd 2d67 8abd
00000050: b834 f2bd eeb5 c03c 195e 493d cfb3 303d
00000060: bc3b 2b3d 488e 6dbd 806e 043c 5a32 bc3c
00000070: 3f15 3e3d b8ae 303d 443f 1a3d 335e 67bd
00000080: 6ab5 293c 5bcc 46bd 80dc a8bd 8d4b dcbd
00000090: 9998 85bd d1d9 12bd b698 adbc a39b c9bd
000000a0: 591f 35bd a5bd 3d3d c5e5 9dbd 5788 573d
000000b0: 6dc8 33bc e3ac d5bd 5a4d 92bd 90d2 4c3d
000000c0: dc18 bcbd da1d ca3c 3ce5 71bc 0d91 fbbc
000000d0: 4ef4 823d 5631 863d 35d4 053d 9fd6 5c3d
000000e0: 1964 923d 4f4b 943d b679 ab3d 84a6 b73d
000000f0: 49a0 c13d bdce 41bc 2c56 75bd 0147 943d
00000100: fc9b aa3d 293e b63d fbd8 b93d 5680 ecbb
00000110: 637f 8cbd 6e2b 6b3d eec4 92bc e2db 90b9
00000120: a899 843b 6bdd 83bc eb05 b1bc b449 11bd
00000130: fccf a0bc 0f5e b3bc bf6b e9bc 877b 0eba
00000140: ea82 0b3c f5ff 2cbc c191 1cbd 07bc 41bd
00000150: 1d4b 3abd 69a0 6d3d 9a96 6f3d adc5 263e
00000160: b55c 683e 1d97 0e3e ae21 7d3e 205f f43b
00000170: 5c1a 1a3d 9087 34bc a67f 973d 7f44 8e3d
00000180: 862d 4f3c 604e 4cbe bbc6 9cbd fa79 7fbb
00000190: 51b1 723b 9cdd b93c de77 4ebc 4df3 be3d
000001a0: 8d8e bd3d b693 873d 4ec5 5bbc 230e b4bd
000001b0: b0c7 45bc d0d4 1ebe 5b9c dabd a6bc 6cbe
000001c0: cddd 8fbd ef54 123e 2da9 36be 9097 db3b
000001d0: b888 823d 7c73 583d 3154 113d a98f 94bc
000001e0: 2e37 123d 8249 e8bc 2a27 893c d6a3 003d
000001f0: 642a d23c 5c67 373b ba70 293d d3e9 983c
00000200: b576 4c3d 9ec8 b2bd 4d4a 91bd 4f77 513c
00000210: e2a2 853c 723b b93c 8e1e 2bbd 3031 25bb
00000220: c73a df3d 66e2 873d c782 56bb 5fd8 133c
00000230: b629 933b 366a 2ebc fdbd 8abd a018 f9bc
00000240: f311 6bbd 2fbd b9bc 9ae9 003d ffd2 8cbd
00000250: db98 8b3e 64fd d43d d8d1 a53d b0ba c2bc
00000260: 5a41 e9bc c9f0 db3c 3c21 0b3e 76d0 e03d
00000270: 7db4 ad3d 0c99 c4bd e133 c6bd 6ef2 69bd
00000280: 46e5 18bc 1541 973d 4dec bc3d 4e4b 4e3d
00000290: fef9 bd3a a4d0 76bc 9d27 263c 606f 59bd
000002a0: 0f48 903d 8985 c1bc 3870 aa39 4668 3cbd
000002b0: b1b7 4ebb 9e1c 25bd 7628 a0bc c7ec 93bc
000002c0: 1146 5abd 905a abbc 5bc4 4ebd eae7 abbd
000002d0: 3b99 b8bd 885d 5abd ac36 35bd 817e 773d
000002e0: 97d0 093d 78e6 0bbc 7e3e a9bc 3297 f83b
000002f0: 2743 c23b f2a9 1cbd 319c 4fbd 80aa 51bd
00000300: 709f 3bbd 152a 223c b4cb 2abc 8f42 a9bc
00000310: f1c2 05bd cb69 71bc c444 29bd 21c7 11bd
00000320: b2d0 07bd fc52 0bbd 6995 6abc 2df9 5f3c
00000330: 21f7 b13c 5cb3 8c3c caeb a33c 0235 7bbc
00000340: 58c4 853c 7c3c 5f3c 83ef 953c 6988 8c3c
00000350: 9b26 bc3c e529 76bc e063 893c 5080 2bbd
00000360: 1b86 81bd 6959 9dbd 9595 65bd 1f68 c9bc
00000370: 97b5 56bc 7874 573d dc0c 843d c5aa cb3c
00000380: 74f3 783d 520b 973b e6f6 dabc b8bf 383d
00000390: c7a6 633d 537f f93c e96f 4f3d de7e 693c
000003a0: 0ea6 53bc 9f6e c2bc 116d c23d 2760 673d
000003b0: 0065 c93c e1df 42bc 4213 20bc bb74 883d
000003c0: 859e 473d 63b3 623d 0934 703d 4f7d 0ebd
000003d0: 0055 e8bc 6b56 883d 7b0e 633d f6bb 613d
000003e0: b71c 863d c48e 48bc c333 58b9 f1ac f93c
000003f0: ef65 0d3b 86c5 5e3c 8795 bb3c 1734 d03d
-0.052955117 0.056579784 -0.21480162 -0.0069337822 -0.04372626 -0.011480485 -0.021102972 -0.0028042474
-0.040349633 -0.09367542 -0.019606262 -0.15635912 -0.03665712 -0.04392954 0.023579622 -0.021087091
-0.05046125 -0.06787218 -0.085507214 -0.067579605 -0.118264616 0.02352425 0.049162004 0.04314023
0.041805014 -0.057997018 0.008082986 0.022973228 0.04640698 0.043135375 0.03765799 -0.05648632
0.010358194 -0.048534732 -0.08245182 -0.10756598 -0.06523246 -0.035852257 -0.021190982 -0.098441385
-0.04421935 0.046323437 -0.07709841 0.05262026 -0.010973078 -0.10433366 -0.0714366 0.050005496
-0.09184429 0.024672437 -0.014764126 -0.030708814 0.06394254 0.06552379 0.03267308 0.053915616
0.07147998 0.072409265 0.08372824 0.08967307 0.094544 -0.011829075 -0.059896633 0.072401054
0.08330533 0.08898575 0.09074589 -0.0072174473 -0.068602346 0.057414465 -0.017916169 -0.00027629646
0.0040466376 -0.016096791 -0.021609267 -0.03547068 -0.019630425 -0.021895437 -0.02849376 -0.0005435277
0.008515099 -0.010559072 -0.03822494 -0.047298457 -0.04548179 0.058014307 0.058493234 0.16286345
0.22691615 0.13924833 0.24719879 0.007457629 0.037622795 -0.011018649 0.07397394 0.06946658
0.012645131 -0.19951773 -0.07655092 -0.0038982616 0.0037031958 0.02268868 -0.012601821 0.0932375
0.09255705 0.066199705 -0.01341374 -0.08791759 -0.012071535 -0.15510869 -0.10674354 -0.23118839
-0.07024727 0.14290212 -0.17837973 0.0067014173 0.06373733 0.05284451 0.03548068 -0.018134909
0.035697155 -0.028355364 0.016742308 0.031406246 0.025654979 0.002798519 0.04136727 0.018666184
0.049917895 -0.08729671 -0.0709425 0.012784793 0.01631302 0.022611354 -0.041777186 -0.002520632
0.10899883 0.06634979 -0.0032731758 0.009023755 0.0044910563 -0.01064544 -0.06774519 -0.03040725
-0.057390165 -0.022673218 0.03147278 -0.06876182 0.27265057 0.10399893 0.08096665 -0.02377066
-0.028473545 0.026848214 0.13586897 0.10977261 0.08481691 -0.09599504 -0.09677864 -0.057115965
-0.009332007 0.0738546 0.09224758 0.050364785 0.0014494059 -0.015064392 0.0101412805 -0.05308473
0.07044994 -0.023623245 0.00032508536 -0.04599788 -0.0031542594 -0.040310495 -0.019550543 -0.01805724
-0.053289477 -0.020917207 -0.050480228 -0.083938435 -0.090136014 -0.053311855 -0.044241592 0.060423378
0.033646192 -0.008538835 -0.020659681 0.0075863833 0.0059284153 -0.03824801 -0.050686065 -0.051187992
-0.04580635 0.009897728 -0.010424543 -0.02066162 -0.032656614 -0.014734696 -0.041325346 -0.035590295
-0.03315801 -0.034014687 -0.014317849 0.013670248 0.021724286 0.017175369 0.020009894 -0.015332462
0.016328976 0.01362526 0.018302685 0.01715489 0.022967627 -0.015024637 0.016771257 -0.041870415
-0.06324407 -0.07683069 -0.056050856 -0.024585782 -0.013104818 0.052601308 0.06447765 0.024861703
0.06077905 0.004609504 -0.026729058 0.045104712 0.055578973 0.03045622 0.050643835 0.014251439
-0.0129180085 -0.023734389 0.09493459 0.056488182 0.024584293 -0.011894197 -0.009770216 0.066628896
0.04873516 0.055346858 0.058643375 -0.034787472 -0.028360844 0.06657108 0.05543373 0.055110894
0.06548446 -0.012241069 -0.00020618648 0.030477973 0.002157565 0.013596898 0.022898449 0.10166185

conv1.lin_l.bias f4 [128]
00000000: 88c6 823c d1ac a1bc 075d e1bd cd6c 49bd
00000010: c0b0 f5bd 47fc de3c d1e5 00be 5863 9dbd
00000020: f81a 6a3d 029c 90bd 304b 3abd e172 17bd
00000030: dbc3 77bc 7e62 c8bd 78a6 cbbd 5698 b0bc
00000040: 01e3 23bb 57f6 8f3c aa57 83bd 860e 1f3d
00000050: f0a5 13be 9b0d b9bc dc4b 0a3d 4ffe 7cbe
00000060: 5baa 31bd deb6 ccbd 4e2e acbc aeeb 83bc
00000070: 5478 05be 4b13 d8bd bc6e 9fbd 973e 273d
00000080: 1ff3 85bc cea5 01bd f05c 23bd 177c 06bc
00000090: 20c6 e03b 7cb6 02bc a7c2 8c3c 3142 28bd
000000a0: 5452 8b3c 34e9 0cbe 3ecc b9bc 2281 47bd
000000b0: 7577 06be 103a 1abe 12a2 32be 4c6e a4bd
000000c0: ad3e 1d3c 02a4 07be 31c1 babc e831 253b
000000d0: 947b 39be 121f 7cbd ec03 0ebd 543f 07be
000000e0: 8af4 82bd 2639 44bd 55ad 0dbe 1d77 a33c
000000f0: a9c4 ddbd ac54 e8bd 8c00 fbbd de06 a6bc
00000100: 5fa5 03be 293b 113b b72f 543c 7c61 213c
00000110: a014 33be b776 13be 29fc 30be 4edf 9abd
00000120: 1d4b abbc 2202 333d 56b5 3e3c 736f 91bc
00000130: ca9f 50be 06b4 5fbd 49e5 89bd 92d0 ba3c
00000140: 90f0 d7bd 36f1 43bc aa07 e1bd 3b33 e7bc
00000150: 771a ccbd dbdd dcbb 6d75 babc 56da 3bbd
00000160: 41f6 1a3c 3fff cfbc b0d2 eabd acc9 8e3c
00000170: da84 b4bb 85b9 e0bc 0517 01bc 05b7 43bd
00000180: d06d 08bd 0c72 fdbd 1858 4cbd a7dd 8dbc
00000190: f93f 8abc d815 fe3b 1ba0 f8bd a199 ce3d
000001a0: af7a 94bd d2fb 79be 8ffd 1e3d a24c 9ebd
000001b0: 1a04 30bc c565 53be 345d cbbd 1016 94bd
000001c0: 4cec 55bd 13f0 03bd ae37 c3bc 9042 983d
000001d0: 096d ccbd b695 a93c b56b 553c e514 2fbd
000001e0: 1f16 623c afa8 acbd db5d 6abd 1846 5e3c
000001f0: 1bb0 21be 5a07 cabd 13d1 5d3c 025c 58be
0.015963808 -0.019735726 -0.11004072 -0.049176026 -0.11996603 0.027219905 -0.12587668 -0.07684964
0.057154626 -0.07061006 -0.04548186 -0.03697479 -0.015122379 -0.09784411 -0.09943861 -0.021557014
-0.002500713 0.017573519 -0.06413205 0.03883221 -0.14418769 -0.022589495 0.03376375 -0.24706386
-0.043375354 -0.09995817 -0.021018174 -0.016103592 -0.13034183 -0.10550555 -0.07784793 0.040831175
-0.01635128 -0.031652264 -0.039883554 -0.008208296 0.006859556 -0.007978078 0.017182661 -0.04107875
0.01700703 -0.13760835 -0.022680398 -0.048707135 -0.13131507 -0.15061212 -0.17444637 -0.0802885
0.009597463 -0.13246158 -0.022797199 0.0025206748 -0.18113548 -0.06155307 -0.03467171 -0.13207752
-0.063942984 -0.047906063 -0.13835652 0.019954259 -0.108285256 -0.11344275 -0.12255964 -0.020266946
-0.12856053 0.0022160506 0.012950829 0.009849902 -0.17488337 -0.14400755 -0.17283691 -0.07562123
-0.02090984 0.043703206 0.011639914 -0.017753338 -0.20373455 -0.054615043 -0.06733186 0.022804532
-0.105439305 -0.011959365 -0.1098779 -0.02822267 -0.09965985 -0.0067403144 -0.022761071 -0.04586252
0.009458126 -0.025390266 -0.11465967 0.017430149 -0.005509001 -0.027432213 -0.007879023 -0.047781963
-0.03330785 -0.12375268 -0.0498887 -0.017317606 -0.016876208 0.007754069 -0.12139913 0.10087896
-0.072499625 -0.24412468 0.03881603 -0.0772946 -0.010743165 -0.20644291 -0.099298865 -0.072307706
-0.052227303 -0.032211374 -0.023830261 0.07434571 -0.09981734 0.02070127 0.013026168 -0.042744536
0.013799219 -0.08430611 -0.057218414 0.013566516 -0.15789835 -0.098646834 0.013538617 -0.21128848

conv1.lin_r.weight f4 [128, 182]
00000000: 2601 e13c 31f9 373c 2d54 bd3d 3407 8b3b
00000010: 7e9c c93d 1312 cd3b 9b25 e93b 734b 383c
00000020: 390a cb3c b7d0 d23c e6f0 a03c a474 78bd
00000030: 7e32 dbbb bb15 8a3d 55b5 f23b 126a 6bbc
00000040: 9999 113d 2a91 e139 c5d1 03bd 9a73 193d
00000050: 6aa6 a13c f450 113d da5f 0e3d 4bac 023d
00000060: 5558 3d3d af57 4abd 69d0 d8bc 378b 0d3d
00000070: 3276 0c3d e611 033d e82f 413d f975 4cbd
00000080: 3f4e ebbc 40d4 3ebd a183 d6bc c2c5 253d
00000090: 501b 12bd 4ca3 d23c 3190 773d 9894 adbd
000000a0: 170a 81bd 519f c13c 6d0b 9ebd c2b3 48bb
000000b0: b957 883c 43e5 cfbd 1f04 b5bd 458c f43c
000000c0: 50fb bfbd 92dc 1d3d 97b9 323d d903 503d
000000d0: 7cb2 c7bb 3dae e5bd 2d44 21bc ae49 4d3d
000000e0: 143e 983d a014 8abb 7f44 3a3d 6acb 393d
000000f0: 9e81 343d c070 cc3b 0c7b e8bc 148e 8abb
00000100: 53dc 2d3d 81b0 403d de08 483d fc2b d33c
00000110: 822c 42bd a6ab 243c 5a8d 9bbd c5f7 96bd
00000120: 8269 90bd 27cf febc eeb4 51bc c17b cbbb
00000130: d9bf 02bd 2927 26bd 6fbe 31bd aaf2 ed3b
00000140: 5217 52bd f12a d8bb b5ed 4fbd 9e5f 82bd
00000150: bf39 81bd 7f1f 9d3c c6bb 82bd 6608 ddbd
00000160: 8a51 273e 02b4 893d 620f 1d3e cd57 9fbc
00000170: bebc d0bb 9d69 803d 6d77 bd3d 4268 883d
00000180: f4cd 933d 18a4 1e3d ae62 973c bc07 b9bc
00000190: 1291 a7bb 64a5 623d 8980 8fbc e81b 13bd
000001a0: 4ff2 20bd 3ba1 15bd c0b9 cbbd ed0f 59bd
000001b0: 3fcc 23bd 0d48 ff3d 1108 153e 7b8d 5ebd
000001c0: 5986 91bd 47af 5bbc 9209 97bd 62e3 0b3d
000001d0: 8e95 c03d ced0 7d3d 9f09 f9bc 537c 683d
000001e0: bc9a ea3d 0b59 9bbd 0593 2cbd 700d 5a3c
000001f0: 1a64 88bc c368 6c3c 5e00 183d 9519 44bd
00000200: c909 8cbd 83e6 fbbc 1023 d1bc 4c46 043a
00000210: 4720 1e3c ac40 083d 5504 03bc 1c2f 88bc
00000220: 4e21 883d 3fc1 36bd c6e6 1cbd 9177 2f3d
00000230: ae58 d33d 24cc e2bc 8b3a fdbc 65d0 a5bd
00000240: 6867 44bd f6e4 ac3c 6781 d53c 71b1 3ebe
00000250: d453 6c3e b123 5f3d 7b4d aabb 3419 f8bd
00000260: 5508 06be a91c f3bc dd71 953d a120 1fbd
00000270: a1c7 50bd 31c1 88bd 073f cdbd ff2e e03d
00000280: 7642 8abc 3261 71bd b5b2 b93c 8747 5a3d
00000290: 5f0b c93b b163 c8bc e310 d43d e3ec d63c
000002a0: 4332 a8bc 9331 be3d fccc 0dbc de66 ac3d
000002b0: b5d3 163c 91ec b63c 5e8c 9a3c e38d 7c3c
000002c0: bdc9 d13c 70e0 6abc 1707 133d c9d4 0dbd
000002d0: 3c5d 24bd 154b ed3c ba19 c0bc 4c77 ed3c
000002e0: 954f 9bbc 3392 09bd 49d6 d63d c253 0ebc
000002f0: 27a2 00bd 5184 27bc cabd 87bc a1a0 4e3b
00000300: 2a44 4fbc 1f9f 02be df4a bdbd 0693 e13d
00000310: 39a6 763d 8ecf 1038 47e6 7fbc 9a1f 29bd
00000320: 47e1 33bd 36f3 5e3d 5d89 1f3d 18c5 383d
00000330: 479c 133d ee9b 2f3c 55bd 3c3d 94bb fd3d
00000340: 863f 023e 2651 363d 6068 043d 5baf 2d3c
00000350: b17c 4c3d 8fe1 ec3d 519e ef3d d375 e4bc
00000360: 3754 24bc 3232 e53c abcd acbc 320b e6bc
00000370: fe84 fcbc 27e9 953d df9f b63d 87a4 253d
00000380: 9a94 aa3d 93ac 7dbd f566 12bd 7130 7a3d
00000390: a52c 8d3d dab7 2f3d e176 8a3d a789 76ba
000003a0: ccbc 0c3c 3846 743c fe05 033e 46a2 fe3d
000003b0: 4816 3f3d 235f 29bd ec2a 3f3d 7bcb c4bb
000003c0: e45f 263d 5986 403d 907e 343d 0159 fa3c
000003d0: e608 883c caff c4bb 5374 0b3d 5793 313d
000003e0: d938 393d a383 0a3d 2f3d a33c a69d eebc
000003f0: 152e 7ebc c6b0 79bc fd7c ffbc fd4c b13c
0.027466368 0.011228845 0.09244571 0.004242802 0.09844302 0.006258258 0.0071150786 0.011248457
0.024785148 0.025734289 0.01964612 -0.060658112 -0.0066893687 0.06742426 0.0074068704 -0.014368551
0.035546873 0.000430235 -0.032182474 0.037463762 0.019732673 0.035477594 0.03475938 0.031902593
0.046226818 -0.049400028 -0.026466565 0.034556594 0.034292407 0.03199949 0.047164828 -0.049917195
-0.028723834 -0.046589136 -0.026185812 0.0404718 -0.03567058 0.025712632 0.060440246 -0.08475608
-0.063007526 0.023635538 -0.07717023 -0.0030624722 0.016643392 -0.1015115 -0.08838677 0.029852042
-0.09374106 0.03854043 0.043634024 0.05078492 -0.006094275 -0.11214874 -0.0098429145 0.050119095
0.074337155 -0.0042138845 0.04547548 0.045360006 0.044068925 0.006239027 -0.028378986 -0.004228363
0.042446446 0.047043327 0.04883658 0.02577781 -0.047405727 0.01005069 -0.0759532 -0.07371477
-0.07051374 -0.031104637 -0.012799485 -0.006209821 -0.03192124 -0.04056469 -0.043394502 0.007261594
-0.05129177 -0.006596916 -0.050763804 -0.06365894 -0.06309842 0.019180058 -0.06383471 -0.107926175
0.16339698 0.06723787 0.153379 -0.019451046 -0.006370156 0.06270144 0.09251294 0.066605106
0.07217017 0.03873071 0.018479671 -0.022586696 -0.0051137293 0.05533351 -0.017517345 -0.035915285
-0.039293583 -0.036530714 -0.099475384 -0.052993704 -0.039989706 0.124649145 0.14553858 -0.054334145
-0.07105703 -0.013408489 -0.07374872 0.034152396 0.09403525 0.06196671 -0.030400096 0.05675919
0.114552945 -0.07585343 -0.042132396 0.013308868 -0.016649295 0.014429274 0.037109725 -0.04787596
-0.06837804 -0.030749565 -0.025529414 0.00050458754 0.00965125 0.0332648 -0.007996638 -0.016624026
0.06646977 -0.044617888 -0.03830602 0.042838637 0.10319649 -0.027685232 -0.030911705 -0.08096389
-0.04795018 0.02110527 0.02606268 -0.18622376 0.23078853 0.054477397 -0.0051972247 -0.12114182
-0.13089116 -0.029676752 0.07297108 -0.038849477 -0.05097163 -0.06677473 -0.10021787 0.10946464
-0.016877394 -0.058930583 0.022668222 0.05329087 0.0061353887 -0.024461599 0.103547834 0.026236003
-0.02053178 0.09286799 -0.008654829 0.08418058 0.009205748 0.0223296 0.01886576 0.015414688
0.025608892 -0.014335737 0.035895433 -0.034626756 -0.040127978 0.028966466 -0.023449767 0.02898755
-0.018958846 -0.033586692 0.104900904 -0.008686962 -0.03140464 -0.010224418 -0.01656999 0.0031528848
-0.012650529 -0.12756012 -0.09242796 0.110143706 0.060217116 3.4525576e-05 -0.015618867 -0.041289903
-0.043916013 0.054431163 0.03894936 0.04510984 0.03603771 0.010718329 0.046079 0.12389293
0.12719545 0.044510983 0.032326102 0.01060089 0.049923602 0.115664594 0.11700118 -0.027888214
-0.010029844 0.027978037 -0.021094164 -0.02808151 -0.030825134 0.07319861 0.08917212 0.04044011
0.08329125 -0.061932158 -0.03574272 0.061081354 0.06893281 0.042899944 0.067609556 -0.0009404667
0.008589935 0.01490932 0.12795255 0.12433295 0.04665211 -0.041350495 0.046671793 -0.006005702
0.040618792 0.047003124 0.044066012 0.030560018 0.016605806 -0.0060119377 0.034046482 0.043353405
0.04522023 0.033816945 0.019926636 -0.029127907 -0.0155139165 -0.0152399 -0.031187529 0.021643156

conv2.lin_l.weight f4 [64, 128]
00000000: ecb0 84bc c040 a3bc 86df 31bb a12d fd3a
00000010: 391b 8fbb 9880 c9bd 1d39 a8ba e533 05bc
00000020: 26a7 c3b8 9b72 aabb 22de 6d39 ffb0 70bd
00000030: 5905 70bd f5f8 bdbc 6b4f b6bb 951f a4bc
00000040: d793 88bc b93f fcbc ef88 7e3c c7d3 ed3b
00000050: b0a2 ddbc c5eb 5abc ab0b 15bd 647c 07bd
00000060: a347 95bd 56df 74bc 1af2 81bd 15fb 5139
00000070: 5c96 8abc f17b f7bc 5a97 42bd 11b6 e6bc
00000080: 148f 5dbc 39a7 9cbc c8aa 41bc 42a3 10b9
00000090: b80b 02bd 09a7 8bbc ffd9 cabb af0e 21bd
000000a0: d330 4dbd 3a7e 19bd 13f5 37bd 9121 a6bc
000000b0: a6a6 04bc 6530 37bd c114 143c c781 153b
000000c0: f4f8 39bd 7b11 30bc 3135 60bc b67f 753c
000000d0: 9606 323a b3f1 e7b7 5521 89bb 5616 5339
000000e0: b3d2 f9bb 68e2 5fba 90a0 65bc f51f 3bbd
000000f0: 2855 2bbd be34 4fbd e134 1b39 0ac7 39bd
00000100: 9923 dfbb 7994 d4bc 8bfc b8bd ec0d f4bc
00000110: 17a3 c4bc d769 7437 4148 abba 1613 f4bb
00000120: cb5b 903b 8c59 68bc fef4 e838 31e6 45bb
00000130: 5706 90bd a39f c0bc bb8c 84bd 0a7d 1cbc
00000140: 0f92 8cbd 4937 3f3b 503f d139 2118 fc3b
00000150: 1bea 0435 db81 a43b abea 5cbd 43c2 623c
00000160: 37d7 67bd f782 09bd cc59 54bc f1f9 d1bc
00000170: 56e3 bcbc 8612 04bd df86 a8bc c32c 843c
00000180: d9f7 59bc ecbe d1bb 5b2d 2b3a 717c 31bc
00000190: 3521 d7bc 0854 1abd 293a f3b8 b1bb 323c
000001a0: d85f 303b 2c1f ecbc 9b3f d93b 334f cebc
000001b0: a06b 84bc ff67 c0bd 8e96 23bc e8a5 3e3a
000001c0: ae9e b2bd 3186 723b 8b1f 1cbd 3399 73bc
000001d0: 1d4a 91bd 25b8 95bc 5767 0abd 3c74 173b
000001e0: d461 89bd 4b88 9cbc 0e4f aabc 0a27 f7ba
000001f0: 0c5a 4abc dc7c 3d3b 60c6 90bd 7340 a1bc
00000200: e0b1 b9bc 9a79 4cbd bf5f ad3c a129 70bc
00000210: a3cc 94bb ec20 9dbd dd4a 54bc f891 323c
00000220: 5481 e439 2abc 19bc cb35 f6b8 b1d0 01bc
00000230: 7698 213c 6a82 78ba 5287 05bd 49f5 74bd
00000240: d915 8c3b 33b1 b0bc 6b1a 80bd f49e 9abc
00000250: 6895 89bb 72b7 00bd 1f76 8abc 9514 843c
00000260: 00a3 b7bc 8f2f e63b 92f6 76bb cecb e6b8
00000270: 93b4 7fbc cb51 7abc c628 38ba 86a6 e5bb
00000280: 08a8 63bb 5e4c f9bc 0865 b5bc 67f5 e338
00000290: 79ad 513b 9d25 20bd fd49 b7bb a93d aa3b
000002a0: 3efb 7abd 5ea5 6fbc ff30 84bc f023 403b
000002b0: aa18 9f3b 1105 0f3c 3af6 49bb 5ef6 06bc
000002c0: 7b57 d9bc 37b8 4d3c 6e62 fabb 4339 dfbc
000002d0: 7b7a d7b9 7338 5c39 c0a4 57bd 462e 34ba
000002e0: c5f9 24bc 7d1e a3bb 8114 79bc 5970 a6bd
000002f0: eaa2 013c b8df 9dbc 82af e03b 3f58 71bd
00000300: a358 08ba f7d8 55bc 6332 8bbd 79a9 5dbd
00000310: 3ed4 73bd a250 13b8 ce19 95bc 16bc 343c
00000320: bb0c f5bc f51e 91bc 736c 253a 9c89 1d3b
00000330: 2de9 6e3a 30a8 4f3b 544d 2abc ea8c fcbc
00000340: be32 f0bb 07f7 f5bc bd4d 1538 3fcb 42bd
00000350: f69f 3035 e3b5 30bc b87e 493c 8165 b9bd
00000360: 5431 90bd 40a1 b3bd eefa 3bbd e848 0cbd
00000370: 529c 213c 7afc b7bb 4efb d0bc c0c1 bebc
00000380: 0663 e43b 7007 99bb f2f1 4abd bfac 9ebb
00000390: 9394 39bd 4b2f 02bc 71f9 d9b7 2a00 29bc
000003a0: a0ad f5bc b0c6 8cbb 1eed f4bc d9ee 693c
000003b0: b40f 0cbc e800 e8bb 480c a9bc c9da b7bb
000003c0: 9bb9 00bc 07e2 bcbc 116f 9ebd 0c0c aeba
000003d0: 19b9 37bc 3358 89bb 1e7f 7ebb 76dc 00bb
000003e0: 7433 3ebd 5998 9dbc a1f9 95bb 1cd9 b1bb
000003f0: e302 0abd d7a7 463b 970e 55bd dc18 b7bb
-0.016197644 -0.019928336 -0.0027141287 0.0019315967 -0.004367259 -0.098389804 -0.0012834404 -0.008130048
-9.3294584e-05 -0.0052016503 0.00022684832 -0.058762547 -0.05859885 -0.023190001 -0.0055636666 -0.02003459
-0.016672058 -0.030792104 0.015535577 0.007257912 -0.027055115 -0.013361876 -0.03638808 -0.033077613
-0.07289054 -0.014945826 -0.06345005 0.00020025329 -0.0169174 -0.030210467 -0.04750762 -0.028162988
-0.013522882 -0.019122707 -0.011820503 -0.00013793728 -0.031749457 -0.017047422 -0.006190538 -0.039320644
-0.05009539 -0.037473895 -0.044911455 -0.020279678 -0.008096373 -0.044723887 0.009038151 0.002281295
-0.045403436 -0.010746355 -0.013684557 0.014984062 0.00067911425 -2.7649896e-05 -0.0041848817 0.00020130849
-0.0076239943 -0.0008540512 -0.014015332 -0.045684773 -0.04182926 -0.05058741 0.00014801651 -0.045355834
-0.0068096635 -0.025949704 -0.09032544 -0.029791795 -0.024003549 1.4568176e-05 -0.0013067798 -0.0074485643
0.004405474 -0.014181506 0.000111082554 -0.003019702 -0.07032459 -0.02351362 -0.06472155 -0.009551296
-0.06863796 0.002917724 0.00039910758 0.007693306 4.95145e-07 0.005020363 -0.053934734 0.013840261
-0.05660173 -0.033572163 -0.012960862 -0.025631877 -0.023057621 -0.032244228 -0.020572124 0.016134625
-0.01330372 -0.0064009335 0.0006529891 -0.010832892 -0.026260952 -0.037677795 -0.00011597976 0.010909007
0.0026912596 -0.028823458 0.006629897 -0.02518425 -0.0161646 -0.09394836 -0.0099846255 0.0007272647
-0.08721672 0.0037006254 -0.03811602 -0.0148680685 -0.07094214 -0.018276284 -0.03378996 0.0023110053
-0.06708112 -0.019107958 -0.02078965 -0.0018856239 -0.01235057 0.0028913533 -0.07069087 -0.019684052
-0.022667825 -0.049920656 0.02116382 -0.014658363 -0.004540996 -0.07672295 -0.012957302 0.0108990595
0.00043583906 -0.009383241 -0.00011740214 -0.007923291 0.00986301 -0.00094798824 -0.032599755 -0.059804235
0.0042750654 -0.02156887 -0.06255039 -0.018874623 -0.004198719 -0.031424947 -0.016902028 0.016123096
-0.022416592 0.0070247124 -0.0037683588 -0.00011005216 -0.015607017 -0.01527829 -0.00070251187 -0.0070083765
-0.0034737606 -0.030431923 -0.022142902 0.00010869913 0.0031994267 -0.03909837 -0.005593537 0.0051953387
-0.06127476 -0.014626829 -0.016136644 0.0029318295 0.004855235 0.008729235 -0.0030816928 -0.008237449
-0.026530972 0.012556127 -0.0076411283 -0.027248984 -0.0004109925 0.00021001864 -0.052647352 -0.00068733504
-0.010069315 -0.0049779997 -0.015202642 -0.08126897 0.007912377 -0.019271716 0.0068568597 -0.05892205
-0.0005201196 -0.013052217 -0.0679672 -0.0541167 -0.05952858 -3.5122626e-05 -0.018200781 0.011031171
-0.029913297 -0.017714957 0.00063104107 0.002403832 0.00091137254 0.003168594 -0.010394413 -0.030828912
-0.0073302677 -0.030025018 3.5596768e-05 -0.04755711 6.5797883e-07 -0.010785553 0.0122982785 -0.090525635
-0.070406586 -0.0877099 -0.045893602 -0.034249216 0.00986393 -0.0056148143 -0.025510456 -0.023285747
0.0069698123 -0.004670076 -0.049547143 -0.0048423703 -0.045307707 -0.007945846 -2.5984571e-05 -0.0103149805
-0.029990017 -0.0042961463 -0.029898223 0.014278137 -0.008548666 -0.007080186 -0.020635739 -0.005610798
-0.007856752 -0.023056997 -0.07736028 -0.0013278737 -0.011213564 -0.0041914224 -0.0038833092 -0.0019662655
-0.04643579 -0.019237684 -0.004576877 -0.005427493 -0.03369416 0.0030312443 -0.052015867 -0.0055876803

conv2.lin_l.bias f4 [64]
00000000: ec15 33bd 92f4 813c 0a03 ff3d 37d4 5d3e
00000010: c46f 2f3e 1671 843a ffbe dc3d bb3c ef3d
00000020: a028 b9bc ef3b 843d 69aa de3d b7e8 d13d
00000030: 5193 e13d 31e8 023e 012e e93c 06e6 f0bc
00000040: e0c2 093e fad2 133e b9be 363c 9907 823c
00000050: 9845 363e 5033 55bc 62cb afba 7dfc b83d
00000060: 7594 6c37 1d5f 083e 7be8 cc3b 13a5 933d
00000070: 6811 c03c 97be 423e 401e 023e 60e0 fd3d
00000080: 890b 2a3d 1d20 333e 1a1c 02bd ad7f ca3d
00000090: 4bf1 9fbc 2db3 8c3e 1306 3bbd f42d 303d
000000a0: 5fa1 cc3d 55a9 493e 3aa6 193e 99ea 0c3e
000000b0: eaea 373e 94b1 1d3e 57ce 813c 9926 683e
000000c0: 47b4 1a3b b1ff 6eba a796 bf3c fb7a 3e3e
000000d0: 02b1 f53d 69a0 3c3e dbc5 2e3d f23d d33d
000000e0: f47f d93d 0a64 053d 0168 2e3e aceb 9b3d
000000f0: 26d7 cf3d e2af 493e d13f 48bb 904b 703d
-0.04372208 0.01586369 0.124517515 0.21662985 0.17132479 0.0010104503 0.10778617 0.11681505
-0.02260238 0.06456744 0.10872347 0.10249465 0.110144265 0.12783886 0.02846432 -0.029406559
0.13453245 0.1443595 0.01115387 0.015872763 0.17799985 -0.013012722 -0.0013412053 0.09032533
1.41012615e-05 0.13317533 0.0062533 0.0720922 0.0234458 0.19018017 0.12706852 0.12396312
0.041514907 0.17492719 -0.03176508 0.098876335 -0.019524237 0.2748045 -0.04566009 0.043012574
0.099917166 0.19693501 0.15004817 0.13761367 0.17960706 0.15399772 0.01584546 0.22670974
0.0023605989 -0.00091170805 0.023387266 0.18601601 0.11996652 0.18420567 0.04266916 0.103145495
0.10620108 0.032566108 0.17031862 0.0761331 0.10148458 0.19696 -0.0030555616 0.058665812

conv2.lin_r.weight f4 [64, 128]
00000000: 937d bbbc f0fd 4bbc 0420 67ba 5a18 a7bc
00000010: a6c9 8fbc 85ab 0dba c49e 29bd fff4 d3bc
00000020: 4598 1fbb 6f3c e7bc 8bac 473a aa5f e1bc
00000030: 9556 88bc 39b3 47ba c4f0 a7bb 73aa 0dbd
00000040: 0403 ec3a ac51 f3bc a81e 77bb 4159 6cbc
00000050: 97c6 34bd 2c3c 36bb c540 d1bb 8ca0 1ebc
00000060: 4ecb 5fb8 6ca2 fabc c395 89bd d88b 95bc
00000070: d7e5 ddbb 4ff3 2dbc 36ec 7bbc d8a1 3f3c
00000080: ab05 07bd a1ff 04bc 29bb 07bd 951d df38
00000090: bce3 02bc 83f6 20bc 6692 90bc 4c32 0ebd
000000a0: 453f 1abd 6be2 cdbc 8464 c3bc c51b d2bc
000000b0: 01d2 60bc 23df 18bb 8cc9 bdbc b752 1e3b
000000c0: 979e 5fbd b8a8 5c3c f248 a5bb 588c 8fbc
000000d0: 1c17 21bc e140 3539 376b 33bc 4a91 78ba
000000e0: 7bfc ebbc c628 cb37 9b6f f03b 7c9e 84bc
000000f0: 2da1 69bc 52c2 bebc b3be 81bb 5f7d b1bb
00000100: b7d7 0abc 804f 1fbd 462e 95bd 47eb f6bb
00000110: 1701 4bbd a633 a5bd 9e1e 3639 1ead e43b
00000120: a234 bbbc 0c62 aaba 4d95 93bd a686 56bc
00000130: d55c 94bc be65 1fbd ec60 093b 940c 543c
00000140: e37c bbbc abc8 7bbc ebd3 38bc 3d42 7cbd
00000150: 79db d636 8abe 0d3c ed47 adba c654 46bc
00000160: b6f2 e2bb bc34 98bc 3c23 f43b 09fa 0fbb
00000170: 398d 13bd 1ede ed3b 016e 61bd 6f79 ebbc
00000180: c83c 4c3c 37d0 1ebd 1991 54bd 182d 293c
00000190: c5c0 783b d12f 83bc 70e1 2bbc aecf 7db8
000001a0: 1fda 2dbd da98 c7b9 adb5 72bc 15e7 bcbc
000001b0: 9395 47ba e8b7 ccbc c69a 38bc b583 85bc
000001c0: 40f1 84bc 05a8 40bd 60b3 94bd 03d9 d2bc
000001d0: f16c bbbc 8886 4abc 916b f73b 6bc9 bbbc
000001e0: 9ee6 93bd c331 8dbd 21d0 13bc d14d 87bc
000001f0: 889d 5bb6 88f1 b5b9 0732 32bd 109a 6c3b
00000200: 6b9b 4bbc cea5 45bc 4064 67bc 7eb6 77bc
00000210: 0b67 86bb ead9 84b7 c98f 1cbd 45c2 71bd
00000220: fb45 9b38 e9e3 27bd 7144 3cbc 5253 1ebd
00000230: c6d3 44bc 61f7 02bc e37c b83c 50ae d2bc
00000240: 04ad 603b cbc8 42bd e0c2 30bc f825 d1bb
00000250: eef5 f8bc a639 bfbd 6e0b 863c 7c2e 0fbb
00000260: 2ae4 2f39 422a 00bc 9bfc 123c df0f 6f3c
00000270: 63d6 c93b 237e 3e3c baa7 86bc fd54 1c3b
00000280: a32f 81bc 4a77 823b e942 843b 5e29 1638
00000290: a045 06bb 012e a5bc 5fb6 9bbc 8f9d 2e3c
000002a0: 1823 87bb cd45 f2bc 34d3 6dbc b37f 05bc
000002b0: 5cbb 053c 8472 e838 c653 b9bc 1c64 dbbb
000002c0: 72ea 88bc d5c3 2ebd 1eab 06bd 52b4 27bd
000002d0: 0d43 d8bc ee9d a4b9 023f c9bc ca0b 513a
000002e0: a19a 39bd 028f 8d39 42ec a43b deda 39ba
000002f0: d851 9b3c 8fa9 c0bc d60e 203b 898c a4bc
00000300: a0b1 77bb e607 e5bc a4a6 733c 3ac8 04ba
00000310: d480 ef3b 5dcf 883c 9b59 f23a d3e9 71bd
00000320: 8103 04bc 6cfd 1abb 12b4 00bd 9db9 44bd
00000330: da04 0ebc d90d 8abd fc1d abbb 44fa 56bd
00000340: 52e5 88bb f6eb 95bb bdd8 ddb9 6cf8 cabc
00000350: 0818 d93b 74c8 87bd d1f7 eb3b 90d4 64bb
00000360: cb01 10bc e355 debb f172 05bc c76b caba
00000370: 7b99 82bc f665 bd3a b7e4 6dbd eeb5 56bd
00000380: 8a6b 05bc 4567 7e3b 5122 653c e738 3dbc
00000390: 4b52 e0bc 11cf f3ba b087 12bc bfbb 2dbb
000003a0: badf bdbb e76e c6b9 12de 203b 36c6 af3b
000003b0: a276 97bb 461c d4bc 37fa 96bb 67b6 1cbc
000003c0: cd99 88bc 7349 04bd 7f0f 403b d715 e53a
000003d0: 5222 01bb f0b4 ae3b cee4 33bd 5ad8 03bb
000003e0: 6838 6ebc 1d96 34bd 5f5b 3b3c c50d c4bb
000003f0: 580d aabb 11b8 1fbb 8d8f 4bbb 19dc 04bb
-0.022887027 -0.01245068 -0.00088167214 -0.020397354 -0.017552208 -0.00054042815 -0.041411176 -0.02587366
-0.0024352234 -0.02822706 0.00076169585 -0.027511436 -0.016642848 -0.0007617954 -0.005125137 -0.03458638
0.001800627 -0.02970203 -0.0037707482 -0.014425577 -0.044134703 -0.0027806861 -0.006385895 -0.009681832
-5.3356685e-05 -0.030595027 -0.06718018 -0.01825516 -0.006771784 -0.010617091 -0.015376141 0.011696301
-0.03296439 -0.008117587 -0.033137474 0.00010638979 -0.007988866 -0.009824398 -0.017647933 -0.034715936
-0.037657995 -0.025132379 -0.02385164 -0.025648007 -0.013721944 -0.002332636 -0.023167394 0.0024158189
-0.054594602 0.01346796 -0.005044096 -0.017522976 -0.00983217 0.00017285674 -0.010950855 -0.0009482099
-0.028806916 2.4218472e-05 0.007337523 -0.016188852 -0.014259619 -0.023286019 -0.0039595007 -0.0054165567
-0.008474282 -0.038894176 -0.072842166 -0.0075353715 -0.049561586 -0.08066492 0.00017368278 0.006978645
-0.022852246 -0.0012999191 -0.07206211 -0.013093626 -0.018110672 -0.03891539 0.002096231 0.012942452
-0.022886699 -0.015367667 -0.011280994 -0.061586607 6.403247e-06 0.008651385 -0.0013220288 -0.0121051725
-0.006925906 -0.018579833 0.0074504893 -0.00219691 -0.036023352 0.0072591444 -0.05503655 -0.028744427
0.012465663 -0.038772788 -0.05189619 0.010325693 0.0037956696 -0.016014012 -0.01049076 -6.0513317e-05
-0.042444345 -0.0003807012 -0.014813823 -0.023059407 -0.0007613536 -0.024990037 -0.01126737 -0.016298154
-0.016228318 -0.047035236 -0.072607756 -0.025738245 -0.022879096 -0.012361176 0.0075506647 -0.022923192
-0.07221721 -0.06894257 -0.00902179 -0.016516598 -3.2725238e-06 -0.00034702965 -0.04350474 0.003610257
-0.012427191 -0.012063457 -0.014123023 -0.015119193 -0.004101639 -1.58371e-05 -0.03822306 -0.05902316
7.404011e-05 -0.040988836 -0.011490927 -0.03865368 -0.012013381 -0.00799355 0.022520488 -0.025717884
0.0034282813 -0.047554772 -0.010788649 -0.0063827 -0.030390706 -0.093371674 0.016362872 -0.0021847775
0.00016774298 -0.007822575 0.008971359 0.014591186 0.00615959 0.011626753 -0.0164374 0.0023854368
-0.015769785 0.0039815055 0.0040362966 3.5801313e-05 -0.0020488277 -0.020163538 -0.01900786 0.010657682
-0.0041240565 -0.0295743 -0.014515687 -0.008148122 0.008162346 0.00011083952 -0.022622954 -0.0066952836
-0.016713355 -0.04266723 -0.032878034 -0.04094345 -0.02639916 -0.00031398184 -0.024566177 0.0007974474
-0.04531348 0.00027000165 0.005033047 -0.00070898037 0.018959925 -0.023518352 0.0024422905 -0.020086544
-0.0037795082 -0.027957868 0.014871273 -0.00050652365 0.0073090587 0.016700441 0.0018489839 -0.059060883
-0.008057476 -0.0023649586 -0.03142173 -0.048028577 -0.008668149 -0.067409225 -0.0052220803 -0.052484766
-0.0041777277 -0.004575248 -0.00042313887 -0.02477666 0.006625179 -0.0663003 0.007201173 -0.0034916736
-0.00878949 -0.006785141 -0.00814508 -0.0015443497 -0.015942326 0.0014449942 -0.058079448 -0.052419595
-0.008143315 0.0038818878 0.013985232 -0.011549211 -0.02738299 -0.0018601139 -0.008943483 -0.002650961
-0.0057944926 -0.00037848132 0.0024546427 0.0053642048 -0.0046222964 -0.025892388 -0.0046074647 -0.0095649725
-0.0166749 -0.03229661 0.0029306111 0.0017477822 -0.0019704294 0.005331628 -0.043919377 -0.002011797
-0.0145398155 -0.04408847 0.011435359 -0.005983087 -0.005189579 -0.0024371187 -0.0031060905 -0.002027279

classifier.weight f4 [2, 64]
00000000: d002 bfbb 1003 353d 51f7 a93c 994a aabe
00000010: a68d 90be 9970 783d bcc5 0c3e 549f 19bd
00000020: 78d7 57bd 83ed 763c 63f1 113e 7a81 973d
00000030: 549f fd3d 7c46 03be f31a fa3d fcf8 953d
00000040: 0dc2 2cbe a217 003d 4737 c03d 296a 8f3c
00000050: d3e5 87be a34f 36ba ef42 0fbe 1420 593e
00000060: 218c c5bc d35c 6b3e 6e5c 103c ed22 f5bb
00000070: 9ede 5dbd 034f 52be 399f 48be ae1d 6ebe
00000080: 13e4 30bd 4520 513e 2788 02bc fc02 cebd
00000090: 8272 fe3c 3eef 0b3e 92e1 0ebd d351 c8bd
000000a0: 6bf3 543e 37bc 95be 84c9 1ebe 2e93 6bbe
000000b0: 77df 533e 7542 b9bd 8ecb 2d3e 2f11 d73e
000000c0: 01d3 a13a b490 2abd a9b5 623d 8394 51be
000000d0: 94a6 58be 0605 0ebe 92ee ee3d 8a22 ec3d
000000e0: 2cb5 353e a947 263e e5c6 333e 79b2 05be
000000f0: 89b5 373e 8753 5ebe 6b5d a83d 4dd1 233e
00000100: 9306 5a3d d098 223c 2ebe aebd dd60 833e
00000110: 3c6a 543e 326b a03c 9924 343c 5479 40be
00000120: 79aa ed3b 5da0 ebbd 6028 72be cbab 41be
00000130: 1120 03be 719f c83d 1529 08be 718b 643d
00000140: c0b4 9b3e 7234 5dbe 9800 e4bd f4e9 30be
00000150: 7210 4c3e b9c7 36bd c7d6 84bd 3214 1cbe
00000160: a150 c9bb 6e70 44be 2065 bd3c 68da 22bd
00000170: 837e d53c f91c 1d3e 32e7 0a3e 137b 5b3e
00000180: 3904 d13c 8e90 e4bd 647f 0cbb 0063 f1bb
00000190: b3bb 783d 7b9e 06be 6699 0abd f2c7 053e
000001a0: 25d4 60bd b4fd 823e e55e f33d 3510 303e
000001b0: a618 26be 4f0e 653e 7da0 72bc 7b7c b8be
000001c0: 1daa 47bc 7f37 a1bd 0f1c 84bd 7c14 863e
000001d0: adc5 843e 44cb 673e 02d5 05be 6814 cebd
000001e0: 97cb 09be 0498 b4bd 6468 8cbd 0806 753d
000001f0: ae32 d1bd 2dba aa3e 3287 ce3c 1fc0 14be
-0.0058291927 0.044192374 0.020747812 -0.33260038 -0.2823307 0.060654256 0.13747305 -0.037505463
-0.05269572 0.015071276 0.14252238 0.073977426 0.12383905 -0.12819856 0.122121714 0.073228806
-0.168709 0.031272538 0.09385543 0.017506676 -0.2654253 -0.0006954616 -0.13990377 0.21203643
-0.02411467 0.22984628 0.008811099 -0.00748097 -0.054167382 -0.20537953 -0.19591989 -0.2325351
-0.04318626 0.20422466 -0.007967032 -0.10059163 0.031060461 0.13665482 -0.03488309 -0.09781232
0.20795982 -0.2924516 -0.1550656 -0.23005363 0.20690714 -0.09045879 0.16972181 0.42005298
0.0012346209 -0.041641906 0.055349026 -0.20466809 -0.21157295 -0.13869104 0.116665974 0.11530025
0.17744893 0.16238274 0.17556341 -0.13056363 0.17940344 -0.2171155 0.08220943 0.1599781
0.053228926 0.009924129 -0.08532368 0.25659838 0.2074365 0.019582365 0.010995054 -0.18796283
0.007252988 -0.11505196 -0.23648214 -0.1891319 -0.12805201 0.09796036 -0.13296922 0.055797044
0.3041134 -0.21602038 -0.11132926 -0.17276746 0.19928148 -0.044624064 -0.06486278 -0.15242079
-0.006143645 -0.19183514 0.02311951 -0.03975907 0.026061302 0.15343083 0.13564757 0.21433668
0.025514709 -0.11160384 -0.0021438235 -0.007366538 0.06072588 -0.13146393 -0.0338377 0.13064554
-0.054889817 0.25584185 0.11883334 0.17193682 -0.1622034 0.2236874 -0.014808771 -0.3603247
-0.012186554 -0.07871913 -0.06450664 0.26187503 0.25932065 0.22636133 -0.13069537 -0.10062486
-0.1345657 -0.08818057 -0.068558484 0.059820205 -0.102147445 0.33345166 0.02521095 -0.14526413

classifier.bias f4 [2]
00000000: aba6 24be cff8 b2bc
-0.16079204 -0.021847157
