models/baseline_weight_gat_model.pt (torch, 260276 bytes, 10 tensors)

conv1.att_src f4 [1, 4, 64]
0	0x3ce0915e	0.027413066
1	0xbdaa2a30	-0.08308828
2	0x3e09d2af	0.13459276
3	0xbc09fcd4	-0.008422095
4	0x3cbdc41f	0.023164807
5	0xbdec4d19	-0.11538143
6	0xbd648121	-0.05578721
7	0x3c04ea47	0.008112497
8	0xbb6d4d9b	-0.0036209587
9	0xbcae25b7	-0.021258218
10	0x3cb206f8	0.021731839
11	0x3d973473	0.07383051
12	0xbd9356aa	-0.07194264
13	0xbdaae72e	-0.08344875
14	0x3e1eaff2	0.15496805
15	0xbdd0c45d	-0.10193703
16	0xbdf8ff3e	-0.121580586
17	0xbbba7573	-0.0056902706
18	0xbcff7120	-0.031181872
19	0xbe56844e	-0.20948908
20	0xbe09ff60	-0.13476324
21	0x3e2103ea	0.1572415
22	0x3e0b54f2	0.13606623
23	0xbcdd3a6b	-0.027005395
24	0xbcdf1d54	-0.027235664
25	0xbdb82296	-0.08990972
26	0xbd314ac3	-0.04328419
27	0xbd83454c	-0.06409702
28	0xbccf27f0	-0.025287598
29	0x3da41ad5	0.0801293
30	0x3e00bf2e	0.1257293
31	0xbc292ee1	-0.010326118
32	0xbd7e1e94	-0.06204088
33	0x3e235c05	0.15953071
34	0xbe09b2e7	-0.13447152
35	0xbd9c28fa	-0.07625003
36	0xbcd4a297	-0.025956435
37	0x3cb4ee70	0.022086352
38	0x3beae8b5	0.007168854
39	0x3ba6c840	0.0050897896
40	0x3d002106	0.031281494
41	0xbd99d0bd	-0.07510517
42	0xbda13665	-0.07871703
43	0x3daddac3	0.08488991
44	0xbe33876d	-0.1753213
45	0xbd78e5a6	-0.060765885
46	0xbc2bf0d6	-0.0104944315
47	0xbd98b7b3	-0.07456913
48	0xbcb666a9	-0.022265749
49	0x3b600bc7	0.0034186707
50	0xbdb303d5	-0.08740965
51	0xbdbd0cc2	-0.09230949
52	0xbd415786	-0.04720261
53	0x3cc4d875	0.024028996
54	0x3c946e28	0.018118933
55	0xbc70aa9c	-0.014689114
56	0x3d92b105	0.0716267
57	0xbe2b9c3c	-0.16758817
58	0xbe08a095	-0.13342507
59	0x3e61143d	0.21980377
60	0xbc82d1b5	-0.015969137
61	0xbd5fb350	-0.054614365
62	0x3b4b8aee	0.003105815
63	0xbd8c51bc	-0.06851527
64	0xbdb5f75c	-0.08885071
65	0xbd438f7c	-0.04774426
66	0xbc8ea13f	-0.017410873
67	0x3dcf723f	0.101292126
68	0x3da4ba4d	0.080433466
69	0xbe11b2fb	-0.14228432
70	0x3dedbe83	0.11608603
71	0xbbb10687	-0.0054023894
72	0xbddd2c0f	-0.10799419
73	0x3dbeb5bb	0.09312006
74	0x3c38faea	0.011290291
75	0xbe22182f	-0.15829538
76	0xbe0010da	-0.12506428
77	0xbe32c739	-0.1745881
78	0x3e04a420	0.12953234
79	0xbd4c24f0	-0.049839914
80	0x3e2de26a	0.16980901
81	0x3d178482	0.036991604
82	0x3d97077f	0.07374477
83	0xbe4e0f4e	-0.20123026
84	0xbda39daf	-0.0798906
85	0xbd026187	-0.03183129
86	0x3dbbdc61	0.09172893
87	0x3d1f86bc	0.038946852
88	0x3b14ae8d	0.0022687048
89	0xbbf5df80	-0.00750345
90	0x3da2809f	0.07934689
91	0xbc4ccb2f	-0.012499615
92	0xbd97ca41	-0.07411624
93	0x3e80e5b6	0.25175256
94	0xbd0a24c6	-0.033726476
95	0xbe2b116a	-0.16705862
96	0x3d0227bf	0.031776186
97	0x3dff14e7	0.12455159
98	0xbd8554c9	-0.06510312
99	0xbd3a566e	-0.045492582
100	0xbd080dff	-0.033216473
101	0xbe40e3a9	-0.18836845
102	0xbe4d618e	-0.20056745
103	0xbd6d7f5c	-0.057982787
104	0x3d894d90	0.06704247
105	0xbb41fde5	-0.0029600796
106	0xbd49a4aa	-0.0492293
107	0xbe229e2b	-0.15880649
108	0x3dabbb63	0.083853506
109	0x3cb7cb8a	0.022435922
110	0xbbb2a039	-0.005451229
111	0xbdcb5bb6	-0.09929602
112	0xbdbabb12	-0.09117712
113	0x3a137004	0.00056242966
114	0xbe1a4799	-0.15066375
115	0xbd9139ec	-0.07091126
116	0x3d81dc07	0.06340795
117	0xbdc3daf9	-0.0956325
118	0xbc9ad26f	-0.01889917
119	0x3df3064d	0.11866436
120	0xbd22c672	-0.039740033
121	0x3d5f287c	0.05448197
122	0x3df2df1b	0.1185896
123	0x3d2bb817	0.04192361
124	0x3d8b79db	0.068103515
125	0x3cfba2d6	0.030717295
126	0xbbc76fd1	-0.0060863276
127	0x3d91681d	0.07099936
128	0xbe20edd2	-0.15715721
129	0xbdadce0f	-0.08486568
130	0xbd9f6416	-0.07782762
131	0xbd3579e4	-0.044305697
132	0x3c362760	0.011117786
133	0x39b30429	0.0003414464
134	0xbc9dd86c	-0.019268237
135	0xbc76b82d	-0.015058559
136	0x3cc5f981	0.024166824
137	0xbdfe8312	-0.124273434
138	0xbd61af4b	-0.055098813
139	0x3cf63773	0.030055737
140	0x3ccf94a2	0.025339428
141	0x3d2137f9	0.03936002
142	0x3d32b30c	0.043627784
143	0xbc1ae810	-0.009454742
144	0xbdc8bd8e	-0.0980178
145	0x3e182f9c	0.14861912
146	0xbd8280ab	-0.06372198
147	0x3bd3ba50	0.006461419
148	0x3cb88327	0.022523476
149	0xbca81904	-0.02051974
150	0x3dedfc8b	0.116204344
151	0x3bbbfdda	0.0057370486
152	0x3a8bc97f	0.0010664909
153	0xbd0fbcea	-0.035092272
154	0x3b11388f	0.0022158956
155	0xbd85008a	-0.064942434
156	0xbce25dde	-0.02763265
157	0xbdee5a19	-0.116382785
158	0xbd5950d2	-0.053055592
159	0x3d39b5ab	0.045339268
160	0x3d83fac1	0.06444312
161	0x3d911ba9	0.07085354
162	0xbdf58dc2	-0.11989929
163	0xbe2e936b	-0.17048423
164	0xbce4cfc3	-0.0279311
165	0xbda7e315	-0.08197609
166	0xbce08b3a	-0.027410138
167	0xbe08d9e2	-0.13364366
168	0x3d6a56fc	0.05721186
169	0xbd9d9130	-0.07693708
170	0xbd813342	-0.06308605
171	0xbb7b764f	-0.0038370078
172	0xbe1d1b87	-0.15342532
173	0xbdc314bc	-0.09525439
174	0x3c1ad30b	0.009449731
175	0xbced10e7	-0.028938724
176	0xbd8c856c	-0.06861386
177	0x3da433e4	0.0801771
178	0x3dae769e	0.08518718
179	0xbacecd8d	-0.0015777812
180	0xbd82d59e	-0.063884005
181	0xbdaf5398	-0.08560866
182	0x3ce6b7fc	0.028163902
183	0xbd4d8b5c	-0.05018173
184	0x3c58de90	0.013236657
185	0xbdc829f6	-0.097736284
186	0xbc9c81d6	-0.01910488
187	0x3dbdeab2	0.0927328
188	0x3d288316	0.04114064
189	0x3d9d10b2	0.076692
190	0x3d197fcc	0.037475392
191	0x3def9853	0.116989754
192	0xbd0becac	-0.034161255
193	0x3dabadce	0.0838276
194	0x3e05d970	0.13071227
195	0x3d26e9e7	0.04075041
196	0x3c30a04a	0.010780403
197	0xbcf12440	-0.02943623
198	0xbc9c228f	-0.019059448
199	0xbd36c423	-0.044620644
200	0x3d29b461	0.04143179
201	0x3a9f749d	0.0012165491
202	0x3c8e5b00	0.017377377
203	0xbcce1e49	-0.025160925
204	0xbd940c42	-0.072289005
205	0xbd08f021	-0.03343213
206	0x3cff3652	0.031153832
207	0xbcdb6e28	-0.026785925
208	0x3c9696e8	0.018382505
209	0xbd1831ec	-0.037156984
210	0xbdcdc232	-0.100468054
211	0x3d3f2108	0.04666236
212	0x3c6a4a2a	0.014299909
213	0xbe04b6e2	-0.1296039
214	0xbd44ed13	-0.048077654
215	0xbbfca08a	-0.0077095674
216	0x3ad802f0	0.0016480368
217	0x3d60d807	0.05489352
218	0xbcd3842d	-0.025819862
219	0x3b66cc2b	0.0035216908
220	0x3d29c2eb	0.041445654
221	0xbd10fcab	-0.035397213
222	0xbbcfac5b	-0.006337685
223	0xbcff7b54	-0.031186737
224	0xbd9a4e89	-0.07534511
225	0x3bb3e128	0.005489487
226	0xbd7506bd	-0.05982088
227	0x3cbc943a	0.023019899
228	0x3d517cdb	0.051144462
229	0xbd7febd5	-0.062480766
230	0xbd520a53	-0.051279377
231	0x3d3b467a	0.04572151
232	0xbd44c69b	-0.048040967
233	0xbd891fa3	-0.06695487
234	0xbc7add8f	-0.015311613
235	0x3e4eecbe	0.20207497
236	0xbe513dc2	-0.20433715
237	0x3e0289c8	0.12747872
238	0x3c9b5906	0.018963348
239	0x3db3bcba	0.08776231
240	0x3d534785	0.05158188
241	0x3c497ccd	0.012297821
242	0xb9aa0d5d	-0.00032434883
243	0xbc8f81ca	-0.017517943
244	0xbc003c5c	-0.007826891
245	0xbd3ecd7d	-0.046582688
246	0x3dfded2a	0.12398751
247	0xbe285a91	-0.16440798
248	0xbe590304	-0.21192557
249	0xbc418581	-0.011811615
250	0xbd1e148e	-0.03859382
251	0x3d0208e2	0.031746753
252	0x3d92cdf0	0.07168186
253	0x3d05718b	0.032578986
254	0x3da8d04a	0.08242853
255	0xbd30d827	-0.04317489

conv1.att_dst f4 [1, 4, 64]
0	0x3e05881a	0.130402
1	0xbd1e913d	-0.03871273
2	0x3df34dc0	0.11880064
3	0x3cb3ceb9	0.021949159
4	0x3a7b95d1	0.00095972145
5	0x3e007dc4	0.12547976
6	0x3d13bd13	0.036068987
7	0x3da747d3	0.08167996
8	0xbe4e90d9	-0.20172442
9	0xbdb57cde	-0.08861707
10	0x3d6d3e91	0.057920996
11	0xbdde0169	-0.10840113
12	0x3bb2d3ad	0.0054573626
13	0xbe24f2fc	-0.16108316
14	0x3ddf7af4	0.10912123
15	0x3e3aac0e	0.18229696
16	0xbde9399c	-0.11387941
17	0xbc14e6ee	-0.009088261
18	0x3ba1fab2	0.0049432153
19	0x3d185fca	0.037200727
20	0x3e523aef	0.20530294
21	0xbd318da5	-0.043347973
22	0x3e027c8c	0.12742823
23	0xbe8b8d1b	-0.27256092
24	0xbe0f167d	-0.13973422
25	0x3d838337	0.064215116
26	0x3dff53f6	0.12467186
27	0x3d5da757	0.054114666
28	0xbe48414b	-0.19556157
29	0x3db9ed2c	0.0907844
30	0x3dff9d62	0.1248119
31	0xbbff8c09	-0.007798676
32	0x3d0188d8	0.031624645
33	0xbd416650	-0.047216713
34	0x3e1801cc	0.14844435
35	0xbceabebe	-0.028655406
36	0xbdb6bc06	-0.089225814
37	0x3d990fca	0.07473715
38	0xbd9d03fd	-0.07666776
39	0xbd952dcc	-0.07284126
40	0xbbb706ed	-0.0055855424
41	0xbda9a7da	-0.08283968
42	0xbcea7ecc	-0.028624915
43	0xbcaff01e	-0.021476801
44	0x3e02ea36	0.12784657
45	0x3daeaac7	0.08528667
46	0xbd97d3c7	-0.0741344
47	0xbd690873	-0.056892823
48	0x3dbcb4b5	0.09214155
49	0xbd9993e6	-0.074989125
50	0xba5b58aa	-0.0008367399
51	0xbb1bec2f	-0.00237919
52	0xbb8d0594	-0.0043036435
53	0xbe088bf5	-0.1333464
54	0x3ddfbb5e	0.10924409
55	0xbe26125e	-0.16217944
56	0x3e325d01	0.1741829
57	0xbca83e9c	-0.020537667
58	0x3d86c947	0.06581359
59	0x3dea934f	0.11453878
60	0x3dcb4715	0.09925667
61	0x3db62bee	0.08895098
62	0xbe07272d	-0.13198538
63	0xbe5349bf	-0.206336
64	0xbe014af6	-0.12626252
65	0x3e4a2ce0	0.19743681
66	0xbdbf137b	-0.093298875
67	0x3dc4d116	0.096101925
68	0xbcdb2171	-0.026749345
69	0xbe27f9eb	-0.1640393
70	0xbc1efc32	-0.009703683
71	0x3cc03b6d	0.023465836
72	0x3dae4990	0.08510125
73	0xbd9528f5	-0.072832026
74	0xbbf8b4bf	-0.007589906
75	0xbafc4e7f	-0.0019249468
76	0x3e07e9dd	0.13272806
77	0xbc720f18	-0.014774106
78	0xbc91c8fb	-0.01779603
79	0x3b121fab	0.0022296708
80	0xbcd6093e	-0.026127454
81	0x3da88adb	0.082296096
82	0x3d2c1128	0.04200855
83	0x3d0298a7	0.031883862
84	0x3d4c5a7b	0.049890976
85	0x3d119622	0.03554357
86	0x3c428b21	0.011873991
87	0x3d07c03b	0.03314231
88	0xbda5b9b1	-0.080920584
89	0xbcfc5957	-0.03080432
90	0xbd833e5b	-0.06408378
91	0x3dbea0ab	0.09307989
92	0xbe7f9703	-0.2495995
93	0xbc1d9863	-0.009618851
94	0xbdd6c519	-0.10486812
95	0x3da3e16d	0.08001981
96	0xbc84c568	-0.016207412
97	0x3dd3f86a	0.103501156
98	0x3daf0f4f	0.08547842
99	0xbe249d37	-0.16075598
100	0xbd08e18a	-0.033418216
101	0x3d1b7573	0.037953805
102	0x3d884abf	0.06654882
103	0x3d5a2d45	0.05326583
104	0xbb68d3e8	-0.0035526697
105	0x3d037217	0.032091226
106	0x3d9eb003	0.07748415
107	0xbdafe4a2	-0.0858853
108	0xbd843559	-0.06455488
109	0x3b396259	0.002828738
110	0x3c0c0408	0.008545883
111	0xbd82d724	-0.06388691
112	0x3d9f4e4f	0.07778608
113	0x3d6fdb47	0.05855873
114	0x3daba859	0.08381719
115	0x3d3f9100	0.046769142
116	0x3df3bfab	0.11901792
117	0x3e3da4f4	0.18519956
118	0xbdab8ddf	-0.08376669
119	0x3c3783c4	0.011200849
120	0xbda3e13c	-0.080019444
121	0x3d4ac2e9	0.049502287
122	0xbb18f465	-0.002333903
123	0x3d678a1a	0.05652819
124	0x3ba92223	0.00516154
125	0xbe36422c	-0.1779868
126	0xbe1d4925	-0.15359934
127	0xb9282235	-0.00016034472
128	0x3cfc2551	0.030779513
129	0xbe0927cf	-0.13394092
130	0x3de459a1	0.11149908
131	0xbe45a68f	-0.19301818
132	0x3dbb4585	0.09144119
133	0xbe01c938	-0.12674415
134	0x3d0c3eb7	0.034239497
135	0x3da9f256	0.08298175
136	0x3e40501d	0.18780561
137	0x3dbd3242	0.092381015
138	0xbd7e8e6e	-0.06214755
139	0xbd34650f	-0.04404169
140	0x3e1ef6a0	0.15523767
141	0x3e26e7a8	0.16299307
142	0xba7a6742	-0.000955213
143	0x3de0989b	0.10966607
144	0xbc89c9cd	-0.016819859
145	0xbc155b77	-0.009116045
146	0x3cfe164d	0.031016493
147	0xbbccf50a	-0.006254797
148	0x3d5babae	0.053630523
149	0x3d826059	0.06366033
150	0xbd64cb50	-0.055857956
151	0xbc798621	-0.015229733
152	0xbd3f2705	-0.04666807
153	0xbcc525a1	-0.024065794
154	0xbd9f18bb	-0.07768389
155	0xbced8548	-0.028994218
156	0xbd80e4cc	-0.062936395
157	0x3db7c7aa	0.0897363
158	0x3d3ea1b4	0.04654093
159	0x3d0f8b85	0.035045166
160	0x3d6373eb	0.05553047
161	0xbc728ef7	-0.014804593
162	0xbca81052	-0.020515595
163	0xbc93ff6c	-0.01806613
164	0x3cbc8498	0.023012444
165	0xbca260c7	-0.019821538
166	0xbc83b7ab	-0.01607879
167	0x3d8b35cd	0.06797371
168	0x3e1e576f	0.15463041
169	0x3d7fe6bd	0.06247591
170	0xbd13ed6b	-0.03611509
171	0xbdcda67e	-0.100415215
172	0x3d33f8ed	0.043938566
173	0xbcc0a62f	-0.023516743
174	0xbd6c3034	-0.057663158
175	0xbdda2930	-0.10652387
176	0x3cbca7bc	0.0230292
177	0x3d864abf	0.065572254
178	0x3b2d16ee	0.0026411372
179	0x3d134842	0.035957582
180	0xbe30228f	-0.17200683
181	0x3d0dfc98	0.03466472
182	0x3da07014	0.07833877
183	0x3d9b8194	0.075930744
184	0x3ddb8bef	0.107200496
185	0x3dcc677d	0.09980676
186	0x3dbdac56	0.09261386
187	0xbdca0058	-0.09863347
188	0xbd3c0bcb	-0.045909684
189	0xbc2297fa	-0.009923929
190	0xbdf6fb14	-0.12059608
191	0x3e17ab1c	0.14811367
192	0x3dc8602e	0.0978397
193	0x3b726c41	0.0036990794
194	0x3de5b876	0.11216824
195	0x3d5b3308	0.053515464
196	0xbe5bc7fc	-0.21463007
197	0x3cb85577	0.02250169
198	0x3e05186d	0.12997599
199	0x3db56106	0.088563964
200	0xbe050225	-0.129891
201	0xbe246651	-0.16054656
202	0xbdea605f	-0.114441626
203	0xbe35ddcb	-0.17760389
204	0x3cb3e3e9	0.021959262
205	0xbd894841	-0.067032345
206	0x3e45fb73	0.19334202
207	0xb8915e32	-6.931684e-05
208	0xbc61e01b	-0.013786341
209	0xbe3c82be	-0.18409249
210	0x3e18e733	0.14931946
211	0x3eaaf9b5	0.33393636
212	0x3dfbba66	0.12291412
213	0x3c525bdc	0.012839284
214	0x3d736a78	0.05942771
215	0x3d44db91	0.048060957
216	0xbcbe5a79	-0.0232365
217	0x3c5e7784	0.013578299
218	0xbe06df10	-0.13171029
219	0x3df8e782	0.121535316
220	0x3c8a0b89	0.016851204
221	0x3d7f6326	0.062350415
222	0x3e802994	0.25031722
223	0x3d03d6a1	0.032187108
224	0x3dd33729	0.10313255
225	0xbdfcf326	-0.123510644
226	0x3e719a38	0.23593986
227	0xba09181e	-0.0005229729
228	0xbe1058e7	-0.14096414
229	0xbd9308bc	-0.071794
230	0xbe419aa7	-0.18906651
231	0x3dfcdc2f	0.12346684
232	0xbdd7c593	-0.10535731
233	0xbd433235	-0.047655303
234	0xbdd17a3a	-0.10228391
235	0x3d04a6c2	0.032385595
236	0xbda44788	-0.08021456
237	0x3d85fdf3	0.065425776
238	0xbb670be6	-0.0035254895
239	0x3defab54	0.117026
240	0xbe2bd201	-0.16779329
241	0x3e309409	0.17243971
242	0xbe5648ce	-0.2092621
243	0xbdf7a05c	-0.12091133
244	0x3dd9b57f	0.10630321
245	0x3e1ab17e	0.1510677
246	0x3cc973c7	0.02459134
247	0xbdf6c4d8	-0.12049264
248	0x3d3078d6	0.043083988
249	0xbe5f8809	-0.21829237
250	0xbe607cc7	-0.21922599
251	0xbdabe0c2	-0.083924785
252	0x3e6ff17c	0.23431963
253	0xbdd4550a	-0.103677824
254	0xbdb8ee7f	-0.090298645
255	0xbceec5c7	-0.029147042

conv1.bias f4 [256]
0	0xbb3c60e0	-0.0028744265
1	0xbd03d169	-0.03218213
2	0xbaf7c6f1	-0.0018903894
3	0x3cbe2934	0.023213007
4	0x3a365855	0.00069559115
5	0xbc462af7	-0.012095205
6	0xbd36c214	-0.04461868
7	0xbde59b03	-0.11211207
8	0xbbcddf67	-0.006282735
9	0xbc0a7bec	-0.008452397
10	0x384fe436	4.9565184e-05
11	0xbae8d495	-0.001776355
12	0xbbee9e25	-0.007282036
13	0xbc7416c5	-0.014898007
14	0x3d923ef1	0.07140911
15	0xbd84c040	-0.06481981
16	0x3c86f4c5	0.016474137
17	0x3d240637	0.04004499
18	0x3cbf2dd1	0.023337277
19	0xbccbf965	-0.024899194
20	0x3cde10be	0.027107593
21	0xbd1d5eb6	-0.0384204
22	0x3d552ed5	0.052046616
23	0x3d39d5f0	0.045370042
24	0x3d65baa0	0.056086183
25	0x3ca311a4	0.019905873
26	0x3b2aa663	0.0026039116
27	0xbd58b42d	-0.052906204
28	0xbdf7699b	-0.120806895
29	0xbd83ac16	-0.06429307
30	0x3cfab5d7	0.030604286
31	0xbdd8c0d6	-0.105836555
32	0x3d00cb01	0.0314436
33	0xbc024ff3	-0.007953632
34	0x3cc3ffb4	0.02392564
35	0xbd5ba994	-0.05362852
36	0x3af05d18	0.0018338291
37	0x3decfb92	0.11571421
38	0xbc4eedb7	-0.012629918
39	0x3c8b2dba	0.016989578
40	0xbdd794f0	-0.105264544
41	0x3cb47c39	0.02203189
42	0xbbbeac84	-0.0058189053
43	0x3ccb3154	0.024803795
44	0xbd26be5d	-0.04070889
45	0x3d82ef8f	0.063933484
46	0xbd05208f	-0.032501753
47	0x3c480cf6	0.012210121
48	0x3cb32489	0.021868007
49	0xbcabe933	-0.020985221
50	0x3cf1f6a1	0.029536547
51	0xbc4be845	-0.012445514
52	0xbd86b3dc	-0.06577274
53	0xbc9f5160	-0.019447982
54	0xbd765b81	-0.06014586
55	0xbdca7ec7	-0.09887462
56	0xbd866943	-0.06563046
57	0x3d6d63d3	0.057956528
58	0xbca7d8c7	-0.02048911
59	0xbb9670f3	-0.0045911013
60	0xbd6820d1	-0.05667192
61	0x3c830ef1	0.015998336
62	0x3cd73593	0.026270663
63	0xbcea4e11	-0.028601678
64	0x3d215835	0.03939076
65	0xbc8052b3	-0.015664434
66	0x3d93fa1d	0.0722544
67	0x3c890656	0.016726654
68	0x3b91eabe	0.0044530323
69	0x3ce32907	0.027729524
70	0xbca440d7	-0.02005045
71	0x3c515adb	0.012778009
72	0x3dba1ab3	0.09087124
73	0x3d8cce8b	0.068753324
74	0x3d308b67	0.043101694
75	0x3d8f92fb	0.07010456
76	0x3c6fb287	0.014629967
77	0x3b901bec	0.00439786
78	0x3c4d5a07	0.012533671
79	0x3c19dcd2	0.009391027
80	0x3b71b7b2	0.0036883173
81	0x3dbc1fd5	0.09185759
82	0x3d2fa9b3	0.042886447
83	0x3ccf1894	0.025280274
84	0x3d00e78b	0.031470817
85	0x3c834bd7	0.016027374
86	0x3cf4ee23	0.029898709
87	0x3d5e6371	0.054294053
88	0x3bf167a3	0.007367091
89	0x3d0990cc	0.033585355
90	0x3cb44138	0.022003755
91	0x3d9206ee	0.07130228
92	0xbc534588	-0.0128949955
93	0xbcdc51aa	-0.02689441
94	0x3d34b76e	0.044120245
95	0x3c52cd19	0.012866282
96	0x3d8acf65	0.067778386
97	0x3d59da43	0.053186666
98	0x3c6b83cb	0.014374684
99	0x3cc41deb	0.023940047
100	0x3cb966d2	0.022632036
101	0xbd1d3996	-0.038384996
102	0x3d89f6bb	0.06736513
103	0x3cf7ba36	0.03024016
104	0xbbbd541a	-0.005777848
105	0x3d990157	0.07470959
106	0xbc7e5520	-0.015523225
107	0xbc8f672b	-0.017505249
108	0x3d130993	0.035897803
109	0x3d06d6f5	0.032919843
110	0x3b7ad3ab	0.0038273137
111	0x3d00a2f6	0.03140541
112	0x3ccf1324	0.025277682
113	0x3cb48d33	0.022039985
114	0x3bddff89	0.006774847
115	0x3cee21be	0.029068824
116	0x3d05b8bf	0.03264689
117	0x3d8d9c9f	0.06914639
118	0x3d6569f5	0.05600925
119	0x3c7ecef2	0.015552269
120	0x3dc598c4	0.09648278
121	0x3cb404be	0.021974918
122	0x3d7e616e	0.062104635
123	0x3d800d7f	0.06252574
124	0x3d831ea4	0.064023286
125	0xbc5d48ca	-0.013506124
126	0xbd0e5721	-0.03475106
127	0xbd20406c	-0.039123937
128	0xbd4dd074	-0.050247625
129	0x3d7f870d	0.062384654
130	0x3cb1c201	0.021698954
131	0x3be89ecc	0.007099008
132	0x3b1b90fa	0.0023737536
133	0x3c99fac3	0.01879633
134	0x3d82291e	0.06355499
135	0xbc84d2b3	-0.01621375
136	0x3d68d0ba	0.056839682
137	0x3da4c854	0.08046022
138	0x3c88bebb	0.01669251
139	0x3c2c5ba8	0.010519899
140	0xbc20a027	-0.009803808
141	0x3dc41da7	0.09575968
142	0x3d5a5d68	0.053311735
143	0x3ccfb516	0.025354903
144	0x3d8e00db	0.06933757
145	0xbd871950	-0.06596625
146	0x3d952ef1	0.07284344
147	0x3d784b56	0.06061872
148	0x3d0906f3	0.033453893
149	0xbcbb4113	-0.022858178
150	0x3d0a2e16	0.033735357
151	0x3c97bcbb	0.01852261
152	0x3da72865	0.081620015
153	0x3cdb7d7b	0.026793232
154	0x3d0b401e	0.033996694
155	0x3d105be3	0.03524388
156	0x3d6a9ac3	0.0572765
157	0x3c914666	0.017733764
158	0xbc09d8ca	-0.008413503
159	0x3c1ef50b	0.0097019775
160	0x3d06ee89	0.03294233
161	0x3c500dbe	0.012698589
162	0xbc216a4a	-0.009852001
163	0xbcb4d179	-0.02207254
164	0xbb4774f6	-0.0030434704
165	0xbb5b5d29	-0.0033472276
166	0x3da36b38	0.07979435
167	0x3c20c186	0.009811765
168	0x3bf962c9	0.007610653
169	0x3d88abe5	0.06673411
170	0x3d2a729c	0.041613206
171	0x3d0412cc	0.03224449
172	0x3bb5e6d2	0.0055511976
173	0xbcf245e4	-0.029574342
174	0x3c818ce1	0.015814247
175	0x3d2d745f	0.04234731
176	0xbc864cf7	-0.016394122
177	0xbc9fb869	-0.019497113
178	0x3b1e0276	0.0024110354
179	0x3cf91c09	0.030408876
180	0x3db3e9fd	0.08784864
181	0x3d4a2b88	0.04935792
182	0xbaa86901	-0.0012848676
183	0xbaf590b1	-0.0018735138
184	0x3d984d17	0.07436579
185	0x3dae2af6	0.08504288
186	0x3d8583f6	0.0651931
187	0x3d81efd1	0.063445695
188	0x3d8939bc	0.06700465
189	0x3b30daf1	0.0026985968
190	0xbb3e13ac	-0.0029003425
191	0x3d2ae8ed	0.04172604
192	0xbc590622	-0.013246091
193	0x3d9e819c	0.07739565
194	0x3d817263	0.06320646
195	0x3d722d7d	0.059125412
196	0x3c55e981	0.01305616
197	0x3c394304	0.011307482
198	0x3df84f97	0.121245556
199	0x3c1a37c9	0.009412714
200	0x3d7a4467	0.06110039
201	0x3e0a6fe3	0.13519244
202	0x3dfc462e	0.12318073
203	0x3b9479f6	0.0045311404
204	0x3ce7d845	0.028301368
205	0x3df1b0ed	0.11801324
206	0x3d1e29aa	0.038613953
207	0x3da4131c	0.08011457
208	0x3c68d1b3	0.014210152
209	0x3d21f124	0.03953661
210	0x3dc197e2	0.094527975
211	0x3dc25a62	0.094898954
212	0x3dfafb20	0.122549295
213	0xbd2f522f	-0.042802986
214	0x3c6f3c37	0.014601759
215	0x3dcee79d	0.101027705
216	0x3d3f64f1	0.046727125
217	0x3db23770	0.0870198
218	0x3d6fc82b	0.058540504
219	0x3dd54f08	0.10415465
220	0x3c355f23	0.011070046
221	0xbd452d19	-0.04813871
222	0xbd19d317	-0.037554827
223	0x3c7c5b09	0.015402564
224	0x3d139b94	0.036037043
225	0x3d0c8862	0.034309752
226	0x3d83abc4	0.06429246
227	0x3c30a2ea	0.010781029
228	0x3c5d746c	0.013516527
229	0x3d83415c	0.06408951
230	0xbc69cb52	-0.014269667
231	0x3dedb42d	0.116066314
232	0x3d9757bf	0.07389783
233	0xbd4b7f2c	-0.049681827
234	0xbca865f8	-0.020556435
235	0x3d927128	0.07150489
236	0xbc7b4676	-0.015336623
237	0x3e0c0dfe	0.13677213
238	0x3dc7dfc5	0.097594775
239	0x3e02b4d3	0.12764291
240	0x3b2dc759	0.0026516526
241	0x3dd1d17e	0.102450356
242	0x3d321bc4	0.04348351
243	0x3dc06698	0.09394568
244	0x3da633df	0.081153624
245	0x3dbb0667	0.091320805
246	0x3d30a035	0.043121535
247	0xbcd47c51	-0.025938185
248	0xbd93a522	-0.07209231
249	0x3d9bcbe2	0.07607247
250	0x3d95d0c3	0.07315209
251	0x3c127634	0.008939315
252	0x3cfd0b7d	0.030889267
253	0x3daf13fc	0.085487336
254	0xbcadb4f8	-0.021204457
255	0x3ce759ca	0.028241057

conv1.lin.weight f4 [256, 182]
0	0x3cbf187b	0.023327103
1	0x3c5000f2	0.012695538
2	0xbd90552a	-0.07047494
3	0xbc08af2c	-0.0083425455
4	0xbc12448c	-0.008927476
5	0x3c21ed12	0.009883182
6	0xbd8f6c47	-0.07003074
7	0x3cebdc05	0.028791437
8	0x3cf59a88	0.029980913
9	0xbcc842bb	-0.024445882
10	0x3d1eae9f	0.03874075
11	0xbca18bcd	-0.019719983
12	0xbcdcb8a8	-0.02694352
13	0xbc4629f4	-0.012094963
14	0xbb33c211	-0.0027428905
15	0xbce316d7	-0.027720852
16	0x3c32f173	0.010921824
17	0x39902094	0.00027490093
18	0x3ca37b82	0.019956354
19	0xbd153ea9	-0.03643671
20	0xbcc06819	-0.023487138
21	0xbce6c599	-0.028170394
22	0xbcbcea4e	-0.023060944
23	0xbd07c9a8	-0.0331513
24	0xbd03484e	-0.032051377
25	0xba1d679e	-0.0006004515
26	0x3c9cecfa	0.019155968
27	0xbd02d3ac	-0.031940147
28	0xbc317ad2	-0.010832505
29	0xbce1d784	-0.027568586
30	0xbd03f397	-0.032214727
31	0x3c2199db	0.009863342
32	0x39d90d4b	0.0004139937
33	0xbb4e8ae2	-0.0031515886
34	0xbc82851b	-0.01593261
35	0xbca442e9	-0.020051436
36	0xbd2ae646	-0.041723512
37	0xbca4a750	-0.020099312
38	0xbb9a0a12	-0.0047009075
39	0xbdb0b825	-0.08628873
40	0xbda6e1fd	-0.081485726
41	0xbd11cadd	-0.035593856
42	0xbda50bb3	-0.08058872
43	0x3d04e639	0.03244612
44	0x3d471e4b	0.048612874
45	0xbd869431	-0.06571234
46	0xbd7959d5	-0.060876686
47	0xbce1b11d	-0.027550275
48	0xbdc4667d	-0.095898606
49	0x3c540fe9	0.012943246
50	0x3c320a13	0.01086666
51	0x3d0bd28a	0.034136333
52	0x3d2ad84b	0.04171018
53	0x3bf6b487	0.0075288448
54	0x3d6802bc	0.056643233
55	0xbbadf956	-0.005309264
56	0x3c807b0e	0.015683677
57	0x3c31c84d	0.010850978
58	0xbc1c9d9e	-0.009559063
59	0xbc92cb7b	-0.017919293
60	0xbc2b8faf	-0.010471269
61	0x3c0fe08d	0.008781564
62	0xbc8de6ad	-0.017321909
63	0x3cc57a48	0.02410616
64	0xbd0f6879	-0.035011742
65	0xbcc79979	-0.024365174
66	0x3b51c705	0.0032009494
67	0x3c4af72a	0.01238803
68	0xbbb7bcf6	-0.0056072427
69	0xbd545ebd	-0.051848162
70	0xbc330a03	-0.01092768
71	0xbc80c790	-0.015720159
72	0xbd4d2098	-0.050079912
73	0x3cd82e8e	0.026389387
74	0x3c6a44cf	0.014298632
75	0x3c7b0a0d	0.0153222205
76	0xbd70e000	-0.058807373
77	0xbd439aac	-0.04775493
78	0xbcffc45f	-0.031221567
79	0x3d7aacb2	0.06119985
80	0x3d1a78a3	0.037712704
81	0xba8202c6	-0.000991904
82	0xbd761ddb	-0.060087066
83	0xbd554651	-0.052069012
84	0xbd3bd864	-0.045860663
85	0xb78de930	-1.6917096e-05
86	0x3c15f755	0.009153207
87	0x3d5d47e6	0.054023646
88	0xbc9dd858	-0.0192682
89	0x3c54d62d	0.012990517
90	0xbd15106e	-0.03639262
91	0xbb83a62f	-0.0040176134
92	0xbc56acfb	-0.013102765
93	0x3d0cc824	0.034370556
94	0x3a5d9d54	0.00084539247
95	0xbd3ae14d	-0.04562502
96	0xbcaf5f7c	-0.021407835
97	0x3d53fab5	0.051752765
98	0x3cb490cb	0.022041699
99	0x3c1261a0	0.008934408
100	0x3c638d5b	0.013888682
101	0xbcb6487d	-0.022251362
102	0x3ce0d21a	0.027443934
103	0x3c40d83f	0.011770307
104	0xbc7e8ff0	-0.015537247
105	0x3d3460a4	0.044037476
106	0x3d44ef47	0.048079755
107	0x3d19c26c	0.03753893
108	0x3d676e99	0.05650196
109	0xbcf61f8e	-0.030044343
110	0xbd454de7	-0.048169997
111	0x3d6c99a9	0.05776373
112	0xbcf5c98d	-0.030003333
113	0xbcdc72bd	-0.02691018
114	0x3a89686e	0.0010483393
115	0x3cc2fdff	0.023802755
116	0xbbc24490	-0.0059285834
117	0x3d4de902	0.05027104
118	0x3d432673	0.04764409
119	0x3cda27b1	0.026630254
120	0x3da13438	0.07871288
121	0xbc2bc241	-0.010483325
122	0xbd1dc98c	-0.03852229
123	0x3d59e8f9	0.053200696
124	0x3d111fcf	0.035430726
125	0x3c1e0ed1	0.009647087
126	0x3c7a2168	0.015266754
127	0x3c966847	0.01836027
128	0x3d697368	0.056994826
129	0xbe0137eb	-0.12618987
130	0x3c184c77	0.009295574
131	0x3b6dbbce	0.003627527
132	0xbc53fe37	-0.0129390275
133	0xbd6099b0	-0.054834068
134	0x3b2ed5dc	0.0026677763
135	0x3d26449c	0.040592775
136	0xbcbae570	-0.022814482
137	0xbc9101fe	-0.017701145
138	0xbd43359e	-0.047658555
139	0xbd2cbfa7	-0.04217496
140	0xbc1422f2	-0.009041535
141	0xbcf5cef8	-0.030005917
142	0x3c3754d8	0.011189662
143	0x3dc42d20	0.095789194
144	0x3cca52b2	0.024697635
145	0xbd5addd4	-0.053434208
146	0xbc1e32db	-0.00965568
147	0x3c181e79	0.009284609
148	0xbba8d031	-0.0051517715
149	0xbd818e19	-0.06325931
150	0x3b847323	0.0040420457
151	0x3cd4ad15	0.025961438
152	0x3c240fcf	0.010013535
153	0xbd12be30	-0.03582591
154	0x3d80b710	0.062849164
155	0x3d321cc3	0.04348446
156	0x3c8d26d0	0.017230421
157	0xbcec6f37	-0.028861625
158	0x3ab01d3b	0.0013436446
159	0x3d6544e0	0.055973887
160	0x3c959b9d	0.018262679
161	0x3d602f5e	0.054732673
162	0x3d62ddc7	0.055387285
163	0x3b8a497d	0.0042201863
164	0x3d5da88c	0.054115817
165	0x3ab789f5	0.0014002906
166	0xbd4f4287	-0.050600555
167	0xba9ad721	-0.0011813381
168	0x3b83e485	0.0040250444
169	0xbd5dc050	-0.05413848
170	0xbbdc58d4	-0.0067244563
171	0xbb2bc88b	-0.0026212062
172	0x3d152963	0.036416423
173	0x3beae506	0.007168415
174	0x3d0978de	0.033562534
175	0x3c9daf42	0.019248608
176	0x3cfe8c14	0.031072654
177	0xbca17805	-0.01971055
178	0x3cbf9091	0.023384364
179	0x3bf10843	0.007355721
180	0xbb060e5a	-0.0020455332
181	0x3cc8ae0b	0.024497053
182	0x3c901f85	0.017593155
183	0x3db250ce	0.087068185
184	0xbd15aff9	-0.036544774
185	0x3d8fe297	0.070256405
186	0x3d6a9dcd	0.057279397
187	0x3ddac5af	0.106822364
188	0x3d5ba851	0.053627316
189	0x3ce7be93	0.028289115
190	0x3d0e2b56	0.034709297
191	0xbcdb866c	-0.026797496
192	0x3cedfa0d	0.029049898
193	0xbcfaf698	-0.030635163
194	0x3c68e5ee	0.014214976
195	0x3ae6d6f3	0.0017611667
196	0xbb95569f	-0.004557445
197	0xbafa062b	-0.0019075325
198	0x3cf93986	0.030422937
199	0x3d16b6ae	0.03679531
200	0x3d11b5a2	0.03557361
201	0x3bd12f11	0.0063837846
202	0x3d5cd73c	0.0539162
203	0xbd5407af	-0.05176514
204	0xbcd8e97f	-0.026478527
205	0xbccc6737	-0.02495156
206	0xbd43ed58	-0.04783377
207	0x3d50a87a	0.05094192
208	0x3c8f852e	0.01751956
209	0xbd33c73e	-0.043891184
210	0xbd2456e6	-0.040121935
211	0xbd5b756f	-0.05357879
212	0xbd2d66de	-0.04233443
213	0x3d3d72f8	0.04625222
214	0x3cfbbc50	0.030729443
215	0x3d5d28a2	0.05399383
216	0x3ca35d25	0.019941876
217	0x3b5eea07	0.0034014003
218	0x3d600a51	0.05469734
219	0xb83441df	-4.297669e-05
220	0x3c51f720	0.012815267
221	0xbe3a87ac	-0.18215817
222	0xbe270405	-0.16310127
223	0xbb765991	-0.0037590007
224	0xbe3a20bb	-0.18176548
225	0x3d38abf4	0.045085862
226	0x3d9d52cf	0.0768181
227	0xbe2ac187	-0.16675387
228	0xbe45e941	-0.1932726
229	0x3bcb5a8a	0.0062058615
230	0xbe4d8cac	-0.20073193
231	0x3cd0bbe4	0.025480218
232	0x3ddda637	0.108227186
233	0x3d924f72	0.07144059
234	0x3d6f87d0	0.05847913
235	0x3c78324b	0.0151487095
236	0x3d1f2f6c	0.038863584
237	0x3ce30a6e	0.027714934
238	0x3d181935	0.037133414
239	0xbca76781	-0.020435097
240	0xbce5fee8	-0.02807565
241	0xbc9c3142	-0.019066457
242	0xbcfb16e6	-0.030650567
243	0xbc82a27a	-0.015946615
244	0x3d4226e7	0.04740038
245	0xbcc581a6	-0.024109673
246	0xbd20d254	-0.039263085
247	0xbc3a79af	-0.011381551
248	0xbca4e2ef	-0.020127742
249	0x3cd69901	0.026196005
250	0x3cd332fd	0.025781149
251	0x3d4e978b	0.05043749
252	0xbcc5349e	-0.024072941
253	0x3c8db259	0.017296957
254	0xbcbadb67	-0.022809697
255	0x3aa98491	0.0012933185

conv2.att_src f4 [1, 1, 64]
0	0x3dcd9538	0.10038227
1	0xbdde6092	-0.10858263
2	0xbd95eb0d	-0.07320223
3	0x3d4452e1	0.047930602
4	0xbc184a34	-0.009295035
5	0x3dc89e55	0.097958244
6	0x3da32673	0.07966318
7	0x3d907cb6	0.07055037
8	0x3cbb3656	0.022853058
9	0x3e26ed98	0.16301572
10	0xbb100da5	-0.002198079
11	0xbc78e28d	-0.015190733
12	0x3dbfada7	0.093592934
13	0xbce8eac2	-0.028432254
14	0xbd93e764	-0.07221869
15	0x3d28c14a	0.04119996
16	0x3dad8942	0.084734455
17	0x3dce6e6e	0.100796565
18	0x3cec0d1a	0.028814841
19	0x39d7438a	0.00041058316
20	0x3dda3c8e	0.10656081
21	0xb9ed5787	-0.00045269376
22	0x3e10a87b	0.1412677
23	0xbd932723	-0.07185199
24	0xbd25ac1b	-0.040447336
25	0x3d45f139	0.04832575
26	0x3dc9253f	0.09821557
27	0xbbb1945b	-0.0054192967
28	0x3c6b76e0	0.014371604
29	0x3d0cae92	0.03434617
30	0xbd00c0d5	-0.0314339
31	0x3d031dd2	0.03201086
32	0xbc0caea8	-0.008586563
33	0x3da65f48	0.08123642
34	0xbc9fb556	-0.019495647
35	0x3bb7475e	0.0055932244
36	0x3cc5d0c1	0.024147393
37	0xbc96a389	-0.018388527
38	0xbd4d1e34	-0.050077632
39	0x3d58c0ea	0.052918352
40	0xbb931fe0	-0.004489884
41	0x3be3a328	0.00694694
42	0x3cf12c2e	0.029440012
43	0xbd9598b8	-0.073045194
44	0xbe4959ba	-0.19663134
45	0x3d652abe	0.055948965
46	0x3dccae3f	0.09994172
47	0xbc7d9837	-0.015478185
48	0x3d2d1993	0.042260718
49	0x3d0e4629	0.03473488
50	0xbb549149	-0.003243523
51	0x3d80ee44	0.062954456
52	0x3de83bfa	0.113395646
53	0xbdd27883	-0.10276892
54	0xbb3a6aa8	-0.002844492
55	0x3cdf71f7	0.027276022
56	0x3d882568	0.0664776
57	0xbdc0baa8	-0.09410602
58	0xbdaccbd8	-0.084373176
59	0xbd56f2a0	-0.05247748
60	0xbe27d516	-0.1638988
61	0xbd6fc075	-0.05853315
62	0xbc4f99ef	-0.012670978
63	0xbdf3902a	-0.118927315

conv2.att_dst f4 [1, 1, 64]
0	0xbc181003	-0.009281161
1	0x3e17570e	0.14779302
2	0x3d85c3f6	0.06531517
3	0x3d61a802	0.055091865
4	0x3e0bb648	0.13643754
5	0x3ca1b488	0.019739404
6	0x3cb3fd50	0.021971375
7	0x3ce1f235	0.027581314
8	0x3d4f0218	0.050539106
9	0x3e2b8540	0.1675005
10	0xbcff8412	-0.031190906
11	0x3c9c9005	0.019111643
12	0x3e1998ee	0.14999744
13	0x3ddf8693	0.1091434
14	0x3d956e71	0.07296456
15	0x3d55c63e	0.05219101
16	0xbd78aa72	-0.060709424
17	0xbcfc4b08	-0.030797496
18	0x3ca536df	0.020167766
19	0xbaedecf1	-0.0018152279
20	0x3e886c7f	0.26645276
21	0xbbacbea8	-0.0052717514
22	0xbc499f5a	-0.012306059
23	0xbc8db73d	-0.017299289
24	0x3e5bd985	0.21469696
25	0x3b06e196	0.0020581237
26	0x3d9ad2db	0.07559749
27	0x3cdddc23	0.027082508
28	0x3db1fed5	0.086911835
29	0xbd4e6ad3	-0.050394844
30	0xbc46a643	-0.012124601
31	0x3e185b25	0.14878519
32	0xbc82c77e	-0.015964266
33	0x3cb7a378	0.022416815
34	0x3e186414	0.14881927
35	0xbd6927c9	-0.056922708
36	0x3ca10d60	0.019659698
37	0x3e57694d	0.21036263
38	0x3d0ab437	0.033863273
39	0x3d67e04d	0.056610394
40	0x3c66ada9	0.01407949
41	0x3c06ae4e	0.008220268
42	0xbd993bf8	-0.07482141
43	0xbd830e8c	-0.06399259
44	0x3dcac53e	0.09900902
45	0x3e0592a6	0.13044223
46	0x3c340b31	0.010988996
47	0xbde2d628	-0.11076003
48	0x3dfc9d55	0.12334696
49	0x3dc1e0f8	0.094667375
50	0x3d5f3455	0.054493267
51	0x3db29115	0.087190785
52	0x3e29145f	0.16511677
53	0xbdba827f	-0.091069214
54	0xbbe8d9e6	-0.0071060536
55	0x3df85038	0.121246755
56	0xbd3fc6c6	-0.046820424
57	0x3e238800	0.15969849
58	0x3e83a52b	0.2571195
59	0x3c398cca	0.011325071
60	0x3e22b66a	0.15889898
61	0x3dc76703	0.09736445
62	0xbdbfdf32	-0.09368743
63	0xbde3d15a	-0.11123915

conv2.bias f4 [64]
0	0x3c0fa882	0.008768203
1	0x3e081f84	0.13293272
2	0xbba314de	-0.004976853
3	0xbc5872d7	-0.013210974
4	0xbd4c49f5	-0.04987522
5	0x3bd44720	0.0064782053
6	0xbc4ee434	-0.01262765
7	0x3db82975	0.08992282
8	0xbe08dec5	-0.1336623
9	0x3c96dcce	0.018415835
10	0xbbb214d9	-0.005434614
11	0x3d2954fc	0.041340813
12	0x3db93466	0.09043197
13	0x3d11f21c	0.035631284
14	0x3df5958b	0.11991414
15	0xbd0e7fda	-0.034789898
16	0x3d5414d2	0.05177767
17	0x3d7b6da5	0.061383862
18	0x3cff7967	0.031185819
19	0x3d276d1b	0.040875535
20	0xbcf2d723	-0.0296436
21	0x3d51a96e	0.05118697
22	0x3e70481b	0.23465006
23	0x3c1fa266	0.009743309
24	0x3c9bc7e2	0.01901621
25	0x3ab73c1f	0.001397971
26	0x3d7fcbc1	0.062450174
27	0x3d956d6b	0.072962604
28	0x3e5402f0	0.20704246
29	0x3b8f4fe3	0.004373537
30	0xbd176a66	-0.036966704
31	0x3d9c930a	0.07645233
32	0x3c23a7b1	0.009988711
33	0x3d2907e3	0.041267287
34	0xbd1c2f71	-0.03813118
35	0xbc75e65b	-0.015008534
36	0xbcf068e2	-0.029346887
37	0xbd8a2f04	-0.06747249
38	0x3dff1d2e	0.124567375
39	0xbe3b6e13	-0.18303709
40	0x3d6f8731	0.058478538
41	0xbc3fff1f	-0.01171854
42	0x3d0ee82f	0.034889396
43	0xbcf6c22f	-0.03012189
44	0xbdd57418	-0.10422534
45	0x3afc3e0f	0.0019244569
46	0x3c50951c	0.012730863
47	0x3c853330	0.01625976
48	0x3d3a4ea6	0.04548516
49	0x3cb2dba4	0.021833248
50	0xbc90173e	-0.017589208
51	0xbce03714	-0.027370013
52	0x3ad1f1c6	0.0016017489
53	0xbc07daf7	-0.008291951
54	0xbd03f40e	-0.03221517
55	0x3d4d2f16	0.050093733
56	0x3d20a8ae	0.039223365
57	0x3de2e412	0.11078657
58	0xbbbde8d1	-0.005795576
59	0x3c6a18a8	0.014288105
60	0x3d8fe9f2	0.070270434
61	0x3c1ada6f	0.009451493
62	0x3d5bf8c7	0.05370405
63	0xbb132b11	-0.002245609

conv2.lin.weight f4 [64, 256]
0	0xbd8393b4	-0.064246565
1	0xbb15005c	-0.002273581
2	0xbca2697c	-0.01982569
3	0x3bb69f52	0.0055731917
4	0x3c03af5f	0.008037417
5	0xbc17cdcb	-0.009265373
6	0x3e0fbe0f	0.14037345
7	0xbd7bf76d	-0.06151526
8	0x3b87fd07	0.0041500363
9	0x3c60a79f	0.013711839
10	0xbd0cbbab	-0.03435866
11	0x3c6b0227	0.014343775
12	0x3cc2da32	0.023785684
13	0xbcb80f1c	-0.022468142
14	0xbb3d1a1b	-0.0028854671
15	0x3d049028	0.03236404
16	0xbe344c33	-0.17607193
17	0xbbc9c4b5	-0.0061574825
18	0x3b85b009	0.004079823
19	0xbe245b6c	-0.160505
20	0xbc1c800e	-0.009552015
21	0xbd1f7a26	-0.03893485
22	0xbd067000	-0.032821655
23	0x3d692e7c	0.056929097
24	0x3cd95bf9	0.026533114
25	0xbbfa9fdb	-0.007648451
26	0xbced7221	-0.028985085
27	0xbc73e154	-0.014885265
28	0x3c1c3b07	0.009535558
29	0x3c46dcd5	0.012137611
30	0xbcf2590f	-0.029583482
31	0xbe0614a4	-0.13093811
32	0x3e03a644	0.12856394
33	0xbda4e3a8	-0.080512345
34	0xbd20afc6	-0.03923013
35	0xbb97a0bf	-0.0046273167
36	0x3d1ddcba	0.03854058
37	0x3de11466	0.10990219
38	0xbd435b0c	-0.04769425
39	0xbd846129	-0.06463844
40	0xbd78ca26	-0.06073966
41	0x3c4d1c61	0.012518973
42	0xbbab0a86	-0.0052197604
43	0xbc2f5e40	-0.010703623
44	0xbd236587	-0.039891746
45	0xbdd475a2	-0.10373999
46	0x3ba42ebb	0.0050104535
47	0x3c0df40c	0.008664142
48	0xbe3b24ef	-0.18275808
49	0x3d815ddb	0.0631673
50	0x3b4f45b2	0.0031627235
51	0xbd3b32ca	-0.045702733
52	0xbe2f447b	-0.17115967
53	0xbbd57119	-0.0065137264
54	0xbc43b6dd	-0.0119454535
55	0x3ced49e3	0.028965896
56	0xbd3584b5	-0.044316012
57	0x3d8ecbf5	0.069724955
58	0x3dfa470a	0.12220581
59	0xbd22729c	-0.03966008
60	0x3d34355a	0.043996193
61	0x3cb90c41	0.02258885
62	0xb96aa000	-0.00022375584
63	0xbc7b4a93	-0.015337604
64	0x3883feb0	6.294006e-05
65	0x3c9fe013	0.019516027
66	0xbdb49c8c	-0.088189214
67	0x3d0c9242	0.03431917
68	0xbcb01b02	-0.021497253
69	0x3c8a72f2	0.016900513
70	0xbdf3613b	-0.118837796
71	0x3d0aad6e	0.0338568
72	0x3c78db81	0.015189053
73	0xbd19476a	-0.03742162
74	0x3c81bb46	0.01583637
75	0x3ce89975	0.028393487
76	0xbd1925fa	-0.037389733
77	0xbcdd341a	-0.027002383
78	0x3ddae610	0.10688412
79	0xbc8a38a1	-0.016872706
80	0x3b930975	0.0044872114
81	0xbaacc651	-0.0013181661
82	0xbdea69bc	-0.114459485
83	0x3ce35866	0.027752113
84	0x3ca0ab46	0.01961292
85	0xbdce281c	-0.10066244
86	0xbd56bc10	-0.052425444
87	0xbe1013bc	-0.14070028
88	0xbd8c2635	-0.06843225
89	0xbe283b39	-0.16428842
90	0x3d27187f	0.040794846
91	0xbce41e59	-0.027846502
92	0x3c2198b0	0.009863064
93	0xbcea9f8f	-0.028640537
94	0x3d11a122	0.03555406
95	0x3d294463	0.041324984
96	0xbcc20000	-0.02368164
97	0x3c8a3eed	0.016875708
98	0x3d2b3d11	0.041806284
99	0x3d5d68f8	0.054055184
100	0xbc131c9f	-0.008978992
101	0x3cdc4ac8	0.026891127
102	0x3d47b5a5	0.048757214
103	0x3d0beb26	0.034159802
104	0xbd152880	-0.036415577
105	0xbc766c34	-0.015040446
106	0x3cdfd0ac	0.027321182
107	0x3c74c370	0.014939174
108	0xbd63c070	-0.055603445
109	0xbd4736af	-0.048636135
110	0xbc256473	-0.01009475
111	0x3ac707a9	0.0015184778
112	0xbd59ab31	-0.053141776
113	0xbdbc85d4	-0.09205213
114	0x3d3cde4d	0.04611044
115	0xbd04446c	-0.032291815
116	0xbd1d6e87	-0.038435485
117	0x3d0daa19	0.034586046
118	0xbc055e2d	-0.008140129
119	0x3cf331df	0.029686866
120	0x3981741f	0.00024691314
121	0x3bb1fc8e	0.005431718
122	0x3dfb302a	0.12265046
123	0xbb7a34fd	-0.0038178556
124	0x3cd3ed7a	0.025870074
125	0x3d6cc7bf	0.05780768
126	0xbc70b8a3	-0.014692458
127	0x3dbfb3f3	0.093604945
128	0x3d084d7f	0.03327703
129	0x3d8798c3	0.06620934
130	0x3d380af9	0.04493234
131	0xbc02a2f5	-0.007973422
132	0x3c8fd230	0.01755628
133	0x3cb37e76	0.021910887
134	0xbcb6daac	-0.022321068
135	0x3d6b134f	0.05739146
136	0x3c71d1bc	0.014759477
137	0x3d332207	0.043733623
138	0xbc18ae7d	-0.009318945
139	0xbbacacb8	-0.005269613
140	0x3c0d4c30	0.008624122
141	0x3caa8264	0.020814128
142	0x3d0a8b7f	0.03382444
143	0x3d063e92	0.032774515
144	0x3c9a0ad4	0.018803991
145	0x3c6a3e34	0.014297057
146	0xbd5a5271	-0.05330128
147	0x3bdeefb1	0.006803476
148	0x3d72440c	0.059146926
149	0xbc8d1b87	-0.01722504
150	0x3cf92fa9	0.030418234
151	0xbe0e1821	-0.13876392
152	0xbdb889e9	-0.09010679
153	0x3a01043f	0.0004921592
154	0x3cd84f92	0.02640513
155	0xbd0be16c	-0.034150526
156	0x3cf34462	0.029695693
157	0xbbf604fd	-0.007507919
158	0x3d013276	0.031542264
159	0x3d0155ea	0.031576075
160	0x3c78e0a5	0.015190278
161	0xbcbad1e2	-0.022805158
162	0xbc8ad02b	-0.016944965
163	0x3ca26f17	0.019828362
164	0x3d8bed54	0.06832376
165	0xbb7b82e9	-0.003837759
166	0x3ced6520	0.028978884
167	0x3c59b8ea	0.013288716
168	0x3c5a1705	0.013311152
169	0x3ca817d5	0.020519176
170	0x3b94b2e6	0.004537928
171	0x3c8a0f89	0.01685311
172	0xbbda4f56	-0.0066622896
173	0x3ceac062	0.028656188
174	0x3beb4ab9	0.0071805385
175	0x3c78ba42	0.015181126
176	0x3bd2c0d9	0.0064316806
177	0x3c825d15	0.015913526
178	0xbcb974c6	-0.02263869
179	0xbc9c0580	-0.019045591
180	0x3d9a2b73	0.075278185
181	0xb7eb9dc2	-2.8087645e-05
182	0x3cc089ab	0.023503145
183	0x3bef1fd3	0.007297495
184	0xbc21021e	-0.009827165
185	0xbc056639	-0.008142048
186	0xba9cc114	-0.0011959397
187	0x3cbf789b	0.023372939
188	0x3ad8ff5a	0.0016555593
189	0xbd40853a	-0.047002055
190	0x3d2031fb	0.039110165
191	0x3d85fbab	0.065421425
192	0xbc46fbed	-0.012145025
193	0xbc1042b5	-0.008804967
194	0x3c43a0f0	0.011940226
195	0x3dba54db	0.09098216
196	0x3d719ab1	0.058985416
197	0xbdbd5fb5	-0.0924677
198	0x3d185c63	0.03719748
199	0xbbed8d66	-0.007249522
200	0xbd8c17b5	-0.06840459
201	0xbc97cdbe	-0.018530723
202	0xbddeec24	-0.10884884
203	0x3dba2d59	0.09090681
204	0x3c9dedcf	0.019278435
205	0xbdf2937c	-0.11844537
206	0x3ca8b764	0.02059526
207	0xbc98ecfb	-0.018667689
208	0xbe08a2ad	-0.13343306
209	0x3d031547	0.032002714
210	0xbc847810	-0.016170532
211	0xbd0fe4c5	-0.03513028
212	0xbd5bc4dc	-0.053654537
213	0xbd5938e9	-0.05303279
214	0x3d964013	0.0733644
215	0x3cafe22c	0.021470152
216	0x3dcc98c1	0.09990073
217	0xbd79ccd4	-0.060986355
218	0x3b638783	0.0034718222
219	0xbcbe43ee	-0.02322575
220	0xbd395f89	-0.045257125
221	0xbca7e009	-0.02049257
222	0xbd19cc1e	-0.037548177
223	0xbcc52058	-0.024063274
224	0xbbb7c1f7	-0.005607839
225	0x3c80f139	0.015740024
226	0x3d718859	0.058967922
227	0xbdd544d4	-0.104135185
228	0x3bcf5304	0.006327035
229	0x3d07513f	0.033036467
230	0x3b1b3fdc	0.0023689186
231	0x3c8d9c62	0.017286483
232	0xbda5a6e3	-0.08088472
233	0xbd950a5c	-0.072773665
234	0x3da8a015	0.08233658
235	0xbb879b15	-0.0041383603
236	0xbe09c559	-0.13454188
237	0x3ce35f26	0.027755331
238	0xbce4e9bc	-0.027943484
239	0x3d249a1a	0.040186025
240	0x3d9ede12	0.077572
241	0xbde7a564	-0.11310843
242	0xb9dfe0f8	-0.0004270149
243	0xbb800222	-0.0039065043
244	0xbd51e717	-0.051245775
245	0xbd1022e8	-0.03518954
246	0x3cd9c1a1	0.026581587
247	0x371eafc3	9.458457e-06
248	0xbdda4525	-0.106577195
249	0xbbd2a941	-0.006428868
250	0xbdccf115	-0.1000692
251	0xbc4b9c3b	-0.012427385
252	0x3c9b41a5	0.0189522
253	0xbce2940c	-0.027658485
254	0x3d2f87cf	0.042854127
255	0xbdfdf86f	-0.124009006

classifier.weight f4 [2, 64]
0	0x3cf24fd4	0.02957908
1	0xbe32bf25	-0.17455728
2	0xbd48cc0b	-0.049022716
3	0xbdc5c79b	-0.09657212
4	0x3a98c782	0.0011656138
5	0xbdb042a1	-0.086064585
6	0x3c9d1a82	0.019177679
7	0x3e25c740	0.16189289
8	0x3e43e418	0.1912998
9	0xbd4f25f2	-0.050573297
10	0x3cbb113f	0.022835372
11	0x3ce80ba4	0.028325863
12	0x3deee196	0.11664121
13	0xbd84ceff	-0.06484794
14	0xbb9ee8b3	-0.0048495173
15	0x3c6b83eb	0.014374713
16	0xbc8ec87e	-0.017429586
17	0x3d9070e0	0.07052779
18	0xbdb1b1f0	-0.08676517
19	0xbd2cc15c	-0.04217659
20	0x3e25664f	0.16152309
21	0xbd9d1246	-0.07669501
22	0xbe47f3c1	-0.19526578
23	0x3dad835c	0.084723204
24	0xbe0dcb0e	-0.1384699
25	0xbdee04af	-0.11621987
26	0x3de41a0b	0.1113778
27	0xbe2ddda9	-0.16979088
28	0xbe28afd4	-0.16473323
29	0xbda86e44	-0.082241565
30	0xbdb9b956	-0.09068553
31	0xbd77ba1a	-0.060480215
32	0xbd13983f	-0.036033865
33	0xbdb0cdf9	-0.08633036
34	0xbd4308ad	-0.047615696
35	0xbd7128b9	-0.058876727
36	0xbb99400e	-0.0046768254
37	0xbd6d9900	-0.05800724
38	0xbdb19121	-0.08670259
39	0x3e4c0a64	0.19925839
40	0x3d91a835	0.07112161
41	0x3d3d7026	0.04624953
42	0x3c50937c	0.0127304755
43	0xbb6053ef	-0.0034229716
44	0xbdfa9d96	-0.122370884
45	0xbcea6cbf	-0.028616307
46	0x3d3dcc3b	0.046337347
47	0xbd10e6e1	-0.035376433
48	0x3d3f4ec7	0.046705987
49	0xbe0071d6	-0.12543425
50	0x3d563301	0.052294735
51	0xba405a92	-0.0007337715
52	0xbccb55d6	-0.024821203
53	0x3c855301	0.01627493
54	0xbcd353d1	-0.025796803
55	0xbdf4139d	-0.119178034
56	0xbce7cef3	-0.028296923
57	0xbe4c30d2	-0.19940498
58	0xbde9cddb	-0.11416217
59	0x3e16bc2f	0.14720224
60	0xbdd07aca	-0.1017967
61	0x3c1bdab2	0.00951259
62	0x3c442930	0.0119727105
63	0x3d56d850	0.052452385
64	0x3d634ff4	0.05549617
65	0x3e311ad9	0.17295398
66	0x3e22c58a	0.15895668
67	0xbd884b0c	-0.06654939
68	0x3e1872ae	0.14887497
69	0x3cdab1f8	0.02669619
70	0x3d88b1e0	0.06674552
71	0xbe092835	-0.13394244
72	0xbd9bf670	-0.076153636
73	0xbdb33602	-0.087505355
74	0x3e371ea6	0.17882785
75	0xbc8b493c	-0.017002694
76	0xbe482a39	-0.19547357
77	0x3d7ab243	0.06120516
78	0x3e48740f	0.19575523
79	0x3d72a02e	0.05923479
80	0xbe1fb85d	-0.15597673
81	0xbdf1e242	-0.118107334
82	0x3d985813	0.07438674
83	0xbdec0412	-0.11524214
84	0xbdd19058	-0.102326095
85	0x3c67168e	0.014104499
86	0x3dc50cf7	0.096216135
87	0x3de9d926	0.11418371
88	0x3d0f6be2	0.035014994
89	0x3d8a724f	0.06760084
90	0xbba9cc29	-0.0051818085
91	0x3c4eed4a	0.012629816
92	0x3d977290	0.07394898
93	0xbd4e3206	-0.050340675
94	0xbd096582	-0.03354407
95	0x3d16a4a7	0.03677812
96	0xbcb02423	-0.021501606
97	0x3d496f70	0.04917854
98	0x3e674672	0.22585467
99	0xbd8f5d2d	-0.07000194
100	0x3cf6e23c	0.030137174
101	0x3e6a0586	0.2285367
102	0x3da2bb0f	0.07945835
103	0xbdf42229	-0.11920578
104	0xbd950340	-0.072760105
105	0x3d9f723a	0.07785459
106	0xbb9e7e22	-0.0048368135
107	0x3d33ec32	0.043926425
108	0x3d6e71b9	0.058213923
109	0x3c5f3eb6	0.013625791
110	0x3e118e3b	0.14214413
111	0x3a2dfb04	0.00066368305
112	0xbd089b09	-0.033350978
113	0xbd1449eb	-0.036203306
114	0x3e0f9196	0.1402038
115	0x3d951865	0.072800435
116	0x3ded0904	0.11573985
117	0xbd3f587b	-0.04671524
118	0xbe249a90	-0.16074586
119	0x3dc42c6f	0.095787875
120	0xbd866bd0	-0.06563532
121	0x3e311ba8	0.17295706
122	0x3d8cdc0f	0.0687791
123	0x3cb8d3f2	0.022562
124	0x3d9d1131	0.076692946
125	0x3dd13687	0.102154784
126	0xbe3f4d07	-0.18681727
127	0xbd7da98d	-0.061929274

classifier.bias f4 [2]
0	0xbd4e72c1	-0.050402407
1	0xbdff33bb	-0.12461039
