models/baseline_noweight_graphsage_model.pt (torch, 256696 bytes, 8 tensors)

conv1.lin_l.weight f4 [128, 182]
000000 5b 93 9a 39 73 78 65 3c 62 6d ee bc 70 34 f2 ba
       0.00029482957 0.014005768 -0.029104892 -0.0018478762
000010 d9 a4 0a 3c 01 a5 fb 3b ab ea f2 3b 28 1f 39 bb
       0.008462154 0.007679582 0.0074132285 -0.002824733
000020 5a 8e b3 ba 66 d9 76 b9 06 9a 27 bb ae f7 61 bb
       -0.001369904 -0.00023541375 -0.0025573983 -0.0034479904
000030 ed f0 6e 3b 60 be 2a 3c bc 27 6b bc 17 14 f4 bb
       0.003645952 0.0104213655 -0.014352735 -0.007448684
000040 bc 2d 6c 3a 66 dc b3 3b 64 37 21 ba 46 be b2 bc
       0.00090095005 0.00548892 -0.00061499164 -0.021819245
000050 08 e6 ca bc be 71 32 3c 0f 90 27 3c 33 5f f1 3b
       -0.02476789 0.010891376 0.010227217 0.007366085
000060 ac 18 3d 3c 2e 2e 84 b9 0b bd fa 3b 19 80 32 3c
       0.011541527 -0.00025211409 0.00765193 0.010894799
000070 ed 91 27 3c ed 2b f0 3b 02 e4 3d 3c 25 83 09 ba
       0.0102276625 0.007329455 0.011590006 -0.00052456773
000080 13 bc 07 3c 6b 25 a6 3a a9 37 0b ba 76 b7 20 bc
       0.0082845865 0.0012675946 -0.0005310723 -0.0098093655
000090 7c 1d 15 b9 a1 89 7d 3c 56 e7 8c 3c 22 69 ac 3c
       -0.00014220731 0.015474708 0.017200153 0.021046225
0000a0 d1 7a a9 3c 9e f9 10 3c a8 5b b7 3c 4a 77 15 3c
       0.020688446 0.008848576 0.022382572 0.009122679
0000b0 02 68 a6 3c 89 b2 9d 3c c2 0c ad 3c 99 5d 26 3c
       0.020313267 0.019250171 0.021124247 0.010154151
0000c0 de 04 aa 3c bc 6d 0c bb 0c 09 0f 3c 46 34 27 bb
       0.020754274 -0.0021427711 0.008730184 -0.0025513335
0000d0 ae 41 07 bc 05 2b bb bc 03 ab 5b bc b3 68 a3 3c
       -0.008255405 -0.022847662 -0.013407472 0.019947385
0000e0 6e 11 db 3c ab f8 f9 ba 77 fb 5a 3c fa 14 70 3c
       0.02674171 -0.0019071301 0.013365618 0.014653439
0000f0 9e 4d 64 3c ec 85 78 bc da 11 b1 bc c0 c0 f3 ba
       0.013934521 -0.015168648 -0.021614958 -0.0018596873
000100 46 f3 5a 3c f6 8b 6f 3c bc 9e 64 3c 25 53 7c bc
       0.013363665 0.014620772 0.013953861 -0.015400683
000110 ac ad b8 bc f5 d5 72 3a fb 87 27 3c a4 e9 08 3c
       -0.02254375 0.00092634495 0.010225291 0.0083564855
000120 18 1b ea 3b 0a 10 90 bb 61 2b e5 ba 6a bd 15 bc
       0.007144343 -0.0043964433 -0.0017484241 -0.009139398
000130 25 7a a3 3c 70 67 95 3c 93 af 75 3c 86 b8 d9 ba
       0.019955704 0.0182378 0.014995473 -0.0016610778
000140 ec 7a 71 b9 48 3b 07 bc ea 49 af 3c 59 5a a1 3c
       -0.00023029343 -0.00825388 0.02139755 0.019696401
000150 0d 2f 83 3c 4b cd 17 bc 99 57 32 bc 6c f8 50 bc
       0.016013646 -0.009265254 -0.010885143 -0.012754541
000160 5b b4 72 3c 8c f2 1c 3c db ed 0c 3c 4d da f0 bb
       0.014813508 0.009579312 0.008601631 -0.007350242
000170 dd 1c 6c bb 10 35 8c 3c ca b0 b9 3c 4a 24 b5 3c
       -0.0036027946 0.017115146 0.022667307 0.02211203
000180 cd f8 ae 3c 0a 4f 4b bc e5 db 4e bc 84 16 4a bb
       0.021358872 -0.012408981 -0.012625669 -0.0030836174
000190 bc c7 b2 3b 87 0d d8 3c 73 f5 33 3b 1f b1 2f bd
       0.005455939 0.026373638 0.0027459532 -0.042893525
0001a0 eb ff e4 bc 2e 24 d2 bb f3 d4 16 39 ca 8c 7b bb
       -0.027954062 -0.0064130044 0.00014384445 -0.0038383477
0001b0 86 26 58 bb d0 fd 8a 3c ed 1a 43 bc 18 f3 44 bc
       -0.0032981946 0.01696673 -0.011908275 -0.012020849
0001c0 59 df 9b bb 73 19 63 3b 06 8e 83 bc 14 b1 c3 bc
       -0.0047568497 0.003465262 -0.016058933 -0.023888148
0001d0 81 38 46 bc 1e 4c a1 3a 8a 1d 43 3c 0d 59 1d 3c
       -0.0120984325 0.001230601 0.011908898 0.009603751
0001e0 6b 24 88 3c cf 7c cc 3b 3b ea ba 3b 11 f3 20 3c
       0.016618928 0.0062404643 0.005704192 0.009823577
0001f0 ff 82 ec 3b 72 d0 fc 3b a9 c0 46 3c d2 83 4c 3c
       0.0072177644 0.0077152783 0.012130895 0.0124826
000200 0c 0e 2c bb 1e 3c b8 3c ba 42 a5 bb d0 67 c8 b9
       -0.002625349 0.022489604 -0.005043355 -0.0003822432
000210 63 d5 b9 3b 83 5f e2 3c 2c 9c da 3c 1c 5b 1f 3b
       0.0056711896 0.027633434 0.026685797 0.002431578
000220 9e 87 c6 3b 10 6b d7 bb 3c cc 29 3b 2a eb ef 3c
       0.0060586473 -0.006574042 0.0025909087 0.02928694
000230 10 7d 02 3d 31 ae df bb 9c c7 b4 3a 49 13 a9 3c
       0.03185755 -0.006826185 0.0013792398 0.020639079
000240 a3 e9 61 3c ad 73 1f 3c 75 b6 a0 3b 0b 71 82 3b
       0.0137886135 0.009732169 0.004904563 0.003980761
000250 46 e3 ed bc e1 67 1c bd 53 d5 52 bc f7 2b c5 bb
       -0.029039036 -0.038185004 -0.012868243 -0.006017204
000260 58 89 c3 bb 51 72 fd 3c b0 96 43 3c ff b9 55 3c
       -0.0059673004 0.0309383 0.011937782 0.013044833
000270 5f c1 e2 3c 14 9d 55 3d e0 7c 4d 3d a2 d3 a9 3b
       0.027680097 0.052151754 0.05016792 0.0051826993
000280 11 27 8f 3c b3 c0 ec 3b c1 ea 0d 3c 74 05 1b bd
       0.017474683 0.00722512 0.008661927 -0.037846997
000290 fb 9b 1f bd c9 f3 0e 3a 53 81 55 bc ff 4d 26 3a
       -0.038967114 0.0005453197 -0.013031322 0.000634402
0002a0 77 35 5e 3c 8e d4 e0 3a 26 c4 dd ba f8 44 0d 3c
       0.013562552 0.001715319 -0.0016919419 0.0086224
0002b0 23 87 33 bb a6 c5 ce ba 16 81 42 bb 39 86 23 bb
       -0.002739378 -0.0015775457 -0.0029678992 -0.002495183
0002c0 90 30 21 39 25 46 f1 bb cd e6 e4 3a 8f c9 5a bb
       0.00015372247 -0.007363098 0.0017463804 -0.0033384298
0002d0 1e fe ce ba a3 7e 4f 39 cb da f8 bc b2 da a6 3d
       -0.0015792286 0.00019788234 -0.030377766 0.081471816
0002e0 86 14 25 bd 78 b3 e7 bc 55 2b e6 bb c6 77 35 bc
       -0.040302776 -0.02828382 -0.0070242085 -0.0110759195
0002f0 31 36 c5 bc 8c ff 30 bd 50 a1 35 bd d9 cb 2b bc
       -0.024073692 -0.04321246 -0.044343293 -0.010485613
000300 8c b7 35 bd 77 53 6a 3d b4 51 37 3d 4b b5 03 bc
       -0.044364497 0.057208505 0.044755653 -0.008038829
000310 a9 67 8d bc f0 d0 7b bb 1c f7 02 bd 17 a5 4c bc
       -0.017261343 -0.0038424097 -0.031973943 -0.012490532
000320 f0 d5 42 3b b4 0d 52 bd ab b1 5f bd ec 6b a4 3c
       0.0029729567 -0.0512826 -0.054612797 0.020070992
000330 9a 16 e4 3c 23 eb ab 3c f9 c1 e2 3c 4f 38 8d 3c
       0.027842809 0.020986145 0.027680384 0.017238764
000340 bf d1 e6 3c eb 7d a4 3c 80 1b e4 3c fe ed ab 3c
       0.028176187 0.020079574 0.027845144 0.020987507
000350 96 cb e2 3c 4a a4 91 3c cd 2f eb 3c 07 0d 19 bd
       0.027684968 0.017778534 0.028709317 -0.03736594
000360 ec 37 22 bd c5 3e c3 bc 2d 72 22 bd 06 83 02 3c
       -0.039604113 -0.023833642 -0.039659668 0.007965809
000370 16 28 52 3c 0f 68 58 3c a0 e2 b5 3c b6 d2 a0 3c
       0.01282694 0.013208403 0.02220279 0.019631725
000380 20 79 a8 3c d9 df c2 3c 75 14 f9 3c 02 d0 38 3c
       0.02056557 0.02378838 0.030405262 0.011280062
000390 19 71 99 3c 24 a1 c6 3c c5 e8 84 3c 7e 5e 87 3c
       0.018730687 0.02424676 0.016224274 0.01652455
0003a0 3e 70 c9 3c 71 09 7c bc 62 cf 8c 3c 03 de 6e 3c
       0.024589654 -0.01538311 0.017188732 0.014579299
0003b0 f1 75 85 bc 1c de 28 bc e5 67 c5 3c d0 a9 39 bc
       -0.01629159 -0.010306861 0.024097392 -0.01133199
0003c0 06 29 f5 3c 02 a5 1f 3d 38 b6 2d 3d 7c ae de bb
       0.029926788 0.038975723 0.042410105 -0.0067957025
0003d0 c2 29 09 bb 4b 58 3e bc a5 26 f5 3c 47 f7 1f 3d
       -0.002092943 -0.01161773 0.029925654 0.03905418
0003e0 9e 9c 2d 3d 80 f8 0e ba 49 58 5e 3b 80 50 54 bb
       0.04238569 -0.00054538995 0.0033927134 -0.0032396615
0003f0 b0 cf ed bc e3 fa ab bb 60 51 2e 3b 55 ae 5c 3d
       -0.029029697 -0.005248414 0.0026598796 0.053877193

conv1.lin_l.bias f4 [128]
000000 d7 e1 f7 bc 6d 42 8e bd 13 bc 6d bd 24 8f 01 bd
       -0.030259056 -0.069462635 -0.05804069 -0.03163065
000010 3a 1b 8c bd ac 99 46 3c d2 a2 27 bd 56 c5 bb ba
       -0.068411306 0.012121599 -0.040926762 -0.0014325778
000020 35 b0 09 be 4c 7d 6d bd fa 76 81 bd 6e 4c bd bc
       -0.13446124 -0.05798082 -0.06321521 -0.023107734
000030 c6 1c 9e bc 19 b3 0e bc 9e 8c 87 bd be ad ef bc
       -0.01930083 -0.008709692 -0.066186175 -0.029257651
000040 13 68 bc bd f3 5b 3e be 92 ec 92 bd 83 0b 2b bc
       -0.09199538 -0.18589763 -0.071740285 -0.010439756
000050 27 b2 3f bd 4f cd 72 bd 70 36 43 bd 48 32 61 bd
       -0.04680076 -0.05927783 -0.047659338 -0.054979593
000060 a2 58 f0 bc 79 e7 d7 bc 25 17 a9 bd 7d 27 a5 bd
       -0.029339138 -0.026355492 -0.082563676 -0.080641724
000070 6d 53 da bc 87 9a bc bc 88 98 f8 bc 02 b2 96 bd
       -0.026651109 -0.023022903 -0.03034617 -0.07358171
000080 5b 39 e8 bb cc fa 24 bc c8 b4 d2 bd 5d bf db bc
       -0.0070869154 -0.01006956 -0.102883875 -0.026824648
000090 64 a9 92 bd b4 d7 77 bc 6e 94 77 bc 5a 16 f3 bd
       -0.07161215 -0.015127111 -0.015111072 -0.118694976
0000a0 37 31 b5 bd 29 d6 b2 bd 10 56 cf 3c 19 51 12 bd
       -0.088472776 -0.08732254 0.025309592 -0.035721872
0000b0 0d d5 4c bd c9 4a 56 bd 74 19 45 bc f2 b6 13 bd
       -0.05000787 -0.052317414 -0.012029994 -0.036063142
0000c0 f9 c9 31 bd fb 84 b2 bd c8 db d3 bd 14 6f 66 bc
       -0.043405507 -0.0871677 -0.10344654 -0.014064569
0000d0 73 2c b5 bd 76 5a 44 3b 6a ff 90 bc b4 bb a5 bd
       -0.08846369 0.0029961145 -0.017699916 -0.08092442
0000e0 3f 0a 5a 3d 28 aa cc 3b 0e 7a 5f bb 10 c9 ac bd
       0.053232428 0.00624587 -0.003409985 -0.08436787
0000f0 06 ce b1 bc 63 a9 a0 bd 4a 08 94 bd 27 d6 ed bc
       -0.021704685 -0.07844808 -0.072281435 -0.02903278
000100 12 a3 53 bd e9 94 85 bd 1f 73 2f bd a3 ed 51 bd
       -0.051669188 -0.06522543 -0.042834397 -0.05125202
000110 65 f7 09 bd dd 31 5a bd 55 16 50 bd fb eb aa bd
       -0.0336832 -0.05327021 -0.050802547 -0.08345791
000120 e9 8d 38 bd 1c 40 27 bd 94 02 9c 3c b2 18 f2 bd
       -0.04505721 -0.040832624 0.019044198 -0.118211165
000130 83 22 11 bd 4b 12 2e bd af 0a 97 bd 81 c5 a9 bd
       -0.035433304 -0.042497914 -0.073750846 -0.08289624
000140 53 7f 44 bd e9 03 40 bd 05 b7 35 be a9 a2 ae bd
       -0.04797299 -0.04687873 -0.17745598 -0.08527119
000150 0b 93 7b bd 76 ba 6a bd a6 64 3b bd eb 63 d8 bc
       -0.061419528 -0.05730673 -0.045750283 -0.026414832
000160 0e 58 0b 3c 66 fd 85 3c cb 68 86 bd 14 cd cf 3c
       0.008504881 0.016356181 -0.065629564 0.025366344
000170 b7 d9 3b bd b5 fe 61 bd 89 2c 2d bd 27 1f 9f bd
       -0.045861926 -0.05517455 -0.0422788 -0.07769614
000180 a5 1f bc bd d7 c6 47 ba 6e 16 c4 bd de d4 9e ba
       -0.09185723 -0.0007620877 -0.095745906 -0.0012117883
000190 f8 34 95 bc 4c 02 fb bc 21 7e 45 bd d1 46 a1 bd
       -0.018213734 -0.030640744 -0.04821599 -0.07874835
0001a0 3a ef 05 bd 03 0e e9 bc 85 21 c5 bc 37 e2 a8 bd
       -0.032698847 -0.028449064 -0.024063835 -0.08246272
0001b0 98 16 7e bd 41 7f 7c bc 25 4b 66 3d 39 f3 c6 bd
       -0.062033266 -0.015411199 0.056224007 -0.0971436
0001c0 31 5f ef bb 3a e9 84 bd 04 36 06 bd 38 58 6c bd
       -0.007305049 -0.06489797 -0.032766357 -0.05770132
0001d0 40 3d 81 bd 50 da e3 bb 27 1e 7a bd 3e 04 4c bd
       -0.06310511 -0.006953515 -0.06106391 -0.049808733
0001e0 45 71 a9 bd 2b ff 2f bd 71 30 bc bc ae 49 d3 bd
       -0.082735576 -0.042967957 -0.022972317 -0.10316788
0001f0 e2 69 dd bd 83 76 91 bd b4 5b 12 bc 19 f8 10 3c
       -0.10811211 -0.071026824 -0.008932997 0.008848214

conv1.lin_r.weight f4 [128, 182]
000000 2e 10 36 3c f8 5e 75 3b f5 94 43 bd 0d ce 33 3c
       0.011112256 0.003744064 -0.04774948 0.010974419
000010 34 53 36 3a f4 ed 10 3c d8 85 83 3c 05 65 86 3b
       0.0006955147 0.008845795 0.016055033 0.004101398
000020 81 a0 c5 3b 3b 11 f5 3b 47 7b 99 3b b1 e9 81 bc
       0.0060310964 0.0074788607 0.0046838853 -0.015858503
000030 c6 dc 08 bc 26 e1 b6 3a c3 e4 b8 3a 3c f9 36 3d
       -0.008353418 0.0013952598 0.0014106262 0.044671282
000040 30 48 54 3c 39 0a e3 3b 2c c2 d4 3c b9 64 36 bd
       0.012956664 0.006928709 0.025971495 -0.04452965
000050 81 d4 3b bd ee 89 3c 3c 3d 3a 3d 3c f8 6f d6 3b
       -0.045856956 0.011507494 0.01154953 0.0065441094
000060 c0 2d 49 3c 7d 25 47 bb 93 85 dc bb 57 20 3c 3c
       0.012278974 -0.0030387335 -0.0067297905 0.01148232
000070 bc 54 3d 3c 49 f5 d5 3b 7d 59 49 3c 51 bd 44 bb
       0.011555847 0.0065294844 0.012289402 -0.0030020068
000080 b9 10 de bb 6a 8e 4b bc cb f2 da bb 18 77 03 3c
       -0.006776896 -0.012424091 -0.006681775 0.008024
000090 4d 30 1c bc 41 c1 9f bc c1 49 a4 bc f9 dc 9d 3c
       -0.009533 -0.01950133 -0.0200547 0.019270407
0000a0 4c 72 b0 3c 2d 53 1d 3c f0 b6 ae 3c a2 9f 23 bc
       0.021538876 0.00960235 0.021327466 -0.00998679
0000b0 9f 9c 27 3b d5 29 8f 3c b9 69 a3 3c 81 6e 15 3c
       0.0025575531 0.017476002 0.019947873 0.009120584
0000c0 1b 73 9b 3c a2 54 05 bc 68 47 35 3b d6 29 1f 3c
       0.018975785 -0.008137854 0.002766097 0.009714564
0000d0 1b f2 58 3c 17 cc 2a bc 3f 7e 43 bb 2b 1a e5 bc
       0.013241316 -0.010424635 -0.0029829887 -0.02796658
0000e0 f9 38 cf bc 5f 6e 1d 3c b8 11 76 3c f9 4a 72 3c
       -0.025295721 0.009608834 0.015018873 0.014788383
0000f0 88 4d 77 3c 93 dd f5 bc a3 92 08 bd b2 2c 2d 3c
       0.0150941685 -0.030012881 -0.03334297 0.010569738
000100 f4 6a 76 3c a0 1b 73 3c 75 79 77 3c 48 b2 c2 bc
       0.015040148 0.014838129 0.015104641 -0.023766652
000110 44 e9 e0 bc 81 c3 fb 3b 0d 31 84 bc 0b 07 93 bc
       -0.02745498 0.007683218 -0.01613667 -0.017947694
000120 f0 f3 9a bc 7e 02 b5 3b 0c 7f 1e 3b a5 01 f4 bb
       -0.018915147 0.0055239787 0.0024184613 -0.007446485
000130 31 22 83 3c 4b 84 6b 3c b9 eb 48 3c c2 c2 43 3d
       0.016007515 0.014374803 0.012263232 0.047793157
000140 94 dd 37 3d 55 19 f0 3b 37 01 81 3c 72 10 59 3c
       0.044889048 0.0073272386 0.01574765 0.01324855
000150 2f 97 43 3c a9 af 2b 3d 95 99 1d 3d c4 75 07 3c
       0.0119379 0.04191557 0.038476545 0.008267824
000160 ea ad c8 3b 46 de db 3b 68 2b 43 3c 1d 76 90 3c
       0.006124248 0.0067098467 0.011912204 0.017634446
000170 b0 bf b3 3c f8 cd 5d bb 31 04 82 3c dd b9 59 3c
       0.02194199 -0.003384469 0.01587114 0.013288942
000180 71 55 1a 3a 1c 2b 3c 3c 70 24 e4 3c 52 12 cc 39
       0.00058873656 0.011484887 0.027849406 0.00038923562
000190 fc b0 93 3b e8 36 ea 3c af af 7d 3b 1f 59 c2 3d
       0.004507182 0.028590634 0.0038709452 0.09489655
0001a0 c9 3d d2 3d 2b 9b 16 ba 5d 1d 98 3c 57 78 91 3b
       0.10265691 -0.0005745168 0.018568689 0.0044393945
0001b0 a8 44 15 ba b2 fe c8 bc 17 79 bf bc 34 2d 3d bd
       -0.00056941295 -0.02453551 -0.02337317 -0.046185687
0001c0 94 e8 74 3c da 2d 1c 3d c5 6b 55 bc 1d 03 32 bd
       0.014948029 0.038129665 -0.013026183 -0.04346
0001d0 40 47 c8 bc bc 91 e2 3c 68 71 db 3d a6 24 af 3d
       -0.024448037 0.027657382 0.1071499 0.08551912
0001e0 f0 1d 5d 3d b4 28 71 bd ed b6 81 bd 04 38 75 3b
       0.05398363 -0.05887671 -0.063337184 0.003741742
0001f0 e2 28 ea b9 bf e3 a6 3b 3c 72 ce 3b c5 d0 55 bd
       -0.00044662418 0.0050930674 0.006300239 -0.05220105
000200 29 6a fc bc 81 20 08 bc 97 43 d9 3b 1f c9 b5 3c
       -0.03081234 -0.008308531 0.006630372 0.022190629
000210 78 9b 31 3c e2 7c 96 bc 3e 46 96 bc 6e 6c 9b bb
       0.010840289 -0.018370096 -0.018344041 -0.0047431504
000220 c7 37 41 bc b9 51 90 bc 8f 21 fe bb 98 36 44 bc
       -0.0117930835 -0.017617093 -0.0077554653 -0.011975907
000230 81 2c ff bb 27 a7 cb bb 0a 93 97 bc e3 8a 32 3b
       -0.0077872877 -0.0062149945 -0.01850273 0.0027243427
000240 94 83 3e bc 77 ad 42 bc 72 18 02 bc 44 18 07 3d
       -0.01162805 -0.011882178 -0.0079403985 0.032982126
000250 5c 66 72 bc 15 a0 3a bd 95 7f 61 3c 9e 86 dd bc
       -0.014794912 -0.045562822 0.013763328 -0.02704173
000260 0a 9a da bc 7f d9 58 3b 62 63 4c 3b 18 33 29 3c
       -0.02668478 0.0033088622 0.0031187166 0.010327123
000270 21 ed 39 3b e7 b5 6c 3b 4c 78 f0 3b 8d e2 ef 3c
       0.00283701 0.0036119164 0.0073385593 0.029282833
000280 bd 22 d1 ba 3e ed 94 bb f6 78 2b 3b 86 9d ce 3a
       -0.0015955787 -0.004544883 0.0026164628 0.0015763498
000290 50 87 a7 38 71 0b f7 3c 22 9d 0d bc 7f d1 37 3c
       7.9883845e-05 0.030156823 -0.00864342 0.011219381
0002a0 b4 76 78 3b 2f 30 1a 3d 60 f8 31 3c b6 49 82 3a
       0.003791255 0.037643608 0.01086244 0.000994018
0002b0 92 a3 8a 3b 8b f1 c2 3b a4 6d 9b 3b 33 ce 8d 3b
       0.004230925 0.0059492043 0.004743295 0.0043275594
0002c0 a3 8c 2d 3c 6a 17 2f 3d 0a c5 55 3c 6f 04 d5 3c
       0.010592612 0.04274694 0.013047466 0.02600309
0002d0 40 0a 27 3d 4d 93 35 3c 93 df 23 3b 51 f5 c3 bc
       0.04078126 0.0110824825 0.0025005087 -0.023920687
0002e0 6f cf 8c bd 69 34 af 3c 01 65 14 3a 48 db c0 3c
       -0.06875502 0.021387296 0.00056608027 0.023542061
0002f0 b5 5c 3d bc cd 71 aa bb 6b 3b a2 ba d4 b7 5d 3c
       -0.011557748 -0.0052015544 -0.0012377327 0.013532598
000300 da 6b 4c bb 55 9d 69 bd 6c b8 72 bc 7c 1f b0 3a
       -0.0031192214 -0.05703481 -0.014814477 0.0013437117
000310 c8 4c c5 3a 88 ed 7c 3c 82 c2 f9 3a bc 29 9e 3a
       0.001505279 0.015437491 0.001905516 0.0012066881
000320 67 f1 c7 3b 7c 26 ca 3c 44 54 d6 3c 15 dd 0c 3d
       0.0061017754 0.024676554 0.026163228 0.034390528
000330 7c 8d 1c 3d 6b e3 b8 3c f7 8b 28 3d bc aa a4 bc
       0.038220868 0.022569379 0.041149106 -0.020100944
000340 30 cf 8c 3b b0 fe 0c 3d c1 8e 1c 3d b3 fa b8 3c
       0.0042971596 0.034422576 0.03822208 0.02258048
000350 83 8f 28 3d 92 db a6 bc 88 34 93 3b 52 15 4e bc
       0.04115249 -0.020368371 0.004492346 -0.012578325
000360 f5 e8 1a bc 51 94 b1 3b 3e 45 3c bc d8 6d 96 3a
       -0.009454955 0.005419292 -0.011491118 0.0011476828
000370 99 d5 db 3a df 67 29 3d c3 35 4d 3d 59 0d c2 3c
       0.0016772031 0.041358825 0.0501001 0.023688005
000380 77 46 43 3d 83 d0 77 3c 54 13 f9 b9 ec fc 18 3d
       0.047674622 0.015125397 -0.00047507382 0.03735058
000390 c6 1b 3e 3d 55 e6 02 3d 0e 04 2f 3d 9a da a7 3c
       0.046413206 0.031957943 0.042728476 0.02048998
0003a0 10 08 91 3b 13 5b 2c bd 83 0e 9f 3c 9e c7 68 3d
       0.00442601 -0.042079043 0.0194161 0.056830995
0003b0 75 d0 ec bc 37 c1 01 3d ac 17 5b 3d 9c 7f 4c 3c
       -0.028907994 0.031678405 0.053489372 0.012481596
0003c0 fd 5b 60 3d 42 01 62 3d fa 3d 68 3d 51 c8 5a 3d
       0.054775227 0.05517698 0.05669973 0.053413693
0003d0 d4 21 46 3d 75 21 4c 3c 05 4d 60 3d 4b 3a 62 3d
       0.048372105 0.012459149 0.05476095 0.055231374
0003e0 6b 6e 68 3d 18 aa 5d 3d 56 62 49 3d c3 98 63 3b
       0.056745928 0.054117292 0.049166046 0.0034728504
0003f0 8c d5 62 bc b5 b9 67 bc bf 80 73 bc 24 29 5a 3d
       -0.013844859 -0.014143397 -0.014862238 0.05326189

conv2.lin_l.weight f4 [64, 128]
000000 29 f4 41 3c 55 b5 56 bb 0b 8f c3 3c 5a 3a bb ba
       0.0118379975 -0.003276189 0.02387192 -0.0014284358
000010 54 41 7b bc dc 47 e0 3c 72 0f bf 3c c5 71 be bc
       -0.0153354 0.027378015 0.023322795 -0.023247609
000020 27 cc 0e bc e8 0c 6b 3d 30 0b bd 3c 9b fe 06 3c
       -0.008715666 0.057385355 0.023076624 0.008239414
000030 0c 15 d8 3b 83 71 ba 3c 26 9e d0 3b 61 c9 f5 b9
       0.006594306 0.022759205 0.006366509 -0.0004688008
000040 3a 1a 0e bb d6 80 ff bb db 07 1d 3d 68 17 80 bc
       -0.0021683113 -0.007797341 0.03833757 -0.015636161
000050 e5 b5 dc bc 12 27 d8 bb 5d 45 21 3c 66 5f 41 3d
       -0.026942203 -0.0065964544 0.009843198 0.04721012
000060 ec 43 b4 3b 7e 20 a0 bb df df 7c bb db 54 44 3d
       0.005501261 -0.004886686 -0.0038585586 0.047932487
000070 8f 25 30 3c 8a 35 0e bc bc 32 5d b9 74 8e 1c bb
       0.010751142 -0.008679757 -0.00021095102 -0.002388862
000080 dc d4 b4 3a 02 9b 2f 3c 56 a2 48 bc ef 35 91 bb
       0.0013796347 0.010718109 -0.012245735 -0.004431478
000090 9f 6a c8 3c 0a 82 a5 bc e5 55 8c bb 6e 70 a2 3a
       0.024464903 -0.020203609 -0.0042827004 0.0012393126
0000a0 02 14 92 bc 90 64 ab 3c b1 23 1b bc 88 23 19 3c
       -0.017831806 0.020921975 -0.009468959 0.00934685
0000b0 f8 2d cd bc a8 01 d6 3c 73 5d 81 3c 7c df 43 39
       -0.025046334 0.026123837 0.01579163 0.00018679904
0000c0 f2 c2 a2 3c 2b 78 fb bc 9c 9b 46 3d bf 4f 0d 3d
       0.019868348 -0.030696949 0.048488244 0.03449988
0000d0 74 7a 0e 3d 87 81 6c bc c7 22 5f bb 18 c0 51 bb
       0.03478475 -0.014435179 -0.0034047829 -0.0032005366
0000e0 f3 6b a4 3c 41 06 38 3c 2c 35 9b 3c 39 e5 73 3b
       0.020071005 0.01123196 0.018946253 0.0037215485
0000f0 47 76 e9 bd d8 da 16 3c 4e 47 f2 3c f4 a0 39 bd
       -0.11399513 0.00920745 0.029575016 -0.045319512
000100 40 3d 0f 3d b1 4c 1d 3d 01 1c 88 3c 65 e1 66 3c
       0.034970522 0.038403217 0.016614916 0.014091824
000110 f1 0f 07 bc c2 04 4b bc 4e ec 38 bd 4b 03 0a 3d
       -0.008243547 -0.012391271 -0.045147233 0.033694547
000120 12 f1 b6 3c 48 ab cf 3c 2d 98 af 3c 23 0e 0b 3d
       0.022331748 0.025350228 0.021434868 0.03394903
000130 19 a9 83 3c 79 a5 a3 3c a4 44 31 3d 8c 41 17 3d
       0.016071843 0.019976364 0.04327835 0.036927745
000140 f0 ea 53 3c c9 78 4b 3d 8b 5e 9c bc d8 52 ca 3c
       0.012934431 0.049675737 -0.01908805 0.024697706
000150 f2 b8 10 3d 4b 04 d6 bc 6e 78 36 3d 34 b4 15 bc
       0.035332628 -0.026125094 0.044548444 -0.009137202
000160 91 62 fe bb fd 57 f8 bb cd ee c8 3c 4c c0 f2 3b
       -0.007763215 -0.0075788484 0.024527932 0.0074081775
000170 a7 8c 0a 3d 89 74 98 bc 98 b8 55 3c 9e c3 12 bd
       0.033825543 -0.018610256 0.013044499 -0.035831086
000180 2a d7 0b 3d e9 27 28 3b 2d 55 32 bc 0a ba e3 3b
       0.034140743 0.0025658554 -0.010884565 0.006949668
000190 76 18 65 3c 65 cc a3 bc 77 5d d1 3a f1 54 54 3d
       0.013982883 -0.019994924 0.0015973289 0.05183882
0001a0 69 4c bb bc e2 ba 0c 3d e0 4b 16 bc 45 c4 0d 3d
       -0.022863584 0.034357913 -0.009173363 0.034611005
0001b0 93 cf 3f 3d ef 49 e7 3c 57 be 8a b8 c3 5d 84 bb
       0.046828818 0.028233496 -6.615806e-05 -0.0040394976
0001c0 a0 e0 2d 3c 1c e5 8c 3d 50 09 0c 3d 81 f4 63 3c
       0.010612637 0.06879637 0.03418857 0.013913275
0001d0 7f 7a 0f 3d f7 c7 0b ba 72 64 b1 3c b7 05 dc bc
       0.03502893 -0.0005332226 0.021654341 -0.026858194
0001e0 c7 ee 28 3d e4 1b c3 3c 70 99 09 3c 73 0b 1c 3d
       0.04124334 0.02381701 0.008398399 0.038096856
0001f0 cf a2 0c bd 1a 5c f1 3c 37 19 21 ba 5e 76 14 bc
       -0.034334954 0.029462863 -0.000614542 -0.009061424
000200 96 1e 02 3c ff 2b fb 3c a2 2a dd 3c ab 88 b7 3c
       0.007941863 0.030660627 0.026997868 0.022404036
000210 3a 6a ad 3c 09 d3 5d bb 88 b5 44 3d 59 c3 10 bb
       0.021168817 -0.003384771 0.048024684 -0.0022089093
000220 7f a1 e9 bc 83 77 7a 3d 90 c3 3e 3b de 85 87 3d
       -0.02851939 0.06114913 0.0029108264 0.0661733
000230 6e f7 a3 bc 46 0f 17 3d ab d8 1e 3d e9 fa 1d bc
       -0.020015445 0.0368798 0.03878085 -0.009642341
000240 0f ac 49 bc 69 7f 67 3b ca 3e 08 3d 93 2d 18 3c
       -0.012309088 0.0035323745 0.033263005 0.0092882095
000250 c6 cb fc bb 1d cb 87 bc 77 07 2f bd c8 b0 4e 3d
       -0.0077147214 -0.016576344 -0.04273173 0.05046156
000260 e5 d3 a4 bc 36 6a 87 bc 7b bc a1 bb d2 e9 80 3d
       -0.02012057 -0.016530138 -0.0049357987 0.06294598
000270 47 d4 c4 3c 50 22 70 bc 62 93 9d 3c 8d 89 06 3c
       0.024027003 -0.014656618 0.019235317 0.008211506
000280 0d 49 b4 3c 13 88 ad bd 0f f9 59 bc 63 33 18 3d
       0.02200749 -0.0847322 -0.013304009 0.03715838
000290 0d f4 30 3d d2 fc c5 bb 4c 9a 2e bc 6f e8 2c 3d
       0.043201495 -0.0060421014 -0.010656904 0.042213853
0002a0 d3 99 4d bd 79 de 0f 3d 91 be 01 3c b7 12 e6 3c
       -0.050195526 0.035124276 0.00791897 0.028085096
0002b0 28 a0 75 3c f0 b0 fc 3c f7 dc 62 3d 51 e5 d0 3b
       0.0149917975 0.03084609 0.05538651 0.006374993
0002c0 b1 5c 00 3c dc c2 5c bd 26 4f fb 3b 3a 27 b2 3d
       0.007834599 -0.05389677 0.0076693473 0.08698888
0002d0 22 4a 57 bb a8 8f 75 bb 04 27 99 3b b2 2d 54 3b
       -0.0032850583 -0.003746966 0.0046738405 0.003237587
0002e0 6c 1b 27 3c d4 fa a2 3c 12 53 60 bd 9f bb 90 bc
       0.010199409 0.019894995 -0.054766722 -0.01766759
0002f0 b3 16 d3 bb 93 97 cd 3c d3 03 bf 3c ac 6c b1 bc
       -0.006441915 0.02509669 0.023317253 -0.021658264
000300 66 9e 31 3d 98 1b 85 3d 81 4d 57 3d 17 3a 8c 3d
       0.04336395 0.06499404 0.052564148 0.06847017
000310 cc 73 66 bb 5b 17 83 3c fc f4 1d bd ca 32 3c 3d
       -0.0035164235 0.016002348 -0.038563713 0.045946874
000320 38 cb 64 3d be b5 47 3d ad 5b a9 bb ce 11 a9 3d
       0.055857867 0.048757307 -0.0051683993 0.08255349
000330 1f 77 12 3c c8 03 00 bc 55 a9 31 3d d2 78 55 3d
       0.0089395335 -0.0078134015 0.04337438 0.052117176
000340 66 ea 96 3c 51 6f 80 3d 37 e7 37 bd 08 66 06 3d
       0.018422317 0.06271232 -0.044898238 0.03281215
000350 8b 74 f3 3c a4 3c 02 bd 53 d7 9d 3d 4d 67 92 3c
       0.029718658 -0.031796113 0.077070855 0.017871523
000360 da 52 75 bb 03 7f ec ba b5 24 74 3d 4b 2f 81 bb
       -0.0037433417 -0.0018043224 0.05960532 -0.0039424053
000370 35 c4 08 3d 3f ae 0e 3d 91 50 4b 3c 0e 67 3c bd
       0.033390243 0.034834143 0.012409345 -0.045996718
000380 c1 33 b4 3c ae 18 8c b9 5b 2d f3 3b da 00 bd bb
       0.021997334 -0.0002672127 0.0074211783 -0.005767924
000390 41 1c 8c bc e3 26 57 bd f3 1f a2 3c d5 a9 71 3d
       -0.017103316 -0.05252732 0.019790625 0.058999855
0003a0 ee b9 c3 3b c1 76 a6 3c a1 b7 07 38 c6 e1 be 3d
       0.0059730923 0.020320298 3.2357526e-05 0.093204066
0003b0 8a 82 48 3d f1 61 67 3d 47 ea 67 3b c1 29 39 bb
       0.048952617 0.05648989 0.0035387443 -0.0028253647
0003c0 fd 4c 97 bd ef 7b 5e 3d d3 b6 16 3d f8 24 9e 3c
       -0.07387731 0.05431741 0.03679545 0.019304737
0003d0 a7 05 b3 3c 65 da e2 bc 41 f1 a3 3c f2 0e cd bc
       0.021853281 -0.02769203 0.0200125 -0.02503154
0003e0 d0 66 ab 3d 13 03 1a 3d 5d 13 c1 3c 83 2e 66 3d
       0.08369219 0.037600588 0.023568803 0.0561967
0003f0 e6 9f 82 bd be 80 85 3d aa a0 b7 bc 90 6c ae bc
       -0.063781545 0.06518696 -0.022415478 -0.021292001

conv2.lin_l.bias f4 [64]
000000 a4 74 92 bc a3 61 1f bc 89 c3 f0 bc 65 bb c2 bb
       -0.017877884 -0.009727868 -0.029390113 -0.0059427493
000010 65 0d 21 bd 31 60 ef bb 2f 70 cd bc 90 35 89 bc
       -0.039319415 -0.007305168 -0.025077907 -0.016749173
000020 54 33 23 3d 7b 8f 82 bd 3f b1 97 bd 53 92 27 bd
       0.039843872 -0.06375023 -0.07406854 -0.04091103
000030 26 fa 9b bc cd 0b 1e bd 36 01 7c 3e ea f3 54 bd
       -0.019040179 -0.038585473 0.24609837 -0.051990427
000040 dd 58 c4 b8 74 b5 b0 bd 32 d0 a6 bc dc c5 e7 3c
       -9.3625604e-05 -0.086283594 -0.020362947 0.028292589
000050 24 14 0c bd 55 39 ae bb fd 35 38 bd e8 56 4f bd
       -0.034198895 -0.005316893 -0.044973362 -0.05061999
000060 08 a2 d8 bb 76 cd 6b bc d2 8c 48 3b f9 52 77 bd
       -0.0066111125 -0.014392247 0.0030601514 -0.060381863
000070 da 28 02 3f b9 21 ce 39 2c 4a 1b bd 34 64 60 bd
       0.50843585 0.00039316507 -0.037912533 -0.05478306
000080 59 50 bd 3c 5f 8b c5 bc 48 88 75 bd 06 c1 c4 bc
       0.023109602 -0.024114309 -0.05994442 -0.024017822
000090 95 ed a4 bc 94 45 1b bd 32 32 f1 bb 1c 2e 5d bd
       -0.02013282 -0.03790815 -0.00736072 -0.05399905
0000a0 21 3a 40 bd fd 4a 4b bd 65 33 dd 39 6e 3a bb bc
       -0.046930436 -0.04963206 0.00042190697 -0.02285501
0000b0 01 5d 3f bc 41 0b 82 bc 92 69 a1 bc a5 4e e0 bb
       -0.011679889 -0.015874507 -0.01970366 -0.0068453127
0000c0 83 6a de bc 54 09 1d bd 4e 77 23 bd a2 25 8e bc
       -0.027150398 -0.038338974 -0.0399087 -0.01735193
0000d0 2c 18 1c bd 7d 8e a4 bc 14 b2 8c bd 31 09 01 bd
       -0.03810899 -0.020087475 -0.06869903 -0.031502906
0000e0 f1 0d 94 bc 15 65 4d bc 6c 86 1d bd 42 a0 d1 bd
       -0.018073054 -0.012536307 -0.038458273 -0.10235645
0000f0 2e b6 1a bd 1b f9 c4 bb 51 2d 2b bd 88 bc 8f bc
       -0.037771396 -0.006011141 -0.041791264 -0.017545953

conv2.lin_r.weight f4 [64, 128]
000000 d3 b8 eb 3c 97 9d ff 3c 8b 89 01 3d 81 cf 0c 3d
       0.028774654 0.031203074 0.03162531 0.03437758
000010 92 b4 85 3d bb ac 6d 3d c3 d8 4d 3d d1 74 89 3c
       0.06528582 0.058026057 0.05025555 0.016779335
000020 96 8a 44 bd aa 7a ac 3c 90 5e 30 3d 81 0f 39 3d
       -0.04798373 0.021054585 0.04305893 0.0451808
000030 dd 7b e8 3c a1 1a 17 bd 62 39 06 3d f2 f8 d2 3c
       0.028379375 -0.03689063 0.03276957 0.025753472
000040 1f ae 1b 3d 64 ca 72 bd d2 ae 1c 3d 9e 6f 5c 3d
       0.03800785 -0.059275046 0.03825266 0.053817384
000050 a3 f1 76 3d ad 41 53 3d df 7f 2b 3d f5 85 36 3d
       0.060289036 0.051576305 0.041869994 0.044561345
000060 cc f8 3a 3d 39 27 89 3d a9 ad 5e 3d 7c 62 2c 3d
       0.045647427 0.06696934 0.054364834 0.04208611
000070 64 e5 60 3c 60 12 18 bd 87 e2 86 3d 68 3e 5c 3d
       0.013726566 -0.0371269 0.065861754 0.053770453
000080 2d a6 d3 3c 25 3b 40 3b 2e a0 62 3d 06 b8 f8 3b
       0.025836075 0.0029332128 0.05532854 0.0075902967
000090 ba cd 05 3d b4 aa 92 3d 9c d3 4e 3d 7a c8 6c bd
       0.0326669 0.07161465 0.050494775 -0.057808377
0000a0 93 09 01 bd 37 44 0f 3d 9b da 0b 3d 4d 85 7c 3d
       -0.03150327 0.034977164 0.034144025 0.061650563
0000b0 77 ac 45 3d 2c e9 3d 3d fe 28 16 3d 7b 4f 50 3d
       0.04826018 0.04636495 0.036660187 0.05085705
0000c0 ef 48 10 3d 9c 22 92 bc 78 95 3d 3d 7a 90 d2 3c
       0.035225805 -0.017838769 0.046285123 0.025703657
0000d0 36 b4 18 3d 6f 06 50 3d d8 67 97 3c bf 5b 52 3d
       0.037281238 0.050787386 0.018482134 0.051357027
0000e0 8e c0 42 3d 91 e2 28 3d c7 05 1c 3d a4 e4 4c bd
       0.047546916 0.041231696 0.038091447 -0.050022736
0000f0 2a be f0 3c 7c 34 15 3d 23 f6 79 3d f6 1c 1c 3d
       0.029387552 0.036427006 0.06102575 0.038113557
000100 03 95 db 3c 0f 44 ce 3c c6 96 bf bc 49 67 a3 bc
       0.026804453 0.025178937 -0.023387324 -0.019946711
000110 34 e9 70 3d 95 9d 81 3d 12 49 1c bd 0d 14 36 3d
       0.05881615 0.063288845 -0.038155623 0.044452716
000120 b7 74 24 3d 29 52 75 3c 36 d5 6b 3d e5 bf 5c 3d
       0.04015037 0.014973202 0.05757638 0.053893942
000130 43 76 74 3c 2d 6d e1 3c 03 67 32 3d 9c 1f 69 3d
       0.014920774 0.02751788 0.04355527 0.05691491
000140 03 a3 ac 3c 79 e1 9b bc b5 ca 84 bd b8 af 75 3d
       0.021073824 -0.019028412 -0.06483976 0.05998203
000150 e3 37 b6 3c 3e 83 00 3d 64 2d 19 3d e4 be d4 3c
       0.022243446 0.031375162 0.037396803 0.02596993
000160 5d 49 6c 3d df 5a cc 3d a0 7e eb 3c 4c 7b ac 3d
       0.057687152 0.0997827 0.028746903 0.084219545
000170 a7 58 32 3d 71 df 38 3c 6e e6 ad 3c 28 f6 a1 bc
       0.043541577 0.011283741 0.021228041 -0.019770697
000180 10 e6 2f 3d 93 fb 61 3d fb 61 23 bd 49 00 14 3d
       0.042944014 0.05517156 -0.039888363 0.036133084
000190 f4 f4 00 3c 89 a8 62 3b 0a 8c e9 3b 5b 96 63 3d
       0.007870901 0.0034585318 0.0071272897 0.055563312
0001a0 bf 6d 8f 3c 2f 36 fa 3c 48 09 92 3d 50 fc 25 3d
       0.017508386 0.030543415 0.071306765 0.040523827
0001b0 df b7 48 3d eb f2 e8 3c c3 90 b8 3d ef 7f 8d 3d
       0.04900348 0.028436145 0.09011986 0.06909167
0001c0 f3 b3 0a 3d 60 76 70 bc 28 8a 83 3d 1f 18 01 3d
       0.03386302 -0.01467666 0.064228356 0.031517144
0001d0 51 48 37 3d a6 fa 2f 3d 08 a0 fe 3c 81 b5 55 3c
       0.0447467 0.042963646 0.031082168 0.013043762
0001e0 0b 89 36 3d 73 06 03 3d c4 03 52 3c ed 4a 49 3d
       0.044564288 0.031988572 0.012818281 0.04914372
0001f0 97 a9 ca bc 96 37 24 3d d4 9f 28 3d 60 8f 5b 3d
       -0.02473907 0.040092073 0.04116805 0.05360353
000200 48 42 08 bc 8f 48 08 3d 5a b5 b1 3c c7 69 32 3d
       -0.008316584 0.033272322 0.02169292 0.04355791
000210 53 77 62 3c d8 de 58 3d 50 88 a2 3d a5 14 cb 3c
       0.013822394 0.052946895 0.07936156 0.024790118
000220 80 69 70 bd 72 76 29 3d d4 ab 62 3d 65 b5 60 3d
       -0.058694363 0.041372724 0.05533965 0.05486049
000230 95 c9 c9 3c a7 c0 e4 bc 0d 5b 9b 3c 77 3c 42 3d
       0.024632255 -0.027923895 0.018964315 0.047420945
000240 ee 56 67 3d 4c d3 9c bd 9e 9e 12 3d b1 a0 89 3d
       0.056479387 -0.07657489 0.0357958 0.067201026
000250 c3 3c b8 3d b8 1e 6f 3d 3e cc 28 3d ef 5a 2b 3d
       0.089959644 0.058378905 0.041210406 0.041834768
000260 2b b8 9a 3d 2f 2f b0 3d 9b da 40 3d 63 29 85 3d
       0.075546585 0.086027496 0.04708348 0.065020345
000270 56 b0 d7 3a 64 95 25 bd 74 9d e3 3d af a9 86 3d
       0.001645575 -0.040425673 0.11114016 0.06575333
000280 6d 3d 47 3d 84 65 9a 3d 0a e8 ab 3d 0a 2b 22 3b
       0.048642565 0.07538894 0.08393867 0.0024744892
000290 f2 64 87 3d 2d 78 a8 3d a1 c2 4c 3d 4b ae 7e bd
       0.06611051 0.08226047 0.0499903 -0.062177937
0002a0 84 22 75 bd a5 16 09 3d ba e6 42 3d 6f ec c7 3d
       -0.05984737 0.03346886 0.04758332 0.09761893
0002b0 81 dc 56 3d 6a a5 c2 3d a6 8e 28 3d e4 f9 6d 3d
       0.052456383 0.095042065 0.041151665 0.058099642
0002c0 7f 00 5b 3d f3 20 16 bd b0 67 a6 3d 8b 4c d1 3c
       0.05346727 -0.036652517 0.081252456 0.025549194
0002d0 96 80 ca 3d 70 49 b5 3d 62 57 af 3c 2a 28 26 3d
       0.09887807 0.08851898 0.021403972 0.040565647
0002e0 e6 d1 8f 3d d0 07 77 3d 59 5d 8a 3d b6 59 71 bd
       0.07022457 0.060310185 0.06756086 -0.058923446
0002f0 cc 4e 10 bc 70 ba 37 3d 65 ae 23 3d 1f 5c c6 3c
       -0.008807849 0.044855535 0.039961237 0.024213849
000300 58 ff 8e 3d 17 dd cc 3c 31 4a d1 bc 9b b0 1f bd
       0.06982297 0.025007768 -0.025548073 -0.038986783
000310 2d 7a cd 3d d0 32 b5 3d 25 94 3f bd 60 62 91 3d
       0.10033069 0.08847582 -0.04677214 0.07098842
000320 75 6b 25 3d e2 b8 e8 3c b3 b3 65 3d 10 cb 92 3d
       0.040385682 0.028408471 0.056079578 0.07167637
000330 c5 e0 b7 3b 42 ab 43 3d 25 b5 84 3d 36 cc 3e 3d
       0.0056115114 0.047770746 0.06479863 0.04658147
000340 0b 0d ce 3c c6 43 ae bc e7 62 9d bd f4 32 d7 3d
       0.025152704 -0.021272551 -0.0768488 0.105077654
000350 be ba 9e 3c f3 4d ad 3c ba 99 fe 3c af d0 78 3d
       0.019376155 0.021155333 0.031079162 0.06074589
000360 42 3b 83 3d 09 43 e4 3d 2a e8 14 3d 21 89 cb 3d
       0.06407787 0.111455984 0.03635422 0.09938265
000370 81 88 3b 3d 2d 1e 02 3d 4c d3 38 3b 3c 09 e6 bc
       0.045784477 0.03176706 0.0028202115 -0.028080575
000380 83 4c 61 3d 90 4c 81 3d 4d 1a 38 bd b2 6c 69 3d
       0.055004608 0.06313431 -0.044946957 0.056988426
000390 4a 4f d3 3c 83 36 8c 3c 53 0c 25 3c 2c 8e 38 3d
       0.025794644 0.017115837 0.010073739 0.04505746
0003a0 b9 e4 d3 3c f0 37 b6 3c 85 7f b0 3d 17 61 1d 3d
       0.0258659 0.02224347 0.086180724 0.03842267
0003b0 12 90 7a 3d 86 82 e0 3c 91 7e e9 3d 62 63 a7 3d
       0.061172552 0.027405988 0.11401094 0.08173253
0003c0 06 b1 96 3d b3 81 12 bc 47 1f a1 3d d2 c0 24 3d
       0.07357983 -0.0089420555 0.07867294 0.04022295
0003d0 58 05 56 3d f4 08 23 3d 74 14 66 3b 0d 27 43 3d
       0.05225119 0.03980346 0.0035107406 0.047644664
0003e0 1c c6 b2 3c ef 5a 12 3d aa 8d 1e 3d f1 0e 70 3d
       0.021822982 0.035731252 0.03870932 0.058608
0003f0 d9 66 12 bd 77 8a 8a 3c e8 8c 5a 3d 72 c3 cc 3d
       -0.035742614 0.016911728 0.053357035 0.09998216

classifier.weight f4 [2, 64]
000000 05 7f f4 3d e2 cf fa 3d 86 18 58 3d 70 ab 73 3d
       0.119382896 0.12246682 0.052757762 0.059489667
000010 54 8e 7c 3e 3d 7b 9e 3d 52 4d b2 3d 2e 3e 60 3d
       0.24663669 0.077383496 0.08706154 0.0547468
000020 73 c5 91 3d ac c1 33 3e 3d 90 f1 3c 38 22 8c 3e
       0.071177386 0.17554349 0.029487723 0.27369857
000030 30 e6 3a bd c3 42 c1 3d 59 18 69 be 3e 1d b7 3e
       -0.04562968 0.09436562 -0.22763194 0.35764498
000040 87 65 08 bd a9 c0 24 3b 02 e9 73 bb e1 d1 1a 3e
       -0.03329995 0.0025139248 -0.003721774 0.15119125
000050 78 35 81 3e 4d 1f 3d bd 21 b0 18 3d 6c a1 2d 3e
       0.25236106 -0.04617243 0.037277345 0.16956109
000060 d0 c3 00 3e 63 03 e5 3c a9 99 5c 3d 63 0f a4 3e
       0.12574697 0.027955716 0.05385748 0.3204299
000070 8b 67 09 bf 4f b7 11 3c f6 3a f2 3d dd bd 5c 3e
       -0.5367362 0.008893802 0.11827652 0.21556802
000080 cf a8 b0 3c 00 1b 93 3e 2c 5c 45 3e a1 a2 92 3c
       0.02156487 0.28731537 0.19273442 0.017899813
000090 e7 cc 10 3e 5c 5a 29 3e 7a f1 0c 3d 42 d6 58 3e
       0.14140664 0.16538376 0.034409977 0.21175483
0000a0 46 01 81 3e 1c 69 10 3c 47 8f 13 bc 0d 12 e2 3b
       0.25196284 0.0088141225 -0.009006328 0.0068991245
0000b0 cf ef 44 bc d8 33 09 3e 3c 2d f3 3d 8a 90 1b 3c
       -0.012020065 0.13398683 0.11873862 0.00949491
0000c0 3b da 60 3e 93 99 bd 3d e4 fd 6f 3e ec 27 8a 3d
       0.21958248 0.092578076 0.23436695 0.06745896
0000d0 e3 55 cf 3a 7c 88 e4 3d ce 1f 1f bd a0 2c 22 bd
       0.0015818443 0.11158845 -0.03884869 -0.03959334
0000e0 41 5e 09 3e be d6 3b 3e f2 f9 d6 3d e4 14 79 bd
       0.13414861 0.18343636 0.10496892 -0.06081094
0000f0 01 e8 7c 3e 7a 46 ad 3c de 40 83 3e e0 45 40 bc
       0.24697877 0.02115177 0.25635427 -0.0117354095
000100 08 c6 9c bd ee c0 24 be 52 ca 73 3d 76 98 8a bc
       -0.07654959 -0.16089222 0.05951912 -0.016918402
000110 2f 66 81 be 16 40 59 3c 3a 96 ca 3c 9a b0 46 be
       -0.25273272 0.013259908 0.024729837 -0.19403306
000120 8a 02 38 bd 92 f9 df bd 64 e7 5d bc 60 ef 5c be
       -0.044924296 -0.10936274 -0.013543937 -0.2157569
000130 e0 de 00 bd 36 1a 65 3d 63 87 81 3e 1d d5 9f be
       -0.03146255 0.0559332 0.25298604 -0.3121728
000140 7f 13 e7 bd 01 e9 6c 3c ba ce c4 bd 1e 61 b5 bd
       -0.112830155 0.014459849 -0.096097425 -0.08856414
000150 ca 0b 97 be 42 3b 06 be bc d7 1f 3b 3f d6 54 be
       -0.29501182 -0.13108543 0.0024390062 -0.20784853
000160 b7 78 16 be d6 13 7c 3d 59 cd 8c be 40 d0 b5 be
       -0.14694487 0.061542355 -0.27500418 -0.35510445
000170 01 99 03 3f 8a 3b 5b bc 79 4d 32 be 4e 49 02 be
       0.5140534 -0.013380894 -0.17412366 -0.12723276
000180 db c7 8b bd 8c 4e 62 be 6b 51 10 be 70 25 32 bd
       -0.06825229 -0.22100276 -0.14093558 -0.043492734
000190 e2 db 89 be ce 6f 5d be 31 6f ca 3b 54 51 9e be
       -0.2692557 -0.21624681 0.006177806 -0.30921423
0001a0 26 8d 73 be 52 a2 18 3a a8 80 a4 bd 03 3d 07 bd
       -0.23784313 0.00058225275 -0.08032352 -0.03301717
0001b0 88 71 e1 bd 0a d9 54 3d f8 79 80 be c6 82 b3 bd
       -0.110079825 0.051964797 -0.25093055 -0.087651774
0001c0 8b 4e 2d be a1 50 34 be 3f b1 f0 bd 59 58 43 be
       -0.16924493 -0.17608882 -0.11752557 -0.1907667
0001d0 d5 bd 09 bc 2e 55 3a be 8d c8 38 b9 59 3c 12 bd
       -0.008407076 -0.18196556 -0.00017622318 -0.035702083
0001e0 bd 0e 66 3d d8 34 10 be c4 3d fb bd b4 f6 81 3d
       0.0561664 -0.14082658 -0.1226764 0.06345883
0001f0 66 25 12 be 3e 58 43 be 47 cd 8a be 2d 20 a9 bc
       -0.14272079 -0.1907663 -0.2710974 -0.020645225

classifier.bias f4 [2]
000000 ae 53 05 bf ac 7a 1f 3f
       -0.5208081 0.6229656
