models/baseline_weight_gcn_model.pt (torch, 130044 bytes, 6 tensors)

conv1.bias f4 [128]
-0.042519785 0.16871935 -0.11036787 -0.050830662 -0.037423387 -0.018061792 0.009475698 0.037112985
0.07014299 -0.10802475 0.071437396 -0.10819985 -0.112923056 0.035917394 -0.25381243 -0.062362198
-0.013712196 -0.17383248 -0.10726427 -0.14220339 -0.08678718 -0.059955467 -0.15654188 -0.3048892
-0.036097467 0.067072004 -0.051085554 0.039643858 0.100485235 0.003578795 -0.013790132 -0.05397186
-0.06974411 0.0074151815 -0.002960421 -0.11375704 -0.10211529 0.077259354 0.019920256 -0.1544582
-0.039707858 -0.12246488 -0.11173033 -0.041975733 -0.111446865 -0.30686846 -0.09659405 -0.0845814
-0.07718489 0.027558792 -0.16398838 -0.1323467 0.017585902 -0.07948488 -0.08777699 0.08077602
-0.1401754 0.056494124 -0.06009295 0.0029061814 -0.15569572 -0.084147215 -0.101905905 -0.066192485
-0.0033145128 -0.11803766 -0.08743251 -0.13041224 -0.12299489 0.046854377 -0.1663213 -0.07733573
-0.18336567 -0.031369135 -0.24639097 0.09012292 -0.049011767 0.16900559 -0.01715762 0.05504093
-0.3171661 -0.14238343 -0.24474537 0.016871076 -0.012401136 0.005233139 0.042834897 -0.009570542
-0.092064284 -0.10052427 -0.18332474 0.056819692 0.05223097 -0.15676656 0.04987417 -0.0143408375
0.11926278 -0.20074886 0.07922469 -0.20198022 0.05401755 -0.09088002 -0.110416606 -0.15962982
-0.033915054 -0.08379891 -0.07960815 -0.09813093 -0.19983661 0.12326082 -0.05711128 -0.13617624
-0.2302405 0.015809696 0.07574124 0.054574717 0.04141808 -0.11831647 0.0075943084 0.05357428
0.054918557 0.0026885867 0.06657397 0.04287602 -0.167478 0.088273756 -0.13775396 0.099728495
00000000: 3a29 2ebd c4c4 2c3e 8d08 e2bd d033 50bd
00000010: 4449 19bd 53f6 93bc f53f 1b3c c903 183d
00000020: 21a7 8f3d 153c ddbd c54d 923d e297 ddbd
00000030: 3444 e7bd 1e1e 133d b4f3 81be 816f 7fbd
00000040: 1ea9 60bc 2401 32be 5fad dbbd c49d 11be
00000050: 7abd b1bd dd93 75bd 844c 20be 701a 9cbe
00000060: f0da 13bd 0c5d 893d 163f 51bd 9961 223d
00000070: 34cb cd3d 378a 6a3b 01f0 61bc 9911 5dbd
00000080: 00d6 8ebd 0dfb f23b 9f03 42bb 73f9 e8bd
00000090: d221 d1bd 273a 9e3d ce2f a33c 4a2a 1ebe
000000a0: b5a4 22bd dece fabd dfd2 e4bd bfee 2bbd
000000b0: 413e e4bd dd1d 9dbe 1ad3 c5bd 0339 adbd
000000c0: 1d13 9ebd fac2 e13c 92ec 27be e585 07be
000000d0: 4f10 903c f8c8 a2bd 6cc4 b3bd e66d a53d
000000e0: 248a 0fbe 6266 673d 0624 76bd a275 3e3b
000000f0: b36e 1fbe 6055 acbd 0bb4 d0bd ed8f 87bd
00000100: 4c38 59bb bbbd f1bd d10f b3bd c98a 05be
00000110: bfe4 fbbd 60ea 3f3d 2250 2abe 3262 9ebd
00000120: 36c4 3bbe ec7c 00bd ea4d 7cbe 5e92 b83d
00000130: 90c0 48bd cd0f 2d3e 238e 8cbc 9972 613d
00000140: 9863 a2be f6cc 11be 889e 7abe 3635 8a3c
00000150: 222e 4bbc c07a ab3b a573 2f3d c3cd 1cbc
00000160: 338c bcbd abdf cdbd 7bb9 3bbe c4bb 683d
00000170: 24f0 553d 6a87 20be dc48 4c3d d5f5 6abc
00000180: 0b40 f43d 1c91 4dbe 8e40 a23d e7d3 4ebe
00000190: 8241 5d3d 4e1f babd 1a22 e2bd 0076 23be
000001a0: 83ea 0abd c39e abbd 9909 a3bd def8 c8bd
000001b0: f8a1 4cbe 2b70 fc3d 84ed 69bd c971 0bbe
000001c0: 2ac4 6bbe 5683 813c 391e 9b3d bd89 5f3d
000001d0: 01a6 293d e84f f2bd add9 f83b b470 5b3d
000001e0: 48f2 603d 0033 303b ef57 883d c49e 2f3d
000001f0: 5a7f 2bbe dfc8 b43d 600f 0dbe 743e cc3d

conv1.lin.weight f4 [128, 182]
-0.03761834 0.04540967 -0.08593179 0.019481631 -0.015578623 0.02915274 -0.19226098 -0.039958365
-0.057114333 -0.065395355 0.021187432 -0.021022739 0.021254173 -0.014996234 -0.01464936 0.016755087
-0.05538327 0.01864752 -0.020452134 0.030187879 0.030193971 0.0462268 0.066740006 0.035543796
0.03452918 0.08288368 0.12682776 0.014224051 0.04351115 0.036396183 0.015476613 0.05930584
0.067455165 0.004335291 -0.0049872454 0.0015199095 -0.0033530074 -0.10762601 -0.11080178 -0.017684411
0.018531995 0.054533575 0.005368797 0.034571856 0.061391864 -0.05245259 -0.029474182 0.038767125
-0.06013287 0.062445838 0.09253257 0.13878109 0.21763916 0.06863214 0.13400704 0.070103504
0.06260911 0.079507075 0.08470738 0.09514945 0.111986816 -0.059824705 -0.025633598 0.07783914
0.013062941 0.08600801 0.092752606 -0.09758382 -0.10828948 0.015001263 0.018457556 0.021006105
0.01768254 -0.024635836 0.023109771 0.032625828 0.006958676 0.043109577 0.0026928817 -0.046999898
-0.07453962 0.022745652 -0.00015644569 0.016338963 0.02007699 -0.027478056 -0.031012215 -0.058606632
0.11108054 0.0672564 0.064282276 -0.17490613 -0.24184752 -0.008961645 0.04805687 0.08676678
0.03044144 0.10035419 0.104407735 -0.0038168791 0.07256694 0.042015426 0.08950271 -0.11185556
-0.010336004 0.03359594 -0.07869989 -0.10538534 0.0508946 0.09344122 0.0831831 -0.0024525765
0.07496046 0.017077966 -0.02450183 0.00894721 0.07812336 0.07033995 0.054934166 -0.076466575
0.0485142 0.025643898 0.06748237 0.044247553 0.10248409 0.08065666 0.09428312 -0.061469946
-0.0007319978 -0.028022915 0.07420202 0.053195387 0.043602295 0.028365023 0.07335318 0.0040534358
0.10690727 0.12800483 0.13987918 0.08865465 0.10538608 0.07488887 0.010219751 0.0049690525
0.04005518 -0.032949504 -0.012913624 -0.07099399 -0.019374367 -0.10397255 -0.029787675 -0.11011256
-0.11601054 -0.049794823 -0.02312449 -0.00024391981 -0.055140167 0.06735014 0.09883609 0.008237701
0.023352973 0.055864643 0.109153405 0.015943691 0.012133212 0.14756535 -0.082918584 -0.061005116
0.025517382 0.056746714 0.016518332 -0.0158891 0.01564214 -0.06844977 0.0068262634 -0.030157251
-0.016462479 0.016673792 0.012624105 0.037479375 0.036046263 -0.017250756 0.024408106 -0.026018482
0.15184942 0.08162748 -0.024309283 0.08722219 0.07094247 0.008369332 -0.0006965501 -0.0134339295
-0.006361514 0.012339026 0.002492796 -0.024234695 0.045399856 0.004543496 0.0122143105 -0.0059447973
0.011505574 0.06205538 0.070851766 0.037148338 0.024569858 -0.006122073 0.03039951 0.026481885
0.0055325264 0.029143613 0.027862258 -0.0057698395 0.038845085 0.029416138 0.0040225224 -0.018369865
-0.025490912 -0.029483344 -0.023065656 0.06789814 0.08521555 0.12296956 0.06699407 -1.5113234e-06
0.105801344 0.035124294 -0.007757185 0.10311089 0.09092434 -0.0057132845 0.10073893 0.048102856
0.005093023 0.08121891 0.11186923 0.06832581 0.05195083 0.018425388 -0.007501634 0.020423423
0.009517063 0.010908316 0.01183615 0.043631054 0.053909477 0.020062782 0.016374638 0.0036670924
0.00073615566 0.0540418 0.051591646 -0.030905204 -0.027827464 -0.033367403 -0.03361443 0.06351245
00000000: b015 1abd 7dff 393d 02fd afbd f197 9f3c
00000010: 7b3d 7fbc bad1 ee3c 10e0 44be 62ab 23bd
00000020: b8f0 69bd 00ee 85bd 4491 ad3c e137 acbc
00000030: 3b1d ae3c c4b2 75bc df03 70bc f741 893c
00000040: 91d9 62bd afc2 983c 3c8b a7bc 924c f73c
00000050: 5959 f73c 5058 3d3d fcae 883d 5f96 113d
00000060: 786e 0d3d ebbe a93d 23df 013e fe0b 693c
00000070: bf38 323d 2a14 153d 9f91 7d3c aeea 723d
00000080: ef25 8a3d 0f0f 8e3b 0c6c a3bb b337 c73a
00000090: 21be 5bbb 076b dcbd 0bec e2bd e6de 90bc
000000a0: 69d0 973c 995e 5f3d bcec af3b 389b 0d3d
000000b0: 0976 7b3d 87d8 56bd d773 f1bc 47ca 1e3d
000000c0: e24d 76bd 35c7 7f3d b781 bd3d a11c 0e3e
000000d0: cddc 5e3e 028f 8c3d 2439 093e 6d92 8f3d
000000e0: 3439 803d 9bd4 a23d 107b ad3d b7dd c23d
000000f0: 5859 e53d c00a 75bd 8dfd d1bc 216a 9f3d
00000100: f205 563c f824 b03d 14f5 bd3d 07da c7bd
00000110: e0c6 ddbd dbc7 753c 4d34 973c ff14 ac3c
00000120: f9da 903c 18d1 c9bc b450 bd3c a9a2 053d
00000130: 9b05 e43b ab93 303d 0f7b 303b f782 40bd
00000140: 3aa8 98bd 1755 ba3c 920b 24b9 4ad9 853c
00000150: 8078 a43c a919 e1bc 540d febc 820d 70bd
00000160: 327e e33d b9bd 893d 6da6 833d 981a 33be
00000170: e0a6 77be ddd3 12bc 48d7 443d c8b2 b13d
00000180: 5460 f93c 7f86 cd3d b9d3 d53d 9b24 7abb
00000190: fa9d 943d 5e18 2c3d 324d b73d 8714 e5bd
000001a0: 5858 29bc e59b 093d 682d a1bd 45d4 d7bd
000001b0: db76 503d 1c5e bf3d e75b aa3d 68bb 20bb
000001c0: df84 993d 17e7 8b3c 10b8 c8bc 5297 123c
000001d0: 24ff 9f3d 640e 903d a602 613d 829a 9cbd
000001e0: d3b6 463d 2713 d23c 3234 8a3d ec3c 353d
000001f0: 2ee3 d13d 522f a53d 8217 c13d e9c7 7bbd
00000200: 8ae3 3fba 5090 e5bc 3bf7 973d 68e3 593d
00000210: 5298 323d c45d e83c 313a 963d afd2 843b
00000220: 33f2 da3d b313 033e 7d3c 0f3e 9290 b53d
00000230: a8d4 d73d 565f 993d be70 273c 6fd3 a23b
00000240: e710 243d 0ff6 06bd aa93 53bc 4c65 91bd
00000250: feb6 9ebc 8fef d4bd 4805 f4bc b282 e1bd
00000260: ef96 edbd a8f5 4bbd 926f bdbc bac4 7fb9
00000270: a8da 61bd dfee 893d 936a ca3d 6cf7 063c
00000280: bc4e bf3c 53d2 643d d28b df3d 589c 823c
00000290: 61ca 463c 5f1b 173e 38d1 a9bd 80e0 79bd
000002a0: d409 d13c 3e6f 683d 7451 873c dc29 82bc
000002b0: f223 803c 652f 8cbd d9ae df3b 570c f7bc
000002c0: 52dc 86bc 7a97 883c 56d5 4e3c f983 193d
000002d0: 3fa5 133d 7551 8dbc 82f3 c73c b624 d5bc
000002e0: 6a7e 1b3e 4f2c a73d 4324 c7bc 8ca1 b23d
000002f0: 494a 913d 861f 093c b098 36ba fc19 5cbc
00000300: 3f74 d0bb a029 4a3c 2d5e 233b d787 c6bc
00000310: 33f5 393d 9be1 943b 881e 483c 93cc c2bb
00000320: e081 3c3c c82d 7e3d bb1a 913d db28 183d
00000330: ba46 c93c ac9b c8bb 6508 f93c 8af0 d83c
00000340: 324a b53b 96be ee3c 643f e43c ec10 bdbb
00000350: 061c 1f3d 1dfa f03c 5dcf 833b 667c 96bc
00000360: 51d2 d0bc 0e87 f1bc 30f4 bcbc 2e0e 8b3d
00000370: 7e85 ae3d 77d7 fb3d 3034 893d add8 cab5
00000380: 60ae d83d 7ede 0f3d fc2f febb cd2b d33d
00000390: 8a36 ba3d 8136 bbbb 3650 ce3d 8007 453d
000003a0: 60e3 a63b 1a56 a63d b21b e53d 67ee 8b3d
000003b0: 65ca 543d d7f0 963c 44d0 f5bb 064f a73c
000003c0: 75ed 1b3c cbb8 323c 69ec 413c 7ab6 323d
000003d0: 2fd0 5c3d b45a a43c 1b24 863c 9a53 703b
000003e0: 92fa 403a ef5a 5d3d c351 533d e92c fdbc
000003f0: 6cf6 e3bc 42ac 08bd 49af 09bd d112 823d

conv2.bias f4 [64]
0.059644144 0.08413647 0.08137078 0.0489487 0.08342999 0.30210721 0.087941945 0.19287364
0.057052374 -0.010287757 0.1942203 0.23513785 0.065985665 0.066480026 0.37217766 0.26046696
0.32736272 0.17649108 0.20530844 0.12741151 0.043027226 0.34099784 0.03245312 0.039133597
0.112591684 0.30761972 0.10672006 0.0605628 0.3745506 0.23353201 0.021776602 0.06286082
0.016314548 0.08513497 0.06938656 0.31504387 0.11983515 0.0347402 0.0780129 -0.021159345
0.32377017 0.29095703 0.055302013 -0.012454109 0.032017794 0.032353412 0.046439633 0.2868227
0.06849193 0.25424942 0.030033035 0.041409355 0.27863154 0.042853598 0.29492933 0.25398695
0.0011273958 0.049420614 0.058383808 0.08681193 0.06185316 0.003373165 0.05827849 0.044476397
00000000: 6b4d 743d be4f ac3d b9a5 a63d 6f7e 483d
00000010: 58dd aa3d ccad 9a3e e81a b43d ab80 453e
00000020: c0af 693d fb8d 28bc b0e1 463e fac7 703e
00000030: 7e23 873d ae26 883d 128e be3e ed5b 853e
00000040: 169c a73e 14ba 343e 603c 523e 2a78 023e
00000050: 513d 303d 4597 ae3e 90ed 043d 8d4a 203d
00000060: 7896 e63d 5580 9d3e 0c90 da3d b310 783d
00000070: 19c5 bf3e 0423 6f3e d864 b23c 2cbd 803d
00000080: 16a6 853c 3e5b ae3d 8a1a 8e3d 6e4d a13e
00000090: 226c f53d bd4b 0e3d 3ac5 9f3d 5d56 adbc
000000a0: 34c5 a53e 52f8 943e 5d84 623d 520c 4cbc
000000b0: 1725 033d 0385 043d 7c37 3e3d 6dda 923e
000000c0: 7f45 8c3d fb2c 823e d707 f63c db9c 293d
000000d0: cba8 8e3e 4187 2f3d fa00 973e 940a 823e
000000e0: 20c5 933a 456d 4a3d dc23 6f3d 74ca b13d
000000f0: bd59 7d3d 5110 5d3b 6db5 6e3d e22c 363d

conv2.lin.weight f4 [64, 128]
0.02445819 0.04731392 -0.02251287 -0.14954558 -0.047798757 -0.0044142343 0.17091145 0.05319159
0.123018056 -0.069931686 0.036215767 -0.12183981 0.006121729 0.076690845 0.05428534 0.053799976
0.10171815 0.06565807 0.079636015 0.025079561 0.037030123 -0.05599892 0.076194644 0.051166814
0.029831007 0.08188259 0.11156555 0.034431506 0.06482087 0.007657175 -0.073928505 0.08313514
0.034925256 0.052087173 -0.01318924 -0.06426257 -0.07348664 0.03522357 0.14681739 -0.055399198
-0.080502406 -0.07755497 -0.027307183 -0.07946399 -0.06023162 0.014289966 -0.06999603 -0.11749818
-0.17496128 0.05725304 0.055471037 -0.014694009 0.14290245 0.046730712 -0.03676358 -0.011626621
0.11490461 -0.0009669301 0.016003693 0.021626303 -0.001556995 -0.101800166 -0.067267075 -0.077590965
0.0387761 -0.019676737 0.034559365 -0.056834742 0.115885705 0.0011301182 0.10469245 -0.0528491
0.0019111016 0.007024469 -0.021336237 0.039853495 0.15375857 0.0452951 0.05462067 0.049560543
0.12836832 -0.000717202 -0.019234136 0.051071074 0.13907503 -0.0129349 0.10788198 -0.016227901
0.11799982 -0.10045397 -0.08432839 0.13945532 0.10345573 -0.07155028 0.024077669 -0.042340662
0.14746396 0.013173626 0.1712302 -0.15011449 0.01366702 -0.06297363 -0.05192489 0.03137126
0.06246641 -0.11928582 0.110088 0.02798008 0.018686956 0.0868805 0.045592256 0.021012066
0.0899474 0.14263588 0.074890554 0.047152556 0.09842684 -0.06271516 0.10997401 0.13433914
-0.020944467 -0.06967859 0.094388455 0.17505631 0.06068397 0.009854993 -0.115051925 0.07788091
-0.027964886 0.014032402 0.064477555 0.04888456 0.06754315 -0.025208035 -0.004713747 -0.013632872
-0.006974624 0.038579047 0.011834302 0.013115647 0.041808356 -0.01533488 -0.01905509 -0.00045803905
-0.038488317 0.04317396 0.00976328 -0.01651625 -0.010219805 0.018793965 -0.04329438 0.011035658
-0.058279525 -0.024604185 -0.012701574 -0.008627813 0.015325599 -0.009331473 -0.04932421 -0.054816414
-0.037765194 -0.0062615406 -0.011536981 0.014152434 0.02405396 -0.017805453 -0.056427915 0.07967467
0.07883022 0.014042628 0.013607557 0.0059329686 -0.03461319 -0.00041755615 0.013426706 0.07589237
-0.024020005 -0.031360403 -0.04645074 -0.010373218 -0.016588567 -0.036696658 0.051632214 -0.03944044
0.0011529222 -0.022197617 -0.015990505 -0.014999773 0.04663493 -0.01616263 0.06527794 -0.02866906
-0.019311424 -0.0046950835 0.007994611 -0.004618809 -0.01023088 -0.026004447 -0.0092240255 0.015532777
0.041008584 0.052348107 -0.015416691 -0.033701636 0.009776164 -0.034510843 -0.008660789 -0.044443537
0.009700652 0.015833344 -0.017621726 -0.0041671842 0.011226273 0.014071818 -0.0042121853 0.010396557
0.008499775 -0.0043158154 0.0063604875 -0.05936962 0.021469334 0.029511645 0.006563288 -0.063789815
-0.047283713 -0.04654135 -0.018376678 -0.052049354 0.05210729 0.022787472 0.026133338 -0.01504752
-0.012412239 0.03319757 -0.0047409916 0.02693535 -0.012515093 -0.031447083 -0.03413315 -0.027149683
-0.036045182 -0.027410012 -0.01976694 0.0015979407 -0.025918493 0.06934112 -0.017320085 -0.021681424
0.014998961 -0.004754997 -0.021100743 -0.00041533756 -0.016873952 -0.007085005 0.07441056 -0.029034218
00000000: 8b5c c83c 3ecc 413d e96c b8bc 7a22 19be
00000010: a1c8 43bd 48a5 90bb 6903 2f3e 6ddf 593d
00000020: e4f0 fb3d 5838 8fbd fc56 143d 2687 f9bd
00000030: c998 c83b 1710 9d3d 4e5a 5e3d 5d5d 5c3d
00000040: 9b51 d03d bd77 863d 3518 a33d a773 cd3c
00000050: e6ac 173d 205f 65bd f00b 9c3d 4b94 513d
00000060: 2860 f43c 0fb2 a73d 7b7c e43d 0d08 0d3d
00000070: cec0 843d 0ae9 fa3b d467 97bd c242 aa3d
00000080: c90d 0f3d 5c59 553d af17 58bc 189c 83bd
00000090: 2a80 96bd 9746 103d 4c57 163e 45ea 62bd
000000a0: 72de a4bd 24d5 9ebd 50b3 dfbc 04be a2bd
000000b0: 6eb5 76bd 7620 6a3c 145a 8fbd e3a2 f0bd
000000c0: 0d29 33be 2a82 6a3d 9935 633d 24bf 70bc
000000d0: 0555 123e b468 3f3d 6895 16bd 957d 3ebc
000000e0: 1c53 eb3d 9579 7dba 2d1a 833c a529 b13c
000000f0: 1514 ccba 9b7c d0bd 52c3 89bd 03e8 9ebd
00000100: b0d3 1e3d 1c31 a1bc 1f8e 0d3d 8ccb 68bd
00000110: 7c55 ed3d 7920 943a ff68 d63d 4c78 58bd
00000120: ee7d fa3a 842d e63b 55c9 aebc 6b3d 233d
00000130: e372 1d3e 5b87 393d ecb9 5f3d ffff 4a3d
00000140: fc72 033e 9d02 3cba e890 9dbc e72f 513d
00000150: af69 0e3e e7ec 53bc 3af1 dc3d 60f0 84bc
00000160: e4a9 f13d d0ba cdbd 5db4 acbd 60cd 0e3e
00000170: 99e0 d33d f488 92bd 883e c53c 676d 2dbd
00000180: cb00 173e 31d6 573c f856 2f3e 9db7 19be
00000190: a3eb 5f3c 52f8 80bd 32af 54bd 267f 003d
000001a0: c7dc 7f3d 204c f4bd d175 e13d 7b36 e53c
000001b0: 6315 993c 67ee b13d f2be 3a3d 7f21 ac3c
000001c0: 5836 b83d 240f 123e 3860 993d 0a23 413d
000001d0: 0394 c93d ce70 80bd 0e3a e13d 3390 093e
000001e0: bb93 abbc a6b3 8ebd bc4e c13d f641 333e
000001f0: c18f 783d d676 213c 58a0 ebbd 0780 9f3d
00000200: 9e16 e5bc 29e8 653c cf0c 843d 2d3b 483d
00000210: 1054 8a3d 1581 cebc c775 9abb 695c 5fbc
00000220: 638b e4bb 1005 1e3d a9e4 413c 03e3 563c
00000230: 3d3f 2b3d 263f 7bbc 6c19 9cbc f624 f0b9
00000240: eda5 1dbd 2ed7 303d 2af6 1f3c 164d 87bc
00000250: f870 27bc cdf5 993c 7355 31bd e8ce 343c
00000260: 83b6 6ebd b78e c9bc 431a 50bc ac5b 0dbc
00000270: 3918 7b3c 09e3 18bc 2f08 4abd 2d87 60bd
00000280: adaf 1abd 9c2d cdbb 9b05 3dbc 9cdf 673c
00000290: cf0c c53c bedc 91bc f520 67bd 792c a33d
000002a0: bd71 a13d 0d13 663c 3bf2 5e3c 5969 c23b
000002b0: 8fc6 0dbd 70eb dab9 b0fb 5b3c 756d 9b3d
000002c0: 9ac5 c4bc c473 00bd 2243 3ebd 6ef4 29bc
000002d0: bfe4 87bc 3c4f 16bd 4d7c 533d 4c8c 21bd
000002e0: a61d 973a c7d7 b5bc 85fe 82bc 9cc1 75bc
000002f0: 4504 3f3d 7e67 84bc 71b0 853d 60db eabc
00000300: fe32 9ebc 37d9 99bb d4fb 023c 6159 97bb
00000310: 6c9f 27bc 4707 d5bc 5e20 17bc 307d 7e3c
00000320: 9ef8 273d f86a 563d 4a96 7cbc ba0a 0abd
00000330: 342c 203c 3e5b 0dbd fbe5 0dbc 6d0a 36bd
00000340: 7cef 1e3c eeb4 813c 705b 90bc e08c 88bb
00000350: 67ee 373c 7c8d 663c 5f06 8abb 5256 2a3c
00000360: a442 0b3c af6b 8dbb a36b d03b 8f2d 73bd
00000370: 75e0 af3c 68c2 f13c da10 d73b 3ca4 82bd
00000380: 91ac 41bd 25a2 3ebd b08a 96bc b431 55bd
00000390: 746e 553d cbac ba3c 9515 d63c e089 76bc
000003a0: b45c 4bbc 2dfa 073d 525a 9bbb 86a7 dc3c
000003b0: 1b0c 4dbc a8ce 00bd 34cf 0bbd 0369 debc
000003c0: 1da4 13bd f68a e0bc 47ee a1bc fe71 d13a
000003d0: 0553 d4bc b802 8e3d dae2 8dbc 3e9d b1bc
000003e0: 34be 753c cecf 9bbb 77db acbc aac1 d9b9
000003f0: 3e3b 8abc 5429 e8bb 9064 983d 2bd9 edbc

classifier.weight f4 [2, 64]
0.082315564 0.04350113 0.18893516 0.12839969 0.34199727 -0.27597007 0.5085254 -0.17462467
0.2159431 -0.01841279 -0.12695162 -0.15340054 0.17475097 0.20161451 -0.28275365 -0.09323618
-0.3302501 -0.11766391 -0.22108226 -0.20649958 0.037869755 -0.2852451 0.13602662 0.24341314
0.21397498 -0.39337885 0.44514617 0.1722354 -0.25270474 -0.3440108 0.15991904 0.10220924
0.122161575 0.26981565 0.17710477 -0.28616393 -0.33372825 -0.059404265 0.22614807 -0.030095844
-0.30813998 -0.24347024 0.31973925 -0.031129189 0.0051590153 0.1170284 0.15211368 -0.13842028
0.43907267 -0.21829104 0.2972568 -0.06887871 -0.16759366 0.27248567 -0.32461154 -0.24346204
0.042979755 0.12255411 0.15985812 0.23136269 0.27450776 0.062407956 0.25472647 0.2997273
-0.13152502 0.12845485 -0.30593297 -0.21819264 -0.26892638 0.32270336 -0.45173967 0.18178593
-0.10562687 -0.086500056 0.23239951 0.14580356 -0.1206147 -0.24164283 0.40511563 0.25512892
0.2335026 0.16686885 0.19777137 0.08360212 0.06341682 0.20273511 0.07042148 -0.04354369
-0.1929814 0.3632385 -0.4820342 0.038800813 0.21516493 0.31453717 -0.1013121 -0.07940707
0.08367849 -0.24385668 -0.22594832 0.3384801 0.26514217 -0.033693794 -0.225738 -0.0001986131
0.2618923 0.029736605 -0.17972125 -0.01782313 0.022362053 -0.12953779 0.03291415 0.16309631
-0.41433987 0.09690912 -0.22237815 -0.0048006964 0.21164769 -0.18998918 0.34229288 0.16040482
0.07187252 -0.16148375 -0.12023011 -0.25657228 -0.25086504 -0.08479374 -0.12094448 -0.2845351
00000000: 1095 a83d 3e2e 323d 3878 413e 357b 033e
00000010: 441a af3e f34b 8dbe b82e 023f cfd0 32be
00000020: 3020 5d3e 6bd6 96bc 9bff 01be 0815 1dbe
00000030: ebf1 323e 0974 4e3e 16c5 90be 9cf2 bebd
00000040: 8b16 a9be c7f9 f0bd 6363 62be a074 53be
00000050: 511d 1b3d a50b 92be 904a 0b3e 4b41 793e
00000060: 421c 5b3e f468 c9be 33ea e33e 7a5e 303e
00000070: 8462 81be 2f22 b0be d1c1 233e 1453 d13d
00000080: d92f fa3d 4725 8a3e f45a 353e 1484 92be
00000090: 6ede aabe e351 73bd 5c93 673e 8f8b f6bc
000000a0: 86c4 9dbe 4350 79be ddb4 a33e a402 ffbc
000000b0: f50c a93b 96ac ef3d b0c3 1b3e 0cbe 0dbe
000000c0: 22ce e03e b087 5fbe 0b32 983e 4810 8dbd
000000d0: ac9d 2bbe 3e83 8b3e 7c33 a6be 1d4e 79be
000000e0: 8a0b 303d a6fd fa3d d9b1 233e 57ea 6c3e
000000f0: 488c 8c3e 7c9f 7f3d 826b 823e db75 993e
00000100: 7fae 06be ab89 033e 3fa3 9cbe e46d 5fbe
00000110: b8b0 89be 6039 a53e 6c4a e7be 1726 3a3e
00000120: e752 d8bd f126 b1bd 23fa 6d3e 874d 153e
00000130: d704 f7bd 3871 77be 516b cf3e 42a0 823e
00000140: 4e1b 6f3e abdf 2a3e 9484 4a3e 9737 ab3d
00000150: ade0 813d cb99 4f3e 2339 903d de5a 32bd
00000160: eb9c 45be 66fa b93e 30cd f6be 9aed 1e3d
00000170: 3254 5c3e 040b a13e b87c cfbd 2da0 a2bd
00000180: a15f ab3d 91b5 79be ff5e 67be 434d ad3e
00000190: b7c0 873e 8102 0abd dd27 67be cc42 50b9
000001a0: bf16 863e 2e9a f33c d908 38be d001 92bc
000001b0: a030 b73c 8ea5 04be fdd0 063d b802 273e
000001c0: 5b24 d4be 4a78 c63d 19b7 63be 294f 9dbb
000001d0: 2cba 583e 868c 42be 0341 af3e 2941 243e
000001e0: e631 933d ff5b 25be 343b f6bd 715d 83be
000001f0: 6271 80be 57a8 adbd bdb1 f7bd 96ae 91be

classifier.bias f4 [2]
-0.17639862 0.30408883
00000000: d7a1 34be 88b1 9b3e
