models/engineered_weight_graphsage_model.pt (torch, 268984 bytes, 8 tensors)

conv1.lin_l.weight f4 [128, 194]
000000 d7 c1 74 3c cf 5a 9b bb 39 d9 11 3d 5f 40 33 bc
       0.014938793 -0.00474105 0.03560755 -0.01094064
000010 ef 27 38 ba 7b e0 bf bb 78 69 19 bd c0 1f 91 3c
       -0.00070249935 -0.0058556176 -0.0374541 0.017715335
000020 2d 0e 98 3c fb 07 e4 3c df 6e b4 3c 12 39 61 bd
       0.018561447 0.027835837 0.022025524 -0.054986067
000030 b6 c6 8f bd 43 be 64 ba 39 86 c0 bc 15 d2 c3 bb
       -0.07020323 -0.0008725861 -0.023501502 -0.0059759715
000040 7f 0d 3b b8 2f 92 b0 bb a6 96 28 3c 62 29 7e bc
       -4.4596844e-05 -0.00538852 0.010289824 -0.015512796
000050 d0 12 28 bc 8b 48 13 3d df 03 00 3d 37 bb a0 3c
       -0.0102583915 0.035957854 0.03125369 0.019620521
000060 c3 8b 4c 3d 35 5e 3d bd b5 bc 8a 3c 69 dd 2e 3d
       0.049937975 -0.04623242 0.016935686 0.042691622
000070 2a 3a ec 3c 84 e1 8b 3c c8 07 be 3c 3b 91 4b bd
       0.028836329 0.017075308 0.02319707 -0.04969905
000080 76 a2 42 3c b1 4b 1e 3d db 18 4c 3d 4a a3 32 3d
       0.011879554 0.038646404 0.04982839 0.043612756
000090 01 2e 40 3d 10 94 83 3b 2c d8 80 3b f7 7d 0b 3b
       0.046918873 0.004015453 0.0039320197 0.0021284798
0000a0 2c ea 1d 3c b1 b2 ab 3c 98 85 03 3c e3 23 5d 3c
       0.00963835 0.02095923 0.008027457 0.013497326
0000b0 75 7a 35 3d d3 11 3d bc ce 16 b2 3c a3 cb cf 3c
       0.044306237 -0.011539894 0.02173939 0.025365656
0000c0 5e 5c a9 3a bf be 3f bb 27 3d ff 3c 01 e1 ef 3c
       0.0012921204 -0.002925798 0.03115709 0.029282095
0000d0 64 ce c1 bc 37 a4 9d bc 23 ae 2f bc d8 d9 22 3d
       -0.023657985 -0.019243343 -0.01072267 0.039758533
0000e0 54 9a d2 3c 9d ec 38 bc df 9d 4a 3d 38 ec 38 3d
       0.025708355 -0.011286882 0.049466964 0.04514715
0000f0 61 73 07 3c 06 9a b5 3b c5 a5 0d 3c a7 1b 39 bc
       0.008267255 0.0055420427 0.00864548 -0.011298097
000100 1c b7 d5 3c ea 9e 12 3d 02 20 dd 3c c9 ab 31 b8
       0.02608829 0.035796084 0.026992802 -4.2360076e-05
000110 28 0b 46 bc c2 69 98 3c 59 00 d6 3b 12 cc 46 bc
       -0.012087621 0.018605117 0.006530803 -0.012133615
000120 7a 9e 7c bc bf 0e a6 3d 87 35 88 3d 19 c2 e5 bb
       -0.015418643 0.08108281 0.066508345 -0.0070116636
000130 da 0b 03 bc d0 51 68 bb 08 ff fe 3c 73 ca 31 bb
       -0.007998431 -0.0035449155 0.031127468 -0.0027128726
000140 3b 9e 01 3d 39 05 87 bc 34 9d d2 3c a3 14 70 bc
       0.03164504 -0.016481983 0.025709726 -0.014653358
000150 5d 98 2a bb ad f6 80 3c 02 b4 88 3c 62 07 2b bd
       -0.0026030757 0.015742624 0.016687397 -0.041755088
000160 04 01 20 3d 68 ce 66 3d 47 39 78 3d 31 c7 1e 3d
       0.03906347 0.056349188 0.0606015 0.038764182
000170 d1 2f 55 3c c9 ba 8e bc 42 05 50 3c 1c 59 21 3d
       0.013011889 -0.01742305 0.012696566 0.039391622
000180 a7 5e 03 bc bc 09 5d 3d 38 b0 9f 3c ff 38 08 bd
       -0.008018172 0.05396436 0.019493207 -0.03325748
000190 0f 7c 4c bc 0c 72 d7 bb 03 26 cb bc 21 a6 1d 3d
       -0.01248075 -0.0065748747 -0.024798399 0.03848851
0001a0 46 94 4e 3d a3 f5 3b 3d e3 d3 1b ba 99 9b af bc
       0.050434373 0.045888554 -0.00059443543 -0.0214365
0001b0 26 e9 d2 3c 6d e5 c9 3d ac a8 c8 3d 0e b2 bc bb
       0.02574594 0.098582126 0.097977966 -0.0057585305
0001c0 73 da ef bb df bc 81 3c a1 48 f0 3c cf 66 4a 3d
       -0.0073197423 0.015837131 0.029331507 0.049414452
0001d0 0e f5 41 3d 42 db 06 bc 64 09 15 3c 03 cf b3 3c
       0.047352843 -0.008230986 0.009096477 0.021949297
0001e0 89 e1 00 ba 30 bb a9 3c c0 62 00 3d 2a 63 c6 3c
       -0.000491642 0.02071914 0.031344175 0.024217207
0001f0 21 27 67 3c 72 c2 de bb 64 e7 a8 3c 64 a5 5a 3c
       0.01410845 -0.006798082 0.020618148 0.013345096
000200 80 9c d6 3c 8c 2c 3c bc b3 dc 10 bc b2 49 43 bc
       0.026197672 -0.01148523 -0.008841681 -0.011919426
000210 bd 38 7b bc c2 a7 ae bb 62 ab 18 bb 2b ef 9f ba
       -0.015333352 -0.005330057 -0.0023295511 -0.0012202015
000220 02 e5 6e bc 36 9e d5 bb 8c 27 77 bc 06 fa f4 3d
       -0.014580967 -0.0065191044 -0.015085112 0.11961751
000230 62 a2 e2 3d ee 0b 9f 3c 06 e2 15 bc 1d ec 0c bd
       0.11066128 0.019414868 -0.0091481265 -0.034404863
000240 a2 91 ba bc 63 c6 d8 3c 46 d9 d8 3c 5a 3e 61 bd
       -0.022774521 0.026461786 0.026470792 -0.054991104
000250 25 68 8d bc f5 e5 87 3d a1 68 50 bd 95 88 12 bd
       -0.017261574 0.06635658 -0.050881032 -0.035774786
000260 f7 f1 13 bd 1f 1f a7 3c b0 ba 8c bb 1c 4f a0 bc
       -0.036119428 0.020400582 -0.004294716 -0.019568972
000270 f6 70 2b 3b de 23 90 3d b6 91 91 3d 5e 73 f1 bc
       0.002615986 0.07038091 0.0710787 -0.029473957
000280 ce 10 52 3c 33 fc 88 3c 2b 81 e8 3b 21 c4 9d 3c
       0.012821389 0.01672182 0.007095476 0.01925856
000290 e4 d1 93 3c 84 76 30 bd 02 ea cf bc 4a 38 76 3c
       0.01804442 -0.043081775 -0.025380138 0.015028069
0002a0 fb e7 85 bb 50 8e 19 bc fe aa 2f bc d6 e9 06 ba
       -0.004086492 -0.009372309 -0.01072192 -0.00051465386
0002b0 87 e6 91 3c 47 d5 99 3c 22 f1 b3 3c ed f1 c1 3c
       0.01781012 0.018778456 0.021965567 0.02367493
0002c0 79 ef 7e 3c 95 56 c6 bb 63 48 93 b8 0a 39 1d 3c
       0.015560024 -0.006052802 -7.022989e-05 0.009596119
0002d0 d0 12 7e 3c 70 95 7c 3c 11 94 37 ba a8 aa bd bb
       0.015507415 0.015416488 -0.00070029596 -0.005788166
0002e0 b6 49 ae bd dd 0d 6b 3d 6b 2f 6a bc b5 7b b3 bd
       -0.08510153 0.057386268 -0.014293532 -0.087638296
0002f0 88 78 62 bd 16 6a 86 bd a4 ac d0 bc db 5b 9a 3c
       -0.05529073 -0.06563203 -0.025472946 0.018842628
000300 96 53 be bc 6c 44 c8 3b b4 2f e7 bc fc a6 cb 3c
       -0.023233216 0.006111672 -0.028220989 0.024859898
000310 14 48 41 3d 2a 0e 65 bc b6 ec e3 bc d8 bf 0f bd
       0.04718788 -0.013980428 -0.027822834 -0.035095066
000320 fe 05 68 3d 66 64 8b 3a 9d d8 cd bc 9c d5 2e bd
       0.05664634 0.001063478 -0.025127703 -0.042684183
000330 0f f0 af bc ce a0 d1 bc 13 13 ee bd 64 f9 07 3a
       -0.021476774 -0.025589373 -0.11624732 0.00051870034
000340 44 14 59 bd 66 14 c8 bc 3b 09 bc bc 1a 6e 4a bc
       -0.052997842 -0.02442379 -0.02295362 -0.012355352
000350 8d 52 ba bc 8f 96 05 3d e3 04 b8 3c dc 37 ed 3c
       -0.022744441 0.032614287 0.022463268 0.0289573
000360 13 e9 39 3d 94 c7 1f 3d aa 16 00 3d ff f2 53 bd
       0.045388293 0.039008692 0.031271614 -0.05174541
000370 ed 0f 80 bd 82 36 29 3d 1d ca 48 3d 84 d6 19 3d
       -0.062530376 0.04131175 0.049020875 0.037558094
000380 2d 37 6b 3d 42 66 56 bd 58 79 8d bd 6e 62 db bb
       0.057425667 -0.052343614 -0.0690791 -0.0066950833
000390 06 fc fa bb 2f 00 1b 3b 81 7a c8 bb d9 7c ba bb
       -0.007659438 0.0023651232 -0.006118119 -0.0056911525
0003a0 8c 1a 77 bc 94 b8 6a 3b 67 9f 39 3b 1c d2 bf 3c
       -0.015082013 0.0035815584 0.002832377 0.023415618
0003b0 8c 3d 5e 3b 70 36 0c bc 7d 31 24 bc 13 67 ce bb
       0.0033911197 -0.008557901 -0.010021565 -0.0062989085
0003c0 d7 d7 ae bb 63 d3 47 3d 75 69 65 b8 19 cb 0a bc
       -0.0053357887 0.04878558 -5.469607e-05 -0.008471274
0003d0 df dd a5 bc 07 23 22 bd 76 4a 89 3c 17 bc f3 3d
       -0.020247398 -0.039584186 0.016759139 0.1190111
0003e0 1a 22 07 3d dc 7e b2 3c 43 e1 6b bc ba cc 82 3c
       0.032991506 0.021789007 -0.014396968 0.015966762
0003f0 12 64 64 3d f4 22 3e 3d 23 d9 d1 3c 0f 2e 79 ba
       0.055759497 0.046420053 0.025616234 -0.00095054595

conv1.lin_l.bias f4 [128]
000000 b2 bd f9 bd 96 b5 72 be b4 53 90 bd ed 06 3c be
       -0.12194385 -0.23702082 -0.07047215 -0.18362017
000010 d2 09 0a bc cc 0c 86 bc fd dc 59 be 93 84 87 bd
       -0.008425193 -0.016363524 -0.21275707 -0.066170834
000020 3a 9f 64 bd 39 45 97 bd 92 13 08 3d 9c 59 e7 bd
       -0.055815913 -0.0738625 0.03322179 -0.112963885
000030 9b 32 5b 3d 41 b7 ca bd e6 64 c9 bd 37 2d 5e 3b
       0.053515058 -0.09898234 -0.09833698 0.0033901462
000040 dd cd 8c bb 17 68 9a bc 0d dc 90 3b 18 f3 7d bd
       -0.0042970018 -0.018848462 0.0044207633 -0.06199941
000050 ef 06 68 bb 89 81 33 bd 1d db 10 be c0 8f d1 bd
       -0.0035404523 -0.043824706 -0.14146085 -0.10232496
000060 d0 6d 9b 3d 7d 50 00 bd 9c f4 87 be a0 d1 84 bc
       0.075893044 -0.03132676 -0.2655381 -0.016213238
000070 2f 84 2f 3c 2a e2 bb 3c df 61 a2 bb 45 35 16 bc
       0.010712667 0.022934992 -0.004955515 -0.009167974
000080 00 1b cd 3c 2e 75 43 3d 8f b4 a3 bd 38 c9 92 bd
       0.025037289 0.047719173 -0.07993423 -0.07167286
000090 51 fb 67 bd c9 74 f1 37 3f 09 87 3d 9d ad 0d be
       -0.05663616 2.8783821e-05 0.065935604 -0.1383576
0000a0 1f f9 56 3c 4e d3 e6 bd e1 0e 6c 3d fa 86 e3 3c
       0.013120919 -0.11270772 0.057631377 0.027774323
0000b0 8c 4d 4e 3c b8 da 09 bd 43 0b 28 3c 55 8b 93 bd
       0.012591731 -0.033655852 0.010256591 -0.0720431
0000c0 5f ec 87 3c 1a 7e 9b 3d 47 97 b8 bd 51 20 d7 bd
       0.016592203 0.07592411 -0.09013229 -0.10504211
0000d0 4b a7 9d bc ac 7e 21 bd 73 70 15 3c 19 f2 09 3d
       -0.01924481 -0.039427444 0.009121048 0.033678148
0000e0 19 45 35 bc 5e 9d 0e bb fe 75 8b 3c 84 b9 68 3d
       -0.011063837 -0.0021761279 0.017024036 0.056817546
0000f0 f2 33 85 bd c6 75 ec bd a2 09 99 bd a8 7d 0f be
       -0.065040484 -0.11545901 -0.074725404 -0.14012778
000100 91 7c cd bd ab 1b 5a bc 82 01 85 bd ec 98 99 bd
       -0.10033525 -0.013312261 -0.06494428 -0.07499871
000110 6f b9 84 bd ec 67 34 bd 7d ff a8 bd 27 3a 7e bc
       -0.06480681 -0.04404442 -0.082518555 -0.015516794
000120 83 74 67 bd 2e 75 bf 3c 3c 93 27 be 80 e1 91 3d
       -0.0565076 0.023371305 -0.16364759 0.07123089
000130 15 49 af bd ea 5e 72 3c 4f a1 13 be 80 91 4d bd
       -0.08558861 0.014793137 -0.14417003 -0.050187588
000140 a3 27 39 be 1f fc ab bd 92 41 6a be f3 5a 91 3d
       -0.18081526 -0.08397698 -0.22876576 0.07097425
000150 b5 9b 89 be 46 ba 49 bb ad 50 13 3d 66 f8 14 bb
       -0.26876608 -0.0030781194 0.03596561 -0.0022731065
000160 f6 56 8e bd 18 c2 09 be 1d 49 2b bb d5 36 cc bc
       -0.0695018 -0.13452947 -0.0026136108 -0.02492849
000170 2b b0 ad bb 59 7e 22 be d9 1d fd bd c1 e4 b0 39
       -0.005300542 -0.1586851 -0.123592086 0.0003373977
000180 66 a4 ca bc 0d 54 04 bd 64 6f 6b bc ed 0a 22 be
       -0.024736594 -0.03230672 -0.014369819 -0.1582448
000190 b3 e3 2f bd 40 92 fe bc 82 24 69 3d 29 d7 cb 3b
       -0.04294176 -0.031075597 0.056919582 0.0062207174
0001a0 9d a6 a4 bd 9c c7 28 bc ba 8d a7 ba aa 6e fc bd
       -0.080395915 -0.010301497 -0.0012783327 -0.12325795
0001b0 59 29 18 3b cc 01 8e 3d e5 71 84 be f9 c5 12 3d
       0.0023218004 0.069339365 -0.25868145 0.035833333
0001c0 34 a5 b3 bd 39 81 c6 bc 24 2b 4f bd ef bd 10 be
       -0.08771744 -0.02423154 -0.05057825 -0.14134954
0001d0 a1 b5 a2 bd f4 ce 8c 3c d2 b1 8a 3c 5b 91 8a bc
       -0.07944799 0.017188527 0.016930494 -0.016915014
0001e0 03 09 ba bc 67 83 fd bd 5a 34 4c bd 58 bf 25 be
       -0.022709375 -0.12378579 -0.049854614 -0.16186273
0001f0 eb 5e 26 bd 13 16 3d bd b9 cd 09 3d 16 b4 40 bd
       -0.040617865 -0.04616363 0.033643458 -0.047046743

conv1.lin_r.weight f4 [128, 194]
000000 e8 ca 21 bc ad 37 f0 b9 9b 6b 2b 3c c1 c7 ad bc
       -0.009875037 -0.0004581785 0.010462667 -0.021213414
000010 27 97 b9 3b ce e0 4a bc 7d 82 f8 bc 19 81 88 bc
       0.0056637707 -0.012382699 -0.03033566 -0.016663121
000020 20 78 27 bc b2 b6 13 3b 32 43 75 bc 1e c7 31 bd
       -0.010221511 0.0022539315 -0.014969634 -0.043402784
000030 a4 a9 1b bd cc 70 b6 3b 17 e6 a6 bc 48 f5 2b 3a
       -0.03800358 0.0055676457 -0.020373387 0.0006559682
000040 d3 ac 29 bc ad 39 40 bc b0 b9 4d bc da 0f 01 bc
       -0.010356146 -0.011732501 -0.012556478 -0.007877314
000050 ac 26 2e 3b d3 29 0f 3d ca e0 ee 3c 64 e5 82 3c
       0.0026573343 0.034951996 0.029159922 0.015978523
000060 fa 41 1b 3d 4c a0 34 bc 4c 41 d5 3b fd 1e ac 3c
       0.037904717 -0.011024546 0.006508028 0.02101087
000070 a3 1a 68 3c 59 39 f7 3b 89 d1 d4 3c b0 40 99 bc
       0.014166507 0.007544678 0.02597882 -0.018707603
000080 26 1a 96 ba 6d 5e 41 3d ff 87 e4 3c 97 d3 48 bd
       -0.0011451885 0.047209192 0.02789688 -0.049029913
000090 21 c6 1a 3d f8 f8 64 3b 8b c8 83 3b ec c8 7e 3a
       0.037786607 0.0034938436 0.0040217093 0.0009719271
0000a0 d9 77 51 bc 7f 6e 8e 3c 47 78 6e bc 17 4f 0c bd
       -0.012784922 0.017386673 -0.014555044 -0.034255113
0000b0 f8 56 4c bc 28 18 9a 38 24 a3 63 bc 0a 3c 05 3d
       -0.012471907 7.347792e-05 -0.013893876 0.03252796
0000c0 00 c5 9b 3b 6e 4f 1c bd 86 56 bd bc 66 e5 96 3c
       0.004753709 -0.038161688 -0.023112547 0.018419933
0000d0 e4 0b 28 3d 0a 22 93 ba 1f c3 71 ba 56 6c b4 3b
       0.041026965 -0.0011225354 -0.0009222496 0.0055060787
0000e0 30 72 c1 bb 08 5b af 3a b6 c9 b5 3c dd 85 12 3c
       -0.005903505 0.001337857 0.02219091 0.008943048
0000f0 e1 2f bd 3c 82 c9 2f 3d 91 36 41 3d 6f 12 bf 3a
       0.02309412 0.042916782 0.04717118 0.0014577637
000100 2f bf d4 3c 23 b5 8d 3c 57 d6 d1 3b 9c 78 cc 3c
       0.02597007 0.017298287 0.006403725 0.024959855
000110 ab 7b 10 3d 18 e1 36 3c 3f 42 ff bc 8e ee 56 bd
       0.03527419 0.011162065 -0.031159518 -0.052473597
000120 65 5a 5b bd 9e 3a c1 3d be fa 00 3e 02 fb 36 bb
       -0.053553004 0.094350085 0.1259565 -0.0027920608
000130 4d 43 e5 3c 4e 02 b5 bb 4e 36 40 ba aa 27 e4 3b
       0.027986193 -0.0055239564 -0.0007332311 0.006962736
000140 9d 23 3c 3c 67 b0 2b bb 0e 68 e6 3c 56 00 c3 3b
       0.0114831 -0.0026197673 0.028125789 0.005950968
000150 d1 98 4f 38 47 d5 8b 3c 85 fd 6a 3d ad e8 ce bc
       4.9494967e-05 0.017069472 0.05737068 -0.025257433
000160 e3 ef 9e 3d 8f f2 8c 3d 0e 1d 03 bc d3 fe d1 3c
       0.077605985 0.06882202 -0.008002533 0.025634205
000170 2e 4d 89 3c 86 e5 66 3d 27 84 1c 3d 9d 08 92 bb
       0.016760435 0.056371234 0.038211968 -0.004456593
000180 c2 fb 35 3d 80 ea 94 3c 80 0f 2a 3c 32 4d d0 3b
       0.044429548 0.018178225 0.010379672 0.0063568586
000190 f7 b7 ec 3c 01 62 4a bb 77 3b e4 3c 5c 44 1f bc
       0.028896315 -0.0030881169 0.027860386 -0.009720888
0001a0 a6 cb 5c bc aa 12 ea 3c 26 32 c8 bb ec c4 97 bc
       -0.013476288 0.028573353 -0.006109494 -0.018526517
0001b0 a2 53 6e 3c 1e 21 77 3c 55 fd 1d bd 09 2a 0a 3d
       0.014546307 0.015083579 -0.038571674 0.033731494
0001c0 f5 d9 05 bd 4c 3e 88 bd 05 7e c5 3c 6f 5d 88 3d
       -0.032678563 -0.06652507 0.024107942 0.06658446
0001d0 d2 c8 98 3d 51 b2 97 3a ab 29 9c bc b4 bd e3 bc
       0.074601784 0.0011573528 -0.019062838 -0.027800418
0001e0 d0 69 87 bc e6 46 1d bd 8b fc 44 bd a7 09 ac 3c
       -0.016529948 -0.038397692 -0.048092406 0.021000696
0001f0 bf 1c 8e 3c f3 ca 05 3c f4 dc 82 3c ac f4 86 bb
       0.017347692 0.008166063 0.0159745 -0.0041185226
000200 ef b4 16 bc 9b a1 86 bb 7a 10 a0 3a 7a e0 04 bc
       -0.009198411 -0.0041086203 0.0012211942 -0.00811016
000210 f2 29 3e bc 9c 60 82 bc a5 81 62 bc 51 7b 85 bc
       -0.01160668 -0.015915208 -0.013824855 -0.016294153
000220 6a 89 93 bc 1f e6 0e bd ed 89 41 bc 73 0e 4b 3d
       -0.01800986 -0.03488743 -0.011812669 0.049574327
000230 3d d8 39 3d 19 b7 6f 3c cf 14 0c bb 53 ce 0b bd
       0.045372237 0.014631056 -0.0021374708 -0.034132313
000240 41 a1 e8 bc b4 f5 54 3d 99 bf 60 3d 16 8b ff bc
       -0.028397204 0.051992133 0.05487022 -0.031194251
000250 c8 1d b3 bc 0c da 15 bd 89 e5 79 bc 04 9a 10 bb
       -0.021864787 -0.0365849 -0.015252479 -0.0022064457
000260 e4 0a 60 bb 9b e4 c0 bb 9a 19 62 bc 59 7b 31 bc
       -0.0034186179 -0.005886627 -0.013800049 -0.010832631
000270 c6 65 a5 bc c6 0a b0 3c af 90 a3 3c 2d 40 40 bd
       -0.02019013 0.021489512 0.019966451 -0.046936203
000280 df ce 5a 3c 1b 3a b5 bb bf ab e5 bc 0d a8 88 bd
       0.013354986 -0.0055306084 -0.028035996 -0.06672678
000290 1c f8 6d bd 6d 07 e3 bb ff 2e 72 bd cc 0f 22 bc
       -0.058097944 -0.0069283755 -0.05912685 -0.009891462
0002a0 4d 56 c3 b9 aa 59 2f bc 36 7d ad bc 0d 1a b9 3b
       -0.00037257597 -0.01070253 -0.02117787 0.0056488574
0002b0 dc 15 89 bc 1c f8 27 bc 49 12 77 bc 96 5a 7a bc
       -0.016734056 -0.010252025 -0.015080043 -0.015280386
0002c0 c9 2f 28 bc 63 e8 11 b9 6f 88 2e bc 3b f1 5b bc
       -0.010265299 -0.00013914848 -0.0106526455 -0.013424213
0002d0 ca 2f 63 bc 0a 27 29 bc 34 50 bb 3b 4a 59 45 bc
       -0.013866374 -0.010324249 0.005716348 -0.012045214
0002e0 25 e5 3d bc 1e 72 d9 3d 8e ed b9 bc 1d 60 b8 3b
       -0.011590277 0.10617469 -0.022696283 0.005626692
0002f0 cd b2 6d ba f0 bc 32 bd ad ce 2b 3c b7 01 55 bb
       -0.0009067476 -0.043637216 0.010486287 -0.0032502243
000300 b4 3e 25 bc d1 88 ac 3b 7a 56 3b bc e5 48 76 bd
       -0.01008575 0.005265333 -0.011434192 -0.06012811
000310 1c 12 77 3e 15 67 4f bd 7a e2 33 3c f1 04 96 bd
       0.24128002 -0.050635416 0.010979289 -0.07325161
000320 44 3e b2 3d 37 b2 27 bc 94 5a 4f bc 06 13 84 bb
       0.087032825 -0.010235361 -0.012655873 -0.004030588
000330 21 27 32 bc a6 1b 29 bd f8 69 a6 bd 95 6d 31 3c
       -0.010873587 -0.041286133 -0.08125681 0.010829349
000340 8a f2 90 3b 17 db d5 bc 8d fd 56 bc 72 aa 14 bd
       0.004423444 -0.026105447 -0.013121975 -0.03629536
000350 f0 3a 5b bd 7c 3e 08 bc 96 a1 9f bc 87 b0 1e 3d
       -0.053523004 -0.008315679 -0.01948623 0.03874257
000360 5e 71 07 3d b7 a8 45 3d 3c 8f 11 3d 85 0d 02 3c
       0.0330671 0.048256602 0.03553699 0.007937794
000370 03 8d e3 3c 30 71 2f 3d 6a d4 19 3d 5c d4 3f 3d
       0.0277772 0.042832553 0.03755609 0.04683338
000380 d2 50 f6 3c 00 32 53 3c 7b 1d e8 3c db 16 28 bc
       0.030067835 0.012890339 0.02833437 -0.010259355
000390 b6 c6 9d bb f0 51 40 3c 0c 61 fa bb 64 18 b4 3d
       -0.004814948 0.011738285 -0.0076409634 0.08793715
0003a0 ed cb ac 3d f8 da 2f bc 50 57 69 bc d5 e8 06 3d
       0.08437333 -0.010733359 -0.014242008 0.03293689
0003b0 24 f3 07 bc ec 39 bb 3c 04 f5 fa bb 57 aa 11 bc
       -0.008297715 0.022854768 -0.0076586027 -0.00889071
0003c0 b0 3a 47 3c fa b3 2d 3d 02 92 df bb 12 23 15 3c
       0.012159988 0.042407967 -0.0068228254 0.0091026
0003d0 49 6f e7 bc 37 2a 04 be 8f 2c 88 ba 22 6f 1a 3e
       -0.028251307 -0.12906729 -0.0010389256 0.15081456
0003e0 61 48 6c bd df 1e d7 3a e9 a8 bc bd 57 f3 e0 bb
       -0.057686213 0.0016412399 -0.092119046 -0.006864946
0003f0 fc 6a d4 3c 28 53 7a 3d 69 97 34 3d e1 44 8f 3c
       0.02592992 0.06111446 0.04408971 0.017488899

conv2.lin_l.weight f4 [64, 128]
000000 93 f3 58 bc e2 6a e8 bc d5 1b aa bb 91 3b 41 bd
       -0.013241666 -0.028371278 -0.005191306 -0.047175948
000010 b2 37 00 39 11 9d fa bb 05 ac e5 bc d1 d7 31 3c
       0.0001222778 -0.0076481183 -0.028036127 0.010854677
000020 1e 4b 72 bd 79 52 ef 38 2a 2d 9c b9 fd 0e 68 bd
       -0.05915367 0.0001141177 -0.00029788289 -0.05665492
000030 bf 20 33 b7 21 b2 49 bc cb e8 23 bd 01 a0 14 bb
       -1.0676856e-05 -0.012310536 -0.04001693 -0.0022678378
000040 8d d1 04 bd 7c 88 60 3c 1b 68 ab 38 88 e9 ca ba
       -0.032426406 0.013704415 8.1733066e-05 -0.0015480975
000050 54 94 1a 39 9a 4e 7b bb a0 19 50 bd 20 59 6e bb
       0.00014741841 -0.003834641 -0.050805688 -0.003636904
000060 44 6c 9a 37 88 57 4f bd bf 01 8a bc 1e 87 15 bc
       1.8408646e-05 -0.050620586 -0.016846536 -0.009126453
000070 5f 02 41 bd ef 13 88 bb f1 39 96 b8 8f ba 28 bd
       -0.047121402 -0.004152767 -7.16335e-05 -0.04119354
000080 0d 65 80 bb 32 6c 8e ba 9d ce 27 bc f8 00 0f bc
       -0.003918296 -0.0010865985 -0.010242132 -0.008728258
000090 dd c2 84 3b 09 19 a0 39 18 46 14 bd 10 da 24 bd
       0.00405155 0.0003053623 -0.03619966 -0.040247023
0000a0 8c 52 1b b9 ae b0 7b bd 5b 6a 44 39 95 c4 19 ba
       -0.00014812703 -0.06144779 0.00018731637 -0.000586578
0000b0 01 3d 1d 3a 4e 52 08 bd d4 8d 3b 39 35 55 e5 ba
       0.0005998165 -0.033281617 0.00017886545 -0.0017496707
0000c0 7e 16 79 bc db a4 17 ba cd 4d cc ba 93 82 8d bc
       -0.015203116 -0.0005784758 -0.0015587151 -0.017274177
0000d0 ed a3 1e bb 32 8e 28 bb 43 2e 14 39 47 85 0d b9
       -0.0024206594 -0.002571952 0.00014131614 -0.00013496458
0000e0 63 9a 6f 3c 2f db 44 ba 9f 3d b1 38 22 7e 25 38
       0.014624211 -0.00075094675 8.4514955e-05 3.9456536e-05
0000f0 a7 7e 05 bd 53 7b 77 3c c0 67 1c bd 99 66 5e bd
       -0.03259149 0.015105086 -0.03818488 -0.054297063
000100 9c 48 91 bc bd b1 9e ba 05 43 07 bd cb a1 b5 bc
       -0.017734818 -0.0012107413 -0.0330229 -0.022171875
000110 d0 e0 42 bd c1 52 43 bc 4d 13 92 3b 5d 95 53 b9
       -0.04757768 -0.011921586 0.0044578672 -0.0002017817
000120 83 83 33 bc 2e fb 7a b9 fc f8 4a bb bf 26 10 3a
       -0.010956648 -0.0002393543 -0.003097116 0.00054989377
000130 02 32 63 bc d3 42 86 b9 5e 7c 11 bd 4b 48 8f bd
       -0.013866903 -0.0002560826 -0.035518996 -0.06996211
000140 32 4e a7 3c 1d 16 f6 bc f0 65 0b bd b2 73 b3 37
       0.020423029 -0.030039841 -0.034032762 2.1392338e-05
000150 d4 6f 04 ba 0a b7 9c bc 95 f6 8e 3a a8 d0 f9 37
       -0.0005052064 -0.019130249 0.0010907227 2.9780276e-05
000160 9c 94 2a bd 80 8a 4e bd 3d 5f 4e 39 a6 2a bb b7
       -0.04164563 -0.050425053 0.0001968117 -2.2311997e-05
000170 f0 48 a8 b9 6c 6a 2b bd 32 50 d8 bc 69 4f af 37
       -0.000320978 -0.04184954 -0.026405428 2.0898604e-05
000180 e7 71 b9 bb 76 49 20 ba 0b 30 31 b8 5d d5 a2 bd
       -0.00565933 -0.0006114462 -4.2244832e-05 -0.07950852
000190 bb 7b 9a bc c6 0e 92 3c c8 8a f0 ba b2 b6 8e 39
       -0.018857827 0.01782931 -0.0018351907 0.0002722047
0001a0 27 b2 84 bc fc d0 3d bb 93 26 3b bb 5b 7c d6 bc
       -0.01619823 -0.0028963676 -0.0028556928 -0.026182344
0001b0 66 8b 71 37 3f dd 31 39 ee c1 0d bd 75 91 36 bb
       1.4397176e-05 0.00016962456 -0.034608774 -0.0027857695
0001c0 66 6e 88 bd f3 c1 9c b8 b1 40 5e b9 f3 da e7 bb
       -0.06661682 -7.4747855e-05 -0.00021195669 -0.0070756613
0001d0 be f0 83 bd 4e 48 b7 bb 92 a7 aa bc 16 8b 33 38
       -0.06442402 -0.005593336 -0.020831857 4.280646e-05
0001e0 93 9e 30 b9 61 7e 8f 3c 53 21 a2 bc 2e 37 bf bb
       -0.00016843741 0.017516317 -0.01979128 -0.0058354354
0001f0 11 9d 29 bd 90 e3 38 ba fa 64 b2 35 43 28 7f 3b
       -0.041409556 -0.00070529524 1.3291422e-06 0.003893391
000200 bc 68 0f 3c 0f 38 96 bd f7 2a a8 bd 50 51 7c bc
       0.008752998 -0.07334911 -0.0821132 -0.015400246
000210 a2 f3 cd 3d 16 67 a6 bb 41 5e 63 3d 6f b7 ba bd
       0.10056235 -0.005078207 0.05550981 -0.091170184
000220 c0 36 e8 3c 45 26 63 ba 23 5c 0c bd 13 13 cb bc
       0.02834642 -0.00086650654 -0.034267556 -0.024789369
000230 53 b6 85 3c 11 35 4e bd bf 66 c9 3c 31 cf 95 3c
       0.01632229 -0.050343577 0.024585126 0.018287273
000240 02 66 f8 bc 78 f5 9b 3c da 76 69 3d 36 9b 8e 3d
       -0.030322079 0.019037947 0.05699811 0.06963198
000250 0a 68 4a 3d 48 76 3b 3d 34 a2 ed 3b 90 46 12 bc
       0.049415626 0.0457671 0.007252002 -0.008927956
000260 2b 62 49 3c 63 45 9b bd 69 f6 06 bd 15 97 40 3d
       0.0122914715 -0.07581594 -0.03294984 0.047019083
000270 c5 86 0b bd ee f0 b1 3c da 22 14 3d e8 20 e1 bc
       -0.034064073 0.02172133 0.03616605 -0.027481511
000280 dd 83 3d 3d 3d 9e 0e 3d 1c ef 04 bb 05 b0 aa 3d
       0.046268333 0.034818877 -0.0020284122 0.08334354
000290 f1 c0 2a bc f2 d7 de 3c 77 1c 85 bc ce 24 22 3d
       -0.010421977 0.02720258 -0.016248925 0.03958588
0002a0 47 8c 8b 3d 85 35 36 bd 5a 81 b2 3c ce 2d 58 3d
       0.06813865 -0.044484634 0.021790195 0.052778058
0002b0 4e f5 28 3c 2d b1 40 3c 30 3a c5 3d 67 df d0 bc
       0.010312391 0.011760992 0.09630239 -0.025497152
0002c0 a9 94 c2 3b 89 3e 5c bc 69 64 36 bd 76 25 96 bd
       0.005938132 -0.013442644 -0.044529352 -0.07331364
0002d0 a3 e6 73 3b da 4f 0e bc fe 03 de 3c 5d e0 fb 3b
       0.0037216328 -0.00868603 0.027101513 0.0076866583
0002e0 26 df 9d 3b ce 33 8c 3d 5d 0a c8 3d 98 8a ae 3d
       0.004817861 0.068458185 0.09767602 0.085225284
0002f0 88 53 5b bd 3a e0 6c bd 92 fa d4 bd c3 47 3e bd
       -0.05354646 -0.057831027 -0.10399355 -0.046455156
000300 36 9b 37 bc 02 cb d9 3b 12 4a 12 bc fd 85 80 bd
       -0.011206439 0.006646515 -0.008928793 -0.06275556
000310 8c 1d b5 3c 76 74 cb 3c 65 b1 58 bd e1 2f e2 bc
       0.022108816 0.024835806 -0.05290355 -0.027610721
000320 d6 54 a4 3c 4e 46 94 bc d1 20 eb bc 68 f8 1e 3c
       0.020059984 -0.01809993 -0.028702172 0.009702779
000330 a8 32 9b bd fc 2b 4d 3d d6 65 13 bc 27 8d 41 bd
       -0.07578021 0.050090775 -0.008996448 -0.047253754
000340 0b e2 e5 3c 35 55 1a bc 6b 9e dd b9 a7 71 da 3c
       0.028061887 -0.009419729 -0.00042270435 0.026665522
000350 f8 2f e1 3d 9a 09 26 bc ae f2 25 3d d3 74 fb 3c
       0.109954774 -0.010134125 0.04051464 0.030695355
000360 4b d0 c8 bd f3 ef 9e bd 97 dd 18 3d f8 16 4b 3d
       -0.09805354 -0.077606104 0.0373207 0.04958245
000370 77 e5 33 3d e8 20 3c bc 56 62 79 bd 6b 6e 96 3d
       0.043920007 -0.011482455 -0.060884796 0.07345279
000380 8f d6 fa 3c 5a 37 74 bd 9b f4 4a bd e7 a7 c2 bd
       0.030619888 -0.0596231 -0.04954968 -0.09504681
000390 d2 84 6d 3a b5 63 12 bc cb 8d f0 bb 29 04 03 3c
       0.0009060624 -0.008934905 -0.007341122 0.007996597
0003a0 13 2e 9e bd 60 a2 f2 3c e4 52 0a bd ea c7 70 3c
       -0.07723632 0.029618442 -0.033770457 0.014696101
0003b0 07 2f c2 3d 39 28 b2 3d cc e9 f2 3c fc 83 ff 3c
       0.09481626 0.08699078 0.029652499 0.031190865
0003c0 ee 3a 9a bd c3 db 6b 3d ca 7e ba bb d2 07 33 3d
       -0.07530771 0.057582628 -0.005691384 0.04370863
0003d0 84 c5 70 bd 9c 70 fe 3c 6a 9d 2a 3d c1 5d c6 3d
       -0.058782116 0.031059556 0.041654028 0.09685851
0003e0 e7 7c fb 3d e5 4b a5 bb 69 ef 02 bd 53 3f fd 3c
       0.122796826 -0.0050444477 -0.0319666 0.030913984
0003f0 22 a9 95 3d ca 11 9e 3b 28 dd 13 3d a7 f3 73 bd
       0.0730765 0.004823898 0.036099583 -0.059558537

conv2.lin_l.bias f4 [64]
000000 ab 1e 97 bc 86 36 93 3d 9b 5d ba 3d 25 3c 1c 3e
       -0.01844724 0.07188134 0.09099885 0.15257318
000010 11 9f c7 3a 07 0e 4f 3d e7 15 ba 3d 89 17 14 bb
       0.0015229901 0.050550487 0.09086209 -0.0022597036
000020 1c 50 cc 3b ba bb 14 3d e2 d1 5f 3e 25 5f ac bd
       0.0062351357 0.036311843 0.21857408 -0.08416585
000030 36 96 b2 3c de 56 99 3d a9 eb ec 3d 64 6b 11 3e
       0.021800142 0.07487272 0.11568386 0.14201123
000040 08 e5 5e bb 72 90 eb 3d 9d d3 c7 3d bc 8e b1 3c
       -0.0034011025 0.1150216 0.09757159 0.021674506
000050 46 cb 47 3e 6a 42 4a 3d 17 2e 95 3e a1 ff b7 bc
       0.19511136 0.049379744 0.29136726 -0.02246076
000060 ae 5a 00 3e 4d 78 a6 3d bd a4 2a 3e e9 3d d2 3c
       0.12534592 0.08128414 0.16664405 0.025664287
000070 d7 46 0c b9 38 d3 4a 3e 95 8a 3f 3e 55 1f 79 3e
       -0.0001337783 0.19807136 0.18705209 0.24328358
000080 45 4a ce bb 90 81 47 3e 1e a9 0a 3d 7e 5f 16 3e
       -0.0062954747 0.19483018 0.03385269 0.14684865
000090 65 4c 13 bd b1 a5 23 3e 7b 0a 9d bb ae a1 52 3c
       -0.035961527 0.15981175 -0.004792509 0.01285593
0000a0 d9 fa 37 3e 4d 59 01 3e 7d 22 6d bd 26 a8 41 ba
       0.17966785 0.12631722 -0.05789422 -0.0007387422
0000b0 09 71 40 3e 18 86 41 3e 21 fe b5 bc 89 0a 86 bb
       0.1879312 0.18898809 -0.022215905 -0.0040906114
0000c0 e6 f0 92 3c 61 9c 81 3d 38 d4 9f bb 57 7f 14 3c
       0.017937135 0.06328655 -0.0048775934 0.009063563
0000d0 69 70 51 3e 1c ab 40 3b 55 0d b8 bd 36 37 01 3d
       0.20453037 0.0029398864 -0.08986918 0.031546794
0000e0 68 60 32 3e b6 b1 01 3d 78 f2 35 3d 22 d3 ee bc
       0.17419589 0.03166362 0.04442069 -0.02915341
0000f0 71 ca c8 3d bd 78 26 3e 12 f7 ef 3d cc ee e9 3d
       0.09804238 0.16256995 0.11717047 0.114225

conv2.lin_r.weight f4 [64, 128]
000000 11 3d 7b bd 0c ed 64 3b cc 1d de bb 0f 03 6c bd
       -0.061337534 0.003493133 -0.0067784544 -0.057620104
000010 03 53 82 bb d9 f8 44 37 95 b2 2d bd 76 b9 1b bd
       -0.003977181 1.174045e-05 -0.042406637 -0.038018666
000020 89 de 44 3c 4c b7 26 b9 47 ea 9e 39 9b 4a 1d bd
       0.012015947 -0.00015899277 0.0003031066 -0.038401227
000030 fd ff 74 38 c0 1a 42 bc c6 c8 0a bd f4 3b 20 bb
       5.841254e-05 -0.011847198 -0.03388288 -0.0024449797
000040 94 a4 37 bc 89 d7 cf bc 3c bb 07 38 39 e7 91 3c
       -0.011208672 -0.02537133 3.2360884e-05 0.01781045
000050 3d 44 86 b9 c9 9f d3 ba f3 ad 3d bc 4b b6 ad b8
       -0.00025609313 -0.0016145642 -0.011577117 -8.2832375e-05
000060 e5 6d 72 39 51 96 20 bc e9 63 7c bd 8d e1 2f 38
       0.00023119857 -0.009801463 -0.06161872 4.1933312e-05
000070 ae e7 e9 bc 3f ab ac b8 99 72 85 3b c5 54 2a 39
       -0.028552856 -8.233496e-05 0.004072499 0.00016244042
000080 82 3b 7c b8 6b 3c e1 38 d9 fd fa 3b 64 14 7f bd
       -6.0136903e-05 0.0001074009 0.0076596555 -0.062275305
000090 23 a2 79 ba a5 32 93 3b af a3 15 37 83 1b e5 bb
       -0.00095227564 0.0044921213 8.919203e-06 -0.006991805
0000a0 58 ec 2a ba 57 07 4d 3c 7d 7f 74 ba 65 f6 e4 38
       -0.00065202033 0.012513957 -0.00093268586 0.00010917782
0000b0 02 b9 d0 bb 92 36 14 bd 70 0b b7 b9 27 a0 7f bc
       -0.006369711 -0.036184855 -0.00034913002 -0.015602148
0000c0 b7 9b a6 b8 25 da ce b9 2e 00 1f bd ce 79 26 bd
       -7.944501e-05 -0.00039453912 -0.03881853 -0.040643506
0000d0 7c a5 f9 38 f2 5c 27 b7 cf e2 ab 38 b2 d1 12 3a
       0.00011904069 -9.975616e-06 8.196162e-05 0.0005600705
0000e0 e4 56 6d bd 10 c5 81 b9 a9 53 b5 39 9b 33 80 b9
       -0.057944193 -0.0002475162 0.00034585342 -0.00024452512
0000f0 c3 a4 25 bc 57 4e 18 bd 06 60 ab 3c e7 e3 97 bd
       -0.010110083 -0.037184086 0.020919811 -0.07416516
000100 b1 94 48 bd d6 39 a6 39 89 0c 90 bc 32 de 5f bd
       -0.04896993 0.00031705078 -0.017584102 -0.05465526
000110 5a a7 9d 3c 1f 29 d4 3b cf 11 a7 b9 26 16 58 ba
       0.019244839 0.0064746286 -0.0003186599 -0.00082430465
000120 3d 7d 8b bc 7a b7 de b6 9d dd 38 bd 6e 46 06 ba
       -0.017027492 -6.637475e-06 -0.045133222 -0.0005122189
000130 42 d1 1b bd d9 ae f9 b8 b9 f6 5b 3c 21 6f 39 3b
       -0.03804136 -0.00011905813 0.0134255225 0.0028294998
000140 90 ee 3a bd 50 51 6e 3a c4 84 73 bd 45 b3 79 b9
       -0.045637667 0.0009091096 -0.059452787 -0.00023813274
000150 aa fc 8e bb f9 a6 e2 bb e6 0a ac bb bf 74 00 3c
       -0.004363616 -0.0069168773 -0.0052503226 0.007840334
000160 e0 ea 11 38 7c e8 ad bc a3 17 48 bb db ad 79 38
       3.478944e-05 -0.021229021 -0.0030531667 5.952814e-05
000170 67 59 b2 39 51 f2 93 bb 83 53 d3 bc fa 94 ea 38
       0.00034017416 -0.0045149704 -0.025796657 0.000111857385
000180 18 7a d2 bb e0 76 e3 bc d0 d9 6e 3c d5 ea 3e bd
       -0.006423246 -0.027766645 0.014578298 -0.046610672
000190 6a 12 c3 3c a5 4c 1d bd b9 fb 58 b9 14 fa aa 3b
       0.023812491 -0.038403172 -0.00020693139 0.0052178
0001a0 29 b9 2f bd df 65 5d bc bf e1 81 b9 cd 56 4c bd
       -0.04290119 -0.0135130575 -0.0002477299 -0.049887467
0001b0 d4 fd 02 3a 5a 6f 6b 39 18 65 9e bc 04 6a c0 b8
       0.000499693 0.00022452828 -0.019335315 -9.1750204e-05
0001c0 52 79 19 bc 96 fa 45 38 09 35 00 bc 1e 58 46 bd
       -0.009367304 4.7201836e-05 -0.007825145 -0.04842388
0001d0 8e 2c 05 bd 97 98 9a 3a 81 85 a9 b9 84 48 b3 38
       -0.032513194 0.0011794743 -0.0003233366 8.548892e-05
0001e0 a3 5f c2 39 96 38 8e bd bb 59 95 bc 2a 2b 15 bd
       0.00037073818 -0.06944387 -0.018231263 -0.036418118
0001f0 a4 d8 27 bd 7b d1 ad 39 16 1c 29 39 bf 7d a8 bc
       -0.04097809 0.00033153206 0.00016127559 -0.020567773
000200 9d 09 91 bd 43 7a 5b 3c 84 38 69 3d 03 fc c6 bd
       -0.07081912 0.013395849 0.056938663 -0.09716036
000210 ea 94 2d 3d 33 72 d6 3d 41 1d d2 bd d0 8e 4f 3d
       0.042378344 0.104710005 -0.10259486 0.050673306
000220 67 88 63 3c bf 8c f3 bb 18 4d 95 3d 28 38 8f bc
       0.013887501 -0.0074325497 0.07290095 -0.017482832
000230 a3 cb 99 3d 21 56 d8 bc 4e 31 1c bb a7 ff cb 3d
       0.07509544 -0.026408257 -0.0023833099 0.09960871
000240 a8 4b f1 bc cc b5 a6 bd e0 93 e8 3d fa 49 2b 3d
       -0.029455021 -0.08140144 0.1135633 0.041818596
000250 e2 93 be 3d 17 ce b9 3d 0e ff 34 bd bc cc 56 bc
       0.0930555 0.09072512 -0.04418855 -0.013110336
000260 7b 2b f1 3d f2 f1 52 3d 9a e8 7e bd 9e 1f 8e 3d
       0.11775871 0.05150027 -0.062233545 0.06939624
000270 46 cb 0d 3d 0c 76 f4 3d 05 98 5d bc 1e cc 30 3d
       0.034617685 0.11936578 -0.013525014 0.04316341
000280 85 6a 8c 3d 47 43 06 3e e1 b3 c8 3a 84 74 96 3c
       0.068562545 0.13111602 0.0015312397 0.018366106
000290 d3 41 ae 3d c0 9a 24 3d f8 25 e7 3d 45 27 9e bd
       0.08508649 0.040186644 0.11286539 -0.07722334
0002a0 98 0d 97 3d f1 c0 b7 3c fc f6 c3 3d 4f 9c 17 3e
       0.0737564 0.022430869 0.09568593 0.14805721
0002b0 28 3e 14 3d fc cd 0d bc 14 e1 0f 3d dc 2b 38 bd
       0.03619209 -0.0086550675 0.03512676 -0.044963703
0002c0 59 d6 7e 3d d4 e7 ae 3d 25 50 a8 bd 94 97 b5 bc
       0.062216137 0.085403115 -0.08218411 -0.022167005
0002d0 27 26 55 3d 10 19 bf 3d fc fe 77 3c 9a e9 c8 3d
       0.052038338 0.09330952 0.015136477 0.09810181
0002e0 22 7a 32 bd 7b cf 5e 3d ec 03 72 3d 41 83 75 3d
       -0.043573506 0.054397088 0.05908577 0.059939627
0002f0 49 3c 16 3d 99 60 3e 3d 1e 9f 8b 3c 32 a7 30 bd
       0.036678586 0.04647884 0.017043646 -0.0431282
000300 1b be 82 bd d9 3a 5e 3d d2 5f 1b bd 40 f1 6d bd
       -0.06383916 0.05425534 -0.03793318 -0.058091402
000310 71 c1 18 bd 59 48 38 bb 01 9c 17 bd ed 87 3b 3d
       -0.037293855 -0.0028119294 -0.03701401 0.045783926
000320 7a 5b 27 bc 77 b1 98 3d 98 9f 5e bd e9 bd d4 3d
       -0.010214681 0.07455724 -0.05435142 0.10387785
000330 63 f7 2e 3d 55 25 e9 3d fc fa a4 bd 1e fc 40 bd
       0.042716395 0.11384074 -0.08055684 -0.047115438
000340 2d 66 34 bd f6 6d c4 ba 9a 67 32 bd 8d 8b 31 3d
       -0.044042755 -0.0014986384 -0.043555833 0.043345977
000350 56 8a 5a bd e7 14 63 3d bf 63 d8 3d 44 a8 8f 3d
       -0.053354584 0.055439856 0.105659 0.07014516
000360 5c d3 0c 3c 32 a1 6b bd e2 a6 29 bc 37 c6 2c 3d
       0.008595314 -0.057526775 -0.010354729 0.04218122
000370 aa 53 bb 3c a4 89 37 bc 70 d6 4a bd 0c 90 a0 3d
       0.022867043 -0.01120225 -0.04952091 0.07839975
000380 ee c5 c1 3c 7c ae c1 3c da 70 98 bd f1 b7 c4 3c
       0.02365395 0.023642771 -0.074434 0.024013491
000390 10 66 8b bb 32 df 0b bd e1 c9 92 3d 6a 7c 57 3c
       -0.00425411 -0.034148403 0.071674116 0.013152221
0003a0 12 50 37 bb 47 3f 85 3c 96 0c b2 3d 41 0e 37 bd
       -0.002797131 0.016265525 0.08693807 -0.044691328
0003b0 15 8e 67 3c 1b c2 a7 3d 2c 19 e7 bc a1 61 e8 3d
       0.014132996 0.081913196 -0.028210245 0.11346746
0003c0 f5 50 02 bb bb ea 4a 3d 10 91 a0 3d 87 81 80 3d
       -0.001988468 0.049540263 0.078401685 0.062747054
0003d0 94 cd 39 bd a0 1f aa 3d 45 c8 ce 3d 6b df c4 3d
       -0.04536207 0.08306813 0.10096792 0.09612926
0003e0 20 9e 63 3d dd 6b 04 bb 7c 00 75 3d c8 7b 24 bd
       0.05557072 -0.0020205893 0.059814915 -0.04015711
0003f0 e4 89 32 3d e6 99 c4 3d e4 eb 41 3d df c2 bf bc
       0.043588534 0.09599666 0.047344103 -0.023408351

classifier.weight f4 [2, 64]
000000 45 ff cf 3c c4 0e f9 3c 25 88 13 be 8f 79 62 3e
       0.025390277 0.030402549 -0.14407404 0.22116683
000010 3d 6b e1 3b be 47 9b 3d a4 2e c8 bd 8a ab 80 3c
       0.006879239 0.07582043 -0.09774521 0.015706796
000020 55 1a 92 bd ef 22 0e 3e ae 4e 52 be ba ee c2 bd
       -0.07133929 0.13880514 -0.20537826 -0.0951819
000030 ea 25 49 3e ea 3c 42 3e 4f 08 12 be c0 db 10 be
       0.1964337 0.1896855 -0.14260982 -0.14146328
000040 e4 13 95 3b 46 2d c0 bd 1d 22 36 3e 98 46 0a 3e
       0.0045494903 -0.09383635 0.1778645 0.13503492
000050 0d 0e 93 be 9e 71 ab 3d e3 5f 8b be 31 9d 20 3e
       -0.28721657 0.0837128 -0.27221593 0.15684964
000060 7d 30 34 3e 77 6c 96 3e dc 55 05 be 97 0f 12 3e
       0.17596622 0.29379627 -0.13021034 0.1426376
000070 d9 48 f1 3c 24 f3 61 be ab a6 55 be 08 ba 6f be
       0.029453682 -0.22065407 -0.2086436 -0.23410809
000080 84 4e bb bc 6b 3d 75 be 26 74 39 3e d1 19 22 be
       -0.022864588 -0.2394921 0.18110713 -0.1583016
000090 d3 ab 1d 3d 98 ca b5 3e 6f 66 2b bd 9f 1a 05 3d
       0.038493942 0.3550613 -0.041845735 0.03249609
0000a0 18 a5 5a be 91 30 a1 3c 93 c4 72 bd e5 03 49 3d
       -0.21352041 0.019676479 -0.0592695 0.04907598
0000b0 f8 1e 74 3e 70 8a 01 be e1 01 57 3d 9d cc a8 bd
       0.23839939 -0.12650466 0.052492026 -0.08242152
0000c0 01 38 82 3d f4 00 dd 3d 49 0b e7 3d c7 26 83 3d
       0.06358338 0.107911974 0.11281449 0.064038806
0000d0 27 6f 2a be d9 f4 e4 3d 78 2a 81 bb cf 4e a9 bc
       -0.16643964 0.111795135 -0.0039418302 -0.020667462
0000e0 d1 af 33 be 6e 2e 51 3d 27 37 06 3e 40 07 52 3d
       -0.17547537 0.05106967 0.13106976 0.051276445
0000f0 e2 05 31 be 1a 1b 8e 3e 95 6c cd 3c c5 9e 66 be
       -0.172874 0.27755052 0.02507619 -0.22521503
000100 2c b7 a2 3c fc 21 2f be be 33 ab 3d 0e 8e ae be
       0.019862734 -0.17102808 0.083594784 -0.34092754
000110 05 dd 2c bd 61 d0 44 be 0e 3b 7f 3d 38 6e f3 3c
       -0.04220297 -0.19220115 0.06231218 0.029715642
000120 c6 49 bb bd 5c ba 2f be ad 2a a8 3e e3 d8 a6 bc
       -0.091449305 -0.17160934 0.3284506 -0.020367092
000130 1b eb 3c be fd eb 22 be 6d e0 02 3e 4d 54 47 3e
       -0.1844906 -0.15910335 0.12780924 0.19465752
000140 fd 8f 97 bc db a8 15 3e 64 e8 18 be 87 89 0f 3a
       -0.018501276 0.14615194 -0.149324 0.000547551
000150 c4 08 9b 3d ce 7b 80 bd 04 10 8e 3e 58 39 e7 bd
       0.07570031 -0.06273614 0.27746594 -0.11290234
000160 9b 43 5e be 66 3a a9 be e0 8d 5d 3e 87 44 7b be
       -0.21705477 -0.33052367 0.21636152 -0.2453786
000170 ea 99 fd bb 22 57 90 3e 47 72 f3 3d 74 47 b8 3d
       -0.0077392953 0.28191477 0.11887031 0.089980036
000180 3b fd 51 bd 61 53 68 3e b9 35 0b bd b7 82 53 3e
       -0.05126689 0.22688057 -0.03398678 0.20655333
000190 64 11 cd 3c cc ec ac be 40 6f b7 bd 07 01 4c 3d
       0.025032707 -0.33774412 -0.08956766 0.049805667
0001a0 b9 c7 42 3e 2d 74 59 3e 91 f8 01 bb 1c be 62 3b
       0.190215 0.21235724 -0.0019831995 0.0034598177
0001b0 60 4f 35 be 55 5d 4d 3e 60 3f 97 3d df 23 f3 bc
       -0.1770606 0.20055135 0.07385135 -0.02968019
0001c0 7a 85 b2 3b 49 94 b6 bd 34 cb d9 3c 39 01 42 bc
       0.0054480406 -0.08915002 0.026586153 -0.011841112
0001d0 42 ec 33 3e 31 ed 05 be 9f 5e 8f bc 52 90 1e be
       0.17570594 -0.13078763 -0.017501174 -0.15484741
0001e0 0c ee 1e 3e 11 9f 1c be d1 98 6f be 84 6a 9b bd
       0.15520495 -0.15295054 -0.23398139 -0.075886756
0001f0 3e 05 0a 3e 14 32 84 be 9a 53 35 be 0a 8d e2 3c
       0.13478562 -0.25819457 -0.17707673 0.027655143

classifier.bias f4 [2]
000000 50 1e 0a be cc 45 c3 3b
       -0.13488126 0.005959248
