models/engineered_noweight_gcn_model.pt (torch, 136228 bytes, 6 tensors)

conv1.bias f4 [128]
000000 7b 23 0e be 62 32 8f bc 07 3d 3f 3d c3 4f eb bc
       -0.13880722 -0.01748008 0.04668906 -0.028724557
000010 dd fa b9 bd 51 01 95 3b d5 2f 81 be 3e 1b ae bd
       -0.090810515 0.004547276 -0.25231805 -0.0850129
000020 a3 f1 d0 3c 28 27 f6 bc df bf e0 bc c5 a4 ed bb
       0.025505846 -0.030047968 -0.027435241 -0.007252308
000030 b6 ab a4 3d b7 77 ef bc 08 08 8b bd 93 61 45 3c
       0.08040564 -0.02923189 -0.06788641 0.012047189
000040 cf c0 5e bd 4e 2d 81 be e8 3d b1 3d 14 50 51 bd
       -0.054383095 -0.25229877 0.08654386 -0.05110176
000050 d1 e5 09 3d 7f 87 0a bd e4 ef 26 3d aa e2 70 be
       0.033666436 -0.033820625 0.04075612 -0.23523965
000060 5a 4a 1f be a1 34 e0 bd 1a 07 d1 bd 04 fd 3a be
       -0.15555707 -0.10947538 -0.10206433 -0.1826058
000070 97 55 9e 3d fb 3c 0d bc 03 3e 96 bd b5 50 bb 3c
       0.07731169 -0.008620496 -0.073360465 0.022865633
000080 46 2b 91 be 33 e7 2e be af fc 8a bd 4a 47 f8 bd
       -0.28353328 -0.17080383 -0.06786477 -0.12122972
000090 65 3b b7 bd ed 58 d4 bd 35 bd 8f 3d e1 cf 49 be
       -0.089468755 -0.10368524 0.0701851 -0.19708206
0000a0 9a 57 37 bd 94 17 4f be c3 10 a2 3c 05 32 9b be
       -0.044761278 -0.20223838 0.019783383 -0.303116
0000b0 60 f1 97 3d 2b 54 07 bd ad df c8 b9 c4 f5 32 bc
       0.074190855 -0.033039253 -0.00038313624 -0.010922853
0000c0 27 83 b0 ba 11 b3 e7 bc 42 02 72 be 6e 34 80 bd
       -0.0013466821 -0.028283628 -0.23633674 -0.0626
0000d0 d9 b4 7e bd 5b 45 0c be 5a 20 b5 3b 42 57 9d bc
       -0.06218419 -0.13698332 0.0055275382 -0.019206647
0000e0 3a c6 76 3d fe 9a 71 ba 6c 12 12 be 3f 5e 2b be
       0.060247637 -0.0009216516 -0.1426484 -0.16735171
0000f0 ee 86 2b 3b fb 0d b7 bd 4b dc 2b bc 28 06 88 3c
       0.0026172954 -0.089382134 -0.010489534 0.016604498
000100 0d 12 0c be 93 4a 58 be 35 6e 80 bb 80 06 ea bd
       -0.13678761 -0.21122198 -0.0039193877 -0.11427021
000110 f1 71 cd 3a ae 98 ea bd 46 3a ba 3c 00 e0 3f be
       0.0015674216 -0.114549026 0.022732865 -0.18737793
000120 af f3 cc bd 22 dd 1b be 07 9a 06 bd 7d 84 07 3b
       -0.100074165 -0.15221074 -0.032861736 0.0020678334
000130 91 be f4 3c a5 33 5d 3d 01 fd af 3c 23 0d b2 bc
       0.029876025 0.05400433 0.021482946 -0.02173478
000140 7a 18 1a bd 1c 10 6a bc 91 47 6e be 0d 0e 34 bd
       -0.037621 -0.014286067 -0.23269488 -0.043958712
000150 d0 2a b6 bc 08 2c b3 3c b9 1b fb 3c be 52 36 3d
       -0.022237211 0.021871582 0.030652868 0.044512503
000160 24 13 0b 3d 9d 7c 76 3c a4 dc b7 bd a2 bb 6e 3b
       0.0339538 0.015044359 -0.08977631 0.0036427756
000170 5c 8d 9e 3d d9 51 49 3b a7 df e7 bc c0 56 b0 3c
       0.07741806 0.003071895 -0.028304888 0.02152574
000180 a4 b3 71 3d 87 de d0 bd 21 90 31 3d 96 78 4e 3c
       0.05900921 -0.10198694 0.043350343 0.012601992
000190 bc 6d 5a bd 7a 2d a5 3d 54 9b f3 bc a9 35 e0 bc
       -0.053327307 0.080653146 -0.029737152 -0.027369337
0001a0 7b 03 08 3d bd 1d b6 3d 51 e2 42 bc 31 1c 0c be
       0.033206444 0.08892391 -0.011894778 -0.13682629
0001b0 4a 49 2c bc 6e db 9e be d7 1f 48 3d 29 de ef bd
       -0.01051552 -0.31026787 0.04885849 -0.117122956
0001c0 46 c7 84 3d aa 61 b9 bd 37 3d 63 3d 56 33 2c be
       0.06483321 -0.09051831 0.0554783 -0.16816458
0001d0 31 86 3a be 41 76 09 3d 39 91 4e 3d 60 5e 96 3c
       -0.18215252 0.03356004 0.050431464 0.018355548
0001e0 75 4c d7 bc ba bd 9c 3d 41 60 5b 3d 56 55 23 3b
       -0.026281575 0.07653375 0.05355859 0.002492269
0001f0 d8 15 fc 3b 82 59 cd 3d fd ce c3 3a b0 e1 9a 3d
       0.0076930337 0.10026838 0.0014939007 0.07562578

conv1.lin.weight f4 [128, 194]
000000 db b5 3a bc de 45 56 bc ce 1a 06 be 44 c4 06 3c
       -0.011395897 -0.013078181 -0.13096163 0.008225504
000010 cb 0e 27 3a e3 ac f2 3b fc 4d 2d bd 9b 68 6b bc
       0.0006372749 0.0074058636 -0.0423107 -0.014368202
000020 12 90 f5 bc b2 5e b7 bc 87 55 fa bc 97 5d 0d 3d
       -0.029975925 -0.022384021 -0.03055836 0.034513082
000030 42 8c 9f 3d 1a 0c 26 3a 8d 3d 0c bd 59 ed 2b 3d
       0.07790424 0.0006334201 -0.034238387 0.0419744
000040 f8 b8 d2 bc 08 3f 28 bc 1a 4f 9b 3c 8d 97 77 3c
       -0.025722966 -0.010268934 0.018958617 0.015111816
000050 63 6d 38 3c 3e 99 a3 bb 99 fc 59 bc 12 66 92 bc
       0.011256549 -0.004992633 -0.013304853 -0.017870937
000060 32 35 28 bc 69 01 e7 bc a7 3f 30 3d 62 fa a2 bb
       -0.010266589 -0.028198915 0.043029454 -0.0049736956
000070 a3 81 5a bc ba 20 92 bc cc 27 28 bc d4 5a e4 bc
       -0.013336572 -0.01783787 -0.010263395 -0.027875341
000080 6d dd 35 3d 6b 61 97 3b 1e 7d b1 bb f0 39 4f bc
       0.04440062 0.0046197674 -0.0054165265 -0.012648091
000090 e1 c9 26 bb 3e 15 ba 3b ee 25 0a 3c 3e 07 da 3c
       -0.002544992 0.005678802 0.008431895 0.026614781
0000a0 dd d4 fc 3c 26 5c 62 3c 32 41 c8 3c 57 91 62 bd
       0.03086322 0.013815915 0.02444515 -0.055314388
0000b0 9d a9 ab bd 54 28 6d 3c 16 99 d6 3c 51 6c dc 3b
       -0.083819605 0.014474947 0.026196044 0.0067267795
0000c0 8e 95 20 3c c0 bf 12 bd c8 11 82 bd 90 19 56 3d
       0.009801282 -0.0358274 -0.06351048 0.052270472
0000d0 5f bf d8 3d 1a 6d 19 3d d2 06 3d 3d b0 6a e2 bc
       0.10583376 0.037457563 0.046149082 -0.027638763
0000e0 60 34 42 3b 88 21 85 3c cf f6 d0 3a 31 c0 3d 3b
       0.0029633269 0.01625134 0.0015942695 0.0028953666
0000f0 dc d1 fb 3b 0f 8c 1f 3d 76 54 1d 3d 3e 59 85 3c
       0.0076849293 0.03895193 0.038410626 0.016277906
000100 e6 08 dc 3a 50 24 47 3b b2 01 fa 3b 86 2b 23 3d
       0.001678732 0.0030386634 0.0076295966 0.03983643
000110 7e 6f 0d 3d 3b ee fe ba 69 89 8f bb 1a 2b c8 ba
       0.034530155 -0.001944966 -0.0043803942 -0.0015271634
000120 ea 23 61 bb bd 92 d4 bb 79 70 91 bc 80 92 76 bb
       -0.0034353682 -0.006487219 -0.017753826 -0.0037623942
000130 e9 5f 41 3b 93 58 15 3b 2b 46 05 3c aa 06 f6 3b
       0.002950663 0.002278839 0.008134405 0.0075081186
000140 3f 2f 63 3c e0 26 a6 ba bf 6f cc bb ef 7a 70 bb
       0.013866245 -0.001267638 -0.006238907 -0.0036694368
000150 9d 62 3c bc da 0b 0b bd 5d b2 b1 bc ae 17 07 be
       -0.011498121 -0.03394685 -0.021691496 -0.13192627
000160 9d 26 22 bd 1d 6a ab bb 84 76 06 bd 5b 77 e6 bb
       -0.039587606 -0.0052311555 -0.03282787 -0.0070332712
000170 ef ae 0e 3c f3 f1 a7 bb 1a 08 0d 3d ad 2f 03 3d
       0.0087087 -0.005125278 0.034431554 0.03202789
000180 b2 5d bc 3a f2 56 53 3d 56 ac a5 3d a6 b1 7d 3d
       0.0014371185 0.05159659 0.08089511 0.061936997
000190 2a ba bf 3d 07 f0 be 3c 66 74 a1 bc 1d f0 2b bd
       0.0936168 0.023307813 -0.019708823 -0.041977037
0001a0 de 82 7d 3c 96 29 84 3b 12 79 b0 bc cb 0f 01 bd
       0.015473096 0.0040332777 -0.021542106 -0.031509202
0001b0 6e ab 39 3c 4d 7b 8e ba 68 e4 e2 3c 67 16 aa bb
       0.011332376 -0.0010870487 0.027696803 -0.005190659
0001c0 e7 12 71 3d 00 1d 44 bc d2 de 23 bd 01 9a c8 3d
       0.058855917 -0.011969805 -0.04000742 0.09794999
0001d0 9e 84 0a 3e 23 a6 22 bc ff da 6b 3d 76 36 b6 3c
       0.13527152 -0.009927305 0.057581898 0.022242766
0001e0 21 a7 d7 3b 9f 90 f2 bd 54 5a 03 be e1 f0 ca 3c
       0.0065812026 -0.118439905 -0.12827426 0.024773063
0001f0 e4 36 5c 3d bd 75 0c 3d d7 cb 31 3d 39 f3 42 bd
       0.053763285 0.03429197 0.043407287 -0.047595236
000200 88 98 ae bc 30 c7 06 be 12 15 b4 bb c2 32 07 3d
       -0.021312967 -0.13161922 -0.005495676 0.03300739
000210 71 f7 fa 3b d4 9e f3 bc d2 9a ab bc 0b 5d 4d 3d
       0.007658892 -0.029738821 -0.020947848 0.05013756
000220 1a a9 3f 3d b5 9f 71 3d 66 f3 c4 bc 12 e3 94 3c
       0.046792127 0.0589902 -0.024041843 0.018174682
000230 2e 8e e0 3a ca 7e d7 bc 49 ed f6 bc 01 ad 64 3c
       0.0017132217 -0.026305575 -0.030142443 0.013957263
000240 ba 32 bb 3c 00 12 55 bc 36 e6 44 3c 77 b4 6c 3b
       0.022851337 -0.01300478 0.012017777 0.0036118308
000250 87 82 b5 bd 8b 10 a4 bd c8 49 e5 bc ed 4f 8b bc
       -0.08862787 -0.08010968 -0.027989283 -0.017005885
000260 1f c5 c2 bb a3 ff e6 bb 5e 9d 25 3d f3 09 a5 3d
       -0.005943909 -0.0070495172 0.04043328 0.08058538
000270 af b1 8a 3d d6 ee dd bc bc ee 03 bd bd 2d 8a 3c
       0.06772172 -0.027091425 -0.032210097 0.016867513
000280 58 9f 6d bb cb 8c d4 bb 8a fc 6b 3c a2 16 91 bc
       -0.0036258306 -0.0064865104 0.014403472 -0.017710987
000290 ef 9a df bc 68 51 8b bd 9e 78 b9 3c 7f ef 36 bc
       -0.027295558 -0.068026364 0.022640523 -0.011165499
0002a0 31 15 89 bc 42 a2 d2 3c 0d f7 cb 3b 00 a4 99 39
       -0.016733738 0.025712136 0.006224519 0.00029304624
0002b0 4b ff 33 bc c3 99 19 bd cc 38 14 bd 95 28 04 bd
       -0.01098616 -0.037500154 -0.03618698 -0.032265265
0002c0 65 cb 9b bb a6 37 2b 3d f6 47 c5 bc 95 a2 85 bb
       -0.004754471 0.041801117 -0.024082165 -0.004078219
0002d0 63 5d c6 3c ab 46 92 bc c4 d8 8c 3a 76 99 ab 3b
       0.024214452 -0.017855963 0.0010745754 0.0052368
0002e0 09 8e ae bd 00 b5 e0 3d 8a 12 f3 bb 8d a7 17 be
       -0.08523185 0.10972023 -0.0074179815 -0.1481001
0002f0 4a da 8f bd fe 82 41 bd 8d ce 94 bd 44 49 01 3c
       -0.07024057 -0.047244065 -0.07265959 0.007891003
000300 1a 43 65 be 10 df e2 3c ef 98 ca bc c9 35 bd 3c
       -0.22388878 0.027694255 -0.024731128 0.023096936
000310 40 08 97 bd a8 da 91 3c 75 98 9b 3c c8 6d 65 3c
       -0.073746204 0.017804459 0.018993596 0.014003225
000320 f1 3c 06 bd 10 c4 ed bc bb b1 02 bd 17 35 71 bc
       -0.032772962 -0.029024154 -0.03190778 -0.01472213
000330 08 b4 05 bd 35 48 ef 3c a6 56 87 3d 56 0c 9e 3c
       -0.032642394 0.029209236 0.06608324 0.019292992
000340 2e a9 9b bd 01 26 83 3b f3 6a c9 bc ba 5b 3e bc
       -0.07600628 0.004002333 -0.02458713 -0.011618549
000350 15 9a 72 b9 d5 f1 f0 3c 6b 4b fa 3c cb 80 5e 3c
       -0.00023136318 0.02941219 0.03055354 0.013580511
000360 ef ff b9 3b 12 74 48 bb ae 74 13 3c dd 8f 7b bc
       0.0056762616 -0.0030586761 0.008999987 -0.015354124
000370 8f b8 6d 3c f9 c0 5f 3c 33 50 b7 3b b7 06 44 bb
       0.014509334 0.013656848 0.0055942773 -0.002991123
000380 3e 91 13 3c b6 8a 7c bc 78 c4 70 3c 13 2f 21 bc
       0.009006796 -0.015413931 0.014695279 -0.0098378835
000390 c6 67 86 bc 8b 8e 79 bc 52 cb 65 bc de 38 66 3c
       -0.016406905 -0.015231739 -0.014025526 0.014051644
0003a0 a0 bb 59 3c fa f5 e0 3c c5 1d 08 3d 18 1b 83 3c
       0.013289362 0.02746104 0.033231515 0.01600413
0003b0 e7 2e f1 3c 0e d1 82 bd 11 66 79 bd 8f 97 cc 3c
       0.02944131 -0.0638753 -0.060888354 0.024974613
0003c0 c5 30 f7 3c d4 d5 7d 3c d6 5f dc 3c e5 ad 68 bd
       0.030174622 0.015492875 0.026901167 -0.056806464
0003d0 c0 3d 5a bd 85 02 95 3c 7f a8 37 3d 99 b6 7e bb
       -0.053281546 0.018189678 0.044838425 -0.003886616
0003e0 92 7d 10 3c 12 66 14 ba a7 b4 c5 bb 8d 11 83 3c
       0.008819001 -0.00056609616 -0.0060334983 0.01599958
0003f0 6c 29 7d 3c 3c ba 84 3c 69 4f 9c 3c 4d ff d6 bb
       0.01545177 0.016202085 0.019080834 -0.006561196

conv2.bias f4 [64]
000000 10 3a 71 bd 33 29 1c bd 54 f4 79 3c d5 1b fd bc
       -0.058893263 -0.038125228 0.015256006 -0.03089706
000010 2c 66 24 bd 6e 37 c0 3c d5 63 c0 3c 30 4f 40 3e
       -0.0401365 0.023463931 0.023485104 0.18780208
000020 6b 88 56 3b 0b ed 6a 3c 81 d8 95 3c be 9c e4 3c
       0.003273512 0.014338742 0.018291714 0.027906772
000030 a4 0a 05 3c de 83 33 bc 12 cc 21 bd 40 49 c6 3e
       0.008120213 -0.010956733 -0.039501257 0.3872776
000040 e0 3e 04 3d 8a f1 c4 3c 0a f1 8c 3b df a5 47 bd
       0.032286525 0.024040956 0.004301195 -0.04874217
000050 57 1d 1f 3c ae 4b 37 bd a6 6a 32 3c 8b 95 49 bd
       0.009711585 -0.04474991 0.010889685 -0.04921488
000060 db 1c c2 3e 54 83 6c bb 5d 0b b3 3c 1e 98 11 bd
       0.3791264 -0.003608902 0.021856004 -0.03554546
000070 49 ee 51 3c 71 f5 de 3c 38 2f 28 bd 1a ba 36 3c
       0.012813159 0.027216645 -0.041060656 0.0111527685
000080 a0 cd 9f 3c 47 32 00 bd b1 3c f6 3c 69 49 5c bd
       0.01950723 -0.03129795 0.030058237 -0.053780947
000090 2b cf 5d bd 01 dc 71 3c 35 89 8d 3b 09 57 d5 3c
       -0.05415265 0.014761926 0.004319335 0.026042478
0000a0 41 1f 43 bd cb 14 c5 3b 07 8c 57 3c 78 1c 3c bc
       -0.047637228 0.0060144416 0.013155944 -0.011481397
0000b0 58 03 a2 3b b6 2c 03 bd 95 93 cc 3c b5 13 af 3c
       0.0049442463 -0.03202506 0.024972716 0.021371702
0000c0 d3 d6 a9 b9 ea 22 cf 3c 00 83 1c 3c 15 ba 3e bd
       -0.00032394248 0.025285203 0.009552717 -0.04656418
0000d0 d4 5a 27 bd 52 15 45 bc ea ca f9 3c 3e c6 5e bd
       -0.040858105 -0.012029009 0.030492265 -0.054388277
0000e0 16 f5 12 3c 9e c9 bf 3c 6e 70 45 3c 25 ce f5 3b
       0.008969566 0.023411568 0.012050731 0.007501381
0000f0 13 1c 48 bd 10 ee b9 3c 5b e6 4c 3e 44 82 0c bd
       -0.0488549 0.022696525 0.20009749 -0.03430392

conv2.lin.weight f4 [64, 128]
000000 ea 89 38 bd 3e 3c 9a 3c de aa bd bd 44 a0 3f bc
       -0.0450534 0.018827554 -0.09261106 -0.011695925
000010 f3 31 a7 bc 0f 4e 79 bc 88 a1 a8 3c 5d df 48 bd
       -0.02040956 -0.0152163645 0.020584837 -0.04904114
000020 7a 0f 72 bd b7 9d 77 bc 63 fc ac bd c9 1c e0 bc
       -0.05909679 -0.015113286 -0.084465764 -0.027357476
000030 41 3b 32 bd fe a5 34 bd 3f fd 66 3c 54 a2 7e 3c
       -0.04351354 -0.044103615 0.0140984645 0.015541632
000040 a1 f9 ea 3c ac bf 8c 3c ac 39 25 bd dd d3 96 bc
       0.028683485 0.01718124 -0.040338203 -0.018411571
000050 1a a5 b9 bd d7 be 83 bc 01 a6 40 3c 64 c8 d2 bc
       -0.09064694 -0.01608221 0.011758328 -0.02573032
000060 7b 21 5e bc b6 47 00 3d b6 ea 3d 3b 40 3f 3a 3c
       -0.013557787 0.03131839 0.002897901 0.011367619
000070 61 cf 95 bd 79 59 1f 3b 93 7b 0d 3c a0 88 50 bd
       -0.07314945 0.0024314804 0.008635419 -0.050911546
000080 89 15 28 bc 9a 0c 41 3d 70 e2 30 bd cc f7 83 b7
       -0.010259041 0.04713116 -0.043184698 -1.5731806e-05
000090 5f 57 06 bd 08 5c 8c bb c2 8a 26 3c 03 4e 26 38
       -0.032798167 -0.004283432 0.010164918 3.965014e-05
0000a0 a6 31 5c 3d 0f a0 ba bc 75 d7 65 3c b6 48 d8 bc
       0.053758286 -0.0227814 0.01402842 -0.026401859
0000b0 0d 3e 04 3d 9d a0 1b bd c8 b0 d5 3c 44 6f f8 3c
       0.03228574 -0.03799497 0.026085272 0.030326493
0000c0 d1 51 05 bd d5 c2 16 3c 2d 38 01 bc e2 30 b2 3c
       -0.03254873 0.009201725 -0.0078869285 0.021751825
0000d0 23 b5 f2 bb 71 f4 d2 bc 31 d5 05 bd ec 6f 18 3d
       -0.007406847 -0.025751324 -0.03267402 0.037216112
0000e0 5e 91 73 bc 07 71 6f 3c 6e 37 92 bd 11 a6 e3 3c
       -0.014866201 0.01461435 -0.071394786 0.027789148
0000f0 ec ee a5 3c 01 20 b4 3c 30 eb 9b 3c f1 bc 06 bd
       0.020255528 0.021987917 0.019033045 -0.032895032
000100 2e 06 41 3b ba ed 8a bb 3e 4d ce 3b 7b 16 2a bd
       0.0029453146 -0.004239765 0.006295829 -0.041525345
000110 97 6f 0d bd 55 3b d7 bc 43 17 e5 bc 42 01 7c 3c
       -0.03453025 -0.026273409 -0.027965194 0.015381159
000120 92 79 2a bb f1 5f d0 bc 39 ad c1 bd ca 6b e9 bc
       -0.0026012403 -0.025436373 -0.09456868 -0.02849378
000130 b5 8b ad bc 49 14 53 bc 99 e3 ee bc 1f 2c a0 bc
       -0.021184782 -0.012883254 -0.029161261 -0.019552289
000140 0e 9a ec ba f7 62 91 bb 84 7d 2d bc c3 ec b7 bc
       -0.0018051283 -0.0044368464 -0.010589007 -0.022451764
000150 ac ea 56 3c 3c c8 2d bb 87 d5 a9 bc b4 81 3a 3d
       0.013117474 -0.0026517054 -0.0207317 0.04553385
000160 7e b1 9b 3c b8 34 c4 3c cb 42 29 bc 2b 43 52 bc
       0.019005533 0.02395092 -0.010330866 -0.012833397
000170 43 07 99 bd 8d 31 d4 bb 74 74 fc ba 61 0b 3f bc
       -0.07472088 -0.0064756335 -0.001926078 -0.011660428
000180 2a a0 85 bc c1 24 17 3b fa d2 ce bc 57 7c 29 bd
       -0.016311724 0.0023062679 -0.025247086 -0.041378345
000190 f5 19 b0 bc c1 c0 fa bc ee 3e b6 bb 70 75 a2 bc
       -0.021496752 -0.03060949 -0.005561701 -0.01983139
0001a0 a6 d2 21 3c b5 ff 61 bd 83 c2 e7 3b 41 a8 65 bd
       0.009876883 -0.0551755 0.007072748 -0.056068663
0001b0 aa 6c 6e 3d f9 5e 8a bc e1 cd 93 3b 42 fe ad bc
       0.0582091 -0.01689099 0.0045106267 -0.021239404
0001c0 4a be 6e bd 0a 9f 0a 3b f8 b9 9d bc 14 be 23 bd
       -0.058286943 0.0021151924 -0.019253716 -0.039976195
0001d0 ac 7b 2d bc 86 94 d9 3b 31 53 a0 bc f8 19 70 bc
       -0.010588568 0.00664002 -0.019570919 -0.014654629
0001e0 a3 2a 8b bd c2 c7 c3 bc 24 39 a2 bb de be b9 3c
       -0.06795242 -0.023898963 -0.0049506593 0.02267402
0001f0 77 d0 77 bd 10 3f b9 bc 59 5c a1 bb 1f aa 10 bc
       -0.060501542 -0.022613078 -0.004924339 -0.0088296225
000200 4d 6d 2f ba 18 11 4b 3b 4e 5a 65 3b 55 de 3a 3b
       -0.00066920073 0.003098553 0.0034996453 0.0028513868
000210 d5 df 2f bc 74 9c 0c 3c 4d ae 5a 3b 52 72 c6 b9
       -0.010734518 0.008582223 0.0033368052 -0.00037850678
000220 2e 4c 95 3a e6 f6 52 3b 20 f5 28 bb 74 ce c6 3b
       0.0011390501 0.003219062 -0.0025780872 0.0060670916
000230 b3 94 79 3b 6f fe ca 3a d5 15 9e bb 22 ae 0e 3c
       0.0038083016 0.0015487204 -0.00482438 0.008708509
000240 6d d2 9b 3b 09 c6 c4 38 5b bf 58 3c 9d f6 a8 b9
       0.0047553093 9.382895e-05 0.013229216 -0.00032227198
000250 d3 35 b5 39 d0 47 05 3b 3b 6a 94 3b 1f ad d1 38
       0.00034563112 0.0020336993 0.004529265 9.998143e-05
000260 71 36 be b9 99 3e 15 ba 88 3e 2e bb fd fb aa ba
       -0.00036280186 -0.00056932267 -0.0026587564 -0.0013045069
000270 e8 c3 e2 3a cd 2f 1d 3b 34 90 9b ba 9f 5a 2f 3b
       0.0017300816 0.002398479 -0.0011868537 0.0026756895
000280 f9 0a b7 3b f6 93 3d 3d ac 1d 1f bb 90 4d 03 3a
       0.005586025 0.046283685 -0.002427916 0.0005008811
000290 2b 38 c8 3a 5a c8 00 3a 7b b0 90 bb ad e8 8b bb
       0.0015275528 0.0004912667 -0.0044155694 -0.0042696805
0002a0 d9 86 11 3d 96 32 bb 3c 5d 0b 83 3b 30 26 c7 3a
       0.03552899 0.02285127 0.0039991573 0.0015193876
0002b0 d5 e4 8a 3b 76 65 06 3b 5d 95 ae 3b 59 6b ff 3a
       0.0042387047 0.0020507253 0.005327864 0.0019486948
0002c0 1c 02 4f 3b 4e 48 02 bb 05 36 00 bb c7 39 71 ba
       0.003158695 -0.0019879523 -0.0019563448 -0.000920203
0002d0 23 79 07 3b dd 70 1d bb 72 f1 85 3b 8f 80 73 3c
       0.0020671568 -0.002402357 0.0040876204 0.014862194
0002e0 7d b8 41 3a 31 03 29 ba fd 76 3b 38 3e e7 a0 bc
       0.00073898566 -0.0006447314 4.469509e-05 -0.019641515
0002f0 70 92 8e 3b 7e 33 43 b9 9b f4 bd 3a 79 8d 0e 3b
       0.004350953 -0.00018615832 0.0014492454 0.0021751805
000300 c3 bc 0e 3b 58 08 1d bc d8 30 11 3c e6 74 0e 3c
       0.0021779991 -0.009584509 0.008861743 0.008694863
000310 c2 ba 0d 3b 7a 8b 25 3b e7 b3 60 3b 90 3e 23 bc
       0.002162621 0.0025260136 0.0034286918 -0.0099636465
000320 e9 0e fe 39 8e 5d 08 3d 51 b1 cb 3a b1 71 e8 b8
       0.00048457764 0.033292346 0.0015540515 -0.00011083799
000330 7b f2 10 3c 46 d0 3a 3a 4f 2d 77 ba c5 7f 83 ba
       0.008846874 0.0007126372 -0.0009429054 -0.0010032585
000340 ea b3 b5 3a d2 0d a0 3b 83 49 85 ba 95 04 0a 3c
       0.0013862823 0.00488446 -0.0010169003 0.008423944
000350 63 06 a2 3b 7c 80 71 3b 2d 84 92 bb 10 a2 67 bb
       0.004944609 0.0036850264 -0.004471323 -0.00353444
000360 fa a6 78 bb 44 83 e9 ba fe 2d a2 3c 17 8a 51 3b
       -0.0037941323 -0.001781561 0.019797321 0.0031973177
000370 26 cc c9 3c db 12 89 bc e0 d8 de 3b ad 14 f2 b9
       0.024633478 -0.016732624 0.006800756 -0.00046173242
000380 4d 24 dc 3a 2a 79 d4 3a cc 3b a2 b9 53 8f 3b 3b
       0.0016795486 0.0016210426 -0.000309436 0.0028619363
000390 19 53 c8 ba 49 f8 c9 ba a2 ac a1 3b c1 79 55 3b
       -0.0015283554 -0.0015409078 0.0049339095 0.0032573792
0003a0 ee b3 19 39 21 4c 5f bb 48 37 4a ba 89 6f 19 bb
       0.00014658246 -0.0034072476 -0.0007713926 -0.0023412427
0003b0 35 f4 51 ba bb 91 1e bb ab 38 3b ba f4 26 65 3a
       -0.0008009107 -0.002419575 -0.0007141928 0.0008741461
0003c0 55 72 18 3b cd 13 bd 3c 99 02 ce b9 c2 5d 81 bb
       0.0023261507 0.02308073 -0.00039293317 -0.0039479444
0003d0 1b 2b 8c ba da 1a e7 3a 1d 82 e0 39 25 a7 a6 ba
       -0.0010693999 0.0017631904 0.0004282155 -0.0012714608
0003e0 fd 34 c6 bb 28 7b 91 3b 02 12 df 39 a9 8a 6b 3b
       -0.006048797 0.00443973 0.0004254729 0.0035940802
0003f0 e8 53 ff 3a f9 77 8c 3a 25 7c 37 3d 0e 52 2f 3b
       0.0019479962 0.0010716907 0.044796128 0.002675179

classifier.weight f4 [2, 64]
000000 84 68 6a 3d 9c c1 49 bb c0 71 14 3e 42 dd e2 3d
       0.05722858 -0.0030785566 0.14496517 0.11077358
000010 c7 4c 4e bd 82 55 b3 3c 1a 4b c8 3d b0 d6 88 be
       -0.05036619 0.02189136 0.097799495 -0.26726294
000020 8e 53 bc 3e 3a 00 36 3e fa 56 3c 3e 43 48 52 3e
       0.36782497 0.17773524 0.18392554 0.20535378
000030 65 78 a8 3e f3 32 03 3f 5e 37 02 3e 03 5e 15 bf
       0.32904354 0.5124962 0.12716433 -0.58346575
000040 69 41 7c 3e 98 66 4d 3e 90 8a 07 3e 29 29 83 3c
       0.24634327 0.20058668 0.13236451 0.016010838
000050 0e af 5e 3e 0b 1a da bc df 24 12 3e 54 66 d3 3c
       0.21746466 -0.026623746 0.14271878 0.02580563
000060 b7 a3 d9 be e0 1b 31 3d c7 d8 88 3d e9 12 52 3c
       -0.42507717 0.043239474 0.06681972 0.012821891
000070 ae b6 ed 3d 9b 98 38 3e ef ad af 3d 8b e5 37 3e
       0.11607109 0.18026964 0.08578097 0.17958657
000080 fa 2a 82 3e b9 44 a1 3d ad 72 2c 3e c8 2a 75 3d
       0.25423414 0.07874436 0.1684062 0.059855253
000090 d7 1f 99 3d 01 11 a6 3e 27 30 b0 3e 2a c9 b3 3d
       0.07476776 0.32434848 0.34411737 0.087786034
0000a0 ff ac 5f 3c 79 bf a5 3e f5 95 1d 3e c1 43 02 3f
       0.013652085 0.32372645 0.15389235 0.50884634
0000b0 e7 6f 87 3e bd b7 fd bc ce 65 89 3d e9 9c 6e 3e
       0.26452562 -0.030971402 0.06708871 0.23302044
0000c0 97 e7 54 3e 52 6d 22 3e e6 13 23 3e 55 32 c6 3c
       0.2079147 0.15862015 0.1592556 0.024193922
0000d0 cc 94 22 bd 68 cd f4 3e 48 db 91 3e 64 7d 07 bd
       -0.039692685 0.47812963 0.2848761 -0.033078566
0000e0 46 73 6b 3e 1e 34 71 3e 1f 73 31 3e eb 23 7b 3d
       0.22993192 0.23555037 0.17329071 0.06131355
0000f0 99 48 47 bd 64 8d 43 3d aa 87 a2 be 05 3b 38 bd
       -0.04865322 0.047742262 -0.31744128 -0.04497816
000100 e2 88 c4 3c 61 90 8b bd aa e6 2e be 70 58 88 3c
       0.023991052 -0.068146475 -0.17080179 0.016643733
000110 3c 56 f2 bd 90 81 62 be 0d ab 5b be d3 b6 91 3e
       -0.11832854 -0.22119737 -0.2145197 0.28459796
000120 e5 ca 81 be ed 7b 49 be aa 7d eb bd 13 ee dc bb
       -0.2535011 -0.1967618 -0.11498578 -0.006742248
000130 d4 9d 8e be 19 61 fb be f2 39 da 3c 73 85 1f 3f
       -0.27854788 -0.49097517 0.026638959 0.62313
000140 64 4c a8 bd 34 f2 84 bd bd e2 4d bd 93 8c 9d 3b
       -0.08217695 -0.06491509 -0.050265063 0.0048080175
000150 de f9 8b be 4f f5 56 bc 6c 0f 59 be 5d 05 c9 bc
       -0.2733907 -0.01312001 -0.21197289 -0.02453869
000160 3c 02 00 3f 18 fb 0e bd bd 3d 5b be 78 8b 11 bd
       0.5000341 -0.03490743 -0.2141027 -0.0355334
000170 7b 2a 3b be 4e bf ed bc d4 46 67 3d 57 ab d7 bd
       -0.18277924 -0.029021885 0.05646403 -0.10530727
000180 aa 57 ba bd c6 85 5b 3c ad 6d b3 bd 49 94 19 3d
       -0.09098752 0.013398593 -0.08761153 0.03749493
000190 18 24 10 3d a2 43 6b be f2 52 b1 be b9 d6 de bd
       0.03519067 -0.22975019 -0.34633595 -0.10880799
0001a0 fe bf 20 bd 7c a0 87 be 90 96 1f ba dd 74 0e bf
       -0.039245598 -0.26489627 -0.0006087804 -0.5564707
0001b0 90 17 35 be a7 67 ec bc 63 cc 2d be 5c 8a 97 bd
       -0.1768477 -0.028858019 -0.16972499 -0.07399437
0001c0 d5 c8 34 be de 02 86 be b3 4f 3b be 1c 92 1c 3d
       -0.17654736 -0.26174062 -0.18292122 0.03822528
0001d0 49 db d7 bd 8a 08 ce be c0 53 d2 bd ab ba 66 3d
       -0.10539872 -0.4024089 -0.1026988 0.056330364
0001e0 8a 41 70 be 5d cf c8 bd 64 75 dd bd 9c e8 b6 bc
       -0.23462501 -0.098051764 -0.10813406 -0.022327714
0001f0 c9 d9 e4 bb 12 42 7c be 0b 59 a2 3e ad d3 a2 bd
       -0.00698397 -0.24634579 0.3170856 -0.0795053

classifier.bias f4 [2]
000000 2d 6b 9b be 17 5a 99 3e
       -0.30355206 0.29951546
