models/engineered_noweight_graphsage_model.pt (torch, 269008 bytes, 8 tensors)

conv1.lin_l.weight f4 [128, 194]
000000 c0 a3 e9 3b 96 3a 88 bd 07 69 f4 bb c1 73 29 3d
       0.007130116 -0.066517994 -0.0074588093 0.041370157
000010 2f 2e aa 3d 65 6a 8c bb 3e 89 fe 3b 39 fb 72 bc
       0.0830959 -0.004285144 0.0077678254 -0.014830404
000020 7b 1b e9 ba 6a 66 ac 3b 8d 57 25 bc 0e e2 9a bd
       -0.0017784679 0.005261232 -0.0100916745 -0.07562648
000030 1e 5e 48 bd 65 e1 a0 3d 45 7b 03 bc d7 f7 69 bc
       -0.048917882 0.078554906 -0.008024995 -0.014280281
000040 01 01 71 3b c0 97 21 ba ba 13 3b bb 9f 87 81 bc
       0.003677428 -0.0006164275 -0.0028545693 -0.01581174
000050 5d a8 85 bc a9 f6 0e 3c 0e 49 81 3c 64 d5 3a 3c
       -0.016315633 0.008725801 0.015781906 0.011403415
000060 05 5b 67 3c e9 52 00 bc f5 0a 06 bd 2c e6 0e 3c
       0.014120822 -0.007832267 -0.032725293 0.008721869
000070 8c 3a 81 3c b8 cc 3a 3c 8b 6c 67 3c 42 66 00 bc
       0.015774988 0.011401348 0.014125 -0.00783688
000080 00 bd 05 bd 05 e0 95 bc 99 02 80 bc 6f 96 c0 3b
       -0.032650948 -0.018295297 -0.015626239 0.005877308
000090 1e 44 94 bc e1 34 1a 3d 69 94 3a 3d 6d 3c 7b bc
       -0.018098887 0.037648086 0.04555169 -0.015334231
0000a0 6c be 44 3a 53 da c4 3c 9e 4e f3 bb 63 fd 22 3d
       0.0007505182 0.024029886 -0.0074251434 0.03979243
0000b0 79 70 10 3d 44 8b 95 bc e9 cd ca bb 3d 05 13 3d
       0.035263512 -0.018254884 -0.006189097 0.035893667
0000c0 ba 79 44 bc 53 90 49 3d 70 7e 36 3d 63 86 c3 3a
       -0.0119919125 0.049209904 0.044554174 0.001491737
0000d0 a7 fb 06 3d 69 6f da bb 99 95 af 3c 9e ae 93 3c
       0.032954838 -0.006666113 0.021433638 0.0180276
0000e0 92 77 1d 3d 55 d9 be bc fd 1f 40 3c 2a 24 92 3c
       0.03844411 -0.023296991 0.011726377 0.01783951
0000f0 ae cc 68 3c 9b 9b 9e bc f4 4f 1a bd 8c d9 bf bc
       0.014208956 -0.019361308 -0.037673905 -0.023419164
000100 d1 7e 49 3c f8 ac 91 3c eb 3a 60 3c 4b 72 9e bc
       0.012298302 0.017782673 0.013685922 -0.019341609
000110 7b ec 1c bd c4 ca bf bb 1f 39 64 bc 1f b0 db bc
       -0.038311463 -0.005853029 -0.013929634 -0.02681738
000120 a7 0b 00 bd ff f0 28 bc 0a 4c b5 bc 99 87 19 bb
       -0.031261113 -0.010311364 -0.022130985 -0.002342677
000130 de 08 e6 3b d4 db bc 39 0c 03 10 bb 6b 0c a0 3c
       0.0070201 0.0003602194 -0.0021974472 0.019537171
000140 af 8b 73 3c df 3e a2 b9 50 05 41 ba 74 d1 cf bb
       0.014864846 -0.0003094589 -0.00073631573 -0.0063421074
000150 ac eb 02 bc aa 4c 91 3c 48 3b a5 3c 21 b4 8c bd
       -0.007990759 0.017736752 0.020169869 -0.06870294
000160 1c 8d 95 3c 54 db 78 3d 67 b0 70 3d a6 e6 b7 bd
       0.018255763 0.060756043 0.05876198 -0.089795396
000170 6b b1 7f bd 75 c3 db 3b 90 96 29 3d e4 4e 77 3c
       -0.06242506 0.00670665 0.041403353 0.015094493
000180 65 a1 74 3c 38 00 50 bd 76 c9 eb ba 73 cc 80 bc
       0.014931058 -0.05078146 -0.0017989117 -0.015722489
000190 e1 81 b4 bb ac 56 16 3d c9 fe 95 bb 35 da e0 3b
       -0.005508647 0.03670375 -0.004577492 0.00686195
0001a0 a8 b1 65 3c a8 c0 a1 bc 3f f8 63 3c aa 95 09 3d
       0.014019407 -0.019745186 0.013914167 0.033589996
0001b0 39 06 44 3b 38 bd 4a 3d 4a 11 4b 3d d4 84 8b bd
       0.0029910936 0.04949686 0.049577035 -0.06812444
0001c0 aa ca 63 bd 08 44 7b 3c 28 53 aa bd 77 67 8a bd
       -0.055613197 0.015336044 -0.08316642 -0.067580156
0001d0 8e 90 3c bd e4 fd 8a 3a 31 b8 80 3d be a4 f7 bc
       -0.046036296 0.001060423 0.06285132 -0.030229922
0001e0 24 6b 65 38 91 74 82 3c 8e 29 3f bd 32 af 34 3c
       5.4697637e-05 0.015924724 -0.04667049 0.011028098
0001f0 02 80 a8 bd 1b f3 70 bd 66 f4 b8 3b 2b fb bb 3c
       -0.082275406 -0.058825593 0.005644369 0.022946915
000200 fe e8 d8 37 fb cb 98 3c 5a ba 5f 3c 04 b4 fb 3c
       2.5857702e-05 0.018651953 0.0136552695 0.030725487
000210 7f c4 2d 3d 58 08 f9 3c 27 1b 41 3d bd 86 c6 bb
       0.04242372 0.030399486 0.047145035 -0.0060585425
000220 0e 57 1d 3d d7 b4 18 3c f5 c9 c6 ba 25 2e 84 3d
       0.0384131 0.009320459 -0.0015166389 0.06454114
000230 1a 86 45 3d c5 af 18 3c 0d c3 56 bc 6b e4 ad bb
       0.048223592 0.0093192505 -0.013108027 -0.0053067706
000240 b6 60 be bc 99 66 11 3d 9c 8c 60 3d 32 53 98 3c
       -0.023239475 0.035498235 0.054821596 0.018594358
000250 a3 40 1f 3d 34 e2 11 3d 2b bb 47 3d 98 84 7c bc
       0.03888 0.035616115 0.04876248 -0.015412472
000260 57 4d 64 bc cc bb fd 3b d4 f3 e0 bc 08 2e c8 3c
       -0.013934455 0.0077433344 -0.027460016 0.024436012
000270 e7 96 cb bb 0b 10 0d 3d 94 fa 66 3d 3f b7 1f 3d
       -0.0062130573 0.034439128 0.056391314 0.038993116
000280 95 58 9a 3b 73 1a 7e bc c8 15 35 3c d7 1e 18 bd
       0.004710267 -0.015509236 0.011052556 -0.037138786
000290 c5 e7 65 bd 0e a0 d6 3c ec 01 9f 3d 9c 07 74 3b
       -0.056129236 0.026199367 0.077640384 0.003723598
0002a0 5a b5 1a bd 32 a2 e2 3c 66 0f b5 3c 9a 23 b1 3c
       -0.037770607 0.027665231 0.02210207 0.021623421
0002b0 14 a1 ac 39 4c af 4c bc 6f 91 b1 3c 07 93 85 3c
       0.0003292641 -0.012492966 0.021675793 0.01630546
0002c0 29 cb ae 3b 40 75 66 bc 6e 25 68 3a ab 06 0f bb
       0.005334277 -0.0140660405 0.0008855675 -0.0021824043
0002d0 c9 47 04 bc 7a 9e a0 bc ca 47 55 3d 7d 3b a2 ba
       -0.008073756 -0.019606818 0.052070417 -0.0012377348
0002e0 48 b3 58 3d 09 c2 bd bc 4f c7 ed 3c 5b e9 1a bc
       0.05290535 -0.023163812 0.029025702 -0.00945505
0002f0 24 8e 2b bd fd 08 aa bc 06 f7 3c bd 53 d6 c7 bc
       -0.041883603 -0.02075624 -0.046134017 -0.02439419
000300 6d 6e 50 3d f1 73 86 3c ee 62 32 b8 b1 59 00 3d
       0.05088656 0.016412707 -4.2530643e-05 0.031335536
000310 c7 c8 fd bd f3 1a 8f 3c ec a3 8c 3d ab bd 2c bc
       -0.12391811 0.017468905 0.06867203 -0.010543267
000320 5e 55 3d bd 26 b2 b2 3c 60 58 5d bc bb 67 43 bc
       -0.04622399 0.021813463 -0.01350984 -0.011926587
000330 11 18 e2 3b 36 de 31 bd 15 a6 8b 3c 50 ec 7b 3c
       0.0068998416 -0.043424807 0.017046968 0.0153761655
000340 11 bf 5c 3b b7 8d ae bc 44 6f 36 3c 7b 01 66 bb
       0.003368322 -0.02130781 0.011134926 -0.0035096097
000350 4c fc a8 bc ac aa d3 3c 66 e9 84 3c 2d aa 26 3c
       -0.020628117 0.025838219 0.016224574 0.010172409
000360 f9 b1 81 3c 25 7c 6a 3c bb b6 6e 3c fb 1a f1 3b
       0.015831934 0.014311825 0.0145699335 0.0073579527
000370 d7 21 bd 38 0e b5 26 3c 41 9b 81 3c 45 69 6a 3c
       9.0185255e-05 0.010175003 0.015821101 0.014307325
000380 d4 ba 6e 3c de 26 f2 3b 21 e2 67 39 d9 a1 bc bb
       0.0145709105 0.0073898872 0.00022114116 -0.0057565984
000390 55 2c 29 bc d1 12 61 bc db 23 0a bc 6d 5b 4a bd
       -0.010325511 -0.013737396 -0.0084314 -0.049403597
0003a0 b7 30 42 bd 4e b3 84 bb ab 4c 3f 3b 7c c0 4b 3c
       -0.04740974 -0.004049695 0.0029189985 0.012436029
0003b0 cb e8 f2 b9 f8 38 16 3d 97 d9 1f 3d 6f 4c cc bb
       -0.0004633128 0.036675423 0.03902587 -0.0062346975
0003c0 f9 0c 3a 3a 16 19 89 3c ef d7 63 bb 7f d3 0b 3d
       0.000709727 0.016735595 -0.0034766158 0.034137245
0003d0 86 13 28 3d 8c 94 67 3c 0b ad e3 3c 66 22 3e bc
       0.041034244 0.014134537 0.027792474 -0.011604881
0003e0 a6 f5 d4 3c da ab 5d 3c ea 3d 9f 3c 32 ee 2e 39
       0.02599604 0.013529742 0.019438703 0.00016682668
0003f0 1f 0e 5c 3c e3 5f 8b 3c 66 6d 87 3c fb 21 82 ba
       0.013431101 0.017013496 0.016531657 -0.000992834

conv1.lin_l.bias f4 [128]
000000 cc 8e f3 bc e5 bf 23 bd 00 05 8c bd 26 09 ff bc
       -0.029731177 -0.039977927 -0.06836891 -0.031132292
000010 ae 80 43 bd 7f 3b 60 bd 45 cc c7 bc 97 23 93 bc
       -0.04773014 -0.05474424 -0.024389395 -0.017961306
000020 9b 9b 5f bd 51 ad 66 bd 25 c3 b6 bc 81 11 9a bc
       -0.054591756 -0.05631763 -0.022309849 -0.018807175
000030 ed d6 b0 bc 6a e5 fa bc 53 4f 0b bc 07 0e 79 bc
       -0.02158686 -0.030626971 -0.008502799 -0.015201098
000040 58 5b 8b bd be 1b 3a 3c 3b c0 c3 bc 0b ef 37 bd
       -0.06804532 0.011359153 -0.023895374 -0.044905704
000050 db 14 a8 bc 43 41 da bc 60 44 51 bc 23 c7 16 be
       -0.020517757 -0.026642447 -0.0127726495 -0.14724402
000060 23 2e c2 bc 27 9a aa bd 69 c8 f0 bc 13 7d 29 bd
       -0.02370364 -0.083301835 -0.029392438 -0.041379046
000070 c4 f4 24 bd 7b f6 b2 bd a4 1e 27 bd 3b cd 2a bd
       -0.04027249 -0.08738419 -0.040800706 -0.04169963
000080 bc a0 ab bd d5 db 4a bd 4e b9 81 bd 8f f5 ff bc
       -0.08380267 -0.049526054 -0.06334172 -0.031245021
000090 ec 6a 01 bd 5d d8 56 bd e5 80 2e 3d 24 4f 68 bd
       -0.03159611 -0.052452434 0.042603392 -0.0567161
0000a0 49 9e fe bd 80 ea ae bd d5 e8 c5 bc 3b a2 e0 bb
       -0.12432534 -0.08540821 -0.024158875 -0.006855277
0000b0 5f 2b ff bc e8 1f a5 b9 63 f2 3d bd 22 35 8f bd
       -0.03114861 -0.00031495024 -0.046373736 -0.06992556
0000c0 db 03 a9 bc 89 d4 50 bd 88 49 bb bc 94 1e 54 bd
       -0.020631721 -0.05098394 -0.02286221 -0.051786974
0000d0 d5 bd 21 bc b2 f8 f4 bc 13 c2 71 bd d3 30 d2 bc
       -0.00987192 -0.029903743 -0.059022974 -0.025658047
0000e0 84 f2 ce bb e5 1d ad bd 36 be 21 be 95 fc 79 3d
       -0.006315531 -0.084529676 -0.15795216 0.061031897
0000f0 aa 80 19 3d 85 33 11 3d a9 ff 1f 3c 82 b5 05 be
       0.03747622 0.035449523 0.009765544 -0.13057521
000100 a1 cc 9b bd d1 e7 d0 bc 04 c4 06 bd 01 e7 09 bd
       -0.07607389 -0.025501164 -0.03290178 -0.033667568
000110 24 56 b5 bc 8c ba a8 bd 72 44 e1 bd 9b 84 0d bd
       -0.022135802 -0.08238706 -0.10999383 -0.03455029
000120 33 8e 14 3d 47 62 14 bd a0 c6 60 bd 16 82 e0 bd
       0.036268424 -0.036226537 -0.054876924 -0.10962312
000130 03 e9 dc bc 43 f3 6d bd b5 fe 9c bd 55 f2 6c bd
       -0.026966577 -0.05809332 -0.07665769 -0.057848293
000140 e3 40 ad bc 88 43 04 bd 0f 92 1f bc 22 9d 7d bd
       -0.021149104 -0.032290965 -0.009739413 -0.06191743
000150 45 0a 89 bd 5a e8 2c 3c ac 52 7e 3b 7a a5 15 bd
       -0.06691412 0.010553444 0.00388066 -0.036534764
000160 2b 78 b1 bd 88 29 3b bd ec 80 09 bd 0e 66 a6 be
       -0.08665498 -0.045693904 -0.033570215 -0.32499737
000170 55 cd 3e 3c 1e 58 72 bc 72 6c 11 bb db e4 8d bd
       0.011645635 -0.014791517 -0.0022189883 -0.06928416
000180 38 f9 85 3c 93 b3 70 bd f2 31 8c bd b8 83 eb bb
       0.016354188 -0.058765005 -0.06845464 -0.007187333
000190 15 f6 aa bd 38 5b 46 bd f8 69 13 be 16 7e 0c bc
       -0.08347718 -0.048426837 -0.14395893 -0.008574983
0001a0 ce 37 bd bc ff b6 8e bc bd 77 fe bc c2 3d d7 3c
       -0.023097899 -0.017421244 -0.031062955 0.026274566
0001b0 c1 78 30 bd 68 c6 32 bd 68 74 25 bd 93 93 1c bd
       -0.04308391 -0.043646246 -0.040394217 -0.038226675
0001c0 40 32 a6 bd 3c 18 01 bc 53 22 04 bd a6 0e fc bc
       -0.08115053 -0.007879313 -0.032259297 -0.030768704
0001d0 33 0d a4 bd 47 79 76 bd 82 a3 b6 3b 48 56 c7 bd
       -0.0801033 -0.060174253 0.005573691 -0.09733254
0001e0 70 4e b8 bc f5 3f 7c bd 92 2a 1c bd 17 90 60 be
       -0.02249834 -0.06158443 -0.038126536 -0.21929966
0001f0 1c b2 45 bd 4a fa c9 bd c0 ba 7c be 08 df bd bc
       -0.04826556 -0.09862192 -0.24680614 -0.023177639

conv1.lin_r.weight f4 [128, 194]
000000 29 b9 10 3d aa 15 88 bd a4 00 7d 3d 5d ad 22 bc
       0.035332832 -0.06644757 0.06176819 -0.009929028
000010 f5 18 07 3c 8a df e9 bc f1 47 8a 3d dc 7e 24 3c
       0.008245696 -0.028548975 0.06752003 0.010040011
000020 49 a9 a7 3c 40 86 87 3c 2d 25 46 3c a7 6b d7 3c
       0.020466464 0.016543508 0.012093824 0.02629645
000030 3a 0a 1a 3d c4 fe 06 3c be dc 5a 3b 2b b9 bc 3c
       0.03760741 0.008239452 0.0033395733 0.023037514
000040 5f a6 0c 3d 05 a9 4e 3d 85 bc 87 3d 0f 3e ae 3c
       0.03433835 0.05045416 0.06627754 0.021269826
000050 ce d5 c7 3c 09 dd 62 3c a2 4b 86 3c c7 20 32 3c
       0.024393942 0.013846644 0.016393486 0.010872073
000060 70 f8 8a 3c ff a2 d6 bc b9 f7 ae bc 28 d6 62 3c
       0.016964167 -0.02620077 -0.021358358 0.013845004
000070 8e 4e 86 3c 7b 1e 32 3c 7f bd 8a 3c f4 5f eb bc
       0.01639488 0.010871525 0.016936062 -0.028732277
000080 19 fd b1 bc 5d 59 ba 3b 33 08 bb 3b fc 0f 1c 3c
       -0.021727132 0.0056869225 0.0057077645 0.009525295
000090 c4 12 ba 3b 6f 70 82 bb 75 d2 9c ba db 6e 6f bd
       0.0056785066 -0.0039806883 -0.0011964577 -0.05845533
0000a0 eb 3e 43 bd cc 38 e7 3b 53 f1 5c bd d8 56 aa bc
       -0.047667425 0.0070563313 -0.053941082 -0.020793363
0000b0 cc ce 09 bd 2e 92 7f bd a0 25 69 bd 72 06 1e 3c
       -0.033644482 -0.062395267 -0.056920648 0.009645091
0000c0 b1 15 77 bd 35 ee c9 bc 2a b4 d0 bc 74 54 fd 3c
       -0.06032342 -0.024649719 -0.025476534 0.03092406
0000d0 89 96 33 3d 24 e5 43 3b 31 86 dc 3c 45 ef ca 3d
       0.043844733 0.0029891217 0.026919456 0.09908918
0000e0 59 aa 9f 3d 10 af 25 3c 9c 1c d6 3c 1a cc ca 3c
       0.07796163 0.010112539 0.026136689 0.024755526
0000f0 ad 9d d4 3c aa 65 82 3c 5d 31 8e 3c 91 3a 26 3c
       0.025954092 0.015917618 0.017357523 0.010145799
000100 81 87 d4 3c 48 3a cb 3c 34 b7 d7 3c b0 ca 53 3c
       0.02594352 0.024808064 0.026332475 0.012926742
000110 ac 29 80 3c 90 a4 7e 3b a3 1c ea 3a 33 a2 c4 ba
       0.01564487 0.003885541 0.0017861318 -0.0015001952
000120 85 7a 0f bb d4 b1 46 bd 30 35 51 bd be fa d4 ba
       -0.0021893096 -0.048509434 -0.051076114 -0.0016249043
000130 6c 63 b5 bc 21 31 c3 bc 73 05 c0 bc 6a b6 98 3c
       -0.022142135 -0.023827137 -0.023440098 0.01864167
000140 3e 8c a8 3c 7e 3e 25 3c 65 f3 1b bd 2f 3f 2a bd
       0.020574685 0.0100857 -0.038073916 -0.041564163
000150 3b f2 27 bd 81 87 68 bc dd 02 5e bc 2f ad 64 bd
       -0.041002493 -0.014192463 -0.013550487 -0.055829223
000160 fb bb 92 3d 91 70 84 3d 7e 41 fd 3c 0c c2 f3 bc
       0.07164761 0.06466783 0.030915018 -0.029755615
000170 28 4d e1 bc ed 2f b2 3c 95 3f e2 3b 65 5a bb bc
       -0.027502611 0.021751368 0.006904552 -0.022870252
000180 36 6c 9e 3c 1c 3d f9 bc 2c ed eb bc 7a 8f 32 bc
       0.019338708 -0.030424647 -0.028799616 -0.010898465
000190 35 1a 52 bb 84 c4 90 bd 98 c2 03 bc da 01 8b 3d
       -0.0032059078 -0.070687324 -0.008042 0.067874625
0001a0 2e 17 a1 3d b3 62 14 3d 5f 51 eb 3c 0d 0c e8 bc
       0.07865749 0.03622694 0.028725324 -0.028326059
0001b0 c0 32 b7 3c d6 b8 05 bd 91 fa 0e 3c f9 8f d1 bd
       0.022363067 -0.032646976 0.008726732 -0.10232539
0001c0 7c 68 a1 3c f7 15 3a bc 66 3b 04 bd dd ff 3a 3d
       0.019703142 -0.011357776 -0.03228321 0.045654166
0001d0 83 d8 18 3d 99 9c 5b 3d 94 c3 61 3d b5 26 38 bc
       0.037315857 0.05361614 0.05511816 -0.011239697
0001e0 77 b0 2b 3d 53 bf 42 bd 5e d2 81 bd 3d 1f b3 3c
       0.041916337 -0.047545742 -0.063389525 0.021865482
0001f0 6a 93 01 3d 8d 5f 96 3c f2 68 ec 3c 6a c6 41 bd
       0.031634726 0.018356109 0.028858636 -0.047308363
000200 5b 22 8b bc b7 5e f3 bc af f8 f2 3c 2f 21 0c 3d
       -0.016984155 -0.02970825 0.029659597 0.034211334
000210 1b 66 0b 3d 11 30 d3 bc 10 eb b1 bc ab e1 ae bb
       0.034032922 -0.025779756 -0.021718532 -0.0053369603
000220 41 ab 3c 3c 50 bf 8a 3c 04 ff 55 bb 4b 42 98 3d
       0.0115154395 0.016936928 -0.0032653222 0.074345194
000230 43 e8 90 3d dd 89 17 39 20 35 d9 bc 81 4e 3d bd
       0.070755504 0.0001445184 -0.02651459 -0.046217445
000240 0d 50 1c bd 09 8b ce bb 0d 5e 62 bb 80 c9 cc 3b
       -0.03816228 -0.0063031954 -0.0034540922 0.0062496066
000250 3f 5d 88 3d 4c 01 8e 3b 6c 09 3a 3d da fd 38 be
       0.0665841 0.0043336507 0.04541914 -0.18065587
000260 45 5a 39 be 73 3c e0 bd 23 80 c2 3b c2 69 b4 3c
       -0.18100841 -0.1094903 0.0059356852 0.022023086
000270 0e 86 30 bd 1f 11 00 3d 70 8d da 3c 1c 3d c0 3c
       -0.043096595 0.031266328 0.02667877 0.02346664
000280 88 4c a7 3c d0 a0 02 3d 6b 89 98 3d 62 f9 0f 3e
       0.020422235 0.031891644 0.074480854 0.14059976
000290 83 44 07 3e f6 d4 db 3c 72 75 83 3d 62 b0 0e 3d
       0.13209729 0.026834946 0.06418885 0.03483618
0002a0 5a a5 8c bd 1d b1 41 3c 9a 9c 38 bc 1f 1c 04 3c
       -0.06867476 0.011822012 -0.0112678055 0.008063345
0002b0 89 cc 1a 3c ed 95 a3 3c ae 81 3c 3c 4b 15 20 3c
       0.009448179 0.019968951 0.011505527 0.009770702
0002c0 46 ae 0e 3d a8 1b bb 3c 37 7d 0a 3d 54 33 85 3d
       0.03483417 0.022840336 0.03381082 0.06503931
0002d0 bd f5 88 3d 99 b0 0e 3d c4 10 04 3c 10 1c f3 bc
       0.06687496 0.034836385 0.008060638 -0.029676467
0002e0 dc 12 39 3e 60 78 41 3d af da a3 bd e9 49 82 bd
       0.180736 0.04723394 -0.08000695 -0.063617535
0002f0 fd 78 5d bd 6c 38 5a 3d 50 49 29 bc b9 58 1b bd
       -0.05407046 0.053276464 -0.0103324205 -0.03792641
000300 4e a9 06 3c 04 6c 94 3c 55 f4 8f 3c 80 87 f1 bb
       0.008219076 0.018117912 0.017572561 -0.007370889
000310 6e 90 11 be f4 89 6f bc e9 0b 90 3b ef 7d 82 bc
       -0.14215252 -0.014620293 0.004395951 -0.01592919
000320 88 35 83 bc b2 0c 96 3c e0 59 7f 3c 2e 15 cb 3b
       -0.016016737 0.0183166 0.015585393 0.006197593
000330 f4 cf 59 3c 99 a7 12 bd 60 ff 7a bc 87 e1 8d bc
       0.013294209 -0.035804365 -0.015319675 -0.017319454
000340 33 8f b7 bb 9b 0a a0 3c 80 1b 84 3c 7f 93 86 3c
       -0.0056017875 0.019536307 0.016126394 0.016427753
000350 43 f6 0b 3c 20 d7 b3 bd 90 88 ba bd 72 2b ee 3c
       0.0085426 -0.08781266 -0.091080785 0.02907345
000360 69 12 f7 3c 55 c8 99 3c 6c 90 02 3d b5 7a 2d 3c
       0.030160146 0.018772284 0.031876013 0.010588338
000370 9e 9a ac 3c 13 18 ee 3c 18 de f6 3c 63 b5 99 3c
       0.021069821 0.029064214 0.0301352 0.01876325
000380 ed 69 02 3d 1c 4b 2d 3c fa 56 ad 3c c3 5a 5e 3d
       0.0318393 0.0105769895 0.021159638 0.054285776
000390 5d fe 4b 3d d8 40 d7 3b 1c f4 5b 3d 93 a1 09 3d
       0.049803127 0.0065690093 0.053699598 0.033601355
0003a0 32 4e 00 3d fd df 99 bc c6 b6 c9 bb 2b 7b a8 3c
       0.031324573 -0.018783564 -0.0061558215 0.020566544
0003b0 8c 7e 4e bc 93 5f 4b 3c 0a 68 d6 3b 89 e4 b5 bc
       -0.012603413 0.012412923 0.006543164 -0.0222037
0003c0 71 e1 41 bc 7b 34 ec 3c e1 0c 8f bc 46 c3 9f 3c
       -0.011833535 0.028833618 -0.017462196 0.019502293
0003d0 17 85 57 3c 2f 5a c5 3d 0b e3 c7 3d 92 6f bd 3a
       0.01315429 0.09636342 0.09760102 0.0014452806
0003e0 5c 0e d5 3d f3 ef dd bc 0e f3 43 bd 2a e5 c9 3b
       0.104031295 -0.027091956 -0.047839217 0.0061613517
0003f0 f3 83 12 3d 96 64 01 3d df 0b f8 3c 32 5e 35 bd
       0.035770368 0.031590067 0.030279098 -0.044279285

conv2.lin_l.weight f4 [64, 128]
000000 80 83 df 3c a6 c3 8c bc e1 c3 86 bb 46 49 95 3d
       0.027284384 -0.017183136 -0.004112706 0.072893664
000010 6e 47 66 3d 53 6e cb 3c c8 76 37 3d 92 59 fb 39
       0.056220464 0.02483288 0.044791013 0.00047941186
000020 8e 29 34 bd 78 6a 66 3c 5d 8b 70 bc eb 83 7a 3c
       -0.043984942 0.01406347 -0.014681664 0.015290241
000030 38 55 d0 3b 50 2b 68 3c 6d 40 87 3d 6d 91 16 3d
       0.006357815 0.014170483 0.06604085 0.036759783
000040 28 d4 0b 3d a5 d6 18 bc 68 3e 29 3b 3f 8b 76 3d
       0.034137875 -0.009328519 0.002582455 0.06019139
000050 3c a4 2b bd b1 b7 b6 3c 66 c2 04 3c a1 08 21 bd
       -0.041904673 0.022304388 0.008102989 -0.03931487
000060 59 de 88 3d fb 00 bb 3d e8 c1 75 3d 18 4d 85 3c
       0.066830344 0.091310464 0.059999377 0.016272113
000070 19 f7 4e bd f5 45 5a 3d 52 0c 09 ba f5 67 c7 bb
       -0.05052862 0.053289372 -0.0005227971 -0.0060853907
000080 17 d4 d1 3c ea 0b 48 ba 3b 7a 47 3d 34 af 79 3b
       0.025613828 -0.000763117 0.048700552 0.0038098814
000090 cd a8 0e 3d 77 6b a2 3d e9 fb 2f 3d 2a 9e d0 3c
       0.03482895 0.079306535 0.04296485 0.025466044
0000a0 ad ad aa bc 6a f1 cb bc 40 f7 c7 bb 34 ca bf 3c
       -0.020834768 -0.024895389 -0.0061024725 0.023411848
0000b0 47 bb fc 3b aa 0f 25 3d 2d 2d 69 3d b9 df 0f 3d
       0.007712755 0.04029814 0.05692785 0.035125468
0000c0 4f 70 9a 3c e2 6c 26 3d 22 2d 5d bc 8c 4b 3f 3d
       0.018852381 0.040631182 -0.01349953 0.046702906
0000d0 e1 af 9e 3d c5 15 0d 3d 29 2c 15 bc 8b a7 d1 bb
       0.0774839 0.03444459 -0.009104767 -0.0063981465
0000e0 ca 30 3e 39 6e 7f 7a 3d 4c ec 87 bc ff 9c 01 bd
       0.00018137987 0.061156683 -0.016592167 -0.031643864
0000f0 24 66 c5 bc a4 9d 84 bc 2c dd c6 3a f4 ba 75 bc
       -0.024096556 -0.01618845 0.0015172116 -0.014998186
000100 f0 61 41 bd 24 36 81 3d 5a 71 fb bc 8a 88 0e 3d
       -0.04721254 0.06309155 -0.030693699 0.034798183
000110 0d 58 9a 3d 87 43 4e bc 2d 68 79 3d 6b d0 64 3c
       0.075363256 -0.012589342 0.060890365 0.013965706
000120 60 b9 20 bd 11 a2 76 3d 46 36 9c bc a9 f4 56 bc
       -0.039239287 0.060213152 -0.019068848 -0.013119855
000130 6a f3 09 3d da 8e 98 3d df 64 4a 3d e7 64 88 3c
       0.033679403 0.07449122 0.049412604 0.016649676
000140 95 d1 1a 3c d3 cc 7d 3c a3 c9 a6 3c ed e1 28 3c
       0.009449382 0.015490728 0.02035982 0.010307771
000150 5f e5 3f 3d 5a a2 ac 3c c1 07 a9 bc 72 ae 60 3d
       0.046849605 0.021073509 -0.02063358 0.054853864
000160 60 c5 b3 3c d4 da dd 3c 5f 58 22 bc 22 03 26 bc
       0.021944702 0.027081884 -0.009908765 -0.010132583
000170 50 46 15 3c 64 dc 4a bc 62 af 01 3d f6 e4 3b 3d
       0.009111002 -0.012381647 0.0316614 0.04587265
000180 85 a8 70 3c 9c 00 b7 3c 63 86 ff 3c f4 63 82 3c
       0.014688616 0.022339158 0.03119201 0.015916802
000190 34 ca 81 3d 66 87 d5 3c 7a 7d ad bc 18 61 3e 3c
       0.06337395 0.02606554 -0.021177996 0.011619829
0001a0 41 c5 09 3d 08 f6 9d bc f8 cb ab 3c 9a dc 92 3b
       0.03363538 -0.019282356 0.020971283 0.004481864
0001b0 a2 80 09 3d 63 80 d6 bb 47 12 13 3d 52 f7 00 3d
       0.03356994 -0.0065460666 0.035906103 0.031485863
0001c0 df 67 3e bd 9a 31 11 bc ac d8 d8 bc 6a 28 79 3d
       -0.046485778 -0.008861924 -0.026470505 0.060829557
0001d0 98 31 f4 3c 3a 84 7d 3c 55 17 61 3c c2 4d 78 3d
       0.029808804 0.01547342 0.013738473 0.06062103
0001e0 39 ca 20 3b 3b d4 0e 3d 8d 81 13 3d 01 8e 97 bc
       0.0024534597 0.034870367 0.03601222 -0.01850033
0001f0 90 f1 14 3d 25 35 90 bb 44 6c 13 bc 28 b4 1d 3c
       0.036363184 -0.0044008666 -0.0089979805 0.009625472
000200 eb bd 59 bc d7 12 ff bc 6d 31 8a bb b4 ed 80 bc
       -0.013289909 -0.031136913 -0.004217318 -0.015738346
000210 cc a0 26 bb 9e f7 79 b9 cc d1 a0 bc 99 f3 b1 bc
       -0.0025425432 -0.00023838735 -0.019631289 -0.021722602
000220 3d ac e2 ba cd 4b 58 bd 5f b5 71 bc ea 84 a3 bc
       -0.0017293763 -0.052806664 -0.014752715 -0.01996084
000230 29 9d 2b bb f7 17 03 bd 76 26 f9 bc 36 65 03 bc
       -0.0026186204 -0.032005277 -0.030413847 -0.008019736
000240 4a 5f 7f bb a6 ba da bb 32 68 9a 3a 36 b5 51 bb
       -0.0038966709 -0.0066750823 0.001178032 -0.003199888
000250 b7 fe dd bb 43 a7 7a bb 04 90 91 bb 3b 73 82 bc
       -0.006774749 -0.0038246668 -0.004442217 -0.015924087
000260 4a d4 24 3c 07 7d c7 bc 47 94 95 b9 35 c4 c5 bc
       0.010060379 -0.02435161 -0.0002852997 -0.02414141
000270 48 9e a0 bc ea f3 3a bb 58 f1 bd bb a1 b3 85 bb
       -0.019606724 -0.0028526732 -0.0057965927 -0.0040802513
000280 ac 1c 0f bd 8d 93 58 bc 7d d7 54 bc 4d 51 99 bb
       -0.034939453 -0.013218773 -0.01299083 -0.0046788813
000290 28 95 b8 bb fd 23 54 bd cc a1 70 bc f9 71 85 bc
       -0.005633015 -0.051792134 -0.014687013 -0.016289698
0002a0 08 63 ae bc 8d ae c4 b9 f5 a9 0d ba 8b 7e f1 bc
       -0.021287456 -0.00037514084 -0.0005404049 -0.029479286
0002b0 54 76 36 bb 25 cc 05 bc 06 df 42 bb 14 81 37 bc
       -0.0027841525 -0.008166348 -0.0029734983 -0.011200208
0002c0 8f 78 95 bc 94 83 98 3a 80 5e c1 bc cb 15 57 bb
       -0.018245963 0.0011635893 -0.023604631 -0.0032819386
0002d0 a0 61 0d bc a0 5f 3a bc f3 36 09 bc d5 17 cb bb
       -0.008629233 -0.011375338 -0.008374917 -0.0061979094
0002e0 62 43 a5 3c d4 2c c5 bc 5d ef 48 bc 74 81 c9 bc
       0.020173732 -0.024069227 -0.0122641 -0.02459786
0002f0 4c 6b 04 3a 30 8f e3 bc b7 2b f3 bc 06 2d c9 bc
       0.0005051389 -0.027778238 -0.02968393 -0.024557602
000300 c2 cd b7 bc 6a be 66 bc 1c b7 cc ba ac 49 af bc
       -0.02243698 -0.014083484 -0.0015618536 -0.021397434
000310 82 cc 88 3b 45 2a d2 ba 04 7b 8d bc 0f d2 b1 3a
       0.00417477 -0.0016034326 -0.017270572 0.0013566631
000320 ab be 9d bb c8 b2 0b 3b 1f 13 86 bb d4 4e 8a ba
       -0.004813989 0.0021316279 -0.004091635 -0.0010552057
000330 98 e0 65 bb 2e 6d e2 bb 31 33 4a bc bf fd 01 bd
       -0.0035076495 -0.006909988 -0.012341307 -0.03173613
000340 3d 56 16 bc 66 6d da bb 3e f6 9e bc 19 14 77 bb
       -0.009175834 -0.0066658733 -0.019404527 -0.0037701188
000350 b3 7b f6 bb ef bf 4a bc c6 59 4c bc 87 ca c9 bc
       -0.0075220703 -0.012374862 -0.0124725755 -0.024632705
000360 b1 a7 95 bd 6b 01 62 bc ca d5 ca ba 3c 35 8f bc
       -0.07307375 -0.013794283 -0.0015475091 -0.017481439
000370 9c e0 0c bc 7e 2f 50 b8 8a b1 bb bc 2b 31 40 bd
       -0.008598473 -4.9635295e-05 -0.022911806 -0.04692189
000380 82 1b b6 bb f0 3b af 3b 45 9b 33 bb 55 d7 8f bc
       -0.0055574784 0.0053477213 -0.002740578 -0.017558733
000390 5f d8 fa ba 76 fd a9 bc c0 f6 6d bc 17 a5 68 ba
       -0.001913797 -0.020750742 -0.014524162 -0.0008874698
0003a0 7b 54 88 39 e1 e1 07 bb f8 0d ec bb e6 20 e5 bb
       0.00026002884 -0.0020734 -0.0072038136 -0.006992447
0003b0 b6 e6 5b bc 88 6c 05 bc 92 13 2b 3b bb d2 92 ba
       -0.013421705 -0.008143552 0.0026104194 -0.0011201719
0003c0 79 ac 3e bb b6 73 3e b9 6c 0d 4e bc 2b 7d 07 bd
       -0.00290945 -0.00018162918 -0.012576442 -0.033078354
0003d0 c7 db 73 bb 31 53 06 bd da f9 8a bc 63 52 99 bc
       -0.0037209855 -0.03279418 -0.016964842 -0.018716043
0003e0 03 29 84 bb d4 dc 4e bc 6b d7 d8 bb 8a 90 80 bc
       -0.0040332093 -0.012625892 -0.0066174767 -0.015693922
0003f0 4f aa 21 bc 29 cc 00 bd 36 3f 37 3a ee 7c 01 ba
       -0.009867265 -0.031444702 0.0006990315 -0.00049395754

conv2.lin_l.bias f4 [64]
000000 1a d9 ed bc d6 af 91 bd 5e 4a 88 bd 4f cf 09 3c
       -0.029034186 -0.07113616 -0.066548094 0.008411243
000010 19 52 1a bd 54 d1 3a 3c 5a df 7c bd b5 5d d4 bc
       -0.03767595 0.011402447 -0.061736442 -0.02592359
000020 b0 c0 90 3c 76 25 14 bc 95 e0 60 bd 97 65 48 bd
       0.017670006 -0.0090421345 -0.054901678 -0.04892501
000030 2c 66 1a bd 8f 75 57 ba 82 46 be bc 9a f1 f3 b9
       -0.037695095 -0.0008219117 -0.02322698 -0.0004652858
000040 08 21 93 b9 fd 54 9a bd c7 a2 0f 3c 93 97 cf bc
       -0.00028062635 -0.075357415 0.0087668365 -0.02534083
000050 7c fb 98 bd fa 3f 15 3e cd f5 a4 bb 2c b9 20 bd
       -0.07469842 0.14575186 -0.0050341845 -0.039239094
000060 7e ba fd bc a5 a3 2c bb 9e 90 87 3a e9 3f 7d bc
       -0.030972715 -0.0026342657 0.0010342782 -0.015457132
000070 de b2 82 3b d5 e5 26 bc 11 9e 18 3c 98 f8 dd bb
       0.003988608 -0.010186632 0.00931503 -0.0067740194
000080 ca 1a 04 3f 69 14 c4 3b a8 71 8c 3e 8f f4 3c bd
       0.51603377 0.0059838784 0.27430463 -0.046131667
000090 e7 3d 9d bd 9e ef 73 bd 04 2e aa bd 4f 18 1e bb
       -0.076778226 -0.05955469 -0.08309558 -0.0024123376
0000a0 a3 0b 5b bd 5a f6 84 bb a3 3c be 3b 4a b7 f1 3a
       -0.053477895 -0.0040576877 0.0058055683 0.0018441465
0000b0 fa 40 b0 3c 26 1e 95 3e 5c e3 5a bc 52 d3 26 bd
       0.021515358 0.29124564 -0.013359871 -0.040728875
0000c0 41 30 6d bd a6 48 c5 bc dd c7 c1 bd 30 ce 0f bb
       -0.057907347 -0.024082493 -0.09461949 -0.0021942966
0000d0 0b 9a 0a bd bc 25 8a bd d3 e4 11 bc 39 51 2d bc
       -0.033838313 -0.067454785 -0.008904654 -0.010578447
0000e0 cc 79 b3 b9 87 57 18 bc dd 0c 14 bc f6 ae 07 bd
       -0.00034232286 -0.009298212 -0.00903627 -0.03312584
0000f0 ce 5f b5 bb 4e 00 58 bd eb fa a3 3c 18 f1 20 bd
       -0.0055351024 -0.052734666 0.020017108 -0.039292425

conv2.lin_r.weight f4 [64, 128]
000000 b3 bb ae 3d cf ea a3 3d 70 ad b7 3c 78 bc 36 bd
       0.085318945 0.080037706 0.022421569 -0.04461333
000010 5a 22 74 3d 0f 47 23 3d 34 3f 0f 3d 65 12 8f 3d
       0.059603073 0.03986269 0.034972385 0.0698593
000020 58 7b 67 bd c3 ec 4b bd 6c dc a9 3d 26 6d 4d 3c
       -0.056514114 -0.04978634 0.08293995 0.01253823
000030 ce 86 aa 3d 7e 64 f6 3c cd 99 26 3d ee 09 3d 3c
       0.08326493 0.030077215 0.04067402 0.011538012
000040 df b6 2b 3d 51 a4 99 3d 66 ea ae 3d 74 dc 0e 3c
       0.041922446 0.07502044 0.08540802 0.008719552
000050 69 a7 ee 3c 13 f6 42 3c 8d d4 0a 3d 53 2f d9 bc
       0.029132562 0.011899489 0.03389411 -0.026511824
000060 b9 a6 65 3d 84 2b 91 3c 30 08 28 3d 9b a9 26 3c
       0.056067202 0.017720945 0.041023433 0.010172273
000070 32 0c cf 3c 28 43 49 3d 57 6f 81 3d 02 c0 a1 3c
       0.02527437 0.04913631 0.063200645 0.019744877
000080 59 54 b2 3d 4f e5 63 3d e2 77 54 3d 65 34 c5 3d
       0.08707494 0.055638608 0.05187214 0.09629134
000090 ac 03 f1 3c 30 94 94 3d 83 7b 47 3d 3e a6 ab 3d
       0.029420696 0.07254827 0.048701774 0.083813176
0000a0 1a dc 1b bd 90 e6 31 bd aa 1a ef 3c 1e f5 b6 bc
       -0.038051702 -0.043432772 0.02918752 -0.022333678
0000b0 ce d7 01 3d ff c1 38 3d 81 02 19 bd 5f 44 1c 3d
       0.031699948 0.045106884 -0.037355904 0.03815114
0000c0 b5 a9 3c 3d f0 4d 64 3d ea 4f 44 bd 4b ce e2 3d
       0.046060283 0.05573839 -0.047927774 0.110745035
0000d0 25 f0 6c 3d 1f 05 4e 3c 48 ba 36 3d ae fa ed 3c
       0.057846207 0.012574463 0.044611245 0.029050197
0000e0 c3 51 96 3d b3 f0 59 3d f5 8d 42 bd a9 22 b1 3d
       0.073398136 0.053208064 -0.047498662 0.08649189
0000f0 91 a7 77 3d 0c e5 f2 3d 8a f2 df 3d 74 29 34 bd
       0.06046254 0.118600935 0.109349325 -0.043984845
000100 11 2d bd bc 7c e3 86 3b 61 2f 99 3c d6 c5 a2 3d
       -0.023092778 0.0041164737 0.01869935 0.079478905
000110 0f 4d 5d 3d 5a 89 bd bc ac 71 18 bd 09 75 85 3d
       0.054028567 -0.023136783 -0.03721778 0.06516463
000120 97 46 85 3c 49 16 9d 3d 4e 69 f0 bc 0a 77 92 3c
       0.016269011 0.07670266 -0.029347088 0.017879028
000130 a3 1f ac 3c 12 e1 1c 3d b8 71 9a 3d 23 a8 c6 3d
       0.02101118 0.03830058 0.075412214 0.09700038
000140 53 e5 86 3d 45 9e 28 3d a9 5c d1 3d e9 06 41 3d
       0.06586709 0.041166563 0.10222752 0.04712573
000150 d4 9f 38 3d 7a 9f 9e 3d 7c 15 b4 3c 10 e9 70 3d
       0.0450743 0.077452615 0.0219829 0.058816016
000160 f9 65 1a 3d a6 b4 83 3d 0c 39 b3 3d 1e fb 8a bd
       0.037694905 0.0643094 0.08751115 -0.06786178
000170 35 56 cf 3d 84 3b 9c 3c 3f 77 87 3d ef 49 cb 3c
       0.101238646 0.019071348 0.06614541 0.024815528
000180 29 55 8c 3d fa bb 82 3d da b9 72 3d 35 11 2e 3d
       0.068521805 0.0638351 0.059259273 0.04249688
000190 4f 9f 0f bc 60 bf 18 3d ba c7 08 bd 0c 59 88 3d
       -0.0087660095 0.037291884 -0.0333936 0.06657609
0001a0 21 ef 65 3d d6 3b ee 3c 2e 59 67 3d 58 9e 88 3d
       0.056136254 0.029081266 0.056481533 0.06670827
0001b0 5a 03 c7 3c 22 9b 52 3d 17 1e 13 3d d1 5e 8e 3d
       0.02429359 0.051417477 0.035917368 0.069516785
0001c0 8e 3f 2f bd 89 e3 2a 3c fa 8f f3 3c 42 a5 83 3d
       -0.04278522 0.010430225 0.02973174 0.06428005
0001d0 40 a8 55 3c b8 9f 7c 3d 49 59 fc 3c 5a d7 07 3d
       0.013040602 0.061675757 0.030804293 0.03316436
0001e0 11 37 0c 3d d5 1b d2 3c 7a c8 27 3d 57 c5 84 bd
       0.034232203 0.025648037 0.040962674 -0.06482952
0001f0 b7 cf 7d 3d e6 f3 93 bd 98 29 58 bd 08 37 6b 3d
       0.06196567 -0.07224254 -0.052774042 0.05742553
000200 06 3c ea bc 36 c8 a2 ba 00 b1 98 3a bc ab 8e bb
       -0.028593075 -0.0012419287 0.001164943 -0.0043539684
000210 6e e6 b6 ba db b5 8d bb d6 30 1a bc e3 bf e0 39
       -0.0013954171 -0.0043246574 -0.009411057 0.00042867576
000220 57 19 5b bb 8b b6 a2 bb ed 83 80 bd 6e 17 2e bd
       -0.0033431852 -0.0049656085 -0.06275163 -0.042502813
000230 36 07 1c 3a 97 52 75 bb 90 5a 16 bd e7 92 0e bb
       0.0005952002 -0.003743326 -0.03670746 -0.002175504
000240 cc bb 7f ba 2e 7e 70 bb 49 97 6e bd 61 b9 a1 bb
       -0.0009755462 -0.0036696303 -0.058249746 -0.004935429
000250 cf ab 58 bb c8 82 a2 bb 78 28 2d bb 9e ff bd bc
       -0.003306139 -0.004959438 -0.0026421826 -0.023193177
000260 99 81 0a bc f4 b0 8d bc 95 07 b6 ba 1a 5b 4b bb
       -0.00845375 -0.017296292 -0.0013887758 -0.0031029643
000270 96 70 f4 bb 48 84 18 bc 6e e9 d8 39 20 87 35 bc
       -0.0074597104 -0.009308882 0.0004137265 -0.01107958
000280 2e bd 21 3a a2 f0 47 bc ad b0 34 3a a0 0f 05 bd
       0.00061698526 -0.012203367 0.0006892782 -0.032485604
000290 8d dd 88 bb 14 a3 7a bd 90 95 27 3b 6f 85 ec bb
       -0.0041768015 -0.06119068 0.0025571324 -0.007218055
0002a0 82 59 09 bc cc 0a 25 ba 88 25 c9 b9 7d 08 b8 ba
       -0.008383157 -0.00062958593 -0.0003836567 -0.0014040616
0002b0 b8 b5 9b 3a b8 20 23 bc e5 b9 74 bb ce c9 55 bb
       0.0011879718 -0.009956531 -0.0037342247 -0.0032621506
0002c0 c1 75 8a bc 6f 5b a3 3b 7a 23 8d bc 9c f2 66 bc
       -0.016901853 0.004985265 -0.01722883 -0.0140959285
0002d0 34 1c 61 bb d9 d4 45 bb a5 de 69 bd 2f 00 15 3b
       -0.0034349086 -0.0030186682 -0.057097096 0.0022735705
0002e0 a8 a1 5b bc e3 d6 2d bc a3 ae 62 bd d3 fc e8 bc
       -0.013405241 -0.010610315 -0.055342328 -0.028440868
0002f0 16 61 56 b9 05 bd 9f bd 01 d5 a1 bb 17 70 af bb
       -0.00020444798 -0.077997245 -0.004938722 -0.0053539383
000300 4f b0 f8 bb 96 73 97 39 82 da 48 bc 4a f8 1d 3b
       -0.007589377 0.00028887083 -0.012259128 0.002410429
000310 a4 35 dd bb da 91 dd bb c6 cb d6 b9 78 e6 0f bc
       -0.006750779 -0.0067617716 -0.00040969084 -0.008782975
000320 99 7b f2 bb a7 b1 50 bd 5a f9 d4 ba 21 bd 6d bb
       -0.007399988 -0.050950672 -0.0016248629 -0.003627606
000330 86 4a 03 bc 44 9f ed 3b 15 f9 99 bc 50 dc ba bc
       -0.008013373 0.007251652 -0.01879553 -0.022810131
000340 51 c9 57 bb 0b 03 ec bb 89 2e 8e bc 9d 1b d7 bb
       -0.003292639 -0.007202511 -0.017356174 -0.006564571
000350 34 5e fd bb 76 fa 7b ba c9 66 d5 bc 96 c3 3d 3c
       -0.007732177 -0.0009612212 -0.026049988 0.011582276
000360 b4 aa 38 ba a8 81 9d 3a 2e a9 88 ba 31 93 33 bb
       -0.000704448 0.001201679 -0.0010426396 -0.0027400965
000370 4e 81 0f bc 36 b4 8e bc 95 62 3f 3c f2 15 1f bb
       -0.008758856 -0.017419916 0.011681219 -0.0024274555
000380 76 c1 1b bb ff a8 78 3b d9 f9 12 3b ec ff 02 bd
       -0.0023766435 0.0037942526 0.0022426753 -0.031982347
000390 c4 20 20 bd d2 fd 57 bc 4c 5f 25 bb df 54 02 bb
       -0.039093748 -0.013183074 -0.0025233803 -0.0019887013
0003a0 b9 2c 4e bb 27 f7 66 ba 2a aa 6a bb 70 76 54 3a
       -0.0031459762 -0.0008810632 -0.0035806992 0.0008104807
0003b0 f3 7d 46 3a b9 9b 1c bb 72 fe 0a bb 1b 2c 2e bc
       0.00075718685 -0.002389653 -0.002120879 -0.010630633
0003c0 ee 78 20 bb 6b bb fa ba 3b 39 15 bc e9 8a fe bb
       -0.0024486142 -0.0019129341 -0.009107883 -0.007768024
0003d0 cd df 15 bd 25 e3 a7 bc b0 a8 44 bc f4 e1 b0 3a
       -0.036590386 -0.020494053 -0.012003109 0.0013495074
0003e0 85 ed aa bc 46 46 0a bb e3 b9 1f bc cc 1a 1b bd
       -0.020865211 -0.0021099015 -0.009748909 -0.037867352
0003f0 08 0f 6d ba 77 94 51 bc 02 c4 16 ba c7 01 a0 bb
       -0.00090430724 -0.012791744 -0.00057512533 -0.0048830244

classifier.weight f4 [2, 64]
000000 bf 76 42 3e f1 44 a6 bc 11 05 ef 3d f7 57 28 3e
       0.1899061 -0.020296546 0.11670888 0.16439806
000010 1c 52 9c 3e 6c 5c 57 3d 2c 90 14 3d a9 ea 73 3d
       0.30531394 0.052578375 0.036270306 0.05954996
000020 e5 fd cc 3d c5 dc c0 bc c6 9f c5 3e 4b a5 c3 bc
       0.10009364 -0.023542771 0.3859846 -0.023882529
000030 81 20 9f 3e a6 06 26 3e 7e 52 aa 3e e7 27 40 3e
       0.31079486 0.16213474 0.33266062 0.18765222
000040 bb 3c 1b 3e 7f de 5b 3d f0 aa 3e 3e be a6 0d 3e
       0.15159886 0.053678986 0.18619895 0.13833138
000050 de 61 8a bc 2e 9a 80 be 85 99 8a bc b5 38 de 3e
       -0.01689237 -0.2511763 -0.016918907 0.4340264
000060 9f a6 c0 bc 96 9b f2 3d 87 ec 2c 3e f7 f0 cc bc
       -0.023516951 0.11846082 0.16887103 -0.025017245
000070 c2 0b 9f 3d d6 d7 85 3e c2 f3 9d 3c 67 2d ad bc
       0.077659145 0.26141232 0.019281272 -0.021139814
000080 4e f3 1a bf ab c4 a8 3d 9e 03 bb be ee 1f 19 ba
       -0.60527503 0.082406364 -0.36526197 -0.0005841245
000090 6d da 2f 3a e8 90 c6 bc b4 c8 42 bd a0 48 57 bd
       0.0006708268 -0.024239019 -0.047554687 -0.052559495
0000a0 60 94 19 bc 46 c6 0a 3d 3e 36 46 3e 5c cb 86 3d
       -0.009373754 0.033880495 0.19356629 0.065817565
0000b0 69 99 31 3e d5 42 af be 58 ff 86 3e 59 d5 8b bc
       0.17343678 -0.34230676 0.26366687 -0.017069506
0000c0 19 f5 9b 3d 68 bd 29 3e 80 08 e5 3c 43 56 85 3c
       0.07615108 0.16576159 0.027958155 0.016276484
0000d0 03 7c ac 3e e8 26 9e bc e3 7f 00 3d bb 14 61 3e
       0.33688363 -0.019305661 0.031371962 0.21980564
0000e0 22 48 eb ba 01 99 83 3d a5 3b e7 3d 85 85 9a 3e
       -0.0017950574 0.064256676 0.11290673 0.30179992
0000f0 e3 cb 62 3d 56 a6 d4 3e b2 0a 09 3e 1d 05 38 bb
       0.055370223 0.41533154 0.13382986 -0.002807922
000100 e3 ff e5 bd 58 97 91 bc 1f 79 55 3d 36 67 bb bd
       -0.11230447 -0.017772362 0.052117463 -0.09150545
000110 6f 31 5e be b3 da 62 be 31 65 52 3d 25 38 54 3b
       -0.21698545 -0.2215374 0.051366035 0.0032382098
000120 7f 5f 82 bd a2 e6 4a bd 1c a9 bc be 9b 0b 95 3c
       -0.06365871 -0.049536355 -0.3684777 0.01819401
000130 80 07 7a be 3f 64 11 be 37 93 a3 be 6a 06 d3 bd
       -0.24416924 -0.14198397 -0.31948254 -0.10303958
000140 9f a9 05 be 72 f8 82 bb 4c c1 6b be 9f 5a 4a be
       -0.13052987 -0.003996902 -0.23022956 -0.19761132
000150 0b 4a 16 3d fe b4 8b 3e 37 74 77 bc 6a 04 b9 be
       0.036691707 0.27286524 -0.015103391 -0.3613618
000160 21 2c 27 bc f0 f1 28 3d 26 78 4f be f3 75 15 3b
       -0.010203392 0.041246355 -0.20260677 0.00228059
000170 1e 06 14 be 37 12 77 bd 98 31 57 be b1 78 30 bd
       -0.14455459 -0.060320105 -0.21015012 -0.04308385
000180 15 0a 05 3f 75 ab 98 bd da e5 c2 3e 4b 08 9b bd
       0.5196851 -0.07454578 0.38065988 -0.07569941
000190 9e e9 41 bd 8a b2 79 3c 90 67 a4 3c 94 d8 ae bd
       -0.047341935 0.015240321 0.020068914 -0.08537403
0001a0 22 02 85 3c c2 64 85 bd 3f ef 58 be 54 33 39 be
       0.016236369 -0.06513359 -0.21185015 -0.18085986
0001b0 09 42 19 bd c9 8a b3 3e 79 0d 05 be e3 76 59 3c
       -0.03741649 0.35066822 -0.1299342 0.013272974
0001c0 5c d0 7a 3d f6 01 7c bd 6d a8 3e 3d 29 22 f0 3c
       0.061233863 -0.061525308 0.046547342 0.029313164
0001d0 01 0f 8b be 5b 87 c8 bd a1 5a 43 bd 3a c5 8e bd
       -0.27159885 -0.09791442 -0.047693852 -0.06971212
0001e0 69 b7 cc bb da ff d5 bc b5 52 7b be f7 ca 3d be
       -0.00624745 -0.026122976 -0.24543269 -0.18534456
0001f0 9e f5 1c be 4b 0a 02 bf 48 da 18 be 67 3b f7 bb
       -0.1532807 -0.50796956 -0.14927018 -0.007544923

classifier.bias f4 [2]
000000 9d 1a 82 be cd 70 bf 3e
       -0.2541093 0.37390748
