models/engineered_weight_gat_model.pt (torch, 272592 bytes, 10 tensors)

conv1.att_src f4 [1, 4, 64]
000000 66 27 b6 3c e5 32 57 bc db cb b2 bd 1b ed 97 bd
       0.022235584 -0.013134693 -0.087302886 -0.07418271
000010 ab e7 89 3d 1d 45 01 be 32 2d 96 bd d5 1f f0 bd
       0.0673364 -0.12624021 -0.07332839 -0.117248215
000020 bf 4f ed bc ec 7c 80 bc 8a 99 e6 3d 9d 3e 94 3d
       -0.02896869 -0.015684567 0.11259754 0.07238505
000030 fc 5a 56 bd 00 25 bd 3d 29 50 da 3b 73 bb cd 3d
       -0.052332863 0.09235573 0.006662388 0.10045519
000040 a1 22 ee bd dd f8 a0 3c 4c d1 c2 bd 1f b2 34 be
       -0.11627699 0.019649917 -0.095125765 -0.17646073
000050 02 70 bb bd ca 0d be bb 4d d1 d7 bc 79 cb 46 3d
       -0.09152223 -0.0057999836 -0.02634492 0.04853389
000060 93 c8 80 3d 7a 6b d0 bc 48 2c 03 3d 90 0f 4f 3d
       0.062882565 -0.025441874 0.03202465 0.05055195
000070 40 8c 53 3d c7 37 2b 3d be e3 af bd 33 dc 01 3d
       0.051647425 0.04180124 -0.0858836 0.03170414
000080 8f b4 b5 3d bb 97 c1 3d 18 9f ab 3d 49 f2 02 3e
       0.088723294 0.094527684 0.08379954 0.12787737
000090 01 77 e0 bc e3 8d 7e bb 67 ec 16 3d 61 81 7c bc
       -0.027400495 -0.0038841895 0.036846545 -0.015411706
0000a0 5d 37 a3 3d 35 e9 e1 bd 32 6f 63 be 45 3a c9 bb
       0.07969544 -0.11030809 -0.22210386 -0.0061409795
0000b0 5e 49 1c 3e 9f f6 0a be cb a8 68 3d bf 42 04 3e
       0.15262362 -0.13570641 0.0568016 0.12916087
0000c0 9e 05 f1 bd 6a f3 08 bd 36 dc 27 3e e1 2c bb 3d
       -0.117686495 -0.033435263 0.16392598 0.09139419
0000d0 b9 42 58 bc b9 e0 29 be 54 7b 67 bd 51 c3 a9 ba
       -0.013199502 -0.16589631 -0.0565141 -0.0012951886
0000e0 11 d0 e0 bd f7 43 f7 3c 29 66 85 bd f1 7e 56 3e
       -0.109771855 0.030183775 -0.06513626 0.20946862
0000f0 1e 8b bd bd df 9e 10 bd 70 54 14 be 75 ae 58 3e
       -0.0925505 -0.03530776 -0.14485335 0.211603
000100 d6 33 4d bd df b5 97 3d 7e 0e 86 bd eb 2f 9d 3d
       -0.050098263 0.07407736 -0.06545733 0.07675155
000110 40 21 05 3e 12 e7 87 b7 9d cd 11 be 07 18 bb 3d
       0.13000965 -1.6200855e-05 -0.14238591 0.09135442
000120 15 1a c5 bc 73 05 73 3d 77 31 ea 3d 3e 44 2a 3c
       -0.024060288 0.05933137 0.11435216 0.010392247
000130 48 12 52 3d df fd 10 bc 02 cd b7 bd 1e e7 02 3c
       0.051286966 -0.00884959 -0.08974649 0.007989673
000140 e8 c0 ef 3d 61 02 82 bd 46 aa d2 bd e6 1a 15 bd
       0.11706716 -0.0634811 -0.10286383 -0.036402605
000150 4e 2c 6f 3b 20 2c f7 bb 62 d1 3e 3c 17 8e 1d 3e
       0.0036494914 -0.007543102 0.0116466 0.15386234
000160 6b 36 3e be 3a 94 74 3d 81 50 30 3e 21 98 64 3d
       -0.18575446 0.059711672 0.1721821 0.055809144
000170 79 93 fb 3c c2 fc 5c bd 8c ac cc bd a0 cc ee 3b
       0.030709969 -0.053951986 -0.09993848 0.007287577
000180 36 34 b6 bd 96 b4 fd 3b 57 16 37 bd 07 60 7d 3a
       -0.08896677 0.007742475 -0.04469904 0.0009665493
000190 88 fe 9c 3d ce 3e 92 bd a0 d6 00 3b 9a 9d 85 bd
       0.076657355 -0.07140885 0.0019659176 -0.06524201
0001a0 56 54 69 3e 94 7a 11 3c 8d 6c b6 3b cd 3e 0e bd
       0.22786078 0.008879323 0.0055671395 -0.03472786
0001b0 5f df ce 3c 83 78 ee 3d cb 0c 53 3a 7d c5 70 bd
       0.025252996 0.116440795 0.00080509175 -0.05878209
0001c0 ae 37 7b 3e 00 13 15 3d cf 81 0f 3e 3b d3 d1 bd
       0.24532959 0.036395073 0.14014362 -0.10245367
0001d0 93 04 dc bd e2 41 6a bc fb 14 e5 3d 94 0a 40 3e
       -0.1074306 -0.014297934 0.11185642 0.18754035
0001e0 69 2f 25 3d 34 84 5e bd d8 49 db bd db cc f9 bd
       0.040328417 -0.054325297 -0.10707444 -0.12197276
0001f0 bb f5 17 3d db 8a 82 bd 50 f6 b4 bd 7a 93 93 3d
       0.03709958 -0.06374141 -0.08836043 0.07205863
000200 b8 ff 92 bc 79 21 c1 bd 89 ba b0 3c ff c9 86 bd
       -0.017944202 -0.094302125 0.021573322 -0.065814964
000210 e7 a5 db bc a6 05 44 bd dd 79 24 3e cf 65 6a 3c
       -0.026812507 -0.04785695 0.16062112 0.0143065
000220 5e d9 30 3c 30 29 f6 3c 58 55 af 3c f5 16 a4 bd
       0.010794012 0.030048937 0.021403 -0.08012191
000230 de 04 ff 3d 8d 8f 5e bd 3e e2 8e 3d ea c8 11 3e
       0.124521 -0.05433612 0.06976746 0.14236799
000240 62 00 ed bc a3 41 cf bd f0 fa 43 bc 31 72 00 bd
       -0.028930847 -0.10119941 -0.011961684 -0.0313589
000250 cd 68 8a bd 1c d0 b1 bd c4 a0 5d bb 4a 52 59 bd
       -0.067582704 -0.08682272 -0.0033817748 -0.053056993
000260 ea f1 a7 bb a3 e8 85 ba 02 fe 10 3c a2 83 fe bc
       -0.005125274 -0.0010216426 0.008849623 -0.031068627
000270 11 b5 4a bd 3f 41 58 bd fe f4 63 bd c0 17 22 be
       -0.049489085 -0.0527966 -0.055653565 -0.15829372
000280 33 64 60 bb 55 05 eb bd 76 ee 7e bd e0 a8 ce 3d
       -0.003423941 -0.114756264 -0.062239133 0.10090804
000290 05 43 c2 bd aa cd 47 bd bd e5 b8 3c 8b 06 fb ba
       -0.09485439 -0.04878012 0.022570485 -0.001915173
0002a0 da 70 49 bc e8 c2 17 3d 1b 82 a2 bd 38 49 9e 3d
       -0.012294972 0.03705111 -0.07934972 0.07728809
0002b0 34 d7 73 bd 62 f5 3b bc 46 73 28 bd fc 61 8e 3d
       -0.059531406 -0.011472078 -0.04112556 0.06952283
0002c0 dc 61 0d 3e 5e 1b 44 3d d2 65 56 bc 84 92 65 bc
       0.13806862 0.047877662 -0.013085799 -0.014011983
0002d0 11 4b f4 bc dc f8 07 3d fe 42 7d bc a5 21 6d 3d
       -0.02982095 0.033196315 -0.015457867 0.057893414
0002e0 f0 e3 20 bd d0 2b 20 3d ff df c1 3d 13 ae 43 3d
       -0.03927988 0.039104283 0.09466552 0.047773432
0002f0 9d e5 26 bd 69 03 12 3d 43 60 cb 3d 5d 02 86 bc
       -0.04074632 0.035647783 0.0993047 -0.016358549
000300 9d 12 d7 bd 49 1a 11 bd d2 65 15 be ad 37 69 bd
       -0.10501597 -0.035425458 -0.14589623 -0.056937862
000310 15 16 cb 3d 03 ee fc 3c 45 76 ad 3d 04 53 af bd
       0.09916321 0.030875212 0.08469824 -0.08560756
000320 65 48 1c bd 75 d6 c3 bd 62 94 8e 3c ba 11 54 3e
       -0.03815498 -0.09562389 0.017404739 0.20709887
000330 ee d8 6b bd 71 bd 04 3d 15 48 09 3d ee d6 ad bc
       -0.057579927 0.032407228 0.03351601 -0.02122065
000340 eb fe 74 bd 65 98 bc bd 8f 42 8f bd 99 09 76 3d
       -0.05981342 -0.092087545 -0.06995117 0.060067747
000350 6f cc 48 3d 4a 6a 91 bc 01 91 88 bd cc e1 a0 3d
       0.049023088 -0.017750878 -0.06668282 0.07855567
000360 58 75 82 bd b7 da 97 bd 74 c8 fe bc 34 b1 50 3d
       -0.06370038 -0.074147634 -0.031101443 0.050950244
000370 94 a0 21 bd b1 72 43 bd f5 ac c1 bd d2 75 66 bc
       -0.03945978 -0.0477168 -0.09456817 -0.0140661765
000380 f2 4d 77 bc 82 70 93 bb 29 27 3d bd 5d 75 c2 3c
       -0.015094267 -0.004499496 -0.046179924 0.023737604
000390 72 f7 ad 3c 98 3d a1 bd 16 0d c2 bc af 2c f3 bc
       0.021236155 -0.07873076 -0.02368788 -0.029684393
0003a0 5a 94 f0 bc 08 41 e1 bd e5 cf 11 be 50 d4 a8 bd
       -0.029367615 -0.10998732 -0.14239462 -0.082436204
0003b0 69 70 c3 3d 69 c5 67 3c fb fd ff bc b1 f6 2f 3d
       0.09542925 0.014146187 -0.031249037 0.042959873
0003c0 c4 f8 21 3d be 06 41 3e 93 48 0b bd af 7f 70 bc
       0.039543882 0.18850228 -0.03400476 -0.01467888
0003d0 fa 05 a1 3d 6b 5c eb bd b8 ee 6a bd 10 5a 7d bd
       0.07862468 -0.11492237 -0.057356566 -0.06185347
0003e0 92 d2 04 be c8 f2 a7 3b fb e7 09 be d5 01 85 3d
       -0.12970951 0.0051253773 -0.134674 0.0649449
0003f0 0d f1 8d 3d 03 5c 75 bc bb b5 b6 3c a3 04 62 3d
       0.069307424 -0.014975551 0.022303453 0.055180203

conv1.att_dst f4 [1, 4, 64]
000000 0f e2 a9 be c2 a8 b9 bd 9e dd db bd 34 10 a0 bd
       -0.33180282 -0.09065391 -0.107356295 -0.078155905
000010 6f 6c 50 3d c7 cd 22 3d 5f 2a 6c 3e a5 dd a7 3b
       0.05088466 0.039747026 0.23063038 0.0051228576
000020 03 a2 76 3e 44 ed 06 bd 89 db 1c bd 63 73 ec 3d
       0.2408524 -0.032941118 -0.038295303 0.11545446
000030 a4 8c ea 3c 47 44 a4 bd 82 f7 1b bd a9 ea fb 3d
       0.028631516 -0.08020835 -0.03807784 0.12300617
000040 9a c9 a3 3d 5b ec 8c 3d 40 f3 5f bd 66 f2 09 3e
       0.07997437 0.06881019 -0.05467534 0.13471374
000050 21 28 b5 bd 71 a8 85 bc a8 76 08 3e 37 7c 0f be
       -0.088455446 -0.01631567 0.13326514 -0.14012228
000060 ac 54 83 3d c6 d1 06 be 97 10 42 be e2 5d ad bd
       0.06412634 -0.1316596 -0.18951641 -0.08465172
000070 dc 86 99 3c 5f e2 b8 3d b9 24 5c bd 96 77 10 bd
       0.018741064 0.09027552 -0.05374596 -0.035270296
000080 2f 03 c1 3c c5 18 c7 3d 7a 40 f0 bc 15 99 cd bd
       0.023561088 0.09721521 -0.02932762 -0.10038964
000090 6a cc 1a bd e8 31 69 3e cc 20 2f 3d 1f 3a 23 3e
       -0.0377926 0.22772944 0.042755887 0.1594014
0000a0 68 28 f1 bd b0 34 84 3d 5c e4 c7 3c ba 0a 5c 3d
       -0.11775285 0.06455362 0.024400882 0.053721167
0000b0 5e 2b b0 3d e3 c7 75 bc b2 d2 b6 3c d2 64 9b bc
       0.08602022 -0.01500127 0.022317264 -0.018968973
0000c0 3d ce 91 3d cc 69 1c 3c 8b 68 77 3e 14 36 b3 bd
       0.07119415 0.009546708 0.24160974 -0.08750549
0000d0 6c 00 17 3e d5 71 34 3c 7f 53 55 bc e5 f9 36 3e
       0.14746255 0.011013468 -0.013020395 0.17868765
0000e0 18 df 12 be 1b 87 8a 3a 58 a8 db 3c 4f 0a ea 3d
       -0.14342916 0.0010568829 0.026813671 0.114277475
0000f0 e3 a7 30 3d 82 c2 e5 3c c1 d5 a0 bd 6f 9a b8 3d
       0.04312886 0.02804685 -0.0785327 0.09013831
000100 78 81 63 be 67 e0 0e be ef 7d 10 bd 39 0d 34 3d
       -0.22217357 -0.1395279 -0.03527635 0.043957923
000110 42 f8 ad 3d 16 19 5b 3c 7c 14 4b 3c 79 78 d9 3d
       0.08494617 0.01337268 0.012395021 0.106186815
000120 22 7a 11 3d 87 a0 22 be 36 3a 47 3e 62 99 86 3d
       0.035516866 -0.15881549 0.194558 0.06572224
000130 cb 4d cd bd fb b2 39 bd 60 e0 af bd 69 3d 72 3e
       -0.100246035 -0.045336705 -0.08587718 0.23656239
000140 fa 18 d4 bd a2 7a 2d 3e 15 18 4d 3c b2 89 84 bd
       -0.103563264 0.16941312 0.012517949 -0.06471576
000150 4d b4 38 bd d5 92 3d be e8 d2 3e be 50 75 29 bd
       -0.045093823 -0.18513043 -0.18635142 -0.041371644
000160 29 8a 83 be 95 2e d0 3d 44 d2 84 be 13 b6 04 3c
       -0.25691345 0.10165135 -0.2594167 0.0081000505
000170 2e 25 a4 3d 15 65 d6 3c 75 6c ca bc 8f a8 5b 3d
       0.08014904 0.026171247 -0.02470992 0.053627547
000180 e4 8d 78 3e 86 07 e1 bd 16 d0 12 3e 5f c0 f8 bc
       0.24272877 -0.10987763 0.14337191 -0.030365167
000190 c9 30 11 be b8 f8 24 3e 53 fb f1 3d 3d 90 e2 3c
       -0.14178766 0.16110504 0.118155144 0.027656669
0001a0 a8 98 95 3d b4 b8 b3 3b 53 42 9f bc 71 6a 31 3e
       0.073045075 0.005484665 -0.019440806 0.1732576
0001b0 34 8d ef bd bf f3 b7 3b f4 0c c5 bd 87 80 10 bc
       -0.11696854 0.0056137736 -0.09621611 -0.008819706
0001c0 c3 75 56 3d 4a 79 d3 3c ab 5e 5d 3c b0 2a 48 be
       0.0523584 0.025814671 0.01351134 -0.19547534
0001d0 31 a2 43 be de 8c 62 3d c4 25 1e 3e 34 de 07 3e
       -0.1910484 0.055310123 0.15444094 0.13268358
0001e0 5a 8d 11 be 69 bb e9 ba 68 c2 01 be 76 d3 21 3e
       -0.14214078 -0.0017832342 -0.12671816 0.15803322
0001f0 b3 78 9a bd 64 c7 f5 bd 2a cc aa 3d 0d ed 08 3e
       -0.07542553 -0.12000921 0.083397225 0.13371678
000200 70 de 92 bb 8a d9 be 3e 60 1d 97 3e 92 a7 33 3e
       -0.004482083 0.37275344 0.295146 0.17544392
000210 60 9a 7a be 14 8b a3 bd ca 83 58 be 44 c1 86 3c
       -0.24472952 -0.079855114 -0.21144024 0.016449578
000220 84 db 8d bd c0 b2 03 3e 9f a1 79 3d 0e 88 a5 be
       -0.06926635 0.12861156 0.06094515 -0.32330364
000230 ca d6 1c 3d 59 1c 42 be 9c 3a 5f 3c 4d d1 aa 3d
       0.038290776 -0.18956126 0.013624813 0.08340702
000240 86 8e 11 3d 2f 17 89 bc 02 98 e7 bd d5 ce f5 3d
       0.03553631 -0.016734688 -0.1130829 0.12002341
000250 5d c4 9e 3c 9a c3 38 3d 4f 4e e3 bd f3 f6 8f 3e
       0.019380743 0.045108415 -0.110989206 0.28118095
000260 16 bb 97 bd e5 49 17 3e 56 f4 88 3d b5 9d 81 bd
       -0.07408731 0.14774282 0.066872284 -0.06328908
000270 f9 6a 2e be c7 7b 2f 3d 62 cf 8e 3e cf e5 d8 bd
       -0.17032994 0.042842653 0.27892596 -0.105907075
000280 7d ff 3e be 6a 4b 75 3e 1b ff 62 3d 2a ec 0a 3e
       -0.18652149 0.2395455 0.05541907 0.13566652
000290 e7 81 95 bd 08 92 f2 3d 8c e3 a6 be 51 ef 57 3d
       -0.073001675 0.118442595 -0.3259548 0.052718464
0002a0 7a 0c 74 be 02 8d 10 be 2c ae a1 3d 33 02 7e 3d
       -0.23832884 -0.1411629 0.07894549 0.062013816
0002b0 90 30 1d 3e 40 a2 1f 3d 13 b9 52 3e d2 db a0 bd
       0.15350556 0.038973093 0.20578413 -0.078544274
0002c0 db 0b 98 3d 03 84 00 be 80 e6 39 be eb 6b 70 3e
       0.07424136 -0.12550358 -0.18154335 0.23478667
0002d0 55 18 87 3e 86 18 a6 3e 49 62 50 3d 24 bc 2e 3e
       0.2638575 0.32440585 0.050874982 0.17063957
0002e0 3d 13 69 bd 1f 66 13 3e c0 f4 a9 3d 6d 95 41 3e
       -0.056903113 0.14394425 0.082986355 0.18904658
0002f0 ba 09 80 b9 23 44 ea 3d 54 cf 3f be af 13 67 3d
       -0.0002442131 0.11438777 -0.18731433 0.056415256
000300 5e c1 c4 bb e8 64 31 be 2e 70 38 bc 08 6d dd 3d
       -0.0060044965 -0.17323649 -0.0112572145 0.10811812
000310 79 2a 07 3e be b1 3c 3c 6a f4 25 3d df 7c ed bd
       0.13199796 0.011516986 0.040516295 -0.11596083
000320 8d d1 64 3b 3e 5d 61 3e 52 4c 07 3e 1d d2 2e 3e
       0.003491494 0.22008225 0.13212708 0.1707234
000330 eb c4 17 be ae 25 7e 3d 83 dd 2a bd 03 43 14 be
       -0.14821212 0.062047653 -0.041715156 -0.14478688
000340 e1 12 40 bd 20 53 9c bc 75 96 c3 bd bf 14 bd 3c
       -0.046893004 -0.019082606 -0.09550182 0.023081182
000350 2d 0c 83 3c 54 17 80 be cf 86 37 be 74 52 0f be
       0.015997017 -0.25017798 -0.17922519 -0.13996297
000360 71 0e 81 be c0 04 65 3e af 8d e1 3d 58 a8 63 bc
       -0.2520633 0.22365093 0.11013352 -0.013895117
000370 3c 2c 77 bd d7 42 5e 3d 9e cd 2c 3e 7a aa ab 3d
       -0.06034492 0.054262962 0.16875312 0.08382125
000380 1a 34 13 bd fe 39 c2 3c 07 37 15 be 82 f7 2d bd
       -0.03593836 0.023709293 -0.14571773 -0.04247237
000390 33 74 db bd 8a 24 9e 3c 4a 19 90 bd 40 42 8b be
       -0.107155226 0.019304533 -0.070360735 -0.27198982
0003a0 ba b0 51 bd cb 20 4d bd 4e fd 15 3d 0d a0 14 bc
       -0.05119393 -0.050080102 0.036618523 -0.009071362
0003b0 f6 10 cf bc d6 18 68 3e da e0 0e 3d 3c cf f1 bd
       -0.025276642 0.22665724 0.034882404 -0.11807105
0003c0 57 f9 d4 bd 26 44 4d 3e 5c be 18 bd 54 89 1e 3d
       -0.1039912 0.20045528 -0.037290916 0.038705185
0003d0 5d 41 a6 3d 2c 20 22 3e d9 24 a8 3c 64 11 4c be
       0.08117936 0.15832585 0.020525383 -0.19928509
0003e0 e2 64 c3 bc 2e 6a 3c bd 9a f8 0a bd ed e6 0b 3e
       -0.023851816 -0.0459997 -0.03392849 0.1366231
0003f0 c4 6a ec 3a 72 3a 15 3e 8f cb aa 3c 1d 64 7e 3d
       0.001803719 0.14573076 0.020849017 0.062107194

conv1.bias f4 [256]
000000 29 ed 3a 3c ab 3a 0a 3d 25 d1 00 bb ff bc f8 bb
       0.011409082 0.033747356 -0.001965591 -0.0075908895
000010 77 91 5e 3c 43 07 43 3d 3b 91 38 bd 96 bd 0b bd
       0.013584486 0.047614347 -0.045060378 -0.03411635
000020 1d 11 a7 3d a8 21 92 ba 28 60 87 3c 2c e5 f1 3d
       0.08157561 -0.0011148946 0.016525343 0.11811289
000030 26 3f 52 3d ff 8d b4 3c 20 98 d6 bc c2 0c 9f 3d
       0.051329754 0.022040365 -0.026195586 0.07766105
000040 8c 10 1a bc c7 e0 b9 3d 61 b4 3b bd 4d ee 36 3d
       -0.009403359 0.09076076 -0.04582632 0.044660855
000050 d4 78 57 3c f7 43 7a 3d 79 89 b0 3d c7 f1 40 bc
       0.013151366 0.061099973 0.08619971 -0.011776394
000060 e8 c8 e5 3d 7a dc 22 bd 26 dc 7a 3d d3 d4 77 3d
       0.112199605 -0.039761044 0.061245106 0.0605057
000070 c3 12 1c 3d 79 aa 5f bc 46 8c 22 bc 2a 84 5b b9
       0.03810383 -0.013651484 -0.009921139 -0.00020934702
000080 f9 77 8d bc 6f c1 81 bc 3a ef 1d 3e a5 27 b8 3d
       -0.017269121 -0.015839307 0.15423289 0.089919366
000090 da d7 c3 3b 59 e3 49 3c d8 55 c0 3d 86 7d c1 bb
       0.0059766592 0.01232227 0.093913734 -0.005904856
0000a0 58 d1 11 3d f2 86 a5 3c 16 05 c3 3d 15 d2 50 bd
       0.035600036 0.020205949 0.095224544 -0.0509816
0000b0 b1 93 fc 3d aa af 2a 3c e6 1e 36 3c 3a e1 27 bc
       0.123328574 0.010417858 0.011115765 -0.010246569
0000c0 01 c7 89 bd 07 db bd bd c0 54 2f bd 27 5d af 3d
       -0.0672741 -0.09270292 -0.042805433 0.08562689
0000d0 7a 11 a8 bc ee 8a cc 3c 09 cd bb bc 3e 97 e0 3c
       -0.020516146 0.02496859 -0.022924917 0.027415868
0000e0 c3 83 f9 bc f2 ba 5a 3c 35 bd a0 3c b1 ff c5 3c
       -0.030458337 0.013350235 0.019621471 0.024169775
0000f0 6c a0 8b bc 46 fc 0a bc 4b 08 9e 3d 0d e7 24 3c
       -0.017044269 -0.008482998 0.077164255 0.010064852
000100 fc 81 09 3d da ee 97 3b 18 c6 cb 3d 5a d3 59 3d
       0.03357123 0.0046366276 0.09949893 0.053180076
000110 aa c6 f9 3d 95 2f 89 3d ea b5 ea bc 5a 5f b4 3d
       0.12196095 0.06698529 -0.028651197 0.08807249
000120 72 b4 80 3d 4d cb 57 3c cd b8 05 3e 9f a6 b3 3d
       0.06284417 0.013171029 0.13058777 0.08772015
000130 23 ac 8d 3d e9 a7 96 3b a2 f2 84 3d eb 3e d2 3d
       0.06917598 0.004597653 0.06491591 0.10265907
000140 21 ac a1 3d 20 bc d5 3d f9 02 1d 3d 46 c8 b4 3d
       0.07894159 0.104362726 0.038332913 0.088272616
000150 d6 82 2a 3d c6 50 de 3d 05 1c 81 3d 4a 78 ab 3d
       0.04162868 0.1085525 0.063041724 0.08372553
000160 5c ae 16 3d 71 a3 0b 3e 27 ca df 3d 1c f5 cd bc
       0.036787376 0.13636567 0.109272294 -0.025141291
000170 66 b2 95 3d 47 cc 37 3d 89 2d 28 3d 66 21 40 bc
       0.073094174 0.04487255 0.04105905 -0.011726713
000180 e5 f4 92 3d f4 b8 b9 3d a4 61 39 3d 1d 9b 82 3d
       0.07175616 0.0906848 0.045259133 0.06377242
000190 70 27 96 3d 84 aa b0 3c 6c 05 4d 3d ac 08 dd 3d
       0.07331741 0.021565683 0.050054 0.1079267
0001a0 e2 7c 9e 3d ad 04 76 3c c0 d2 6d 3c ba 7b 87 3d
       0.07738663 0.015015763 0.014515579 0.06615396
0001b0 cb 42 04 bd e1 7d bb bb 6c e8 e9 3c df 8b 47 3d
       -0.03229026 -0.005721793 0.02855321 0.048717376
0001c0 bc 39 04 3e 02 5d f9 3a 3b 18 d2 3d 15 4f 43 3d
       0.12912649 0.0019024911 0.10258528 0.04768284
0001d0 0b cc db 3c f5 fb 05 3e 3d 2f f7 3d 9d 02 27 3d
       0.026830694 0.13084395 0.12069557 0.040773977
0001e0 77 f8 0f 3d 67 c5 b1 bc c0 5f 7a bc 08 33 9f 3d
       0.035149064 -0.021700574 -0.015281618 0.07773405
0001f0 e5 25 2a 3d 53 7e 46 3d e2 a4 3b 3d 1b 01 6b 3d
       0.041540045 0.048460316 0.04581154 0.0573741
000200 4d fe d3 3d fa 44 d4 3d aa f9 dc 3d 8c df 33 bd
       0.103512384 0.10364719 0.10789807 -0.043914363
000210 9d e5 4d 3d 83 15 bf 3d 0a 24 a9 3d 22 4c de bc
       0.050267804 0.09330275 0.08258827 -0.027135912
000220 aa c2 9e 3c b9 1d cd 3c 1c ef 5f 3d 1e e3 2c 3d
       0.019379932 0.025038587 0.05467139 0.042208783
000230 b1 ca 99 3d d3 5b 7e 3d ee f5 bd 3d 27 81 a2 3d
       0.075093634 0.06209929 0.09275423 0.0793479
000240 94 85 86 3d 90 7f 6f 3d 49 a0 52 3d 6e d7 dc 3d
       0.06568447 0.058471262 0.05142239 0.107832775
000250 1c bb b4 3c 7c 55 18 3d e2 76 6a 3b 43 c8 f8 3d
       0.022061877 0.0371909 0.0035776426 0.12147572
000260 cb a5 79 3c a7 4f 8f 3d d6 3b fb ba 81 a1 7b bd
       0.015237282 0.06997614 -0.0019167613 -0.06143332
000270 5a 0f 86 bc fb b4 04 bd a2 59 39 3d 0e 39 57 3c
       -0.016364742 -0.03239916 0.045251496 0.0131361615
000280 de 91 54 3d 17 82 61 bc 7c 65 82 3c 5e 12 14 3c
       0.051896922 -0.013763926 0.015917532 0.009037582
000290 60 26 8a 3d 0c a4 bd 3d d7 41 65 3d 05 f5 b8 3d
       0.06745601 0.09259805 0.055970993 0.09031109
0002a0 98 4e 57 3d a0 34 bf b9 45 17 a6 3b d9 6e 97 3c
       0.052565187 -0.00036469568 0.005068692 0.018485473
0002b0 4d 2d 8d 3d da b4 8c bc e5 c3 14 3d 0a 77 56 bc
       0.06893406 -0.01717608 0.036319632 -0.013089905
0002c0 4b f5 1e 3d 20 cb 31 3c 33 7f 08 3d c1 7b c4 3d
       0.03880815 0.010851651 0.03332443 0.09593917
0002d0 50 85 27 3e 1f 3d 9a 3d ec fb ec 3d 96 69 b2 3d
       0.16359448 0.07531189 0.11571488 0.08711545
0002e0 1e 79 61 bc 04 b9 33 3c 1d fe 5a 3d 0c 6c 2b 3d
       -0.013761787 0.010969404 0.053464998 0.04185109
0002f0 89 3b 95 3c 8f c9 d2 3a ce 28 5e bd f0 d1 8a bc
       0.018216865 0.0016081798 -0.054238133 -0.01694581
000300 6c fd 46 bc ac 6d b5 bc 66 2d d3 bc 61 a2 98 3c
       -0.012145381 -0.022147022 -0.025778484 0.018632116
000310 69 6e 29 bc e7 d8 73 3c 0c 20 b2 3b 4f 04 85 3b
       -0.010341265 0.0148832565 0.005435949 0.0040593515
000320 c9 bd bd 3b 90 e4 2b 3c 07 79 a9 bc 3e 35 d3 3c
       0.0057904464 0.010491505 -0.020687593 0.025782224
000330 37 67 4b bd 75 b4 b6 bb 98 8b dc 3d e6 0c 04 3b
       -0.04965898 -0.0055757114 0.10768813 0.002014929
000340 43 50 9c 3d 36 9d d3 b9 43 15 22 bd 5f da 33 bc
       0.07632496 -0.00040362187 -0.039571058 -0.010977357
000350 cd 1f 1d bd 66 57 aa 3c f9 e2 40 bd fb bf 82 bc
       -0.038360406 0.020793628 -0.047091458 -0.015960684
000360 a9 34 64 3d ba bf 8c 3d 0a 95 7a 3c 81 2a 88 3d
       0.055714283 0.068725064 0.015294323 0.06648732
000370 30 2e 4d 3c 08 51 d8 3c 2e 96 08 be 63 5e 1c 3e
       0.012523219 0.026405826 -0.13338539 0.1527038
000380 7f fe e7 3c 9f 5e 4b bd 57 09 41 3c da c0 18 3d
       0.028319595 -0.049650785 0.011782012 0.037293293
000390 cf 84 30 3d 08 ad 62 bd 46 1f 9d bd 7b 11 94 3d
       0.043095406 -0.055340797 -0.076719806 0.07229897
0003a0 20 a1 fc 3c 9c d4 4c 3c 2d 4a 8b bd 8e cb 3b bd
       0.03083855 0.012501862 -0.06801257 -0.04584842
0003b0 cb 76 3d 3d 11 9e 87 bd fe 32 f4 bc 61 49 31 3a
       0.046255868 -0.06621946 -0.029809471 0.00067629485
0003c0 6d ca ae 3d 76 f1 6a bc 86 bf a5 bc af 71 e0 3c
       0.085347034 -0.014339795 -0.020232927 0.027397959
0003d0 b0 63 79 3c fc 64 c9 bc d3 2a 5c bd d2 eb 3d bd
       0.015221521 -0.024584286 -0.053751778 -0.046367474
0003e0 7c 3f d9 bc f3 df 89 3d b1 71 9f 3d 53 27 c3 3d
       -0.02651953 0.06732168 0.07785357 0.09528985
0003f0 b3 cc e1 3c 22 44 13 3c 63 d3 2d 3c 64 a1 42 bd
       0.027563429 0.008988412 0.010609481 -0.047517195

conv1.lin.weight f4 [256, 194]
000000 35 6b 38 ba fd 1c 23 bd e5 69 f7 bc f0 0f dd bc
       -0.0007035018 -0.039822567 -0.030201862 -0.026985139
000010 2f 7f 9f 3c 0f b0 9a ba 7a 4f f0 b9 dd b0 7f 3c
       0.019469826 -0.0011801737 -0.00045835582 0.015606132
000020 e8 44 16 bd 6a b7 a3 3c de 9f 58 bd 56 12 08 3e
       -0.036686808 0.01998492 -0.052886836 0.13288245
000030 22 53 22 3e 1d ed 86 3d 65 0e a4 3d e6 2c 06 3d
       0.15852025 0.065881945 0.08010558 0.032757662
000040 11 00 98 3b ce 36 e0 bc 9a a8 4e bc b0 b3 f3 3d
       0.00463868 -0.027369883 -0.01261344 0.11899507
000050 bb 8b 18 3e 6a f4 b5 3b 8a c7 1f 3c 72 3c d1 3b
       0.14897053 0.005552818 0.009752164 0.0063853795
000060 a1 80 ca 3c a0 fb 1e 3e 7c ec 1c 3e 0d 4c 20 bc
       0.024719538 0.15525675 0.15324587 -0.009783757
000070 bf 25 f8 3b fe b0 70 3c e6 0e 16 3c dd 1c 42 3e
       0.007572859 0.014690636 0.0091588255 0.18956323
000080 ba d1 11 3e 7f 8a 61 bc 09 8b aa bc 83 2a 0e 3d
       0.1424016 -0.01376593 -0.02081825 0.03470851
000090 29 65 c8 bb 53 0e 3e 3c 2c f5 c8 bc de 54 b3 bc
       -0.006115575 0.011600095 -0.02453097 -0.021891054
0000a0 55 b3 84 bc e8 5d 9f 3b 0a 80 fa bc c6 60 86 3c
       -0.016198793 0.0048634894 -0.030578632 0.016403567
0000b0 72 15 df 3c e6 46 4a bd ef 85 b6 bc 6d 7f b3 3c
       0.027231906 -0.04938402 -0.022280661 0.021911347
0000c0 9e 80 08 bd 82 c9 b6 bb da fb 8c bc 7f b7 7b 3d
       -0.033325784 -0.005578221 -0.017209936 0.061454292
0000d0 42 1b a4 3c b9 f6 12 3d a5 c7 85 3c d9 ec 62 bd
       0.020032529 0.035879824 0.01633055 -0.055401657
0000e0 25 9f eb bb e5 8b a1 3d 2f 40 61 3c a3 0f d4 3b
       -0.0071906024 0.07888011 0.013748213 0.0064715906
0000f0 2b 9a 0a b9 6e 2a 4e 3e b6 b0 11 3e fc 7b 98 3d
       -0.00013218138 0.20133373 0.14227566 0.07445523
000100 a4 1b 06 bc db c6 88 3c f5 a3 04 3d eb 01 5e 3e
       -0.008185301 0.016696384 0.032382924 0.21680419
000110 ef f6 33 3e 3b 40 1a 3a 4c 01 79 3c 6f 01 84 3c
       0.17574666 0.0005884205 0.015198063 0.016113965
000120 51 06 17 bc 0d 41 32 3d 96 d5 90 3d f5 a5 c8 3d
       -0.009217815 0.04351907 0.07071988 0.09797279
000130 28 03 86 bc 6b cb 82 bc 21 94 ae 3c b7 a8 2f 3e
       -0.016358927 -0.015966138 0.021310868 0.17154203
000140 27 1b 29 3e 2c 2d c6 3d 00 e5 b0 3b cc a4 d9 bc
       0.16514264 0.096765846 0.0053983927 -0.02656784
000150 22 a8 4e 3c 08 ac f0 3d 00 30 b4 3d 4d 25 91 3d
       0.012613328 0.11751562 0.08798218 0.07087193
000160 8e f4 b2 3b b1 7a 1f bd 13 4e 9b 3d 48 84 94 bc
       0.005461282 -0.038935367 0.07583251 -0.018129483
000170 cc f7 71 3b 75 20 2e 3c c2 6e dc 3c f5 e8 51 3d
       0.003692138 0.010627856 0.026908282 0.051247556
000180 78 95 8e 3c 83 2f 52 bc f1 62 81 bd 6b 50 a9 bc
       0.017405257 -0.0128287105 -0.063177 -0.02066823
000190 1c 4d 01 3c e6 b6 15 3c fe 62 46 3d bf de 0b 3d
       0.007891919 0.009137845 0.04843425 0.034147974
0001a0 64 b4 c0 3d 91 e4 b6 bc 86 4f aa bc 3e aa f0 bc
       0.09409407 -0.022325786 -0.020789873 -0.029378053
0001b0 eb 70 75 bc 6f c6 61 bc 9b f3 c1 3c 05 13 44 bd
       -0.014980535 -0.01378022 0.02367573 -0.0478697
0001c0 96 94 5b 3c 5e 55 52 3d cb 93 39 3c 10 ea 3c bd
       0.013402125 0.051350944 0.0113267405 -0.046121657
0001d0 2e f3 a1 bd 8d 97 c5 bc 9c 12 1c 3d 51 ef 4e 3d
       -0.07907711 -0.024120117 0.038103685 0.0505212
0001e0 38 96 1e 3d a5 22 18 3c 84 84 76 3c 17 ce 16 3d
       0.03871748 0.009285604 0.015046243 0.036817636
0001f0 d8 f7 75 3c 22 6c 94 3c 63 91 ce 3c 41 09 24 bd
       0.015012704 0.018117968 0.02521581 -0.040047888
000200 d4 36 ce bc 42 5f 46 3d 98 fd e7 bc cd 2c 81 bc
       -0.025172628 0.04843069 -0.028319165 -0.015768433
000210 bd e7 ce bb 46 93 62 3d 88 7a 66 3d b9 c8 e4 3b
       -0.0063142464 0.055316232 0.0562692 0.006981936
000220 f1 54 a6 3c 72 56 0c 3c 03 62 43 bc 9b c9 95 bd
       0.020304175 0.008565532 -0.011925223 -0.07313844
000230 0f b4 27 bd 47 d5 07 bd 11 50 34 3d 60 89 16 bc
       -0.0409432 -0.03316238 0.04402167 -0.009188026
000240 83 da 18 bd 7a 95 9f bc 7b df 42 bd d7 bc 7e 3c
       -0.037317764 -0.019480456 -0.04757641 0.015547953
000250 89 8a 6e 3c f8 99 25 3d de ce a1 3a 03 fa 11 3c
       0.014559397 0.04043004 0.0012344976 0.008909705
000260 b5 c9 34 3c 72 25 e6 bc d6 cf 67 3c 5f d8 a5 3c
       0.011034419 -0.028094027 0.014148673 0.020244775
000270 64 18 93 3b 7c 11 32 3d c3 2d 8b 3d 6c 06 fe 3c
       0.0044889916 0.043473706 0.06795838 0.031008922
000280 55 92 f2 3c 59 ac 8e bb d4 9b 8e bb 9f ba 7b bd
       0.029610792 -0.0043540415 -0.0043520723 -0.061457273
000290 6c af a3 bd ee a1 01 bb 85 38 e6 3c c0 93 6f bb
       -0.079924434 -0.0019780356 0.028103122 -0.0036556572
0002a0 e2 ce d4 3c 43 6a f7 3c 32 7b 81 3b ca 37 89 3d
       0.025977556 0.030202037 0.0039514536 0.06700094
0002b0 a3 c5 2c 3c d3 b8 dc bc 4f cb a8 bc 8b 36 8f bc
       0.010545167 -0.0269436 -0.020604758 -0.017482063
0002c0 f7 f3 4b 3d ca ec 1c 3d df 73 3f 3c 3b de 14 3c
       0.04979321 0.038311757 0.011685341 0.009086187
0002d0 3a 95 80 bb 2c 9c 45 bc 8f fb eb 3c 9a 16 1d bb
       -0.003924039 -0.01206116 0.028806476 -0.002396977
0002e0 fc 13 cd bd 0c 8a f7 3d 1e 43 b7 3d 2a 4a ea 3d
       -0.10013577 0.12086877 0.089483485 0.11439927
0002f0 a2 7b c3 bc fd 36 4d bd 6f e2 89 bc 54 a3 06 3e
       -0.023862664 -0.05010127 -0.016831605 0.13148242
000300 ee 91 78 bd df 34 fb 3c 17 4c 41 bc ad 07 6f bc
       -0.060686044 0.03066486 -0.011797926 -0.014589232
000310 02 3c 0b 3e b3 4c 40 bc e7 7c be 3b 73 6d c0 3a
       0.1359711 -0.0117370365 0.0058132294 0.0014681056
000320 dd eb 24 3d 89 59 68 bb fe 66 db bc 72 df 72 3c
       0.040264 -0.0035453758 -0.026782509 0.014823781
000330 23 14 93 bc f5 ca 65 bc 91 b9 8e ba c7 58 01 3d
       -0.017953938 -0.0140254395 -0.0010889043 0.031578805
000340 69 24 bd 3d 12 6c 44 3b c4 df 5c bc 8f 3c 18 bd
       0.0923546 0.0029971641 -0.013481084 -0.03716713
000350 11 60 cf bc 96 e7 62 3d e7 5e 3f 3d 54 1a 10 3d
       -0.025314363 0.05539664 0.046721365 0.03518136
000360 8b f1 ed 3c b5 9b 05 3d d2 21 d1 3c d2 de d4 bc
       0.02904584 0.032619197 0.025528822 -0.025985155
000370 c5 29 9f bc 4b 3c 2d 3d 9d 5e 13 3d 07 7b 10 3d
       -0.019429097 0.042293828 0.035978902 0.035273578
000380 bb 6b 0e 3d 21 65 76 bc 0e da 17 bb 7d 25 7c 3c
       0.03477071 -0.015038759 -0.0023170742 0.015389797
000390 bb 8a 66 bb d3 37 a0 3b 3e a4 e7 3b f9 be ed 3c
       -0.0035177905 0.0048894673 0.0070691397 0.029021727
0003a0 cf 1c 20 3d 02 6d 80 3d c5 ec a1 3d c2 60 bb 3b
       0.039089974 0.062707916 0.07906488 0.0057183215
0003b0 94 14 7f 3d ba 4d bf ba 4b e0 fa 39 fe 27 7b 3d
       0.062275484 -0.0014595308 0.00047850827 0.061317436
0003c0 3e 28 9a 3d bc 3c af 3c 5a 8b 60 3d c0 c5 4c bc
       0.07527207 0.021391265 0.054820396 -0.012498319
0003d0 93 85 54 bc 48 d4 ba 3c 54 cc a6 3b 17 d2 2a bc
       -0.0129713 0.022806302 0.005090276 -0.010426066
0003e0 3d d6 05 3c e0 1f ed bc 69 32 95 bc 77 45 ca bb
       0.008168754 -0.028945863 -0.018212514 -0.0061728316
0003f0 ef ce 29 3d 7c c2 f4 3c bb 0b 7e 3d d1 f6 d9 3d
       0.041457113 0.029877894 0.062022906 0.106427796

conv2.att_src f4 [1, 1, 64]
000000 5b 87 76 bc 1c a2 0e bd f9 a4 c4 bd 9b ed 28 3c
       -0.01504692 -0.03482257 -0.096017785 0.010310556
000010 f8 0c 7a 3c 04 a1 ac bb 36 b4 28 bd 1e cc 46 bc
       0.015261881 -0.005268218 -0.041187488 -0.012133626
000020 ec d8 07 be 59 be d5 bd 2b 5a 9e bd d8 60 54 3d
       -0.13266343 -0.104366966 -0.07732042 0.05185017
000030 ef 03 64 bd 94 04 74 3d 5f d0 8e bd 3e bb 85 bc
       -0.055667814 0.05957468 -0.069733374 -0.016324636
000040 51 2b 18 3c c9 fe 93 3d 18 00 89 bd 48 2a 26 3d
       0.009287671 0.07226331 -0.06689471 0.040567666
000050 3f 6d 0c 3d 3a 75 d1 bc 23 c4 a1 bd 36 bd 13 3e
       0.034283873 -0.025568593 -0.07898738 0.14427647
000060 d7 b1 3e bd cd b7 99 3b c1 f5 a1 bd 78 cb 90 3d
       -0.04655632 0.0046911 -0.07908202 0.070700586
000070 27 a9 c9 3c 62 47 07 3b 0c 87 5a 3b 26 12 f2 bc
       0.024616791 0.0020641913 0.0033344654 -0.02954967
000080 2b 9c 94 ba 6a 6e f1 3c 0b 4c cd 3b 77 a2 c4 bc
       -0.0011338046 0.029471595 0.0062651685 -0.02400325
000090 2d 79 3a 3d 3d 63 ec 3d ca d0 85 3c a7 e9 cb 3a
       0.04552572 0.11542366 0.01633491 0.0015557305
0000a0 c9 60 a1 bb 64 af 96 bc aa 45 ee bd df 81 1b be
       -0.004924868 -0.01839418 -0.11634381 -0.1518626
0000b0 42 d0 50 bc 6b 2c 5d 3b 97 0d 48 3d fa cc 7c 3c
       -0.012744965 0.00337484 0.048841085 0.01542973
0000c0 57 c8 fb bd 3b b0 00 3e c0 dc e5 bd 71 5a c9 3d
       -0.12294071 0.12567227 -0.11223745 0.098317035
0000d0 eb ae bf bc e7 12 07 3d 23 95 ab 3c cb 7e b1 bd
       -0.023398837 0.03297701 0.020945137 -0.08666762
0000e0 04 8c 13 3e 6e bd cd bc 98 7f 5f 3d e8 22 3a 3c
       0.1440888 -0.025114741 0.054565042 0.011360861
0000f0 bc 9a 03 3e 0a 19 10 3d 50 df ab bd 79 d1 38 bc
       0.12851995 0.03518013 -0.08392203 -0.011280411

conv2.att_dst f4 [1, 1, 64]
000000 63 34 05 3e 93 db da 3d f6 2a 94 bc 8a e4 e2 bd
       0.13008265 0.10686412 -0.018086892 -0.110787466
000010 2e 5f 6d 3d d1 01 ee 3c a8 54 d5 3d 31 d8 00 3e
       0.0579521 0.0290536 0.104165375 0.1258247
000020 1b 72 aa 3d 4b dd 8b bd 55 db af 3a 03 ed 7b 3d
       0.08322545 -0.06829318 0.0013416806 0.06150533
000030 af ce 99 bd 85 aa 46 3e 03 ab 74 3c 88 6f 45 bd
       -0.07510125 0.19400986 0.0149333505 -0.048202068
000040 c0 75 07 3e 98 21 3d 3d 41 0c 3c 3e 96 32 ce 3d
       0.13228512 0.046174616 0.1836405 0.10068242
000050 8e 66 0a be d4 2f ac bd 97 f7 cb 3c 3a a1 32 3e
       -0.13515684 -0.0840756 0.024898333 0.17444316
000060 76 ed 58 3e d0 cf 7e 3d fe 45 ca bd 8c 3f da 3d
       0.21184334 0.062209904 -0.09876631 0.10656652
000070 64 03 7d 3d d4 11 a4 3d e4 ae a7 3b c7 ea 4f 3e
       0.06177081 0.08011213 0.005117284 0.20304404
000080 bf 13 21 be 0c b8 1a bd ff a6 01 3d 48 c8 66 3d
       -0.15730189 -0.037773177 0.0316534 0.056343347
000090 c9 ec 91 bd e6 b0 43 3e 83 bc ab bd f7 0f bf bc
       -0.07125241 0.1911045 -0.08385565 -0.023323042
0000a0 e8 5e 41 3e 3f 89 07 bd 54 a7 1f be 96 8b fe 3c
       0.1888386 -0.033089872 -0.15591174 0.03107242
0000b0 7d b7 19 3d 90 d6 45 3e f1 b8 40 3d dc 71 16 3e
       0.037528504 0.1932013 0.047051374 0.14691871
0000c0 00 17 92 bd 5f c9 1a 3d e9 9c c2 3d 62 15 7b bd
       -0.07133293 0.0377897 0.095025845 -0.06129969
0000d0 18 77 79 3e 4c 97 42 bb 3d 47 5c 3e 14 c3 00 3e
       0.24361837 -0.002969223 0.2151155 0.12574416
0000e0 1b bd b7 3d 65 a9 04 3d 0c e6 5f 3e 36 a3 54 3c
       0.08971616 0.03238811 0.218651 0.012978366
0000f0 98 20 c9 bc 91 ee 15 bd 7d 09 1d bd 35 78 01 3e
       -0.024551675 -0.036604468 -0.038339127 0.12643512

conv2.bias f4 [64]
000000 df 31 22 bd 84 3d bb 3d d5 c5 2c 3c 3d 7d 79 3d
       -0.039598342 0.091425925 0.010545214 0.060910452
000010 c2 5a 79 3c 59 e9 53 3c 65 e9 b8 bd 3b 3b 26 3e
       0.015219392 0.012934052 -0.090288915 0.16233532
000020 32 c2 90 bc 92 3e e3 3d 1c 0d 2c bc 98 e8 48 3d
       -0.017670725 0.11095919 -0.010501172 0.049049944
000030 44 00 52 bd b6 29 99 bd 38 87 29 be a7 c4 97 bd
       -0.051269785 -0.07478659 -0.16555488 -0.07410555
000040 8d 1f 57 bd 50 26 2b bd 9e cc 19 bc 92 cc 2e 3e
       -0.052520324 -0.041784585 -0.009387163 0.17070225
000050 ab a9 c0 bc d2 17 a6 bc be 32 79 bc f1 2c dd 3d
       -0.023518404 -0.02027503 -0.015209852 0.107995875
000060 b6 24 01 3d dc be 33 bd ee 73 34 3c d6 b6 2a 3e
       0.03152915 -0.04388319 0.011013968 0.16671309
000070 a1 27 ff bc 89 05 68 bc e9 67 e1 bc 05 19 16 bd
       -0.031146826 -0.014161476 -0.027515369 -0.036644954
000080 5f 5d ec bd 49 99 ae 3c 5b fc cb bd 6f d0 d8 3c
       -0.115412466 0.021313326 -0.09960242 0.026466576
000090 9d d3 10 bb 7d 71 80 3e b3 4b e7 3c bf 7c 20 bd
       -0.0022098788 0.25086585 0.028234338 -0.039181467
0000a0 59 86 25 3b 82 d1 1f 3c 6b fb 94 bc 69 43 5c bd
       0.002525708 0.00975454 -0.018186292 -0.053775225
0000b0 84 8a f8 bd 56 9d 80 3d 82 ff e5 3d c4 c0 ff bc
       -0.12135795 0.062800094 0.11230375 -0.031219848
0000c0 1f 82 b0 bc 2c 5c 41 3e b5 47 ce 3a 9b 43 92 3c
       -0.021546422 0.18882817 0.0015737923 0.017854502
0000d0 be a4 e7 3c 7f dc b4 bc 1a 12 c9 3c df 64 62 3c
       0.028276797 -0.022077797 0.024544764 0.013817995
0000e0 b9 79 7c 3d 30 61 80 3a fe 15 1e 3d 2d a2 1f 3d
       0.06163952 0.0009794589 0.038595192 0.038973022
0000f0 d2 9c 8c 3e be 55 cc bd 3f c0 82 3c 95 bb a3 3c
       0.27463394 -0.099772915 0.01596081 0.019986907

conv2.lin.weight f4 [64, 256]
000000 e2 56 42 bd 05 2c 99 bc fb 72 f9 bc 07 ea e6 3c
       -0.04744614 -0.018697748 -0.030450335 0.028187765
000010 8a 87 72 bc 62 d0 57 bd 54 e7 64 3d 23 95 8c bc
       -0.014802823 -0.052688964 0.055884674 -0.017160958
000020 41 fa 6f 3c a3 25 a0 bc fa 1d 62 bc d6 53 72 bc
       0.0146470675 -0.019549197 -0.013801092 -0.014790496
000030 9b 95 68 bc a1 bd 05 bd 49 83 9f bc 3e aa eb bd
       -0.014195825 -0.032651547 -0.019471781 -0.115070805
000040 ac 99 bf 3b 5b 15 f8 bc 7d d0 54 bc 52 36 6d 3c
       0.0058471765 -0.03028362 -0.012989161 0.014478283
000050 ba f5 92 ba 91 af 04 bd 34 12 dd 3c ea a2 b1 bc
       -0.0011212148 -0.032393996 0.026986219 -0.021684129
000060 56 97 f0 bc 78 89 0e bd 1e 7b bb bc 40 56 f2 bc
       -0.029369038 -0.03479907 -0.022885855 -0.029582143
000070 fb 6a 2e 3a e5 8e 15 3c 71 b1 12 bb 1d 6d 90 3c
       0.00066535146 0.009128307 -0.0022383595 0.017630154
000080 4a e7 05 bc 19 fe 15 3d 9b 9e d5 bc d5 c2 8c 3c
       -0.008172819 0.03661928 -0.026076606 0.017182747
000090 4d 96 2e 3b 3f 69 03 3d b4 f0 db bc 61 7a cc bc
       0.002663988 0.032082792 -0.026848175 -0.024960699
0000a0 a8 a0 b2 bc 98 5a 77 bc f7 58 97 bc 77 e3 b5 bc
       -0.021805122 -0.015097283 -0.018475039 -0.02220319
0000b0 5f 6c 11 bd af a8 b7 bc 82 56 ed 3b 82 a9 ad bc
       -0.03550374 -0.022419302 0.0072429786 -0.021198992
0000c0 0a 18 a6 bc 3c 1b d2 ba 33 c0 a7 bc fd 1b 55 bd
       -0.020275135 -0.0016029845 -0.02047739 -0.052028645
0000d0 c3 3e 87 bd 8a 01 71 bc a8 94 c0 bb d6 04 b5 bc
       -0.06603768 -0.01470984 -0.005877096 -0.022097033
0000e0 1e bb ed bc 20 bf ac bc d3 3e b2 bc d3 5c c3 3b
       -0.029019888 -0.02108723 -0.021758473 0.0059619932
0000f0 55 39 d2 bd d1 66 c0 bc 5a c7 8b bc 61 20 f6 bc
       -0.102648415 -0.023486527 -0.017062832 -0.030044736
000100 f2 03 05 bd 47 26 8a bc 2a 75 b4 bc ce 7e e3 bb
       -0.032474466 -0.016863955 -0.022028524 -0.0069426065
000110 75 45 3a bd 7d d7 22 bb 84 49 a8 b9 87 f8 21 3c
       -0.045476396 -0.002484768 -0.0003209823 0.009885914
000120 28 de 41 bc 8e 8c bf bc e2 0b 1f bd 20 c5 d6 bc
       -0.011832751 -0.023382451 -0.03882969 -0.026217043
000130 d2 13 69 bc e4 f2 8c bb 9f f5 ab bb ff e8 22 ba
       -0.014225917 -0.0043014158 -0.005247786 -0.00062145287
000140 9d 37 71 bc f6 69 45 3b e6 b4 2d bc d2 ce 65 bb
       -0.014722732 0.0030122972 -0.010602212 -0.0035065901
000150 2c 08 ab 3b 24 8f f8 bc c3 56 0c bd 10 00 9d bc
       0.00521948 -0.030341692 -0.03426243 -0.019165069
000160 69 3a 19 bd ab a0 9b bc cb 98 3d bb 4e 3f 6c bc
       -0.03740922 -0.01899751 -0.0028930183 -0.01441939
000170 d2 0f 57 bc 5e 0d 87 3b 01 7a 52 bb 2d ad d0 bc
       -0.01312633 0.0041214665 -0.0032116177 -0.025473202
000180 e1 26 78 3c e5 f0 9d bc a7 aa a3 bc 1a 4e 36 bc
       0.015145988 -0.019279907 -0.019978834 -0.011127019
000190 12 8e 02 bd 41 29 35 bc 9c 63 67 bc e0 df e5 3b
       -0.03187377 -0.011057199 -0.01412287 0.0070152134
0001a0 8b 8f 34 bd a8 ea 8f bc 84 4c 9c bc b8 22 8f 3a
       -0.044082206 -0.017567948 -0.019079454 0.0010920381
0001b0 a3 b7 93 bc 03 a2 a3 bc de 04 4e bc 31 8a 18 bc
       -0.0180319 -0.019974714 -0.012574403 -0.009310291
0001c0 b7 3e 0c bd 05 92 a8 bc 0c b4 17 bc 14 05 fd bc
       -0.034239497 -0.02057744 -0.009259235 -0.03088621
0001d0 65 0d 17 bc d6 12 76 bc 38 18 d7 bc f2 c1 2b bc
       -0.009219502 -0.015019139 -0.026256666 -0.010483252
0001e0 d6 53 55 bc 7c a8 24 bc 23 51 69 3c 9e 91 02 bc
       -0.013020476 -0.010049935 0.014240536 -0.007969288
0001f0 56 9a 65 bc d7 82 88 bc 8b be 99 bc 07 48 ef bc
       -0.014013847 -0.016663952 -0.018767616 -0.02920915
000200 e6 ee d1 3c 8c 32 1b 3d f3 0c 4f bd 36 00 16 3d
       0.025626611 0.037890002 -0.05054946 0.036621295
000210 13 e1 8d bc 32 f1 cb 3d b4 54 e5 bd de 04 86 bd
       -0.017319238 0.09958114 -0.111977965 -0.06543897
000220 11 22 08 3d 61 22 d2 bd f3 00 02 be 7d 76 a5 bd
       0.033235613 -0.102604635 -0.12695675 -0.080792405
000230 94 6f 8e 3d 35 17 e3 bc aa a1 29 be 0e ab b9 bd
       0.069548756 -0.027721027 -0.16565576 -0.09065829
000240 a8 15 a2 3d b3 e4 47 bc 26 53 c3 bc 2d dd bd bd
       0.07914287 -0.012200522 -0.02384336 -0.092707016
000250 07 dc 59 bc de 36 96 3d 9e f1 cd 3d 31 f0 5b 3d
       -0.0132970875 0.07334684 0.100558504 0.05369586
000260 f3 58 e0 bc 7d 43 3b 3a d5 f6 ef bd 80 d3 86 bc
       -0.027386164 0.00071435404 -0.11717001 -0.016458273
000270 ec 2a ff bc 24 fe 9c 38 34 c2 db 3c 5b f7 37 3e
       -0.031148396 7.485997e-05 0.026826002 0.17965452
000280 e0 db f0 bd e5 10 4d 3d c1 4d c2 bc c8 70 3e bd
       -0.11760688 0.05006494 -0.023718717 -0.046494275
000290 0f 18 b7 bc a2 f9 96 3c 80 c6 61 39 c8 d8 75 bd
       -0.02235034 0.018429581 0.00021531619 -0.06002119
0002a0 94 fd b7 bc cc 15 89 3d 5a f3 08 3c 1c 90 d1 3c
       -0.022459783 0.066936105 0.008358801 0.025581412
0002b0 c2 ae af 3d 23 09 94 bd 83 df b6 bc 8f 62 62 bc
       0.08578254 -0.07228305 -0.022323376 -0.0138174435
0002c0 67 39 24 bd 41 0d c3 bd f8 1a 5a bd 82 e5 d5 3a
       -0.040093806 -0.09524012 -0.053248376 0.0016319009
0002d0 0e 07 4e bb 74 30 3e bd 2c 83 aa bc 9b 43 1a be
       -0.003143731 -0.046432927 -0.0208145 -0.15064852
0002e0 b0 2f 9d bc af e6 2d 3c 48 9d 94 3c a7 7b 76 bd
       -0.019187778 0.010614081 0.018141404 -0.060176518
0002f0 0a 15 05 be c9 6a 94 bd db c7 97 3d ca 36 c2 3d
       -0.12996307 -0.0724693 0.07411166 0.094831064
000300 99 7a f5 bb 4c 22 1c 3c 32 8e 03 bd 9c a1 74 bc
       -0.0074914214 0.009529661 -0.03211803 -0.014931109
000310 83 04 f9 ba bc 76 49 bc 1e 90 73 bd 74 2f f9 bc
       -0.0018998537 -0.012296375 -0.059463613 -0.030418135
000320 70 ca 92 3b b9 72 af bb 37 0a cb 3a 4a 51 a7 bd
       0.004479699 -0.005354252 0.0015490715 -0.081698015
000330 bf 39 46 bc 45 f1 7d 3c 0f 6a f9 bb 53 fa 3d b9
       -0.012098729 0.015499418 -0.00761152 -0.00018117698
000340 6a 98 6d bc 6f 50 02 bc c3 62 20 3b c0 39 c4 bc
       -0.01450167 -0.007953747 0.002447293 -0.023953319
000350 8a 9f 40 bc 23 4e cd bc 19 a2 20 bc c0 9d f2 bb
       -0.011756787 -0.025061673 -0.009804272 -0.007404059
000360 ad be ab bc c2 22 98 bc 27 06 04 bd d1 85 07 3b
       -0.020964945 -0.018571261 -0.03223243 0.0020679126
000370 bd 7a 11 ba b0 86 5f bc 42 6d 67 bc e8 05 80 bc
       -0.00055496005 -0.013642952 -0.01412517 -0.015627816
000380 21 30 37 bc e8 35 22 3c c6 0f 02 bd 6b 9b b5 3b
       -0.011180908 0.009900548 -0.031753324 0.005542209
000390 54 08 ba bc e4 81 c2 bb da a6 8a bb 16 86 c4 bc
       -0.02270905 -0.0059358943 -0.004231316 -0.023989718
0003a0 ef 8b 90 bc 1d b8 92 bc d5 45 95 bb 3f dc 50 3c
       -0.01764485 -0.017910058 -0.004555444 0.012747823
0003b0 63 13 14 bd 36 c2 17 bd 77 a9 1d bc e5 50 b3 bc
       -0.0361513 -0.03705045 -0.009622923 -0.02188916
0003c0 f8 fe 59 bc 67 4b 3b bd ed 0b b4 bc 2f 4e 60 bb
       -0.013305418 -0.045726206 -0.021978343 -0.0034226289
0003d0 54 3b d5 bc 2b 70 d1 bc 72 70 74 bc 59 2b 0f bc
       -0.026029266 -0.025566181 -0.014919387 -0.008738362
0003e0 3a 1c b7 bc 1d 27 b6 3b 31 28 ea bc 2d 14 68 bc
       -0.022352327 0.005558862 -0.028583618 -0.0141649665
0003f0 f9 9d 58 bc c2 10 ba bc a8 f4 1f bd f1 64 c1 bb
       -0.013221257 -0.022713069 -0.03905168 -0.0059019257

classifier.weight f4 [2, 64]
000000 3f 38 50 3d 9b 9f 21 be 23 09 81 3d c4 80 3e 3d
       0.05083489 -0.15783541 0.06300571 0.04650952
000010 61 0c 37 3d 60 e4 c4 39 fb 3a d4 3d eb 06 31 3e
       0.04468954 0.00037554186 0.10362812 0.17287795
000020 9a 09 60 bd 28 d9 31 be 33 bd 99 3d 08 f5 8f bc
       -0.054696657 -0.17367995 0.0750679 -0.017572895
000030 27 9d b5 bd 10 e1 4f bd ba 96 6c 3e 75 b7 01 be
       -0.08867865 -0.050751746 0.23104373 -0.1266764
000040 21 c0 00 3d 6c 58 d8 bd 88 8c d9 bd a2 c1 0a 3d
       0.03143323 -0.1056374 -0.10622507 0.03387607
000050 97 61 3b 3b fe 16 4a bd d5 04 88 3d 21 3d 6b be
       0.0028592104 -0.049338333 0.06641547 -0.22972538
000060 71 74 dc bd 75 d8 35 3c 7d 9d 84 bd 6e bf 8b 3d
       -0.10764397 0.011098971 -0.06475351 0.06823622
000070 55 35 cc bd 04 35 51 bd e0 7e c8 bc 4d 24 cd ba
       -0.0997111 -0.05107595 -0.024474561 -0.0015651077
000080 02 80 b7 bc 68 5e 1a bc e6 d9 10 3d d1 8c bd 3c
       -0.022399906 -0.009421922 0.035364054 0.023138436
000090 ec db 1e 3d 14 1c 86 be 62 40 94 bc 08 62 03 be
       0.038783953 -0.26193297 -0.018097106 -0.12830365
0000a0 9d 97 0c bd 30 b4 d6 bc 5c c7 c2 3c 21 85 e6 bd
       -0.034324277 -0.026208967 0.023776703 -0.11255861
0000b0 30 6a 27 3e 89 93 3a 3a 4b 2a 35 3e cb ca 78 3d
       0.16349101 0.00071173214 0.17691915 0.060740273
0000c0 31 b2 93 3c 97 37 6f 3e 59 66 40 3d 1b 06 ca bb
       0.018029304 0.2336105 0.046972606 -0.0061652786
0000d0 bf 44 35 be 47 e3 d3 bb bf 57 9e 3b 2c 35 c3 bd
       -0.17702006 -0.0064663026 0.0048322375 -0.09531626
0000e0 5f b8 80 bd 28 9f 8e 3b ec 72 c9 bd 16 da 0f 3c
       -0.06285166 0.004352469 -0.09836373 0.008780023
0000f0 9d 44 16 be 28 ad d1 bd 5a a4 37 ba 10 97 f6 bd
       -0.14674611 -0.10238105 -0.0007005386 -0.12040532
000100 3c 09 6e 3d 71 44 0e 3e 16 4b b4 3b d8 03 a2 bd
       0.058114275 0.13893296 0.005502115 -0.079108894
000110 dd 25 d4 bd 16 9b eb b8 22 c2 85 be 5e 99 32 be
       -0.10358784 -0.0001123456 -0.26124674 -0.17441317
000120 89 cf d0 3d f5 91 48 3e a1 5f 2b bd c2 9c 57 bd
       0.10195834 0.19586928 -0.041839246 -0.05263973
000130 b4 22 c7 bc bd 50 19 3e c3 6a 3f be 37 7d 57 bd
       -0.02430854 0.14972205 -0.1869307 -0.05260965
000140 a3 2a 83 3d 67 32 30 bc 96 11 d8 3d e7 23 00 be
       0.06404617 -0.010754204 0.10550229 -0.12513696
000150 4e 03 54 3c 00 cc 79 bd e7 16 0c be 36 57 ea 3c
       0.012940241 -0.060985565 -0.13680612 0.028606039
000160 20 fb df 3d 45 4d 83 3d 43 87 17 be dc a5 ce bd
       0.1093657 0.06411222 -0.14797692 -0.10090229
000170 a2 ef a1 bd ef f7 6b bd 63 d6 87 bc 7d 5b 9a 3d
       -0.079070345 -0.057609495 -0.01658172 0.07536981
000180 5c 9f 3d 3d 7f 64 a6 bd 3b 24 6e be 87 ed bc bc
       0.046294555 -0.08124637 -0.23256008 -0.02306248
000190 27 3d 56 bd 0e 21 b1 3e 93 e3 4b bd ac f8 8d bd
       -0.052304413 0.3459553 -0.04977758 -0.06932196
0001a0 a7 e0 53 bd 22 cc 9a bd 19 9f 90 3d a5 e3 3a 3d
       -0.051727917 -0.075584665 0.070615955 0.045627255
0001b0 37 c8 56 be 8a ec bd bd 11 34 51 3d 04 e5 aa 3d
       -0.20974813 -0.09273632 0.051075045 0.083444625
0001c0 8a 2f 05 3d 6b 97 d3 bd 1e ae e2 3c e7 7a 19 3c
       0.03251604 -0.10331615 0.027670916 0.009367681
0001d0 72 5a 30 3e ab ff 81 3c eb 53 63 be 78 ac d9 3d
       0.17222002 0.015868982 -0.22199981 0.10628599
0001e0 54 f6 26 3e 5a 56 f4 3b 55 f2 48 3e 3e 77 6d bd
       0.16304904 0.007456583 0.19623692 -0.057975046
0001f0 04 d0 84 3e 67 78 90 3d c9 3a 9e bd 90 8e 28 bd
       0.25939953 0.07054215 -0.07726056 -0.041151583

classifier.bias f4 [2]
000000 d1 08 c2 3d 55 ed 05 3d
       0.09474338 0.03269704
