models/engineered_noweight_gat_model.pt (torch, 272620 bytes, 10 tensors)

conv1.att_src f4 [1, 4, 64]
000000 bf ab 17 3e a9 10 34 3e b8 74 44 bd c6 05 0d be
       0.1481161 0.1758448 -0.047962874 -0.13771734
000010 c1 b0 14 3e 8a ed d0 bd f5 bb af bd 44 02 0c 3e
       0.14520551 -0.10201557 -0.08580772 0.1367274
000020 4d 75 0e be a9 6b 3b bc 23 0c 3b 3d d8 ec 03 be
       -0.13911934 -0.011439242 0.04566587 -0.12883317
000030 75 e6 72 bd e1 8d 27 bb a4 53 bf bd 12 37 97 bd
       -0.059301812 -0.0025566744 -0.09342125 -0.07383551
000040 48 75 18 3c 00 1e 7f bd a6 1b b8 bd 96 5c 8a 3e
       0.009305306 -0.06228447 -0.089896485 0.27023762
000050 9f 2e e8 bd a1 6f 43 bc db f9 10 3d 43 3c 6c 3d
       -0.11337017 -0.01192847 0.03539453 0.057674658
000060 54 7d 21 bd 50 4d 41 3d 6a fc ed 3c d9 5f 28 be
       -0.039426163 0.04719287 0.029051024 -0.16442813
000070 eb b8 06 be 78 b7 13 be ec b9 76 3d e1 46 6f 3c
       -0.13156478 -0.14425457 0.060235903 0.014604301
000080 3d 5b 9f bd fe 7f 31 3e 82 16 22 3e 31 ca f5 3d
       -0.07781074 0.17333981 0.15828899 0.120014556
000090 c1 76 85 3b 21 24 89 bc 79 57 05 be c4 97 b3 bd
       0.0040729945 -0.01674086 -0.1302165 -0.08769181
0000a0 01 f3 88 ba 83 1c 9e 3d 43 e8 36 be 2e fe 07 be
       -0.0010448397 0.07720282 -0.17862038 -0.13280556
0000b0 6c de 14 bc b6 b7 de 3c 02 f0 6b bc 20 fe 50 3e
       -0.009086233 0.02718721 -0.014400484 0.20409441
0000c0 c7 03 a6 3d a3 61 08 be 83 37 71 bd 66 72 8e be
       0.08106189 -0.13318495 -0.05889083 -0.27821654
0000d0 51 f8 d6 bd 5d d4 80 3d aa b7 a5 bd 07 75 c1 bd
       -0.10496581 0.06290505 -0.08091672 -0.09446149
0000e0 8d 0a a0 3d d3 32 bc 3c 53 75 30 be 7c c3 23 3d
       0.078145124 0.022973454 -0.17232256 0.03998135
0000f0 09 40 8f bc 23 7a 1a bd d8 79 81 3b 10 f7 c6 bd
       -0.017486589 -0.037714135 0.0039512925 -0.09715092
000100 b5 3a 3b 3e 24 25 1e 3e 1a 84 05 bd c8 71 15 be
       0.18284114 0.15443856 -0.032596685 -0.14594185
000110 33 9c ec bd 4a 26 12 bd 59 4e d6 3d 0d 24 7e be
       -0.1155323 -0.035681047 0.104641624 -0.2481844
000120 a9 97 3e be 4a e6 8f bc b0 a9 56 be b6 85 06 3c
       -0.18612541 -0.017565865 -0.20963168 0.00821059
000130 df 21 ee 3d a3 cb 59 3e e0 79 81 be 44 5d c7 3d
       0.11627554 0.21269087 -0.25288296 0.09734586
000140 4f 81 c6 3b e2 c2 6f be 0b aa 01 3d 13 e7 ee 3d
       0.0060578953 -0.23414186 0.031656306 0.11665168
000150 24 68 d0 3d b5 dc 5b 3e 69 c7 2f 3d 3b 56 c8 bd
       0.10176113 0.21470912 0.04291478 -0.09782072
000160 82 e3 a2 bd c7 c6 4f 3e 95 e3 8a 3e cd 32 fa 3d
       -0.0795355 0.20290671 0.27126756 0.12216721
000170 55 c6 9b 3c 67 ad 02 be c1 c6 52 3d 1c 1c 93 3e
       0.01901547 -0.1276146 0.051459078 0.28732383
000180 90 93 1e be 8b 53 79 3d c9 97 ee 3d e6 f4 20 be
       -0.15485978 0.06087069 0.116500445 -0.15718421
000190 05 35 26 3d 14 dd fb 3d bb 76 85 be d2 13 07 be
       0.040577907 0.12298027 -0.26067147 -0.13191155
0001a0 1a 32 0a 3e 07 3e 5b 3d e3 4f cc 3d 97 79 10 be
       0.13495675 0.05352595 0.09976175 -0.14108883
0001b0 d0 c5 0b 3e ee 9a 00 3e f7 82 3a be fb 41 20 3e
       0.13649678 0.12559101 -0.18214022 0.1565017
0001c0 88 7e fe 3d a7 a5 c3 bc e7 c0 38 3e b1 73 12 3d
       0.12426478 -0.0238827 0.18042336 0.035754863
0001d0 cc e6 c7 bd 36 b6 52 bd 92 22 f4 bd 14 5a 44 3d
       -0.09760818 -0.0514433 -0.11920656 0.047937468
0001e0 9e 66 42 3e ed 2e 87 3b 66 c1 92 bc 5b 73 13 be
       0.18984458 0.004125467 -0.017914485 -0.14399473
0001f0 77 be 5e 3d d5 73 0d 3e 5c e6 06 3e 39 92 e2 bd
       0.05438086 0.13813718 0.13173813 -0.11063046
000200 8d 81 10 bc d0 e5 80 3e 1c 04 09 bc e9 e7 a4 3d
       -0.00881995 0.25175333 -0.008362796 0.08052046
000210 b0 e9 9d 3d ad bd ca 3c 09 52 89 be 4c 84 e3 bd
       0.07710588 0.024748648 -0.268204 -0.11109218
000220 e4 1d ea 3d 54 4e f8 3d 59 6f 49 be e1 25 9b bd
       0.114314824 0.12124315 -0.19671382 -0.07575584
000230 79 2e 18 3d 7d a2 cc bd 4d b3 7b bc 99 5b 1b 3e
       0.037153695 -0.0999193 -0.015362573 0.1517166
000240 0c cd b3 bd 44 f1 e4 3d 36 57 93 be f6 fe aa 3e
       -0.08779344 0.1117883 -0.28777474 0.33397645
000250 08 2f 86 bd 2b f0 55 be fa f5 6f bd 75 3a bc 3d
       -0.06551939 -0.20892398 -0.05858419 0.09190837
000260 e5 e4 3c 3e 7f 48 9d 3e 87 1d 28 3d ee 52 85 3d
       0.18446691 0.30719373 0.041043784 0.06509958
000270 d2 d0 99 be 07 0e 20 3e a8 98 0a bc 38 a7 ac be
       -0.3004213 0.15630351 -0.008459248 -0.33721328
000280 84 db 37 3e 1d 96 6e 3e 45 10 a1 be 88 dd ca bd
       0.17954832 0.23299451 -0.31457725 -0.09905535
000290 b8 75 c7 3c a1 65 53 be 74 11 85 3d 82 89 52 3e
       0.024348125 -0.20644237 0.064974695 0.20560268
0002a0 36 f0 4f bd 47 14 39 3e 4b 28 72 3e a0 ee 0c 3e
       -0.050766192 0.18074141 0.23648183 0.13762903
0002b0 fc e6 7e bd 2f ee f4 bd dc 38 b3 3b b9 55 2e 3e
       -0.062232003 -0.119594924 0.0054694247 0.17024888
0002c0 48 60 07 bd 77 d4 b2 bc e5 f5 ad 3d 25 f8 0c 3e
       -0.033050805 -0.021829827 0.08494166 0.13766535
0002d0 b0 67 50 bd 5d a6 30 3e c6 32 3d be 50 71 f3 3d
       -0.050880134 0.17250963 -0.184764 0.11886847
0002e0 a0 4e 09 3d ad 8a ac 3d cb ec 9f bd 5a 0d cc bd
       0.03352225 0.08424888 -0.078088365 -0.09963484
0002f0 db c3 3e 3c 7c 6c 5b be 80 70 99 3e 8b 1d 89 3e
       0.011643375 -0.21428102 0.29968643 0.26780352
000300 b5 89 3e 3d cf b3 05 3e 94 78 9b 3c 95 e9 10 bd
       0.046518046 0.13056873 0.018978395 -0.03537901
000310 43 35 ea 3d b3 14 4f 3e 5f 88 ac 3d 29 af 96 bd
       0.1143594 0.2022274 0.08424448 -0.07357628
000320 33 f3 3e bd 3a 8a 38 be 99 85 45 be b2 33 d6 3d
       -0.04661865 -0.18021479 -0.19289245 0.10459079
000330 0e d5 5f bd ef 2b 45 3e 80 5d ee bc 6f 35 de 3d
       -0.054646544 0.1925504 -0.029097319 0.108500354
000340 8c 87 1f be ad d7 1c be 07 8a 78 3d 89 6e 57 3e
       -0.15579051 -0.15316649 0.060678508 0.2103826
000350 cc 5d ae 3d 55 dc 0a be 26 4a f2 3d 7b 99 15 3e
       0.08513984 -0.13560612 0.11830549 0.1460933
000360 39 2e a7 3b a4 32 19 bc 9d 6b 0f be 87 ba 1b bd
       0.0051019457 -0.009350453 -0.14005895 -0.038019683
000370 6a 8a aa 3d 2a 9f ff bd dd 66 1a 3c 45 5b 41 be
       0.08327182 -0.1248153 0.009423939 -0.18882473
000380 3d 5b e5 3c a3 2a 3a bd 32 0f a0 3d fa 9b 4e 3d
       0.027997607 -0.045450818 0.07815398 0.05044172
000390 86 3a 77 bd 91 c7 82 be 48 11 1e bd c5 84 3b bd
       -0.060358547 -0.25542882 -0.0385907 -0.045780916
0003a0 e4 e4 52 3d 7e 12 cc 3d f1 59 93 3d 3f f0 f3 3d
       0.05148782 0.099644646 0.07194889 0.11911058
0003b0 b4 3f 17 3d 7b 7a 41 3d 23 93 7b 3d d2 e9 d8 3d
       0.036925986 0.047235947 0.061419617 0.10591473
0003c0 13 2f 18 be 3b 1b 8f 3d 97 a9 af 3d 02 0d ee 3d
       -0.14861707 0.06987616 0.085772686 0.11623575
0003d0 50 6a 0a bd c5 60 28 bd b6 eb 00 be 6a bc e3 3a
       -0.033792794 -0.04110791 -0.12589917 0.0017374877
0003e0 17 c2 d0 bd 88 3b 5e be f5 df 87 bb 4a 3d 57 be
       -0.1019327 -0.21702397 -0.004146571 -0.21019474
0003f0 b3 38 c5 bd c1 1b 12 be d7 c7 a7 3d 19 1f 2d 3d
       -0.09629955 -0.142684 0.08192413 0.042265985

conv1.att_dst f4 [1, 4, 64]
000000 2d 6c 05 bd 3b 9c d2 bd 48 62 25 3e f5 ed a5 bd
       -0.032573868 -0.10283705 0.16150773 -0.08102027
000010 67 ef b3 bd ab 75 fb 3c 9f 17 d5 bd f1 7a 82 3d
       -0.08785897 0.030695757 -0.10404896 0.063711055
000020 8b ee de bc 89 27 5f bd b0 73 d5 bd 9f 17 1d be
       -0.027213356 -0.054481063 -0.10422456 -0.15341042
000030 14 e2 2e be 96 2d 16 be e5 a3 66 3d db cc 5f 3e
       -0.1707843 -0.14665827 0.056308646 0.2185549
000040 d5 62 9a bd e2 5b a2 be 2d 4b d6 bd f3 a1 84 bd
       -0.07538382 -0.31710726 -0.104635574 -0.06476202
000050 6b 5e 37 3c a6 34 3d 3c 19 66 a8 bd 5f e6 b6 3d
       0.011191945 0.011548197 -0.082225986 0.089306585
000060 e5 e4 dc bc c4 68 3f be 0a fb 34 bd 74 48 06 3d
       -0.026964614 -0.18692309 -0.044184722 0.03278394
000070 9e dc 67 3d e9 2b 8d bd 16 5b 8b 3d ef 02 12 be
       0.05660688 -0.06893141 0.06804483 -0.14258932
000080 e6 99 55 bd 90 b4 58 3e a2 84 de bd 09 b3 a2 3d
       -0.052148722 0.21162629 -0.108651415 0.079443045
000090 13 1d e1 3c c5 a6 3a 3d ee 8e d4 bd 4c c4 ea 3c
       0.027479684 0.0455692 -0.10378824 0.028658055
0000a0 77 ba 1d bd c2 c6 2c 3c 02 a1 e5 bc 4c 45 c5 bc
       -0.038507905 0.010545434 -0.028030876 -0.024080895
0000b0 eb f2 4b 3d 55 a3 42 bd 72 29 28 3c 31 cc 1a 3e
       0.04979221 -0.047519047 0.010263788 0.15116955
0000c0 f0 44 1c 3e 04 44 6e 3c 23 81 bf 3d e0 6e 59 bd
       0.15260673 0.014542583 0.09350803 -0.053084254
0000d0 d7 ea 2c bd df 0d 35 3d 2b c4 79 3d 9f 93 9d bc
       -0.04221615 0.04420268 0.060978096 -0.01923543
0000e0 19 cf 43 bc b6 55 99 bd 7b cf a1 3c 3a b5 39 3e
       -0.011951231 -0.07487051 0.019752255 0.18135539
0000f0 1d 4b ad bd 36 44 b6 bd 57 a4 a0 3c d7 8b 56 bc
       -0.08461592 -0.08899729 0.019609613 -0.013094864
000100 66 08 a7 3c a2 29 21 be 88 7c cb 3d c6 a1 4b be
       0.020389747 -0.15738538 0.09935862 -0.1988593
000110 36 c5 91 bd 6b cb 68 3d 69 0c b3 3d 8f cd 03 be
       -0.07117693 0.05683462 0.087426014 -0.12871383
000120 e8 e7 17 be 14 2d ab bd 92 61 86 be 60 4d 2e 3d
       -0.14834559 -0.08358207 -0.26246315 0.04255426
000130 b8 65 57 bd f4 95 e9 bb ad ea 0c be 63 de 93 ba
       -0.05258724 -0.0071284715 -0.13761397 -0.0011281486
000140 42 f3 1c 3b 3b 25 b7 bc 0a 47 19 be 01 f7 47 be
       0.0023948704 -0.02235662 -0.14968506 -0.19527818
000150 97 ab 8d 3b 3b 8f 3c 3e 98 02 b9 3d cd 43 5d be
       0.0043234336 0.18414013 0.09033698 -0.21607895
000160 ac 5e 44 bd 6b 75 98 bd 58 7e e2 bd 5b 61 85 3e
       -0.04794185 -0.07444271 -0.110592544 0.2605084
000170 de fe d5 3d 89 fe 0d be 48 7a 68 3d de 13 16 3e
       0.10449003 -0.13866629 0.05675724 0.14656016
000180 b1 cc 19 be ba cd ba bc de 13 92 3d 0b 57 af bd
       -0.1501949 -0.022803176 0.071326956 -0.08561524
000190 35 41 67 3d 20 4f 3e 3e 61 50 4c be f1 49 cc bd
       0.05645867 0.18584871 -0.19952537 -0.09975041
0001a0 f3 1f 89 3d 7d 70 0c 3e 77 25 39 3e c7 96 0f bc
       0.06695547 0.13714786 0.18080698 -0.008763975
0001b0 d3 cd ee bb 2e f2 2e 3d 02 fb 0e 3e 59 d6 89 3e
       -0.0072877198 0.04271143 0.1396294 0.26921347
0001c0 9c 7f a3 3c d8 0e 4f 3e 48 27 5a 3d ea c4 04 3c
       0.01995831 0.20220506 0.053260118 0.008103589
0001d0 b2 4b cb bc 36 20 00 be 33 32 97 bd 4d 1e 97 be
       -0.024816368 -0.12512287 -0.073826216 -0.29515305
0001e0 1b 93 c2 bd 60 d6 3a be 17 bc e8 3d e6 78 0c be
       -0.095007144 -0.1824584 0.11364 -0.13717994
0001f0 82 b4 9f 3e a9 67 a9 3d 38 55 68 3e 3f ee 2f be
       0.31192404 0.08271725 0.22688758 -0.17180727
000200 0a 79 52 3d 3f 1f 94 3d b3 31 aa be 53 02 a0 be
       0.051384963 0.07232522 -0.33241042 -0.31251773
000210 32 34 79 bb 40 e0 57 3e 41 34 f6 3d 4b 73 5c bd
       -0.0038025496 0.21081638 0.120216854 -0.05382089
000220 97 96 2e be 94 21 3b bd f6 85 0d 3d ba 5c d3 bc
       -0.17049633 -0.04568632 0.034551583 -0.025801051
000230 c9 01 0f be 2a 83 86 3e b9 20 11 3d cc 42 44 3e
       -0.13965525 0.26271945 0.035431597 0.19166106
000240 23 5e ea 3d 58 ff c5 bd ec 24 5a be 8a 0a 6e 3e
       0.114437364 -0.096678436 -0.21303147 0.23246208
000250 d4 28 7d be f5 1e ff bd 1f f7 87 3d 5e 3d f4 3d
       -0.24722606 -0.124570765 0.066389315 0.11925767
000260 aa 58 cf 3d 20 1f 72 3e 36 69 5e be 44 ce 4b be
       0.10124333 0.23644686 -0.21719822 -0.19902903
000270 b3 a4 68 bd aa e3 28 3d b7 a3 4b be ed de 33 3e
       -0.056797694 0.041232742 -0.19886671 0.17565508
000280 12 1e 37 3c db ac 3e 3e 5b dc 69 3e 0d 4a 36 3e
       0.011176603 0.18620627 0.22837965 0.17801686
000290 47 93 14 be 20 54 0b 3e ef c0 9d bd 3f 26 b0 bd
       -0.14509307 0.1360631 -0.07702815 -0.08601045
0002a0 36 e1 4d be 52 a4 83 3e a6 73 26 be 30 eb 46 3e
       -0.20105442 0.25711304 -0.16255054 0.19425654
0002b0 7a 05 8c 3e 97 10 97 3e ee ac 5a bd 96 90 a7 3e
       0.27347928 0.29504845 -0.053387575 0.32727498
0002c0 55 d8 ab bd 2c 07 a9 bd 71 c5 08 3e b2 e2 8b bd
       -0.083908714 -0.08253321 0.13356568 -0.06830348
0002d0 4c 80 d3 bd c6 5e 36 bd 1f 53 a4 be 81 a8 05 be
       -0.10327205 -0.044523977 -0.32094666 -0.1305256
0002e0 bf 6d 43 be b6 b0 2a be 98 b6 d2 3d ff b9 19 3e
       -0.19084834 -0.16668972 0.10288733 0.15012358
0002f0 83 b0 8a 3c 32 71 44 3c 8a c0 97 3e a7 c1 3e 3e
       0.01692987 0.0119898785 0.29639083 0.1862856
000300 dd 3f 8a 3d 66 70 90 bd 0d fa 2d bd 16 ad 47 3d
       0.06750462 -0.07052688 -0.042474795 0.048749052
000310 e3 29 35 bd 8e bd 05 3d a9 f0 c1 bd 8f e0 b6 3b
       -0.0442294 0.032651477 -0.094697304 0.0055809687
000320 53 10 95 be 5e a9 df bd 64 76 35 bd 40 9f ae bd
       -0.29114017 -0.10920976 -0.04430236 -0.08526468
000330 69 2f 96 bc 55 fb a3 3c 14 88 5b bd 4b 52 13 bd
       -0.018333154 0.020017305 -0.05359657 -0.035967153
000340 5c 2f 21 bc 96 d6 88 bd 93 95 51 bc c3 2d 6b bc
       -0.0098379515 -0.06681554 -0.012792009 -0.014354172
000350 a4 e5 d7 3c 4a 20 06 be 30 93 7a 3b 7d 04 51 bd
       0.026354618 -0.13098255 0.0038234703 -0.05102967
000360 ce 06 86 bc e2 a6 8a 3c 97 8c c0 3c 68 89 21 bc
       -0.016360667 0.016925279 0.023504538 -0.00985942
000370 38 53 5e bd b6 f1 d1 b8 9d 04 2d bd 15 42 68 bd
       -0.054278582 -0.00010010919 -0.042240728 -0.056703646
000380 0a 69 de bc 69 e1 ab 3c 59 e3 77 bc 96 3d 11 3d
       -0.027149696 0.020981507 -0.0151298875 0.035459124
000390 39 d1 b6 3d 3e 7f f5 3b 37 de 9e bd 8a 41 53 bc
       0.08926625 0.007491975 -0.07757228 -0.012894044
0003a0 16 18 fc bc d5 aa c7 3d 73 b1 96 bd 90 4c 8e bd
       -0.030773204 0.097493805 -0.073580645 -0.06948197
0003b0 eb 0a 07 3d d5 9c 9c 3d ec 47 ae bc 92 ed a7 3d
       0.032969397 0.07647101 -0.02127453 0.0819961
0003c0 d7 be 50 3d 16 69 b8 3b 10 eb 95 bc 17 eb 5e 3d
       0.05096325 0.0056277616 -0.018300563 0.054423418
0003d0 6b e3 e4 3c e5 59 e1 bb c5 f4 2c bc c1 e1 0c 3d
       0.027940473 -0.0068771713 -0.0105564045 0.034394983
0003e0 c4 ce 8f 3d a1 65 af bd 78 e4 53 3d a2 21 07 be
       0.07021859 -0.08564306 0.051731557 -0.13196424
0003f0 13 b5 fe bd 8f 93 a9 3d c3 02 f3 3b 0b 25 19 3c
       -0.12436881 0.08280098 0.0074161007 0.009347211

conv1.bias f4 [256]
000000 79 14 8d 3d fa e7 8a 3d da 57 c1 bd 51 5b 5c 3d
       0.068886705 0.06782527 -0.094405845 0.053798024
000010 ab 0f c7 3d 53 7e 31 bd 87 be ea bc 19 9e 06 bd
       0.09719785 -0.043333363 -0.028655304 -0.032865617
000020 15 4c fb 3c 08 56 37 3d 8e 95 06 bd 87 9e ea bc
       0.030675927 0.04475978 -0.03285747 -0.028640045
000030 5d 4b f9 3c 58 fb 0b 3b 60 ac 9b 3d 86 0a 05 bd
       0.030431444 0.002135953 0.07601237 -0.03248074
000040 52 75 45 3d ca 8e d5 3d 45 1b a0 bb 17 d3 fe 3b
       0.04820759 0.104276255 -0.0048860633 0.0077766287
000050 2c 6d 83 3d b8 e2 a3 bc 04 c6 94 3d 96 24 2a 3c
       0.06417307 -0.020005569 0.07264331 0.010384699
000060 78 26 57 bd d3 18 4d 3d de c7 5c 3d 2e f7 84 3d
       -0.05252692 0.050072502 0.053901546 0.06492458
000070 21 ba 85 bd bb 43 f3 3c 0d 45 b5 3d 11 9d d1 3d
       -0.06529642 0.029695382 0.08851061 0.10235036
000080 40 47 08 bd 37 08 80 bd 55 3a ba 3d f0 dd 49 bd
       -0.033271074 -0.06251567 0.09093157 -0.04928392
000090 bd b8 3a bd 91 70 8b 3d d5 ed d5 3c d5 eb 14 bd
       -0.045586336 0.0680858 0.026114384 -0.03635772
0000a0 30 4d 42 bd 71 04 15 3d 31 32 ac 3c 58 4c da bb
       -0.047436893 0.03638119 0.021020027 -0.006661933
0000b0 e1 95 88 3c 94 2d af 3d ea 86 e2 3d 41 d3 d4 3d
       0.01667303 0.08553615 0.11060889 0.10391856
0000c0 cd 7b 60 3c 4d a4 06 bd 85 d8 7e 3c 11 29 b6 bc
       0.013701391 -0.032871533 0.015554552 -0.022236379
0000d0 17 af 63 bd 44 ed cc 3c 0c 12 a8 3d ab 09 dd 3c
       -0.0555869 0.02501548 0.08206567 0.02698215
0000e0 6b 6f 06 bd e6 87 c7 3d 77 9f 39 bd ee 1b 49 3d
       -0.0328211 0.097427174 -0.045318093 0.0490989
0000f0 fb 34 9c 3a 49 c2 d6 3c fa 78 8d 3d 63 b3 0b bd
       0.0011917645 0.02621569 0.0690784 -0.034106623
000100 14 65 b3 3d f1 b1 e4 bc 0e 19 08 3d eb 23 9c 3c
       0.087595135 -0.02791688 0.03322702 0.019060096
000110 8d c1 44 bd 77 41 b0 3d ac da 10 bd 12 e6 10 3d
       -0.048036147 0.086062364 -0.03536479 0.035375662
000120 a4 e0 f5 3c c4 51 7f 3d ea 27 8b 3d 17 98 61 3d
       0.030014344 0.062333837 0.067947224 0.055076685
000130 ed 45 9f 3d 60 d2 45 bb 29 dc d2 3d 4f c6 7c bc
       0.07777009 -0.0030185208 0.102958985 -0.01542814
000140 5a 61 a3 bc 21 8c 26 bd ef c5 bc 3b 03 fc 9a 3d
       -0.019943882 -0.04066098 0.0057609 0.07567599
000150 23 eb 63 3d 3b 4a e0 3d c1 ab 86 3d 7a 75 6c bd
       0.055644166 0.10951658 0.06575728 -0.057729222
000160 49 eb 9c 3d 7b 1f 2d bb d8 2d 91 3d de 6f 4f 3d
       0.076620646 -0.002641647 0.07088822 0.050643794
000170 08 c9 bb 3d d2 b8 11 bd 05 dc 19 bd 8a 34 d7 3d
       0.09169203 -0.03557665 -0.037563343 0.10508068
000180 e6 a2 08 bd bb c8 c6 3d b3 46 21 bc 50 63 6f 3d
       -0.033358477 0.09706255 -0.009843516 0.05844432
000190 b0 75 22 bc 40 4d 6b 3d 53 2d 03 bd 1f 3d 87 3b
       -0.009915754 0.05744672 -0.032025646 0.0041271592
0001a0 0a 00 88 3d 5a 6f 35 bd a1 8b 09 bd c5 45 28 3c
       0.066406325 -0.044295646 -0.033580426 0.010270541
0001b0 e1 15 10 3e 51 a4 51 bd d7 0f 90 bc c1 2a a6 3b
       0.14070846 -0.051182095 -0.017585678 0.0050710146
0001c0 95 53 5c bd fd 4a da 3d 1a 14 01 3b f3 78 ba bb
       -0.053790648 0.10658834 0.001969582 -0.005690688
0001d0 f5 d1 4b bd 46 13 99 bd 3f e2 1c bd fb 49 80 3c
       -0.049760778 -0.07474379 -0.038301703 0.015660277
0001e0 65 9b 9e 3d c7 a8 e5 bb b5 b2 93 bc 38 d1 dd bc
       0.07744483 -0.007008645 -0.01802955 -0.027077302
0001f0 11 e6 88 3d bf ea cd 3b e0 34 cd bc 87 55 22 bd
       0.06684507 0.0062840874 -0.025049627 -0.039632346
000200 07 d7 60 3d 0d 09 9b 3d 36 68 76 3d bf 32 fb bb
       0.054892566 0.07570086 0.060157977 -0.0076659615
000210 fa 8e af 3d 98 81 7b bd ce 7b 87 3d 5c bf 9d bb
       0.085721925 -0.061402887 0.06615411 -0.0048140716
000220 bf ff ca 3d e8 52 d1 bc e2 95 2f 3d c4 b8 69 bc
       0.09912061 -0.025552228 0.04286755 -0.014265243
000230 7e 0a b7 bc 33 f5 72 bd aa 5d 49 bc b3 26 a9 3d
       -0.02234387 -0.05931587 -0.012290398 0.082593344
000240 b9 e0 07 3c cd 4e 16 bd d9 c4 e4 bc fb 01 c9 3c
       0.008293324 -0.036696244 -0.027925896 0.024537077
000250 c0 85 a0 bc 6c 1b 49 bd fe b6 a1 3d 69 19 ab 3d
       -0.019595027 -0.049098417 0.07896231 0.08354456
000260 d3 fe bd bd 79 2a f5 3c 89 c5 0d 3d 4f 22 0d 3d
       -0.092771195 0.02992748 0.034612212 0.034456547
000270 b1 c1 b5 3d 54 e7 87 3a f9 30 3b bd ab a4 a8 3d
       0.08874834 0.0010368624 -0.045701 0.08234533
000280 30 1e 4d bd a7 f1 30 3d da 8f d9 3d af 4a 9e 3d
       -0.050077617 0.043199208 0.10623141 0.077290885
000290 33 73 13 bd 82 b9 be 3d e8 8c ec bb b0 9a 1d bd
       -0.035998534 0.093127266 -0.007218946 -0.0384776
0002a0 e4 b3 13 3d f3 2e 02 bd 57 06 d1 bc 2f 86 8a 3d
       0.03606023 -0.031783056 -0.025515718 0.06763875
0002b0 2d f9 3d 3d cc 47 da 3a be cc 31 3d d9 2d cb 3d
       0.04638021 0.0016653477 0.043408148 0.09920854
0002c0 91 8d 8e 3d 89 93 a8 3d 25 2a 5d 3d 0c 69 bb 3d
       0.069605954 0.08231265 0.05399527 0.091508955
0002d0 86 d9 05 bd 85 ef 1f 3d c2 b6 d2 3d 33 7a 6e 3d
       -0.03267815 0.039046783 0.102887645 0.058222007
0002e0 1d c1 31 3b a5 fa ad 3d 2d 85 86 3d 67 fe 92 bd
       0.002712316 0.08495072 0.0656837 -0.0717743
0002f0 9e ad 8d bc 7d 0b e7 3d c9 12 bc 3d 25 f5 50 3d
       -0.017294701 0.11281488 0.091832705 0.051015038
000300 c6 c5 d0 3d 9e 73 b9 3c 11 18 11 bd 0e 83 71 3d
       0.10193972 0.022638138 -0.035423342 0.058962874
000310 4c 05 ec 3c e3 b6 57 bd c7 2c 95 3d 4c 07 f8 3b
       0.02881112 -0.05266465 0.07283931 0.007569229
000320 51 44 90 3d 24 cc 00 bc 70 ac 90 3d f1 ac c2 3d
       0.0704428 -0.007861171 0.0706414 0.09505642
000330 75 c4 b5 3d b3 25 8e 3d cf 80 21 bd dc 77 3b 3d
       0.08875362 0.06940784 -0.039429482 0.045768604
000340 b7 a2 bc 3d f0 e2 d5 bc 6d e3 4f bd cd 22 57 bd
       0.09210723 -0.026109189 -0.050754 -0.052523423
000350 0e 2b c8 bc 32 d8 1f bc 3c e5 e1 3d f0 f4 09 bd
       -0.024434593 -0.009756135 0.11030051 -0.033680856
000360 13 36 28 bc 61 91 0f 3d e4 9b 54 bd f1 51 50 bd
       -0.010266799 0.035050754 -0.05190648 -0.050859395
000370 31 d9 6c 3d dd 43 3d bd 36 46 ad 3c b6 a9 22 3c
       0.057824317 -0.046207298 0.021151643 0.009928158
000380 a2 b1 fc 3c b8 36 d0 3c 1e 62 ed 3c 9a 9a 10 3d
       0.03084642 0.025416717 0.02897745 0.03530369
000390 f1 47 34 3d 4a f8 84 bd 67 59 8b 3b 04 22 d3 3d
       0.04401392 -0.0649267 0.004252601 0.10309222
0003a0 a3 1f a1 3d ff 5a fc 3d 6d 5d 48 bd 93 25 88 3d
       0.07867362 0.12322044 -0.048917223 0.06647792
0003b0 02 0b c1 bc 8e f3 ba 3a a2 95 20 bd 21 7a be 3d
       -0.02356482 0.0014263259 -0.0392052 0.09300638
0003c0 4c 3a 82 3d eb 32 aa 3d 4b bd 48 3d 73 57 7f bc
       0.063587755 0.08310493 0.04900865 -0.015584814
0003d0 c8 36 73 3d dd db 8b 3d 05 81 ae 3d 65 cb 20 bd
       0.059378415 0.06829045 0.08520702 -0.039256472
0003e0 b1 96 c5 3d 5a 50 91 3d 72 5b f6 bc 0f 8a c3 bc
       0.09647883 0.07095404 -0.030072901 -0.023869542
0003f0 46 da 9a 3d eb a0 f7 3c 3d be 9c 3d 5d 94 8d 3d
       0.075611636 0.030228099 0.076534726 0.06913064

conv1.lin.weight f4 [256, 194]
000000 6d 2c 49 bc 2b 35 e5 3b 52 5c fa 3b 2f c8 be 3b
       -0.012278658 0.0069948635 0.0076404 0.0058222036
000010 eb ec 87 bb 74 10 f1 3c 32 16 90 bd 35 6a db 3d
       -0.004148116 0.02942679 -0.070354834 0.10713617
000020 6d a8 14 3d c1 77 17 3c e2 af d3 bd 6a 99 17 3d
       0.036293436 0.00924486 -0.10336281 0.03701154
000030 d0 4f 05 bc a6 b3 e9 bc 54 38 dd bb 5b 1b 15 3c
       -0.008136705 -0.028528046 -0.0067510996 0.00910076
000040 68 42 09 bd 61 7b 3a 3c b1 5a 87 3b 9e a8 87 3d
       -0.033510596 0.011381955 0.0041306843 0.06623958
000050 74 19 6f 3d 7e b0 58 bd 58 d0 f8 bc 17 3d 8c bb
       0.058373883 -0.05290269 -0.030372784 -0.0042797434
000060 5d 3b cb bb f7 56 5c bd 8e 7d d2 ba 8a 0c 00 bd
       -0.006202145 -0.053793874 -0.0016059147 -0.03126196
000070 11 52 e2 bc 2a e5 f2 bc ba 67 ac bc db 35 e1 bc
       -0.027627023 -0.02965029 -0.021045554 -0.0274915
000080 3a f3 0b 3d 46 63 d5 3c f9 74 2a 3c 65 84 2d 3c
       0.034167506 0.026048314 0.010403865 0.010590647
000090 a0 fd 80 3c a7 f3 21 bc 44 db a4 bc 1f a8 7a bd
       0.015745938 -0.009884751 -0.020124085 -0.06119549
0000a0 1a 5d 1a bd f1 d6 bf bc e5 47 a4 bd b1 7a 91 bc
       -0.037686445 -0.023417922 -0.08021525 -0.0177587
0000b0 89 fb 56 bc d8 82 a5 bd ea 69 61 bd 33 2e 59 bd
       -0.013121494 -0.08081597 -0.05503265 -0.053022575
0000c0 47 5c 3c bd 5d ea 27 bd bf 71 99 bd 16 11 15 3c
       -0.04598644 -0.04099499 -0.074923985 0.009098312
0000d0 c4 0d 9f 3c f4 e6 49 3d 44 69 64 3d 07 6b 1b bd
       0.019415744 0.04929252 0.05576445 -0.037943866
0000e0 2c e7 8e bd df 2f 43 3b 3e 1a 76 bd ba a7 5b bd
       -0.06977686 0.0029783172 -0.06008362 -0.053626753
0000f0 53 47 23 bd c6 ee c6 3c 44 b6 88 3d 7f 08 cb 3b
       -0.039862942 0.024283778 0.066753894 0.006196081
000100 3d 37 93 bc ba 0a 4a bd 1d 29 b4 3b c4 69 8e 3d
       -0.017970676 -0.049326636 0.005498065 0.06953767
000110 a3 72 ab 3a 2b fb 14 bd 5a 68 af bb d1 0f 90 bc
       0.0013080429 -0.036372345 -0.005353016 -0.017585667
000120 66 d3 f4 bc 3b 05 61 3c fb 77 24 3d a9 b3 c6 3d
       -0.029885959 0.013734157 0.040153485 0.09702236
000130 d0 13 4e bd ac 9e a4 bd bc 95 63 bd 29 1b df 3c
       -0.050311863 -0.08038077 -0.05556272 0.02723463
000140 cb 7a f0 3c cd 2d dc 3b 6d 92 94 bd a6 cd 69 bd
       0.029355427 0.006719327 -0.07254491 -0.057080887
000150 19 07 ed bd 2f 2e 54 3d 6b fe 46 3d 07 5e 92 bd
       -0.115736194 0.051801857 0.048582476 -0.071468405
000160 2e 2e a6 3d e9 23 eb 3c bf 0c 04 3d 0d 09 2c 3c
       0.08114277 0.028703647 0.032238718 0.010500205
000170 85 83 c8 3c 12 2a 89 bc 8c 9e 1e bc 2a bd cd 3c
       0.024476776 -0.016743694 -0.009681355 0.025114615
000180 8b 3c 03 bd 92 d4 59 3d cd 8f 86 bc 29 70 10 bd
       -0.03204016 0.05318124 -0.016425991 -0.035263214
000190 20 b1 bb ba f5 46 2f bc 34 7f c6 bb 77 b9 54 3b
       -0.0014319755 -0.01069807 -0.0060576443 0.0032459178
0001a0 88 a3 eb bc 74 44 a1 3b d5 ca 2c 3c 4e 12 cc 3c
       -0.028764501 0.0049214903 0.010546406 0.024911072
0001b0 4b 53 36 3c 78 f7 16 bd d0 8e 6e bd 03 41 d7 3b
       0.011128257 -0.0368571 -0.058241665 0.0065690293
0001c0 cb d5 8d 3b 00 21 29 3d e6 17 b8 bc 9b 93 4d bc
       0.0043284646 0.041291237 -0.022472333 -0.012547399
0001d0 5f 32 27 3d 77 35 8d 3c b9 97 0c 3c d7 ad a2 bb
       0.040819522 0.017237408 0.008581095 -0.004964571
0001e0 e0 cf 32 3d 31 8c de 3b e8 ad 3f 3d 6e 5b 06 3d
       0.043655276 0.0067916145 0.04679671 0.032802038
0001f0 d1 f8 64 3d f7 11 df 3c 14 bc 28 3d 3f da 45 bd
       0.055901352 0.027230246 0.04119499 -0.04830384
000200 34 04 f7 3c ae c6 0a be d2 20 20 ba 5f e1 12 3d
       0.030153371 -0.13552353 -0.0006108406 0.035859462
000210 79 69 45 3c 00 1c 42 3c 16 f6 d9 3c 1b 24 60 bd
       0.012049072 0.011847496 0.0266066 -0.054721933
000220 13 59 23 3d c5 d9 cd 3c c8 e8 c0 bc 9c 24 71 3d
       0.03987987 0.025128255 -0.023548499 0.058872804
000230 19 11 9f 3d ca da 1f bc 6d 37 52 bd d6 6e 8e 3b
       0.07766933 -0.009756753 -0.05132239 0.0043467088
000240 ce 30 f1 39 81 e2 17 3d 19 c7 85 3d 18 14 3c 3b
       0.00046003464 0.037081245 0.065321155 0.00286985
000250 9e 3c a0 bb 31 f1 b3 bb 1b 54 27 3d e7 36 16 3d
       -0.0048900386 -0.0054913987 0.040851694 0.036673453
000260 ab d6 69 3d 16 a6 57 3c 1e e2 f6 3c 72 3c 54 3d
       0.05708949 0.013162157 0.030137118 0.051815458
000270 0b 09 25 3d 72 28 69 3d 1d 0d 78 3c 12 cf c3 3c
       0.040291827 0.056923337 0.015139845 0.02390245
000280 fd 1d d5 3c 2c 30 f5 3c 47 99 02 3b 1e 23 87 3d
       0.026015276 0.029930197 0.0019927786 0.06598495
000290 1c 31 30 3d 6e 4f e9 3c 76 e6 46 b9 37 50 f6 bc
       0.043015584 0.028480258 -0.00018968605 -0.030067546
0002a0 af 2b ce 3c 5b 1b 25 3e cd 99 ea bb 4d 84 bb 3d
       0.025167314 0.16123717 -0.0071594478 0.09156094
0002b0 65 2c e7 3d 37 91 5e bd e5 ef 2d 3d 1c b0 85 3c
       0.112877645 -0.054337706 0.04246511 0.016319327
0002c0 de f2 56 3c 07 24 cb bb 88 b6 46 3c 4a 6d ed bc
       0.0131194275 -0.006199363 0.01212848 -0.028982777
0002d0 6b f3 07 3c 6a ae d4 bd 09 d1 38 bd ca 33 27 3b
       0.008297781 -0.10384829 -0.045121226 0.0025513046
0002e0 af bc 4d 3c 56 d8 8a 3d e0 f3 dc bc 04 a7 89 3d
       0.012557193 0.06779544 -0.026971757 0.06721309
0002f0 79 38 dc 3c c0 28 8c bc 12 9d ed 3c bf be 27 bd
       0.026882397 -0.017109275 0.029005561 -0.040953394
000300 dd 03 35 3c ff fd 50 bd f7 8f 9c bd 7a 33 2a bd
       0.011048284 -0.05102348 -0.076446466 -0.041552998
000310 9c 10 26 3c 8b 8f 9c 3c 94 c6 90 bd c0 b0 a0 3c
       0.010135796 0.019111415 -0.07069126 0.019615531
000320 aa 3f 30 bd 70 27 ab bb 6b 74 43 bc af 67 cb 3c
       -0.043029465 -0.005223207 -0.011929612 0.024829714
000330 d4 c2 bc bd 11 85 ac bd 05 f3 b8 bd a3 ac 02 3b
       -0.09216848 -0.08423818 -0.09030727 0.0019939325
000340 97 fa 77 3b b1 4d d2 3b 0c a0 99 bd 97 8b 55 bc
       0.0037838572 0.006417953 -0.0750123 -0.013033769
000350 ee f4 70 3c 38 2c d4 bb d0 75 0b bd ac 8a 51 3d
       0.014706833 -0.006474998 -0.0340479 0.05115764
000360 21 8a 09 3d 91 a7 69 3d c4 24 9c 3c 11 80 09 bd
       0.033578996 0.05704457 0.0190605 -0.0335694
000370 45 c1 2e bd fb c0 1a 3c 9e c4 98 3c ca c8 2a bb
       -0.042664785 0.009445424 0.018648442 -0.002605962
000380 85 86 a6 3b 30 91 38 bd 91 4b 8e bc 09 63 cf 3c
       0.005081954 -0.045060337 -0.017370017 0.025315778
000390 eb 64 82 3c 08 c8 14 3c 99 1b b2 3c ec f5 44 3d
       0.015917262 0.009080894 0.021741675 0.048086092
0003a0 2f 2a 2f bc 42 03 1d bd 77 ed a3 39 e5 b5 4a 3c
       -0.01069121 -0.038333185 0.00031266708 0.012372469
0003b0 74 cf 8e bc a7 66 6d bc 9b 33 4f bc b4 f0 aa bc
       -0.017432906 -0.014489806 -0.012646581 -0.02086673
0003c0 9b 25 d7 bc e3 83 82 3b 26 3e d3 bc 09 37 47 3d
       -0.026263049 0.0039830073 -0.02578647 0.04863647
0003d0 2f 12 fd bc 9b f5 66 bd c2 6a 11 bd 21 b2 8e 3d
       -0.03089246 -0.05638657 -0.035502203 0.06967569
0003e0 bb a6 95 bd 99 d7 71 bc ff fe fb bc fb 0d 0c 3c
       -0.07307192 -0.014760875 -0.03076124 0.008548255
0003f0 76 09 52 3d c2 cb 85 3d df 2d 9e 3c 15 71 a1 3b
       0.051278554 0.06533004 0.019308982 0.0049268105

conv2.att_src f4 [1, 1, 64]
000000 e5 13 2f 3e 34 06 c9 bc 26 b5 08 3e 4b d7 24 bd
       0.17097433 -0.02453909 0.13350353 -0.040244382
000010 0d 51 bc bd 7e af d9 bd 19 16 11 be 4b c0 40 3d
       -0.09195147 -0.106291756 -0.14168586 0.047058385
000020 96 98 4d bd 00 7b aa bd 05 7d 9b 3d 72 83 ff 3d
       -0.050194345 -0.08324242 0.07592205 0.12476243
000030 b8 b1 ce bd 8c e1 aa bd d4 20 0c be 41 8c ee bb
       -0.10092491 -0.08343801 -0.13684398 -0.007279903
000040 8e 62 e6 3d c5 9e 37 3e 7a 20 a2 3d d0 33 1a 3e
       0.112492666 0.1793166 0.07916351 0.15058827
000050 e9 af 30 be c4 6a 2b be 21 9b cb bb 1d 4c 46 be
       -0.17254604 -0.16739947 -0.006213561 -0.19364972
000060 cf e4 8e 3d 38 06 6b bd bc 49 de bd 9d e9 e5 3b
       0.069772355 -0.057378978 -0.108539075 0.0070163743
000070 3c bb 91 3e bc be 30 3d 19 e0 09 be d3 16 1d 3e
       0.2846316 0.04315065 -0.13464393 0.15340738
000080 25 15 a0 bd 89 34 31 3e 8a fa 8e 3d 88 22 a0 bc
       -0.07816533 0.17305197 0.0698138 -0.019547716
000090 a2 d0 b1 bd 35 ab 79 3c 69 8e a9 3c b3 03 6c 3d
       -0.08682372 0.015238573 0.02069779 0.057620715
0000a0 e0 8b 17 bd 48 21 99 3d e4 89 23 3b 22 ae 3c be
       -0.03699863 0.07477051 0.0024954015 -0.18425801
0000b0 ce d7 2f bc 5e b1 74 3e fa 3e 4a 3e ad 19 56 bd
       -0.010732604 0.23895785 0.19750586 -0.05227058
0000c0 3c e2 54 bd 81 7c 17 3d a1 05 46 3d 2a 8d 1e 3e
       -0.051973566 0.03698397 0.048345212 0.15483537
0000d0 ba 4c 3a 3e 73 80 3c be 04 fd cf 3d 51 53 3e 3d
       0.18193331 -0.18408374 0.10155681 0.046466175
0000e0 44 cd 59 be db 73 eb 3d 79 e7 bc bd cb 40 e8 3c
       -0.21269709 0.11496707 -0.092238374 0.028351208
0000f0 d9 07 e5 3c 28 7c 14 bc 11 84 78 3b 9c 5b 44 bd
       0.027957844 -0.009062804 0.0037920515 -0.047938928

conv2.att_dst f4 [1, 1, 64]
000000 3c b0 2c 3b 00 b3 9c ba 11 95 5e bd fe 13 4d be
       0.002635016 -0.0011955202 -0.05434138 -0.20027158
000010 de 3d 25 3e 10 6b 6f bd 07 ee 41 3e cb 0d 1f bc
       0.16136882 -0.058451712 0.18938456 -0.009707878
000020 be ab 3e 3d 18 0b c1 bd 61 ed d9 3c 9e c1 cb bd
       0.046550505 -0.09425944 0.026602449 -0.09949039
000030 29 a0 02 be 7e 16 b0 3d df 37 59 be cf c2 30 3c
       -0.12756409 0.0859804 -0.2121272 0.0107886335
000040 f9 95 2f 3e df 1d 2b be 39 e6 8f 3e 1f 52 f0 bc
       0.17147054 -0.16710614 0.28105333 -0.029336033
000050 1c 84 6b 3e dc 71 63 be 93 7a 9b 3d 55 32 f5 3d
       0.22999614 -0.22211403 0.075917386 0.11972491
000060 aa eb 91 bd 6d 39 5d 3d 26 d4 69 bd 92 85 92 3d
       -0.071250275 0.054009844 -0.057087086 0.07154383
000070 43 f8 4d bc cd 6f 53 bd 0c 13 75 3e 85 79 30 3e
       -0.012571397 -0.051620293 0.23933047 0.17233856
000080 b7 15 f7 3d 1e 0f dd 3d 7e b3 f8 3d d0 20 1a be
       0.12064689 0.10793899 0.121436104 -0.1505158
000090 f2 57 4f 3e ea 70 85 bc 3a 22 c5 3d c2 47 94 bd
       0.20248392 -0.016289193 0.09625669 -0.07240249
0000a0 f3 97 96 bd ec 2f 9f 3d 34 45 79 3d 12 02 ab bb
       -0.07353201 0.07772812 0.060857013 -0.0052187527
0000b0 b8 a7 cc 3e 00 6e 05 be 84 50 17 3c 14 12 5e 3b
       0.3997171 -0.13030243 0.009235505 0.0033885287
0000c0 b5 6f 3b 3e 53 80 84 3d 21 00 72 3d 2f 15 be 3d
       0.18304332 0.064697884 0.059082154 0.09281384
0000d0 66 e7 22 3e c4 92 f3 3d b4 0f 36 3d f4 a6 4c bd
       0.15908584 0.11893228 0.04444857 -0.049963906
0000e0 52 b4 b5 3d 8f 02 15 be a8 e9 a4 bd ac ba db bd
       0.08872284 -0.14551757 -0.08052379 -0.10728964
0000f0 f9 6d 5d 3e 17 68 03 3e 5c 29 40 3e d9 5e 4f be
       0.21623982 0.12832676 0.18765777 -0.20251025

conv2.bias f4 [64]
000000 e6 00 99 3e a0 66 10 3e 49 26 7d 3e 05 7e 34 3e
       0.29883498 0.14101648 0.24721636 0.17626198
000010 10 67 03 be ab 08 93 3e fd 19 a9 3e e9 f3 c0 3e
       -0.12832284 0.2871755 0.3302764 0.3768609
000020 cf 19 8d 3e cb 80 82 bb 7a 90 04 bd af 33 69 3e
       0.27558753 -0.0039826385 -0.032364346 0.22773622
000030 76 5a ca bc 40 a3 79 bc b7 4f 83 3e a7 50 0b be
       -0.024701338 -0.015236676 0.25646755 -0.13604985
000040 e0 83 00 be 4a 28 9e bd ad 9e 30 3e ee a8 3f 3e
       -0.12550306 -0.07722528 0.1724803 0.18716785
000050 43 54 87 3e 52 4d b2 bd 74 ff 66 3e cb e4 d8 bd
       0.26431474 -0.08706154 0.22558385 -0.10590514
000060 7e 3f 85 3e 0f 7e 83 3e c6 4e 1d be 3e 41 a9 3e
       0.26025003 0.25682113 -0.15362081 0.33057588
000070 d0 87 69 3e 8f ea 80 3e 1f ce fd bd 12 cb 0c bd
       0.22805715 0.25178954 -0.1239283 -0.03437335
000080 48 07 52 bd bb b7 bb bd d7 8a 9a 3e b6 a2 2d 3e
       -0.051276475 -0.09165903 0.3018405 0.169566
000090 16 cb 81 3e 32 12 8f 3e ef 5b 7d 3e d3 1f 80 3e
       0.25350255 0.2794357 0.24742101 0.2502428
0000a0 9e d8 c5 bd fa 00 86 3e ad 60 04 be dd 2a 81 3e
       -0.09660457 0.2617262 -0.12927504 0.25228015
0000b0 80 ec eb bd 22 58 5e 3e 54 8a 99 3e 65 4f c4 bd
       -0.11519718 0.21713307 0.29988348 -0.09585456
0000c0 87 ba 0b be d3 f1 ae 3e b0 74 59 3e 06 6c 74 3e
       -0.13645373 0.34168872 0.21235919 0.23869333
0000d0 20 03 99 3e 6c 37 9e 3d 40 3b 30 bd 10 81 ad 3e
       0.29885197 0.07725415 -0.043025255 0.3388753
0000e0 67 dc e3 bd 2d bb 6e 3e 09 53 94 3e 2f 08 19 be
       -0.11126023 0.2331359 0.289696 -0.14944528
0000f0 88 2b 0f 3e cb 66 c4 bd ad 74 62 3e d3 d2 85 3e
       0.1398145 -0.09589919 0.22114821 0.2613741

conv2.lin.weight f4 [64, 256]
000000 c4 fd de 3c 9e 17 4e bd a7 b7 08 bd f4 c7 fb bd
       0.027220614 -0.05031549 -0.03337827 -0.122939974
000010 7a 1d 6b bc 46 40 d0 bc de dc 80 3c 6f 0a 5c bd
       -0.0143502895 -0.025421273 0.015730318 -0.053720888
000020 c0 a7 b9 3b b4 4a cc 3c 4c d8 1c bd 69 fb a6 bc
       0.0056657493 0.024937965 -0.038292214 -0.020383554
000030 48 b0 5e bd 26 4d 3e 3d 6a 14 04 bc e9 6d 19 be
       -0.054367334 0.046460293 -0.008061508 -0.14983334
000040 8b c4 71 3d 95 70 bd bd fe 05 be bb 11 23 c9 bc
       0.05902533 -0.09249989 -0.005799054 -0.024552854
000050 11 95 bd 3c 4e bb 17 3d 21 5a 93 bd 6a 71 6c 3d
       0.02314237 0.037043862 -0.07194925 0.057725348
000060 79 41 ed bc a7 7e fa bc 5f ee 35 bd d8 97 24 bd
       -0.028961884 -0.03057797 -0.04441678 -0.040183872
000070 2a 71 e2 bd b5 44 7d bb 73 cf 26 3d 62 7f e5 bc
       -0.110567406 -0.003864569 0.040725183 -0.028014842
000080 38 e3 80 39 82 62 ef bd ef d2 fc bc c4 d4 cf bc
       0.00024583354 -0.11688711 -0.0308623 -0.02537001
000090 b0 96 83 bd d4 a2 af 3d a4 dc 43 bd 63 dd 0b 3d
       -0.06425226 0.08575979 -0.04781784 0.034146678
0000a0 88 6b 70 3c a9 f1 9b bc aa ac 30 3d 1b ac 2d 3d
       0.014674075 -0.019036131 0.043133415 0.04240046
0000b0 78 8f bf bb 70 d3 39 bc 64 6e 90 bd a3 b5 2e 3b
       -0.00584596 -0.011341915 -0.07052305 0.0026658557
0000c0 b4 ad b8 bd 63 43 a0 bd 2e 12 04 3b 81 99 09 3d
       -0.09017506 -0.07825353 0.0020152438 0.03359366
0000d0 7d ae ef 3b 43 c0 7e bd 0f 1a 6d 3d 5b 19 f2 3c
       0.007314502 -0.062195074 0.05788618 0.029553106
0000e0 be f9 bc bd a7 36 57 3d 3a b8 c8 3c 79 16 7a bc
       -0.09227322 0.052542355 0.024501909 -0.015264147
0000f0 96 7f 0c 3d aa 7c 07 3d cc 25 5b 3c 1e cc 5b bd
       0.034301363 0.033077873 0.013375711 -0.05366146
000100 d9 ea bd bc 80 2d 82 bd bd 14 c2 bc 0f ae b3 3c
       -0.023183273 -0.06356335 -0.02369153 0.021933584
000110 6e b7 3e 3d 84 1c 6d bd 1e 5f 69 bd 56 95 ff 3b
       0.04656165 -0.057888523 -0.056975476 0.0077997847
000120 c5 cb 27 bb 67 aa e1 bc 3b da 19 3d c7 ce 27 3c
       -0.0025603634 -0.027547074 0.037561636 0.010242171
000130 b3 8c de 3c 6c 2e af bc f3 b6 f6 bb 55 c5 47 3d
       0.0271667 -0.02138444 -0.0075291335 0.048772175
000140 f9 1a 68 bd 95 05 02 3d 33 d6 11 bc 58 29 12 3d
       -0.056666348 0.031743605 -0.008901167 0.03568396
000150 d1 6d 8a bc fa 06 69 bd f2 82 7b 3d 4f bf a9 bc
       -0.016898068 -0.05689142 0.061404176 -0.020721106
000160 c5 59 37 3d 3a ae 29 3c b9 58 41 3b 9b 74 cd bc
       0.044763345 0.01035648 0.0029502346 -0.025080016
000170 f4 95 f9 3b d4 5f 05 3d 29 14 58 bd e8 68 23 bd
       0.0076167528 0.032562092 -0.0527536 -0.03989497
000180 b8 98 f9 bc 0e 99 4c bd 0b 97 8e 3c 62 8b e9 bc
       -0.03046833 -0.04995065 0.017406007 -0.028508846
000190 c7 75 88 bc 73 1c a2 3c c4 fe 0b 3c 2b c9 bd 3b
       -0.016657723 0.019788956 0.008544628 0.0057918034
0001a0 bc 2e af bb 6b 37 4b bc 04 30 17 bd a8 b7 9f bc
       -0.0053461473 -0.012403349 -0.036911026 -0.019496754
0001b0 15 84 8e bd 69 7a bb 3d e0 5e c4 bc 4f c3 a9 bc
       -0.069587864 0.09154207 -0.023971021 -0.020723013
0001c0 06 40 1d 3d e3 24 66 bd 8a 61 0d bd 06 5f c4 3d
       0.038391136 -0.05618752 -0.03451685 0.09588437
0001d0 18 10 0b bd 15 94 9e 3d 29 a3 41 3d 3a 55 8c 3d
       -0.033950895 0.07743088 0.047274742 0.06852193
0001e0 30 ac 20 bd 5f 8f 2d bc 39 f4 95 bd 4c 31 cc bc
       -0.03922671 -0.010593264 -0.073219724 -0.02492585
0001f0 65 78 b1 bb 8d 69 17 bc 25 fc 13 bd e9 d8 b4 3c
       -0.0054159635 -0.009241474 -0.036129136 0.022076087
000200 c0 42 83 bd 09 18 f3 3d 65 87 d9 3b 9a 89 47 3d
       -0.06409216 0.11869819 0.0066384547 0.04871521
000210 04 ea f3 bc 12 2c 0d bc 2b a9 99 3d ab fb 8d bd
       -0.029774673 -0.008616464 0.07502969 -0.069327675
000220 3b d1 be 3d 7c 6a 31 bd 6e b2 02 bd 79 81 a6 bd
       0.09317251 -0.043314442 -0.031908445 -0.08130164
000230 ef e3 86 bc ad 06 e7 3c 88 6d 54 bd 85 65 b7 bd
       -0.01646611 0.028201425 -0.05186227 -0.0895491
000240 bb eb 3a bd 3c 9c b5 3c 50 01 3e 3d 93 bc 0a 3b
       -0.045634966 0.022169225 0.04638797 0.0021169528
000250 47 8a 2e 3d 90 eb 87 bb b0 4b 2e bc 3c ed 2d 3d
       0.04261234 -0.0041479543 -0.0106381625 0.042462572
000260 bd 3c 0f 3d 04 58 b5 bd b6 44 0c 3d 56 7a c5 3d
       0.034970034 -0.08854678 0.034245215 0.09642474
000270 ef bb e3 bc 0e 6e 38 3d 83 0f cc 3c af 12 36 bc
       -0.027799575 0.04502683 0.02490974 -0.011112853
000280 bd 1d 9a 3c 6f c2 07 3c 8c db b4 bc 3a fd 05 bd
       0.018813008 0.008286103 -0.022077344 -0.0327122
000290 13 a5 99 3c 67 9a 22 3d b2 92 48 3c 74 6a 9f bc
       0.018755471 0.03969803 0.012242006 -0.01945994
0002a0 36 04 26 3d 68 88 15 bd e5 00 3e bd a7 60 4b bb
       0.04053136 -0.03650704 -0.04638757 -0.003103295
0002b0 90 2c 52 3c 31 6a 94 bc 1d 2b 22 3b 5c c5 92 3c
       0.012828007 -0.018117042 0.0024744936 0.017916374
0002c0 c0 93 84 bd e4 a3 ae bb 21 61 e2 bc 77 dc 9a ba
       -0.064734936 -0.005329596 -0.027634205 -0.0011814971
0002d0 d7 14 4d bd 51 e9 90 3c 94 72 63 3c 82 d8 7b bc
       -0.050068703 0.017689379 0.013882298 -0.015371444
0002e0 25 6f 2f 3c e1 9d b9 bd b8 5e 03 bb 70 7d 6c bd
       0.010707651 -0.09063316 -0.002004547 -0.057736814
0002f0 c3 bd b9 bc dd 67 33 bd 03 c8 b5 bc 86 66 b7 3c
       -0.022673493 -0.043800224 -0.0221901 0.022387754
000300 35 4a 09 3c a7 aa ea 3c ad 89 44 bd 6c da f4 bc
       0.008379509 0.028645827 -0.04798286 -0.029889308
000310 e6 a4 08 3c a7 3c 50 bd 84 0d 4f bd 48 d1 5c 3c
       0.008340096 -0.050839093 -0.05055 0.013477631
000320 bc 35 d8 bd f6 8c ac bc 2f d1 24 3d 99 39 64 bc
       -0.10557124 -0.02106331 0.040238556 -0.013929748
000330 59 7e 9d bd db f2 ee bc dd d7 4f bd 53 3b 37 3c
       -0.076901145 -0.029168537 -0.050742973 0.011183578
000340 f4 29 d1 3c b0 da aa bc 42 07 91 bc f7 66 f0 bc
       0.0255327 -0.020856231 -0.017703656 -0.029345972
000350 bf 05 88 bc 75 9f 50 bd be eb 61 3b 9e e7 a1 bc
       -0.016604302 -0.05093332 0.0034472789 -0.019763764
000360 2e 1d 89 3c 36 63 dd 3d 1a f1 a8 bb b2 16 19 3c
       0.016737547 0.108099386 -0.0051556947 0.00934379
000370 ae b8 b6 bd 37 a8 94 3d 31 c1 86 3b b6 f8 ae 3c
       -0.089219436 0.07258647 0.0041123857 0.021358829
000380 98 6c 6d bd bb 78 82 bd 61 b4 2b bd 54 e1 9b bc
       -0.05796489 -0.06370684 -0.04192007 -0.019028343
000390 2a 0d 27 3d e6 43 f8 bc 95 f9 e0 3c 93 5d af 3b
       0.04078404 -0.030305814 0.02746276 0.005351731
0003a0 be 3b 05 3d de f9 8a 3c c2 6f 51 bd 7f 57 40 bd
       0.032527678 0.01696485 -0.05113197 -0.046958443
0003b0 b7 6d 94 bc 8d a7 23 3d 85 3b 35 bd 26 73 3a bd
       -0.018118722 0.03995471 -0.044246215 -0.04551997
0003c0 c6 8b 70 3d 87 2a 04 bd 77 50 f8 3c a9 31 5f bd
       0.05872705 -0.03226712 0.030311806 -0.05449072
0003d0 33 0c 06 3d fc 42 ea 3b 43 ed 0f 3d cb f7 a4 bc
       0.032726478 0.0071490984 0.03513838 -0.020137688
0003e0 e8 f8 9f 3b 7e 1e c9 39 46 32 a7 3b ce 2e 26 bd
       0.004881967 0.00038360426 0.0051024286 -0.04057198
0003f0 4b 0e 66 bd 26 01 60 3d 33 81 ef bc 3e a3 91 3b
       -0.056165975 0.054688595 -0.029236412 0.004444509

classifier.weight f4 [2, 64]
000000 df 90 24 3e a9 a0 ad bd 6f e8 77 3b 56 54 e8 3d
       0.16070889 -0.08477909 0.003782775 0.11344211
000010 66 26 a2 bd 1a 56 1b 3e 78 ba 3e 3d c1 9d a2 3a
       -0.0791748 0.15169564 0.04656455 0.0012406633
000020 7f 09 f8 3d 53 2d 9b bd 35 19 82 bd 93 8d 43 3d
       0.12111186 -0.07577004 -0.06352464 0.047742438
000030 3c 8b 6a 3c f1 fe ca 3d 10 ee 15 bd 2f 83 ad bc
       0.014315423 0.099119075 -0.036603987 -0.021180717
000040 57 15 63 bd 38 2d a6 3c e0 21 39 bd 19 8a c7 3d
       -0.055440273 0.020285234 -0.04519832 0.09743137
000050 59 9b 18 bd 94 5c e9 3c e5 c1 c4 3d 1c bf 86 bb
       -0.037257526 0.028486528 0.09607295 -0.0041121375
000060 3e 04 eb 3d b0 de 87 bd 45 cb c0 bd 9a 34 18 3e
       0.114754185 -0.06634271 -0.094137706 0.14863816
000070 4a e3 2d bc dd 22 b6 3d 68 41 ca bd 6e 57 d0 bb
       -0.010613272 0.088933684 -0.098757565 -0.0063580787
000080 48 fb 64 bc 8e 54 42 3d c0 49 3c bd 01 26 1f 3d
       -0.013975926 0.04744392 -0.04596877 0.038854603
000090 88 33 db 3d 9c 30 d3 3c cc a9 11 3e 8b bf e5 3d
       0.10703188 0.025780015 0.14224929 0.112181745
0000a0 78 d7 43 3d b5 d5 68 3c fd 92 d3 bc a6 27 f5 3d
       0.04781291 0.014211108 -0.025826925 0.11970453
0000b0 fe 51 12 be 03 58 ed 3d 42 f0 1a 3e 1f 94 bc 3c
       -0.1428909 0.115890525 0.15130714 0.023019848
0000c0 59 95 a6 bc 5e 59 80 3c d3 0c 4f 3c 8a 66 f5 3d
       -0.020334886 0.015667614 0.012637335 0.119824484
0000d0 5c a4 1c 3e 62 ad 95 3c f0 7c b2 ba 12 b7 51 3d
       0.15297073 0.018271152 -0.0013617557 0.05119998
0000e0 0f 52 17 3d 19 97 9c 3d 9b 40 90 bb 17 51 c6 bd
       0.03694349 0.07646007 -0.004402233 -0.096834354
0000f0 4f 04 7f bd 88 21 37 bd 3d 74 8f bd b1 87 8c 3d
       -0.06225997 -0.044709712 -0.070045926 0.068618186
000100 c6 73 c2 3c 5f b2 c9 bd 32 df ee bd 6f e7 fb 3d
       0.023736846 -0.09848475 -0.11663665 0.12300002
000110 21 89 11 bd 68 21 53 bc 78 33 85 bd 96 14 5a be
       -0.035531167 -0.012886383 -0.065039575 -0.21296915
000120 eb 4d fe bd af a1 1a 3d e4 c0 b3 bd 97 54 5e bd
       -0.124172054 0.03775185 -0.08777025 -0.05427989
000130 68 01 90 bc 61 90 a5 3d 1d d7 c9 bd e9 db 60 3d
       -0.017578796 0.08084179 -0.09855483 0.054897223
000140 41 60 a6 3b a7 88 2a 3c 35 32 d5 bd c0 23 8a 3d
       0.0050773923 0.010408557 -0.10409967 0.067451
000150 5c a7 c0 bd 98 20 f4 3c 9f de 00 bd 67 0b 12 3d
       -0.09406921 0.029800698 -0.031462308 0.035655405
000160 b6 22 f3 bd d2 53 e2 bd 35 32 66 3d 11 e4 49 3d
       -0.11871855 -0.11051144 0.056200225 0.049289767
000170 5d fc 90 bd 63 6b bb bd 28 9d e0 bc 67 58 fc 3b
       -0.070793845 -0.09151342 -0.027418688 0.007700968
000180 6c 84 c6 bc ba 62 bd 3d 30 89 16 be d9 1e 5a bd
       -0.024233066 0.09247346 -0.1470077 -0.053252075
000190 c5 32 b7 bd b7 80 e3 bd e8 bd df bd 62 6f 02 be
       -0.089452304 -0.11108535 -0.109248936 -0.12737802
0001a0 a1 29 8c 3d 17 15 06 be 61 8f 9d 3d f8 67 c8 3b
       0.068438776 -0.13093983 0.07693363 0.0061159097
0001b0 fc 4b aa 3c 93 47 a4 bd af b0 37 bc b4 7d 94 3c
       0.020788185 -0.08021464 -0.011211558 0.018126346
0001c0 de 71 c6 3d 1d 9b 00 be cb 74 34 bd f0 d2 09 bd
       0.09689687 -0.12559171 -0.044056695 -0.03364843
0001d0 fe a0 38 3d bf 2c 45 3d cd c1 f9 3a bb 1c a4 bd
       0.04507541 0.048138376 0.001905495 -0.080132924
0001e0 ea c6 73 3d fb b3 ad bb 05 e1 bd bd d7 a1 f4 3d
       0.05951587 -0.0053009964 -0.09271435 0.11944931
0001f0 6b ff 03 be 30 1e ce bc 99 49 1a be 2b 97 19 ba
       -0.12890403 -0.025160879 -0.15067138 -0.00058590126

classifier.bias f4 [2]
000000 74 b3 a8 3e 33 b2 78 be
       0.32949412 -0.24286728
