models/engineered_weight_gcn_model.pt (torch, 136208 bytes, 6 tensors)

conv1.bias f4 [128]
000000 8b fd 05 be 19 30 fe 3d 84 89 d3 bd 07 5b 0a 3e
       -0.13085 0.12411518 -0.103289634 0.13511287
000010 52 51 db 3d ea 88 ce 3d 7c 5b 05 bd ba d4 a9 bd
       0.1070887 0.10084708 -0.03255795 -0.082925275
000020 81 f6 e7 bd 48 39 5c bd 4d d4 1a 3d ea 86 ec bd
       -0.11326314 -0.053765565 0.037800122 -0.1154917
000030 c7 a3 95 bd ee 71 7a bd a7 b8 36 be 5d a4 ff bd
       -0.07306629 -0.061143808 -0.17843877 -0.12482522
000040 8d f5 2c 3d bc 28 0b 3e 6a 3b bf bd 15 68 1a be
       0.042226363 0.13589758 -0.09337504 -0.15078767
000050 d7 e9 35 be f1 11 08 be ed 4b 10 be db 1d 7e bd
       -0.17764984 -0.13288094 -0.14091463 -0.06204019
000060 e7 51 79 3d 3a e8 0e bc 8a c5 10 3e d0 65 0b 3e
       0.060869124 -0.008722359 0.14137855 0.13613057
000070 43 81 08 be b0 0e 70 bc d2 b5 28 3d ac 5d 24 3d
       -0.1333056 -0.014651939 0.041189022 0.040128395
000080 8f 9d 89 3c 50 15 b2 3c cd a8 5c bd b4 a0 0a 3d
       0.016798763 0.021738678 -0.05387192 0.033844665
000090 fb 38 f3 3c e1 17 35 3d 3b 1c 45 bd 9e de cb 3d
       0.029690256 0.044212226 -0.048122626 0.0995457
0000a0 34 13 4f be 3d 0e ef bd 7a e5 52 be 96 c8 69 3d
       -0.20222169 -0.116726376 -0.20595351 0.05707606
0000b0 86 3a 1b 3d 5f 61 ab bb 7c 00 0c be 7b 57 3e be
       0.03789761 -0.0052301134 -0.1367206 -0.18588059
0000c0 70 15 1d 3e a7 c9 5d be 78 17 86 3d 4b 3b eb bc
       0.15340209 -0.21658956 0.06547445 -0.028714797
0000d0 48 c7 a3 bd a2 8f 42 be 5d 1b fb bc fc 4f 00 be
       -0.07996994 -0.19000104 -0.030652696 -0.12530512
0000e0 8a d6 59 3d bf 55 11 be 9e 63 6e be 9d 06 2f be
       0.053183116 -0.14192866 -0.23280188 -0.17092367
0000f0 71 be 62 bc 96 d9 07 bd a5 ac 30 3e 30 4a be bd
       -0.01383935 -0.03316649 0.17253359 -0.09291494
000100 ba 4c 06 bd f7 46 cd bd 66 4d 4b be 3f c3 36 bc
       -0.032788016 -0.10023301 -0.19853744 -0.011154949
000110 42 c3 67 3d e5 43 a3 3d 9f 39 db bc 3f 2d 34 3d
       0.056582697 0.07971934 -0.026760874 0.043988463
000120 09 f6 9c bd 3e ee 64 be c7 f3 45 be f0 bf 1d be
       -0.07664115 -0.22356507 -0.19331275 -0.1540525
000130 89 c6 09 be 53 9a f9 bd a7 13 38 be 53 45 92 bd
       -0.13454641 -0.12187638 -0.17976247 -0.07142129
000140 92 b2 91 bd 9e da 09 be f5 28 cd 3d ec ba f7 bd
       -0.07114138 -0.13462302 0.100175776 -0.120961994
000150 c8 1d 31 be 8f de db 3b ef d4 3c be 26 3d 0d be
       -0.17296517 0.0067098807 -0.18440603 -0.13792858
000160 cf 8c 9f bd f5 4a ff bc a7 f6 58 be f5 50 08 3e
       -0.07790529 -0.031163672 -0.2118784 0.13312133
000170 91 23 af bc d1 2d db bd e3 a2 c0 bd b9 28 fd bd
       -0.021379264 -0.10702098 -0.09406068 -0.12361283
000180 ba 4d fe bd 94 39 75 3d da df 00 be 91 b1 0a be
       -0.12417169 0.059869364 -0.12585393 -0.13544299
000190 0a 39 ce bd 9a b4 22 bd ba fb 46 bd ab c1 07 bd
       -0.10069473 -0.039723016 -0.04857991 -0.03314368
0001a0 a3 fa 11 be 86 37 10 be 59 74 dc 3b d1 b3 87 bd
       -0.14255767 -0.1408368 0.006727737 -0.06626094
0001b0 54 61 e0 bc 3b 1d 26 be 27 f2 7a bd 1f 2d 55 be
       -0.02739016 -0.16222088 -0.06126609 -0.20817994
0001c0 01 36 9e 3d a7 53 f4 bd 55 b3 79 3b 7c 69 dd bc
       0.07725144 -0.11930018 0.0038101275 -0.027027838
0001d0 3e bc 35 3c 87 d6 26 bd 14 e3 2b 3d 3c 36 50 3e
       0.011092244 -0.040731933 0.041964605 0.20333189
0001e0 a1 a5 8c bd 8a 3f e6 3d fe 97 40 3d 27 4a b8 bd
       -0.06867529 0.11242588 0.04701995 -0.089985184
0001f0 fe 6f 60 be 59 f6 5e bd 6e 10 8b be f4 c0 12 be
       -0.21917722 -0.054434154 -0.27160972 -0.14331418

conv1.lin.weight f4 [128, 194]
000000 45 7c 03 bb de e5 77 bc 0e ab 77 3e e5 c3 86 bc
       -0.0020063084 -0.015130488 0.24186346 -0.016450832
000010 58 40 5b 3b 3a 8d ba bc 00 94 e4 3d 10 56 6f bc
       0.00334551 -0.02277242 0.11161041 -0.014607921
000020 0e 38 01 3c c0 71 2a 3d ca b5 46 bc de 19 e4 3c
       0.0078869 0.041612387 -0.012128303 0.027844366
000030 24 1e c1 3b 24 84 44 3b 76 2a 61 bd 28 8e 17 3e
       0.0058934856 0.0029985989 -0.054972135 0.14800322
000040 d3 85 ef bb 81 c3 b3 bd 8e 1a d8 bb 45 97 29 3d
       -0.0073096543 -0.08777524 -0.0065949624 0.041404027
000050 e0 08 56 3c d6 c5 9a 3c b5 d4 d6 3d 90 b5 96 3d
       0.013063639 0.018893164 0.104897894 0.07358849
000060 35 73 4c 3d f4 c9 bc bc f0 10 4a 3d e6 b5 84 3d
       0.049914557 -0.023045518 0.04933256 0.06480007
000070 b2 7d 46 3d 68 0b 95 3d 97 5a a7 3c af 47 8d bc
       0.048459716 0.07277566 0.020428939 -0.017246095
000080 7f 51 98 3d e5 76 32 bd c0 41 19 bd ac c0 d5 3a
       0.07437419 -0.043570418 -0.03741622 0.0016308031
000090 25 5a 26 bd 66 b2 d9 bc 0e 30 52 bd ce 2a 03 3b
       -0.040613312 -0.026574325 -0.05131536 0.0020014527
0000a0 57 75 da 3c 76 4b b6 3c 10 94 77 bc 86 bc 47 3b
       0.02666728 0.02225278 -0.015110984 0.003047736
0000b0 5a 25 c7 3d 72 9e 98 3d 13 40 c8 3d ba e4 49 3d
       0.09723921 0.07452096 0.09777846 0.049290396
0000c0 2e 55 f0 3b 7a 3d f5 bc 20 a7 92 3d c9 9a c4 bd
       0.007334373 -0.02993654 0.07160783 -0.095998354
0000d0 c2 d4 28 be 96 b5 f4 bd 02 94 08 3c d5 67 be bd
       -0.1648741 -0.11948697 0.008336069 -0.09297148
0000e0 64 75 ae bd d8 e0 8a 3d fe 1f b8 3d 32 34 33 3d
       -0.08518484 0.06781167 0.08990477 0.04375095
0000f0 c5 9d a5 3d 48 62 17 3d 5b e0 44 3c f0 e1 8a 3d
       0.08086733 0.036958963 0.012016381 0.067813754
000100 a7 b3 ef 3d 6c 92 e3 3d 64 15 81 3d 30 d0 38 bd
       0.11704188 0.11111912 0.06302908 -0.045120418
000110 32 64 39 bd de 05 db 3c 99 5d 0f 3d 03 57 c2 3c
       -0.04526157 0.026736196 0.03500137 0.023723131
000120 9f f8 70 3c ee 4f 53 be 1c 29 4e be 0c 72 b7 bd
       0.014707713 -0.2063596 -0.2013287 -0.089572996
000130 a1 6a 9f 3d fc 74 46 3d ce dd 93 3d 36 18 b0 bd
       0.0778401 0.04845141 0.0722004 -0.08598368
000140 9d ee 3c bd d9 34 bd 3c 5b 95 9e 3d 95 bc d0 3d
       -0.046125997 0.023096489 0.07743331 0.10192219
000150 18 72 0d 3e fe 7b 58 bc db 67 8e 3d 41 04 77 3d
       0.13813055 -0.013213156 0.069534026 0.06030679
000160 03 e3 a3 3c d5 d1 e2 bb 05 22 e4 3b 34 b1 e1 3d
       0.020005709 -0.0069219866 0.0069620633 0.11020127
000170 44 8c 2b 3e a0 e6 a1 3c c3 60 c7 3d ff 5b bc 3d
       0.16752726 0.01976329 0.09735253 0.09197234
000180 bc 60 89 3c a8 eb 6a bc 55 d9 ff bc 7e a9 5c 3d
       0.01676976 -0.014338411 -0.031231562 0.053872578
000190 aa 7e 60 3d b6 72 1a 3d 59 bb 23 bc bc c0 b3 3d
       0.054808296 0.037707053 -0.009993398 0.087769955
0001a0 15 6b c6 3c 09 64 c6 bd 60 c4 c3 bd b4 21 7f bd
       0.024220983 -0.09687049 -0.0955894 -0.062288
0001b0 16 a0 b0 bd 7f 39 9d 3d bb ef 9e 3b 4c cb e5 3d
       -0.08624284 0.07676982 0.0048503554 0.112204164
0001c0 7a e2 4d bd b6 14 93 3c c4 01 7c 3d 42 3b 29 3d
       -0.050264813 0.017954212 0.06152512 0.04131628
0001d0 63 ed d6 3c 69 30 d2 3d 26 a9 a2 bd 88 9e cc bd
       0.026236242 0.1026314 -0.07942419 -0.09991175
0001e0 c9 40 b5 3c 83 db 37 bc 9c e3 77 bd 97 dd 0b 3d
       0.022125619 -0.011221769 -0.0605198 0.03414687
0001f0 7a e6 06 3e 61 eb d8 3d 8c dd a2 3d ba 64 6c 3d
       0.13173857 0.1059177 0.07952413 0.057713248
000200 9f 0f c6 3c a8 46 91 3d b8 d1 04 bd 97 6c 0a bd
       0.02417737 0.07093555 -0.032426566 -0.033794966
000210 4c 1d b6 bc de 34 fd 3b f5 63 84 ba cd 3d d7 bb
       -0.022230767 0.0077272495 -0.001010059 -0.0065686465
000220 6c 9d cb b8 fb c1 50 bb 2e ff 91 bc 0f ee d8 bb
       -9.7091164e-05 -0.0031853903 -0.017821874 -0.0066201757
000230 c8 8a 85 bd 95 16 25 bd ad 83 75 3d 4f c9 19 bd
       -0.06520611 -0.04030474 0.05994003 -0.0375455
000240 e6 97 d6 bd 3f 91 74 bd cf a7 82 bd c5 70 e8 bd
       -0.10478191 -0.05970883 -0.06379663 -0.11349634
000250 c9 a8 b8 3d 07 c8 5a 3e f7 b4 fa bd 2d 00 13 bc
       0.09016568 0.21365367 -0.122415476 -0.00897221
000260 7a 11 1a 3b 07 9b 1b bd b1 32 51 3c 8a 04 23 bb
       0.0023508952 -0.037989642 0.012768433 -0.0024874532
000270 1f 0e 1b bd 22 a5 9c bd ad 1c 88 bc 54 dc 6a be
       -0.037855264 -0.07648684 -0.016615236 -0.22935611
000280 59 a8 bb bc 3f 20 92 3c ad 03 c1 bd e9 c2 7f 3d
       -0.022907423 0.017837642 -0.09424529 0.06244174
000290 46 5e 9f 3d 42 11 39 3e d3 de 90 bd 17 e4 f4 ba
       0.07781653 0.1807299 -0.0707375 -0.0018683699
0002a0 34 a6 10 ba dc 09 90 bd d3 26 76 bc 72 4d 60 3b
       -0.000551793 -0.070331305 -0.015023905 0.0034225849
0002b0 90 e5 6a bc 25 44 f3 3b bf 29 45 bc 12 e9 41 bc
       -0.0143369585 0.007423895 -0.012033879 -0.011835353
0002c0 7c 01 6b bb 13 45 18 3e 8d eb f4 bb 80 a8 0f bc
       -0.003585904 0.148701 -0.007474369 -0.008768201
0002d0 82 40 5c bc 12 d8 80 ba 81 ba 41 3b 4c eb af bc
       -0.013443114 -0.0009830019 0.0029560628 -0.021474503
0002e0 dc 2f 79 be f1 99 ff 3d 3d 26 b6 3b a1 d8 5c bd
       -0.24334663 0.12480534 0.0055587576 -0.05391753
0002f0 68 cb e5 bd d8 ee e8 3d 67 69 59 3e e2 f3 88 3c
       -0.11220437 0.11373681 0.21231614 0.016717855
000300 b6 a5 84 3d 8c 60 c2 bb d9 fd 7b b9 0d 5a 89 be
       0.06476919 -0.0059319194 -0.00024031791 -0.26826516
000310 83 4e 1d 3e cf fb 7f bd 08 29 5f bd eb 61 32 bd
       0.15361981 -0.062496003 -0.05448249 -0.043550413
000320 e0 99 cf bd 28 f5 40 bc ea f8 75 3a ba ef 24 3d
       -0.10136771 -0.0117772 0.00093830994 0.040267684
000330 94 ae ee ba 21 68 16 bc e7 5e e7 3d 78 63 5e bd
       -0.0018209987 -0.0091801 0.11297398 -0.05429408
000340 2b 4d a6 bc b2 96 92 bc 08 d6 4c 3c c7 fe 50 3c
       -0.020300468 -0.017894123 0.012502201 0.012756056
000350 00 88 27 3d e8 7a 4d bc f3 ca 32 3d 8d ee 1e 3d
       0.040901184 -0.01254151 0.04365058 0.03880172
000360 d7 ba 49 3d 37 cd 1f 3d 46 65 75 3d 75 04 85 bd
       0.04925045 0.039014068 0.059911035 -0.06494991
000370 f2 39 43 bd e1 19 37 3d 1c 55 17 3d 29 5b 12 3d
       -0.047662683 0.044702414 0.0369464 0.03573147
000380 37 7e 62 3d d3 2e 6d bd f7 61 0e bd 80 6d c7 bb
       0.05529615 -0.057905983 -0.034761395 -0.0060860515
000390 91 c5 46 3c 79 39 4c 3d 85 56 09 3b a4 0e 7f 3d
       0.012132064 0.049859498 0.002095611 0.06226982
0003a0 b5 b6 ac 3d 66 7c e2 3b 5c 95 b7 3c 9b 92 08 3d
       0.08433286 0.006911802 0.022410087 0.03334294
0003b0 e9 3c 1f 3d 0d 0f b8 bc e2 75 a9 bd 84 b6 05 3c
       0.038876448 -0.022468114 -0.082744375 0.008161191
0003c0 95 3d 2b 3d d8 2a f9 3c ab e8 a8 3c 36 94 21 bc
       0.041806776 0.030415937 0.020618757 -0.009861996
0003d0 91 e1 7c bd 32 bb 16 3d 61 9b eb 3d 78 8d 92 3d
       -0.061738554 0.036799617 0.115042455 0.07155889
0003e0 ed 84 8e 3d 3f ea 82 3d a3 36 c8 3c 8f 45 05 3e
       0.06958947 0.06392335 0.024440115 0.13014816
0003f0 20 b4 b1 3d 95 f1 e3 3d 74 cb c8 3d b9 8e 80 3d
       0.08676934 0.111300625 0.098044306 0.06277222

conv2.bias f4 [64]
000000 33 98 cd 3c 42 39 e2 3b 1d 91 a6 3d 83 45 1c 3d
       0.025096988 0.0069037983 0.08133147 0.03815223
000010 84 43 59 3e 51 68 7d 3e 1b ea 82 3e 38 f1 7d 3e
       0.21217161 0.24746825 0.25569233 0.24799049
000020 a9 5a 55 3d 27 5c fd 3c 2a 4f 0d 3e fb 00 0c 3d
       0.052088413 0.03092773 0.1379973 0.034180623
000030 77 e3 34 3e d7 28 39 3e 93 84 48 3e ce 3b 91 3d
       0.17664896 0.18081985 0.19581823 0.07091485
000040 3e e8 fb bb 3a 64 67 3d 3d 64 bf bd a0 62 f8 3c
       -0.0076875975 0.056492068 -0.09345291 0.030320466
000050 17 ac b4 3d ec 47 1e 3e 6d 02 ef 3c 48 80 92 3e
       0.08821886 0.15457124 0.029175961 0.28613496
000060 e6 0b 9e 3e c1 97 dd 3d 74 29 1a 3d 2c 98 a9 3c
       0.30868453 0.108199604 0.03763719 0.020702444
000070 91 98 87 3e 70 60 0b 3d a8 bb ec 3b fe 5f 6e 3e
       0.26483586 0.034027517 0.007224519 0.23278806
000080 41 0c 98 3c 4a ed 71 3d 57 97 1c bd 1a 50 77 3e
       0.01856053 0.059064187 -0.038230266 0.2415165
000090 34 8f 79 3e 25 e9 33 3e 30 67 8c 3d b9 da 0a 3e
       0.24371034 0.17569406 0.06855619 0.13559999
0000a0 b1 54 ef 3d e5 8d 86 3d f2 52 0c 3d c6 59 6f 3e
       0.116860755 0.06570033 0.03425879 0.2337409
0000b0 2f 1d 6d 3d 4d cf 9c 3e 8f 98 c5 bb 45 ed 30 3e
       0.05788916 0.30626908 -0.0060301493 0.17278011
0000c0 2d ef 4f 3d 22 73 98 3e 24 fe 6d 3e 81 eb 1b 3d
       0.050765205 0.2977534 0.23241478 0.03806639
0000d0 a4 9b 9d 3e da 99 8b 3e fa 7b e7 3c 64 a9 39 3d
       0.30782807 0.27265817 0.028257359 0.04532756
0000e0 eb 92 d4 3d 71 c4 3c 3d d2 16 b5 3d 7a c5 82 3e
       0.10379585 0.04608578 0.08842243 0.25541288
0000f0 39 f0 ab 3e 38 b9 4b 3d a0 4f 94 3e 29 2f 8c 3d
       0.33581713 0.049737185 0.28967 0.068449326

conv2.lin.weight f4 [64, 128]
000000 20 ce b9 bd f0 fa be 3d b7 49 2c 3d b0 2e e7 3d
       -0.09072518 0.09325206 0.042062487 0.11288202
000010 26 c7 11 3d a9 b4 3e 3d 07 d6 00 3d 31 71 70 3d
       0.035590313 0.04655901 0.031454112 0.058701698
000020 a6 10 a8 bd d0 c9 22 3d e9 d9 6e 3d c5 c5 44 bd
       -0.082063004 0.039743245 0.058313284 -0.04804017
000030 21 3b 20 bd 8a a4 10 3d 2d 9a 04 3d ad f9 0c 3d
       -0.03911889 0.035313167 0.032373596 0.034417797
000040 5a d3 f6 bb cc 67 9f 3d b7 e6 86 3d b3 d3 42 3c
       -0.0075325193 0.077834696 0.06586974 0.011891293
000050 58 f5 0e 39 12 28 34 3d 60 ca 6d bd 02 ba 93 3d
       0.00013633573 0.043983527 -0.058054328 0.072132125
000060 ec 94 bb 3d 94 ff aa 3d a9 9c a9 3d a9 ca d7 3d
       0.09159264 0.08349529 0.08281834 0.10536701
000070 64 53 71 bb 19 e1 19 3d 47 83 24 3d e6 87 c4 3d
       -0.0036823386 0.037568185 0.04016426 0.09596233
000080 b3 bc 8d 3d cb 49 0d 3d 26 31 1f 3d 0e e0 62 3d
       0.06920757 0.034494203 0.03886523 0.055389456
000090 9f 82 cb 3d d9 61 a1 bd 68 6e 75 3d a0 10 0c 3d
       0.09937023 -0.07879991 0.059919745 0.034195542
0000a0 52 f6 92 3d b1 1b ab bc 14 9f e0 3c 40 1d 5d 3d
       0.07175888 -0.020887228 0.027419604 0.053982973
0000b0 74 e2 b0 bd 49 2b d8 3d a7 dd 76 bd 13 1a 1c 3d
       -0.086369425 0.10555131 -0.060269978 0.038110804
0000c0 4f 4a c6 b9 43 d2 4c bd cf 23 a2 3d ef 3b 50 3d
       -0.00037820867 -0.05000521 0.07916986 0.050838407
0000d0 8e 91 a3 3d e3 d1 91 3d 58 0c 21 3d 9f 5e d4 3b
       0.07986747 0.07120111 0.039318413 0.0064810063
0000e0 08 93 64 3d d2 f0 9a bc fd 3f 2e 3d 0e d5 9b 3d
       0.055804282 -0.01891366 0.042541493 0.07608996
0000f0 65 86 a7 3d c6 58 b7 3d 45 d4 c4 3d 73 c5 93 bd
       0.081799306 0.08952479 0.096108 -0.07215395
000100 25 7f ac 3d 19 41 38 bd 21 0f a1 bd c8 9f 78 3d
       0.084226884 -0.044983957 -0.07864214 0.060699254
000110 b2 62 7f 3d 9d ed 60 3d dc fc 0d 3e cd 41 27 3d
       0.062349983 0.054914106 0.1386599 0.040834237
000120 9e 71 5c 3d a0 8c a8 3d 26 72 b5 3d cc dd a1 3b
       0.05381929 0.08229947 0.08859663 0.0049397703
000130 2e 75 75 bd 35 1e d9 3a 34 e1 6e 3c 29 c2 a4 3d
       -0.059926204 0.0016564789 0.01458006 0.080448456
000140 08 a0 9c bd 7a a2 71 bc 3f 3f 9c 3d 23 2f 95 3d
       -0.07647711 -0.01474821 0.07629251 0.07284381
000150 ea 20 b6 bd 55 35 2f bd ca 47 70 3d 5c ed ed bd
       -0.088929966 -0.04277547 0.058662213 -0.11617538
000160 34 48 a3 3b 55 43 95 bd 12 71 ec bc 0a db df 3d
       0.0049829725 -0.07288233 -0.02886251 0.1093045
000170 12 ba 18 bd 34 10 d9 bd 0f 33 73 3d 3e 53 e8 3c
       -0.037286825 -0.105987936 0.059374865 0.028360005
000180 d1 19 75 3d 4d a5 b6 3d 4d ed 2d 3d ed c3 a7 3c
       0.059839074 0.08918247 0.042462636 0.020479167
000190 13 fe 14 be 28 b7 61 bd 4a 92 97 bd 6f 5f 0c 3c
       -0.14550047 -0.055106312 -0.07400949 0.008567675
0001a0 db d6 f0 bd e7 18 07 3e 39 55 1c 3d b4 c2 a0 bd
       -0.117597304 0.13193093 0.038167212 -0.07849637
0001b0 d2 96 94 bb f2 f6 39 bc 0b 21 64 bd 09 7e ee bc
       -0.0045345807 -0.01135038 -0.055695575 -0.029112833
0001c0 af 62 0a 3e 5d 33 e3 bd fe 2c 34 3d 34 a8 81 3c
       0.13514207 -0.11093781 0.04398822 0.015827276
0001d0 84 8f e4 bc 15 f3 2c 3b a7 68 26 3d 07 ea 90 3d
       -0.027900465 0.0026390005 0.040627148 0.07075887
0001e0 9a c8 78 bd bf 3b b6 3d 62 d8 00 bc ea 9c 4b 3d
       -0.060738184 0.088981144 -0.00786409 0.04971019
0001f0 5f b4 35 3d c9 85 ab bc 51 26 cb 3d b7 26 46 bd
       0.04436147 -0.020937817 0.09919418 -0.048376765
000200 3c 80 a0 bd 83 ad 18 3e f8 93 9c 3d 28 a3 87 3d
       -0.07836959 0.1490994 0.0764541 0.066229165
000210 9c b3 b9 3d a3 02 31 bd 5d e6 46 3d 13 c3 db 3d
       0.09067461 -0.043215405 0.048559535 0.10730567
000220 dc ba a2 bc 5b 3e 71 3b f6 c4 85 3d 0f a1 e6 bd
       -0.019864492 0.0036810848 0.06531708 -0.11261188
000230 4c 1d 94 bd 56 1f 85 3c 8e 60 33 bc 33 80 47 3c
       -0.072321504 0.016250294 -0.010948313 0.012176561
000240 d2 a8 a3 bc ab 8e a1 3d 13 33 8c 3d 33 4f 63 3a
       -0.01997796 0.0788854 0.06845679 0.00086711644
000250 20 3b 93 3b 8c ac 36 3d ea 6c bd bc a9 1d d4 3d
       0.0044931322 0.044598147 -0.023123223 0.1035722
000260 b5 81 f7 3d 71 d4 9d 3d fb d4 98 3d 46 51 9f 3d
       0.120852865 0.077065356 0.07462498 0.077791736
000270 81 e6 eb 3c 01 bc cb 3d 41 8e 8d 3d f2 75 92 3d
       0.028796436 0.09947968 0.069118984 0.071514025
000280 cd c4 41 3d 3b 0b 2a 3d 67 e2 54 3d 50 e2 a3 3d
       0.047306824 0.041514616 0.051973727 0.0800215
000290 e8 e8 d0 3d 4c 32 cf bd 84 9a af bc 53 0e d2 3d
       0.10200673 -0.10117015 -0.021435983 0.102566384
0002a0 35 85 a1 3d 28 68 9c 3c fc dd a7 bd 30 69 ed 3c
       0.07886735 0.019092634 -0.08196637 0.028980821
0002b0 be 60 c5 3b 08 d4 06 3e 83 e3 31 bd d5 5d 90 3d
       0.0060234955 0.13166821 -0.043429863 0.07049147
0002c0 34 34 96 3c ec 82 bc bd 7f 1f d6 3d 4a cc c4 3d
       0.01833544 -0.09204659 0.10455226 0.096092775
0002d0 35 00 14 3e 84 8b 97 bd 96 9f c2 3c 70 34 33 bd
       0.14453204 -0.07399657 0.023757737 -0.04375118
0002e0 aa cd ea 3d c0 82 a7 bd 3f 8e 2e 3d 6d 97 ea 3d
       0.114650086 -0.081792355 0.042616125 0.114546634
0002f0 08 5d bb 3d ca ea 0a 3e 40 70 23 3e 4b 8a bf bc
       0.09148604 0.13566127 0.15960789 -0.023381373
000300 e4 27 ef 3d c3 b6 82 bd 85 f3 00 be 4f f5 c0 3b
       0.116775304 -0.06382515 -0.12592895 0.005888618
000310 db a6 9e bb 57 37 ac 3d 13 57 0b 3e 78 41 04 bc
       -0.004841668 0.08408993 0.13607435 -0.00807225
000320 b0 bd 0d bc de 3b 05 3e 58 67 a5 3d f8 3a 2a bd
       -0.008651182 0.13011119 0.08076352 -0.041560143
000330 3a 88 93 3c a5 b5 37 3c d4 d4 ce bc d6 77 ed 3d
       0.018009294 0.011212741 -0.025247969 0.115951225
000340 82 7e 03 be 93 52 49 bd d6 15 ff 3d 8d 7e 02 3d
       -0.12841228 -0.049151015 0.12455337 0.03185897
000350 e9 33 98 bd f7 7a dc bc c5 9f e4 3d ed ed 8e bd
       -0.07431776 -0.026914103 0.11163286 -0.069789745
000360 8f bc 32 3d 1e e3 85 bd 60 6e f5 3c c5 d3 e3 3d
       0.043636855 -0.0653746 0.029959857 0.11124376
000370 ea 5e b8 bb 80 3a 55 bc ef b8 98 3c d5 5b 12 3d
       -0.005626549 -0.013014436 0.01864287 0.03573211
000380 5d 8d 81 3c 85 40 f2 3d 23 5d 14 bd b2 98 24 3d
       0.015814478 0.118287124 -0.036221635 0.040184684
000390 9e fb 21 be 03 15 b2 bc 26 df 00 be 4a 7a 26 39
       -0.1581864 -0.021738535 -0.12585124 0.0001587655
0003a0 81 28 9a bd c1 76 24 3d f6 cd 1a 3d be 94 d3 bd
       -0.07527257 0.040152315 0.037794076 -0.10331105
0003b0 5d 41 1f bc c5 c9 a0 bd 37 b5 17 bd 69 dc 96 bb
       -0.009720174 -0.078509845 -0.037038054 -0.0046039117
0003c0 36 71 04 3e 7a a7 3a bd 2f 02 f7 3d 21 2f a3 3c
       0.12933812 -0.045569874 0.12060963 0.019919934
0003d0 5a ef 10 bd 79 8a 83 bb 41 fd 94 3d f8 90 b8 3d
       -0.035384513 -0.00401431 0.07274867 0.090120256
0003e0 2b 81 16 3d 6e d2 c8 3d 1e 9d 56 3d 65 73 64 3d
       0.036744278 0.09805761 0.052395932 0.05577411
0003f0 20 7a b0 3c 6f 04 ac bc f2 3f cd 3d d7 ab 97 bd
       0.021542609 -0.020998208 0.10021962 -0.07405823

classifier.weight f4 [2, 64]
000000 98 8a 11 3e b5 88 81 3e c3 f7 7f bd 19 c8 8e 3d
       0.14213026 0.25299612 -0.062492143 0.06971759
000010 e2 8d 39 be c0 d2 06 be 92 cf 94 be 39 a1 75 be
       -0.1812053 -0.13166332 -0.29064614 -0.23987283
000020 81 d6 11 3e 9c 42 b9 3d 39 d2 ff bb 37 41 54 3e
       0.14241983 0.09045908 -0.007807043 0.20728002
000030 3c f8 f2 bd 76 08 82 be f7 d6 e5 bd 59 d1 91 3d
       -0.11863753 -0.2539708 -0.11222642 0.07120008
000040 71 8f a4 3d 0d e6 0e 3e 9c 20 84 be a7 c4 a4 3d
       0.08035172 0.13954945 -0.2580613 0.08045321
000050 e2 46 d8 3e fc 1e 09 be fb 69 40 3e 75 e8 95 be
       0.4224158 -0.13390726 0.18790428 -0.29278913
000060 94 b0 cd be d3 7f 15 3e bf a8 3c 3e bc 95 3f 3e
       -0.4017378 0.14599542 0.18423747 0.18709463
000070 e3 aa 86 be 76 e6 d3 3e b8 bc 67 bd 2b 48 3e be
       -0.2630225 0.41386765 -0.05657646 -0.18582217
000080 f8 88 49 3d c2 14 b5 3e 22 50 31 3d 2c 63 33 be
       0.04920289 0.353674 0.04328931 -0.175183
000090 50 db 0a be 43 4c 6e be 03 24 f2 3d 60 c6 b8 3e
       -0.13560224 -0.23271279 0.11823275 0.36088848
0000a0 95 39 a3 3e f2 dc 93 3e 48 48 a5 3d 2f c6 a2 be
       0.3187987 0.28879505 0.08070427 -0.31791827
0000b0 72 09 9b 3e 58 18 69 be 74 df 47 3c 92 91 f4 bd
       0.30280644 -0.22763193 0.0121992715 -0.11941828
0000c0 83 d3 09 3f 24 86 9f be 34 bc 71 be 1f 78 46 3e
       0.53838366 -0.3115703 -0.2360695 0.1938176
0000d0 f1 58 95 be cb a5 67 be b8 bc 83 3c 27 98 1f 3e
       -0.2916942 -0.22621839 0.016081199 0.15585385
0000e0 8a 2b 49 be e6 c1 88 3e 67 ae 57 3e d3 a3 66 be
       -0.19645515 0.26710433 0.21062623 -0.22523431
0000f0 fd 5c 81 be 1b 3b 58 3e fb 0b 57 be a1 1e 93 3e
       -0.25266257 0.21116297 -0.21000664 0.28734306
000100 ac be 4a be 5d 51 ca bd cd d0 a5 3d c2 e2 37 be
       -0.19799298 -0.098788 0.08096466 -0.17957595
000110 6b 96 87 3e 8e 79 83 3e d2 c1 18 3e d9 37 47 3e
       0.26481947 0.25678676 0.14917687 0.19454898
000120 53 19 6a be 66 c7 63 bd 81 52 ed 3d d6 9d 0e be
       -0.22861223 -0.055610083 0.11588002 -0.13927397
000130 40 60 35 3e 51 0d 35 3e 35 71 4f 3e f2 3e 0d be
       0.17712498 0.17680861 0.20258029 -0.13793543
000140 31 56 1b 3d 23 63 87 bd 08 ff 83 3d 62 10 14 3d
       0.037923995 -0.06610706 0.06445128 0.036148436
000150 82 14 bb be 45 c3 29 3e c4 c2 0d be 13 1a b3 3e
       -0.36539084 0.16578396 -0.13843828 0.3498083
000160 18 bb 9e 3e f3 db 12 bd 5d c8 af be 62 24 62 be
       0.31002116 -0.03585429 -0.34332553 -0.22084191
000170 dc 09 8e 3e bf d4 62 be f2 f7 a4 bd 57 75 52 3e
       0.27741897 -0.22151469 -0.08055104 0.20552574
000180 f7 37 96 3c 01 e8 60 be c8 e6 94 3c c0 dd 86 3e
       0.018337233 -0.21963502 0.018176451 0.26341057
000190 42 fe a4 3e aa f2 e8 3d 4b 89 70 be f9 a6 c1 be
       0.32225233 0.113744095 -0.23489873 -0.37822703
0001a0 9a 13 81 be 3f 31 82 be 05 2e 21 be 8d 44 b6 3e
       -0.25210267 -0.25428197 -0.15740211 0.35599175
0001b0 d3 a4 87 be 61 65 a3 3e 9c 58 5a bd 91 5a c1 3d
       -0.26492938 0.31913283 -0.05330716 0.09441102
0001c0 77 88 00 bf bb a7 af 3e 6f 9e 1c 3e 56 bc e7 bd
       -0.5020823 0.34307656 0.15294813 -0.11315219
0001d0 57 35 ad 3e 6c 54 1c 3e f2 c2 ca bc d5 9b 03 be
       0.33829758 0.1526658 -0.02475116 -0.12852414
0001e0 00 1b 05 3d 7b 2c 43 be 21 ce a1 be d9 84 83 3e
       0.032496452 -0.19059937 -0.31602576 0.25687292
0001f0 6c e5 c7 3e a6 39 3e be fa 6d 8a 3e cf fb 95 be
       0.39042222 -0.18576679 0.2703703 -0.29293677

classifier.bias f4 [2]
000000 bc 5f c0 bd ad 57 00 3e
       -0.0939326 0.12533446
