models/gat_engineered_focal_gat_model.pt (torch, 272634 bytes, 10 tensors)

conv1.att_src f4 [1, 4, 64]
0.111081816 0.0616782 0.11754538 -0.09441798 0.029410772 -0.13573606 -0.09797947 0.23951471
0.12048423 -0.26530483 -0.14210899 -0.079153076 0.120037556 0.023652876 -0.16088715 -0.07229762
-0.12828122 -0.0447026 -0.13764942 0.08836438 0.13886961 -0.014403595 -0.06032289 -0.010508516
0.11684682 -0.05898318 0.09620206 0.0958568 -0.2317294 -0.077267945 -0.13084671 0.028156303
0.13071264 -0.041335866 -0.10298979 -0.11891034 0.019395642 -0.16200674 -0.27306938 -0.0089461375
0.32760862 -0.17299476 0.23779142 -0.15927172 -0.13200994 0.07463185 0.20898227 0.066901766
0.04185966 -0.057712197 -0.18382105 -0.07441739 0.17717111 0.16031279 -0.057003982 -0.018325306
-0.16717649 -0.036563136 -0.19692557 -0.12462094 -0.0067143156 0.056106295 -0.020554025 0.10967832
0.011687698 -0.100821935 -0.20526202 0.09681905 -0.060010247 -0.12924998 -0.113250986 0.032563485
-0.1713517 0.20944977 -0.13308446 0.11775654 0.16178209 0.016902555 -0.116200894 0.025397599
-0.33011103 0.16958565 0.11795301 0.07958453 -0.0115439715 0.139184 -0.071841635 -0.1774029
-0.24502209 0.04656788 -0.14619431 -0.057610817 0.26466414 0.30001763 0.20038342 0.1519892
0.093090154 -0.23015563 0.2257835 -0.29874393 -0.068644285 0.108323015 -0.15145367 -0.030089267
-0.17005762 0.11647288 -0.22718611 0.15739703 0.04240961 0.16805029 -0.17322437 -0.06594467
0.30881953 0.10877815 0.09159744 0.31079465 -0.0715577 0.1556781 0.21345192 -0.0978946
-0.09007405 0.06880471 0.19215462 0.28483942 -0.13094202 -0.22757408 -0.05805952 -0.17661203
-0.24924064 -0.121857636 -0.031437743 0.08538111 0.1978487 -0.14562145 0.053165745 0.026307488
0.1456838 0.114180624 -0.055896457 0.0826107 0.059111305 0.023466341 -0.10020096 0.10370986
0.22982697 -0.09610555 0.14229889 -0.012180551 -0.16253372 0.05018048 -0.008853386 0.10358548
0.10727919 -0.13358463 -0.22157706 0.0788801 -0.17801632 -0.09172796 -0.14936112 -0.1280776
0.07812518 0.053149275 0.07679046 0.09935575 -0.077073574 -0.10064178 -0.07042812 -0.07525426
-0.10969055 -0.2628762 0.086257555 -0.018021632 -0.29338136 -0.16048689 -0.048839647 0.10255416
-0.014600159 -0.23155046 -0.03962863 -0.13054125 -0.10595537 0.054085746 0.019601285 -0.0667193
-0.06078178 0.085400246 -0.17416137 -0.06834546 0.049730495 -0.259718 0.06930607 -0.033200044
-0.0010863781 -0.0077739265 -0.12442586 -0.039882675 0.050514407 -0.029396955 -0.11727251 -0.053147823
0.09340583 0.06540519 0.1712728 -0.10843383 0.10808303 0.138968 -0.27912638 0.16518494
-0.091924876 -0.07654589 -0.10161799 0.032101 -0.05592028 -0.026112076 0.3127746 0.14929748
0.06264937 0.14757946 0.11713432 -0.18474057 -0.14230776 0.14489508 0.3123317 -0.13192153
0.3138355 -0.20877329 -0.12502322 -0.18010484 0.16993126 -0.10166886 0.08217721 -0.28704754
0.1543544 -0.04536274 0.28479898 0.18947603 0.24745134 0.06630449 -0.07922751 0.040130608
-0.014820764 -0.22120018 0.100941956 0.0071328725 -0.1887699 -0.14817195 0.120385826 -0.12128819
0.16872285 0.007919113 -0.12991817 0.060866397 -0.17006755 0.222079 -0.09418842 0.30252302
00000000: dd7e e33d 48a2 7c3d a2bb f03d 375e c1bd
00000010: dcee f03c 65fe 0abe 76a9 c8bd 5843 753e
00000020: 70c0 f63d 09d6 87be 0585 11be 021b a2bd
00000030: 40d6 f53d adc3 c13c 9abf 24be c610 94bd
00000040: 275c 03be 131a 37bd f8f3 0cbe 62f8 b43d
00000050: d633 0e3e 0efd 6bbc 2215 77bd e92b 2cbc
00000060: 634d ef3d 5998 71bd 9605 c53d 9250 c43d
00000070: 794a 6dbe a83e 9ebd aefc 05be 0ca8 e63c
00000080: 89d9 053e cc4f 29bd 50ec d2bd 4487 f3bd
00000090: 9ce3 9e3c 18e5 25be c0cf 8bbe d292 12bc
000000a0: 51bc a73e 8a25 31be 987f 733e 2018 23be
000000b0: 9d2d 07be 95d8 983d 73ff 553e cb03 893d
000000c0: 0975 2b3d a063 6cbd 963b 3cbe 2568 98bd
000000d0: 586c 353e 0929 243e 027d 69bd f41e 96bc
000000e0: 5030 2bbe 3ac3 15bd dba6 49be 4339 ffbd
000000f0: c303 dcbb b7cf 653d ea60 a8bc 079f e03d
00000100: c27d 3f3c bb7b cebd 3530 52be 1149 c63d
00000110: 4ecd 75bd 1b5a 04be 22f0 e7bd 4a61 053d
00000120: d276 2fbe 007a 563e 4b47 08be 572a f13d
00000130: 34aa 253e 3a77 8a3c bcfa edbd a00e d03c
00000140: 5004 a9be dca7 2d3e 5991 f13d 37fd a23d
00000150: ed22 3dbc 4086 0e3e b521 93bd 1ba9 35be
00000160: 12e7 7abe f6bd 3e3d f6b3 15be 52f9 6bbd
00000170: 0f82 873e e99b 993e 5031 4d3e 0fa3 1b3e
00000180: 0da6 be3d ebad 6bbe ca33 673e f7f4 98be
00000190: 6095 8cbd 75d8 dd3d ac16 1bbe c47d f6bc
000001a0: 9623 2ebe 5589 ee3d 7aa3 68be b02c 213e
000001b0: b3b5 2d3d 6015 2c3e bb61 31be 000e 87bd
000001c0: 981d 9e3e 14c7 de3d 7097 bb3d 7a20 9f3e
000001d0: d88c 92bd 146a 1f3e 2493 5a3e f77c c8bd
000001e0: be78 b8bd 7ce9 8c3d 2ec4 443e 79d6 913e
000001f0: aa15 06be 2e09 69be d2cf 6dbd c9d9 34be
00000200: f038 7fbe 7f90 f9bd ddc4 00bd 4bdc ae3d
00000210: da98 4a3e ca1d 15be 53c4 593d cd82 d73c
00000220: 222e 153e 88d7 e93d aff3 64bd cc2f a93d
00000230: b21e 723d 7c3c c03c 2936 cdbd d665 d43d
00000240: c357 6b3e fdd2 c4bd cdb6 113e ef90 47bc
00000250: 3d6f 26be 0c8a 4d3d cb0d 11bc a024 d43d
00000260: 31b5 db3d 69ca 08be 19e5 62be e48b a13d
00000270: e949 36be dedb bbbd 1ff2 18be c626 03be
00000280: 1800 a03d 0eb3 593d 5144 9d3d 077b cb3d
00000290: c0d8 9dbd 471d cebd 9e3c 90bd e81e 9abd
000002a0: 70a5 e0bd b697 86be cda7 b03d 1aa2 93bc
000002b0: 1536 96be ad56 24be 150c 48bd ea07 d23d
000002c0: 8135 6fbc 901b 6dbe a151 22bd 9bac 05be
000002d0: 21ff d8bd 0489 5d3d e092 a03c 21a4 88bd
000002e0: 51f6 78bd 53e6 ae3d 5c57 32be b4f8 8bbd
000002f0: 34b2 4b3d c2f9 84be 57f0 8d3d c5fc 07bd
00000300: cd64 8eba 6cbc febb fcd2 febd 045c 23bd
00000310: 32e8 4e3d e2d1 f0bc 922c f0bd 88b1 59bd
00000320: 8e4b bf3d 28f3 853d 2362 2f3e 8e12 debd
00000330: a35a dd3d a14d 0e3e a7e9 8ebe 3e26 293e
00000340: 1c43 bcbd 17c4 9cbd 181d d0bd 577c 033d
00000350: aa0c 65bd fee8 d5bc fe23 a03e 70e1 183e
00000360: 504e 803d 121f 173e 1ee4 ef3d a22c 3dbe
00000370: 20b9 11be 605f 143e f1e9 9f3e 7016 07be
00000380: 0caf a03e aac8 55be 1606 00be 676d 38be
00000390: 7602 2e3e c337 d0bd 864c a83d e5f7 92be
000003a0: 140f 1e3e 48ce 39bd 2cd1 913e 0106 423e
000003b0: e263 7d3e a6ca 873d 0842 a2bd fe5f 243d
000003c0: cad2 72bc 4d82 62be a8ba ce3d dfba e93b
000003d0: e64c 41be 63ba 17be d88c f63d f165 f8bd
000003e0: afc5 2c3e 2bbf 013c 4509 05be 0b4f 793d
000003f0: 3026 2ebe ad68 633e dce5 c0bd 4ce4 9a3e

conv1.att_dst f4 [1, 4, 64]
0.00846488 0.055206537 -0.03129768 0.011903987 -0.124908574 0.012773019 0.06884851 0.026360221
0.12948884 -0.09859318 -0.15458147 -0.0694489 0.020804549 0.21552996 -0.11440597 -0.26177958
-0.0012924897 0.21126625 0.047605127 -0.19280367 -0.053296693 -0.05744521 0.14441416 -0.00051767344
0.06876791 -0.0016337549 -0.123908475 -0.047269803 -0.1359812 0.01199463 0.013691653 -0.027158888
0.004434959 -0.1032161 -0.1565778 -0.10476448 -0.081788845 -0.06714256 -0.119125955 0.11569738
-0.16449066 -0.1573121 -0.12096927 -0.25202706 -0.040493794 -0.024618462 -0.037024535 0.0113505265
0.053002458 0.01232495 -0.14606611 -0.23357037 -0.2327455 -0.04760784 0.14857754 -0.00079247693
-0.085324705 -0.17586116 0.20599677 0.13467167 -0.044298496 -0.013696731 0.21937601 0.21380705
-0.009216827 -0.055742368 -0.09261558 0.05961064 -0.024553295 -0.009754307 -0.015320854 0.019735875
-0.023017332 0.082011625 -0.050153784 0.042588074 0.046037573 -0.027320696 0.03342578 -0.044395544
-0.026151994 0.02204554 0.054278947 0.0668975 -0.030431427 -0.016231159 -0.025388403 -0.03737887
-0.06153637 0.0049920273 -0.0017763401 0.018473737 0.048162747 0.0052772835 0.042064622 0.08137299
0.047398593 0.0064684562 0.037902184 0.006052893 -0.062434826 0.020963198 -0.051307175 0.005523313
0.042103376 0.035804555 -0.078947976 0.0745764 0.0033974922 0.048585054 -0.050590813 -0.00775309
0.03335772 0.04862676 -0.015481257 -0.026538268 -0.006481793 0.0054624258 0.058171615 0.026485868
0.023576804 0.022265121 0.013234328 0.064628676 -0.05844669 -0.025885787 -0.004965487 -0.053395484
0.015005333 -0.058535792 0.040752105 -0.033901814 -0.027320024 0.046314925 0.016095906 0.0067334515
-0.05267801 -0.024762329 -0.08388937 -0.046823688 0.0009986613 -0.086840205 0.024868954 0.048992805
-0.02528692 -0.041771878 0.035299834 -0.0008432168 -0.026829742 0.0045612925 0.077261105 -0.03776524
-0.019317 0.054828987 -0.081133425 -0.0012999094 0.007036848 0.0072602495 -0.09188213 -0.034372624
-0.04395015 -0.018009244 -0.093396515 -0.008100309 -0.12440122 -0.06993652 -0.00043612267 0.037996493
-0.011743628 -0.052838072 0.078382805 0.028617838 -0.0017853816 -0.06244926 -0.034789205 0.0018072022
-0.039262835 0.013805908 -0.0045568957 -0.043150134 0.018446196 -0.026413022 -0.020965092 -0.008540178
0.07071482 -0.055074494 0.07667093 -0.04120658 -0.010226179 0.05839393 -0.02147737 0.009313857
-0.15293737 -0.19218594 -0.12247261 0.27514306 0.31724948 -0.13062182 -0.09273713 -0.0017437696
0.178061 0.16011037 0.1634478 -0.11417643 0.121105656 0.012955702 -0.11593533 -0.04769473
0.31724012 -0.24640429 0.08141629 -0.11376285 -0.1861045 0.021329546 0.024549963 0.054578606
0.09732118 -0.29423654 -0.034838513 -0.18130788 0.16762102 0.0025135775 -0.19225156 -0.13431899
-0.23188971 -0.116738044 0.03912342 -0.009987859 -0.056118656 0.016474448 -0.08640139 0.1388359
-0.044569302 0.14892478 0.09824508 0.1555336 0.16328412 0.038175657 0.1902591 -0.19233854
0.021531412 0.2508415 -0.27566537 0.26008525 0.16908403 -0.11833593 0.2712104 0.28325158
-0.034037277 0.12526944 0.10857078 0.21822533 -0.24103317 -0.06927309 -0.020837141 0.007938301
00000000: 48b0 0a3c 4020 623d ff31 00bd f108 433c
00000010: 11d0 ffbd ed45 513c 7300 8d3d 64f1 d73c
00000020: b998 043e 39eb c9bd 9b4a 1ebe 3a3b 8ebd
00000030: 4d6e aa3c e3b3 5c3e ad4d eabd f907 86be
00000040: c268 a9ba 2e56 583e 98fd 423d 536e 45be
00000050: a24d 5abd ab4b 6bbd 4ee1 133e 7ab4 07ba
00000060: 31d6 8c3d b823 d6ba bac3 fdbd fb9d 41bd
00000070: a83e 0bbe 2085 443c f452 603c 517c debc
00000080: 2253 913b f662 d3bd ee55 20be c28e d6bd
00000090: e980 a7bd 0a82 89bd 4ff8 f3bd bff2 ec3d
000000a0: 3d70 28be 6c16 21be bdbe f7bd b109 81be
000000b0: d2dc 25bd a8ac c9bc 0aa7 17bd 8ff7 393c
000000c0: 1b19 593d 96ee 493c 5b92 15be 122d 6fbe
000000d0: d654 6ebe 7000 43bd b624 183e 3abe 4fba
000000e0: b8be aebd f314 34be d1f0 523e 5fe7 093e
000000f0: 5772 35bd 4168 60bc 1ba4 603e 3cf0 5a3e
00000100: 2d02 17bc 1c52 64bd 3dad bdbd 492a 743d
00000110: fe23 c9bc 87d0 1fbc 5204 7bbc 21ad a13c
00000120: d88e bcbc b6f5 a73d 0e6e 4dbd d570 2e3d
00000130: e591 3c3d a7cf dfbc 78e9 083d 1ad8 35bd
00000140: b53c d6bc d998 b43c 9a53 5e3d 8e01 893d
00000150: 544b f9bc 35f7 84bc 57fb cfbc 961a 19bd
00000160: 900d 7cbd 2994 a33b 15d4 e8ba 3c56 973c
00000170: 4d46 453d 10ed ac3b f44b 2c3d e2a6 a63d
00000180: 0725 423d 58f5 d33b 523f 1b3d 5957 c63b
00000190: a9bb 7fbd 03bb ab3c 7927 52bd e8fc b43b
000001a0: 9774 2c3d cca7 123d 7aaf a1bd 83bb 983d
000001b0: 76a8 5e3b 1f01 473d 5038 4fbd a20d febb
000001c0: 1ba2 083d da2c 473d 19a5 7dbc c866 d9bc
000001d0: 3865 d4bb 26fe b23b 5c45 6e3d e4f8 d83c
000001e0: 2424 c13c 5865 b63c cbd4 583c 0a5c 843d
000001f0: cc65 6fbd 6e0e d4bc 86b5 a2bb 39b5 5abd
00000200: eed8 753c 3ac3 6fbd aeeb 263d a1dc 0abd
00000210: 3ece dfbc b8b4 3d3d 90db 833c 49a4 dc3b
00000220: e6c4 57bd 5eda cabc 31ce abbd 32ca 3fbd
00000230: 83e5 823a 47d9 b1bd fab9 cb3c aeac 483d
00000240: 8426 cfbc fd18 2bbd 8f96 103d 520b 5dba
00000250: 0cca dbbc e576 953b 123b 9e3d b9af 1abd
00000260: af3e 9ebc 5c94 603d 4829 a6bd b961 aaba
00000270: 5c95 e63b 63e7 ed3b b32c bcbd 4fca 0cbd
00000280: 1305 34bd 1f88 93bc ac46 bfbd 29b7 04bc
00000290: 11c6 febd e13a 8fbd 65a7 e4b9 36a2 1b3d
000002a0: 5968 40bc bc6c 58bd 2a87 a03d f56f ea3c
000002b0: 7703 eaba ccca 7fbd 207f 0ebd a5df ec3a
000002c0: 11d2 20bd 2d32 623c 0352 95bb 32be 30bd
000002d0: 7a1c 973c 1f60 d8bc fcbe abbc 1aec 0bbc
000002e0: eed2 903d cb95 61bd a605 9d3d 3bc8 28bd
000002f0: b48b 27bc 792e 6f3d 4ff1 afbc 2699 183c
00000300: 9d9b 1cbe 64cc 44be ebd2 fabd 8ddf 8c3e
00000310: 866e a23e bac1 05be f7ec bdbd 338f e4ba
00000320: 9f55 363e f9f3 233e dc5e 273e 55d5 e9bd
00000330: 3e06 f83d 2744 543c 816f edbd 8d5b 43bd
00000340: 4c6d a23e 6851 7cbe 95bd a63d 7ffc e8bd
00000350: 2e92 3ebe 4dbb ae3c 011d c93c d18d 5f3d
00000360: 5450 c73d 2ca6 96be d4b2 0ebd c6a8 39be
00000370: d8a4 2b3e d5ba 243b 98dd 44be eb8a 09be
00000380: 7f74 6dbe 5b14 efbd e13f 203d 1ea4 23bc
00000390: addc 65bd 6cf5 863c 36f3 b0bd 002b 0e3e
000003a0: 4d8e 36bd bd7f 183e b734 c93d 3344 1f3e
000003b0: f433 273e 145e 1c3d 48d3 423e 65f4 44be
000003c0: a562 b03c 4c6e 803e 0324 8dbe e529 853e
000003d0: 5d24 2d3e 1c5a f2bd 17dc 8a3e 5a06 913e
000003e0: ac6a 0bbd a246 003e 5b5a de3d 7676 5f3e
000003f0: 66d1 76be 0ddf 8dbd a7b2 aabc a60f 023c

conv1.bias f4 [256]
0.060687244 0.057176366 -0.03697755 0.05108312 0.043756656 0.055804297 -0.03857543 0.026390867
0.00032826714 0.049990676 0.056674987 -0.05867182 0.064095005 -0.009580214 0.04689942 0.07009497
0.04026363 -0.036542527 0.05123111 -0.006404454 0.03303396 0.061212804 0.07827619 -0.015690446
0.054574262 -0.012726961 0.043302923 -0.013960451 -0.012400927 0.011334295 0.04943116 0.04907538
0.06806053 0.012771198 -0.008312724 -0.040530603 -0.016454864 -0.027660608 -0.006157009 0.015932584
-0.04717757 0.014811668 -0.039714046 -0.06677766 0.04265799 0.0019750881 -0.047123067 0.008306705
0.013462808 0.016726049 -0.038574137 0.027465228 -0.046834067 0.016933436 0.037209045 0.015668865
0.08407784 0.04046913 0.05939079 0.05152847 -0.030308232 0.07024077 -0.015544578 -0.04874212
-0.0057833935 0.051543973 -0.058465477 -0.080590874 0.019139048 0.04655621 0.057450976 0.034042433
-0.035467397 0.06894156 0.060637347 0.019962765 0.03309083 0.048312575 -0.04376294 -0.03340863
0.06987692 -0.042590857 0.045238275 -0.027947823 -0.043721303 0.01961147 -0.009868922 -0.06591799
-0.05170877 0.03353031 -0.00442384 0.051522262 -0.046721525 0.018218983 0.040760722 0.047419384
0.052071467 0.036819573 -0.03323141 0.015298787 0.015465521 -0.048330653 -0.0032791386 -0.033641487
0.0009821707 -0.037199005 -0.039644487 -0.011518267 -0.030370083 0.04172133 -0.030113272 -0.04964635
0.039518133 0.046482988 0.04962485 0.058778197 0.0058162184 -0.010493645 -0.006408204 0.0856402
0.013478357 0.063107066 -0.04673903 -0.050899606 -0.055769213 0.04267569 0.03471761 -0.019334354
-0.009218538 0.07421926 -0.004526082 -0.0028347366 0.068802044 -0.01632486 0.056072403 0.06544892
-0.0023420413 0.057024732 -0.036612537 -0.017182542 -0.036492698 -0.027824555 0.05210624 -0.04394192
0.08388969 -0.060112216 0.052933455 -0.038545985 0.05851531 -0.00943339 -0.049634054 -0.04930709
-0.013831845 0.06429955 -0.010922177 0.068318516 0.10015395 -0.04734723 -0.023332773 0.050226126
0.077865124 -0.06706415 0.053983886 0.057600178 0.06451099 0.012626786 0.043174267 0.051745992
0.025639515 0.010186131 0.05882118 0.10829389 0.0721275 0.009762756 0.0739172 0.014281004
0.061088968 0.081561245 0.083579585 0.0030587895 0.015374267 -0.027587114 0.04533148 0.021390354
-0.005092729 -0.011107493 0.03408041 0.0024529274 0.0537363 0.06737157 -0.036633726 0.021782285
0.06704299 0.014177309 0.05593882 0.073027566 -0.010857566 0.027454384 0.029911358 0.02933109
0.06405367 -0.0031626513 0.07542444 0.064336546 0.05211028 0.08792996 0.043754924 -0.044952907
0.039436992 -0.010816557 0.061124686 0.07475479 -0.055361267 -0.012424823 0.061853208 0.02917137
0.05836325 0.02227855 0.0077834413 0.066196375 0.047965735 0.019005943 0.058738682 -0.05089565
0.054790337 0.012023766 0.07202515 0.06849572 0.041388217 0.075945884 -0.005298968 -0.038755197
-0.042315826 -0.009355354 -0.02413551 0.041842476 0.08369687 0.013085592 0.055791583 0.036472112
0.063951924 -0.013845591 0.059583627 -0.019303627 0.061067764 0.044906013 0.053192727 0.048006713
0.04854387 0.009897174 0.015820434 -0.03646027 0.0029102315 -0.04496608 0.06640533 0.023788828
00000000: 3093 783d c431 6a3d c575 17bd 893c 513d
00000010: 2e3a 333d 0c93 643d 4501 1ebd a931 d83c
00000020: 451b ac39 06c3 4c3d 0824 683d dd51 70bd
00000030: 3e44 833d 54f6 1cbc 9b19 403d f48d 8f3d
00000040: 7aeb 243d 9ead 15bd b6d7 513d 74dc d1bb
00000050: 9e4e 073d 47ba 7a3d 444f a03d 4089 80bc
00000060: 4389 5f3d be84 50bc 685e 313d 60ba 64bc
00000070: 422d 4bbc 7bb3 393c 5478 4a3d 4403 493d
00000080: 5263 8b3d 493e 513c 1732 08bc 6b03 26bd
00000090: 5acc 86bc 8098 e2bc bcc0 c9bb 0d85 823c
000000a0: 453d 41bd a3ac 723c 32ab 22bd bac2 88bd
000000b0: 25ba 2e3d 7b70 013b 1e04 41bd d918 083c
000000c0: 1c93 5c3c 1105 893c eaff 1dbd c2fe e03c
000000d0: 14d5 3fbd fdb7 8a3c 8368 183d fe5b 803c
000000e0: 0131 ac3d f5c2 253d c243 733d 840f 533d
000000f0: f848 f8bc 65da 8f3d b0ae 7ebc d1a5 47bd
00000100: 9f82 bdbb c61f 533d 7f79 6fbd d40c a5bd
00000110: 7ec9 9c3c b9b1 3e3d b751 6b3d 1470 0b3d
00000120: 4346 11bd 3c31 8d3d de5e 783d f488 a33c
00000130: 408a 073d 68e3 453d c540 33bd 7dd7 08bd
00000140: a11b 8f3d c073 2ebd c54b 393d d5f2 e4bc
00000150: 1c15 33bd 3ca8 a03c 42b1 21bc 0300 87bd
00000160: 93cc 53bd 1457 093d dcf5 90bb 0209 533d
00000170: 125f 3fbd fa3f 953c b7f4 263d d43a 423d
00000180: e448 553d 1fd0 163d a91d 08bd c3a7 7a3c
00000190: 1963 7d3c 5df6 45bd d1e6 56bb a8cb 09bd
000001a0: 2ebc 803a fc5d 18bd 4262 22bd 1db7 3cbc
000001b0: aeca f8bc fce3 2a3d 1cb0 f6bc f959 4bbd
000001c0: c4dd 213d f264 3e3d 6d43 4b3d 68c1 703d
000001d0: fa95 be3b 8aed 2bbc e9fb d1bb 2164 af3d
000001e0: 54d4 5c3c 473e 813d 6d71 3fbd 1b7c 50bd
000001f0: 426e 64bd b4cc 2e3d 0d34 0e3d 1463 9ebc
00000200: 5a09 17bc 4400 983d 874f 94bb fdc6 39bb
00000210: 16e8 8c3d b6bb 85bc 2dac 653d 150a 863d
00000220: ef7c 19bb c492 693d 07f7 15bd 67c2 8cbc
00000230: 5e79 15bd 52f0 e3bc 5a6d 553d 71fc 33bd
00000240: 5cce ab3d 3a38 76bd c0d0 583d 65e2 1dbd
00000250: c0ad 6f3d 818e 1abc 144d 4bbd 3bf6 49bd
00000260: f69e 62bc 7caf 833d eef2 32bc 94ea 8b3d
00000270: 841d cd3d 2bef 41bd 5f24 bfbc e9b9 4d3d
00000280: c077 9f3d ee58 89bd 351e 5d3d 2aee 6b3d
00000290: 571e 843d 94e0 4e3c 80d7 303d 9bf3 533d
000002a0: f609 d23c bbe3 263c 7aee 703d 30c9 dd3d
000002b0: 95b7 933d f7f3 1f3c e761 973d dffa 693c
000002c0: 6d38 7a3d 9509 a73d c62b ab3d f975 483b
000002d0: 59e4 7b3c 5ffe e1bc 81ad 393d d33a af3c
000002e0: e8e0 a6bb 34fc 35bc e697 0b3d 4bc1 203b
000002f0: 981a 5c3d 1bfa 893d 3f0d 16bd c370 b23c
00000300: d64d 893d f247 683c 1b20 653d 7a8f 953d
00000310: efe3 31bc 04e8 e03c aa08 f53c c147 f03c
00000320: 922e 833d 7c44 4fbb 2178 9a3d e1c2 833d
00000330: 9771 553d 9f14 b43d 5d38 333d 8a20 38bd
00000340: af88 213d ee37 31bc e15d 7a3d 0a19 993d
00000350: 7fc2 62bd 7c91 4bbc ca59 7d3d ccf8 ee3c
00000360: 4e0e 6f3d 8181 b63c 3d0c ff3b f791 873d
00000370: b877 443d 5ab2 9b3c f997 703d f577 50bd
00000380: d56b 603d 54ff 443c ec81 933d 7c47 8c3d
00000390: b186 293d 8489 9b3d f7a2 adbb c5bd 1ebd
000003a0: 5c53 2dbd 3347 19bc d5b7 c5bc 0463 2b3d
000003b0: 4469 ab3d f364 563c b785 643d c863 153d
000003c0: 3af9 823d 9ed8 62bc f60d 743d a422 9ebc
000003d0: 3122 7a3d 5eef 373d 9ee0 593d b0a2 443d
000003e0: f0d5 463d c227 223c db99 813c 5d57 15bd
000003f0: 95b9 3e3b 5a2e 38bd 85ff 873d cae0 c23c

conv1.lin.weight f4 [256, 194]
-0.011433625 -0.016510548 0.007984161 -0.03012678 -0.023236854 0.0026539743 -0.011172537 -0.01307921
-0.017435195 0.00088796 -0.06963566 -0.022092694 -0.0056732898 -0.08464372 -0.007672648 0.009864984
0.00038354663 -0.027697287 0.013461571 0.008961207 3.0260246e-06 0.0056036045 -0.003474267 -0.017822606
0.003649501 -0.014541151 -0.027136018 0.006946441 0.0018706281 0.0008300235 0.0047453158 -0.0012961656
-0.0041833664 -0.0054203565 -0.008750754 -0.0018637843 0.006142158 -0.0016528162 -0.0028437597 0.004003735
0.0010552007 -0.006809785 -0.0025922582 -0.015722819 0.0021837337 -0.0014578864 0.008014468 0.008552295
0.0067306706 -0.010496107 -0.0032723078 -0.045348644 -0.004233183 0.020182448 0.0006504996 0.0054485174
-0.011065089 0.0032833489 -0.004172312 0.00081507576 0.008233952 0.014232958 0.026969913 0.009119583
0.00011048486 0.010380619 -0.01733436 -0.0148783475 0.00906217 -0.0050611324 -0.045247506 -0.0057997685
-0.10255098 0.011498708 0.007428887 -0.0019961467 -0.00798436 -0.0018174166 0.0022164192 0.008082343
0.007776348 0.013715219 -0.0027467173 -0.0074474514 -0.0011812233 0.017441383 -0.01032156 0.0032998964
-0.0029167754 -0.0072176727 -0.0063101053 0.011999484 0.011263327 0.00018304786 -0.0020418386 -0.010297142
-0.010617657 0.008521581 -0.00439084 -9.649608e-05 -0.0068415953 0.0005065897 0.00358516 0.001293737
-0.006289121 -0.017126646 -0.02326246 -0.0016516389 -0.009254359 0.0094929915 -0.009804601 -3.850422e-05
0.0033573224 0.010165645 0.00077791733 -0.0035462193 0.0052559683 0.0004673965 -0.050756957 -0.011892984
-0.0038838263 0.010923888 -0.000758009 0.002247333 0.0125106545 0.0068566836 0.028399454 0.013778501
-0.008118902 -0.0060208524 0.021868603 -0.0035128652 -0.0025585287 0.0018189264 -0.011040578 -0.0017363386
0.0052265604 0.0069219605 -0.009296926 -0.000847792 -0.010439504 0.0146484 -0.09837084 -0.030924035
-0.019104408 -0.0063819787 3.9992443e-05 -0.009392055 -0.016487788 -0.004583972 0.004332516 0.004656723
0.0005366809 0.017819623 -0.05239251 -0.03832894 -0.024471506 -0.007458304 0.009374672 -0.0034714802
-0.002167589 -0.0067901057 0.010536237 -0.01646325 -0.014484248 -0.0028280728 -0.023952717 -0.020956451
-0.03069969 -0.074268505 -0.019938337 -0.061634887 -0.04460698 0.060065094 -0.033705764 0.03406804
0.024675144 -0.033097573 0.011358969 -0.023435548 0.016629675 -0.023653049 0.0018646937 -0.007727698
-0.026127374 0.020657694 0.03257306 -0.040767815 -0.0040013907 0.043095138 -0.05416604 0.0021260104
-0.026879376 -0.12711684 0.035462096 0.016855713 -0.010941002 -0.023850141 -0.013104916 0.0055283927
-0.0011171444 0.037288774 0.014289429 -0.0010385994 -0.01981974 0.008351879 0.0017957061 0.0014258603
-0.008125174 0.118511975 0.045160342 0.09254823 -0.05955071 0.0061469967 0.011437571 0.004994804
-0.024965929 -0.031074904 -0.0067270184 0.012007632 0.007587509 0.006342212 -0.0071827504 -0.034199685
0.006408093 0.014555574 0.010979353 -0.0100875795 -0.009206018 -0.00058984297 -0.015582051 0.0029928824
-0.0018152487 0.001387835 -0.006328886 -0.023807583 -0.006941834 0.016456101 0.020703992 -0.010597633
-0.0079043945 -0.0023484705 -0.0024886325 0.011229463 0.014951131 0.021814324 -0.015101772 0.018514674
0.019039799 0.011982975 0.014626798 0.00548254 -0.0049788733 0.0018976326 0.008189071 0.0035080486
00000000: 1954 3bbc 2141 87bc 00d0 023c 70cc f6bc
00000010: 375b bebc 4dee 2d3b 040d 37bc 2f4a 56bc
00000020: 41d4 8ebc fdc5 683a 249d 8ebd bdfb b4bc
00000030: 01e7 b9bb b059 adbd d66a fbbb bea0 213c
00000040: c216 c939 6ce5 e2bc ec8d 5c3c 07d2 123c
00000050: b512 4b36 719e b73b 87b0 63bb b700 92bc
00000060: 772c 6f3b 023e 6ebc 5b4c debc f89e e33b
00000070: dd2f f53a ef95 593a 987e 9b3b 1ae4 a9ba
00000080: 9f14 89bb 3f9d b1bb 535f 0fbc 394a f4ba
00000090: 2844 c93b 4fa3 d8ba 5f5e 3abb c331 833b
000000a0: a94e 8a3a 9e24 dfbb e0e2 29bb 24cd 80bc
000000b0: f91c 0f3b 8d16 bfba 1d4f 033c ed1e 0c3c
000000c0: f58c dc3b ddf7 2bbc 3774 56bb 80bf 39bd
000000d0: 83b6 8abb a955 a53c 4a86 2a3a 7a89 b23b
000000e0: 594a 35bc 742d 573b e4b7 88bb cfaa 553a
000000f0: b3e7 063c 5a31 693c 02f0 dc3c 4e6a 153c
00000100: 1cb4 e738 7913 2a3c ca00 8ebc 50c4 73bc
00000110: 7f79 143c dbd7 a5bb 7355 39bd fc0b bebb
00000120: 4006 d2bd 1465 3c3c 056e f33b c9d1 02bb
00000130: d5d0 02bc 6236 eeba 5841 113b ce6b 043c
00000140: bcd0 fe3b ccb5 603c 4502 34bb c009 f4bb
00000150: 47d3 9aba 3be1 8e3c c31b 29bc 1343 583b
00000160: 5f27 3fbb 3a82 ecbb 00c5 cebb 7c99 443c
00000170: d189 383c 89f0 3f39 5ed0 05bb 58b5 28bc
00000180: aef5 2dbc 1a9e 0b3c 09e1 8fbb f05d cab8
00000190: 762f e0bb a9cc 043a 01f5 6a3b 9c92 a93a
000001a0: f914 cebb 2e4d 8cbc ea90 bebc ce7b d8ba
000001b0: 989f 17bc 7e88 1b3c 7aa3 20bc 977f 21b8
000001c0: 8606 5c3b ce8d 263c 26ed 4b3a b067 68bb
000001d0: 423a ac3b e50c f539 87e6 4fbd cada 42bc
000001e0: cb87 7ebb 1bfa 323c 1fb5 46ba fe47 133b
000001f0: 7df9 4c3c 08ae e03b f9a5 e83c 39bf 613c
00000200: 2505 05bc 924a c5bb c925 b33c 1938 66bb
00000210: fdac 27bb 0b69 ee3a 8ae3 34bc db95 e3ba
00000220: 9143 ab3b 9dd1 e23b 2252 18bc 5c3e 5eba
00000230: 740a 2bbc d8ff 6f3c a776 c9bd 6754 fdbc
00000240: d980 9cbc eb1f d1bb 8fbd 2738 22e1 19bc
00000250: 6611 87bc 2535 96bb c7f7 8d3b 6c97 983b
00000260: 0cb0 0c3a 75fa 913c 8799 56bd cefe 1cbd
00000270: 7878 c8bc ca64 f4bb 3998 193c c681 63bb
00000280: 1c0e 0ebb 897f debb 2ea0 2c3c f0dd 86bc
00000290: 574f 6dbc 3057 39bb 7d38 c4bc ddac abbc
000002a0: eb7d fbbc 161a 98bd b955 a3bc dd74 7cbd
000002b0: cfb5 36bd d106 763d 0e0f 0abd ee8a 0b3d
000002c0: 8723 ca3c 5291 07bd f81a 3a3c e8fb bfbc
000002d0: f53a 883c 0ac4 c1bc bd68 f43a a138 fdbb
000002e0: 1309 d6bc 533a a93c 546b 053d 27fc 26bd
000002f0: 191e 83bb 8784 303d 36dd 5dbd 8954 0b3b
00000300: 2332 dcbc eb2a 02be b440 113d fe14 8a3c
00000310: e341 33bc 5f61 c3bc 00b6 56bc 8527 b53b
00000320: 256d 92ba 1dbc 183d 361e 6a3c 9d21 88ba
00000330: 025d a2bc 52d6 083c e65d eb3a efe3 ba3a
00000340: 731f 05bc 68b6 f23d 0dfa 383d ed89 bd3d
00000350: 72eb 73bd bf6c c93b a664 3b3c 74ab a33b
00000360: 5985 ccbc cc90 febc 526e dcbb a9bb 443c
00000370: a4a0 f83b 55d2 cf3b 475d ebbb f814 0cbd
00000380: fbfa d13b 817a 6e3c bfe2 333c 6046 25bc
00000390: d7d4 16bc b19f 1aba dc4b 7fbc 3c24 443b
000003a0: a4ed edba 04e8 b53a 8b62 cfbb 1f08 c3bc
000003b0: 5378 e3bb f2ce 863c 6b9b a93c b2a1 2dbc
000003c0: 6f81 01bc cce8 19bb 5318 23bb c8fb 373c
000003d0: 97f5 743c f4b3 b23c 6c6d 77bc 16ac 973c
000003e0: 5af9 9b3c 3d54 443c 3da5 6f3c e1a6 b33b
000003f0: d125 a3bb fcb9 f83a 742b 063c 4ae7 653b

conv2.att_src f4 [1, 1, 64]
-0.017075997 0.3121382 0.08689735 -0.061250612 -0.056806106 -0.13822946 -0.23368628 0.32257646
-0.08621814 -0.14243004 0.08893778 0.061565768 -0.058036678 0.11462168 0.14302437 0.12390619
-0.05749361 -0.0146804 0.019842748 -0.2787317 0.03750151 -0.13397741 -0.002308225 0.021980997
0.18530035 -0.06550423 0.27292144 -0.00919797 0.12925585 0.06736175 -0.19423473 -0.2861008
0.20633058 0.30308273 -0.0086737545 -0.048969653 -0.08072196 -0.1879275 0.19897036 0.08288631
0.041752398 -0.04462631 0.11840351 -0.16636808 -0.06416472 0.22854732 -0.06516767 -0.09647863
-0.19089484 -0.17686734 0.27317315 0.006954337 0.035717256 0.0051472574 0.17083307 -0.09374164
-0.013511156 -0.102445364 -0.1303985 0.18824966 -0.1885682 -0.047233183 0.15522899 0.13134927
00000000: f6e2 8bbc 94d0 9f3e 3df7 b13d ece1 7abd
00000010: 85ad 68bd 068c 0dbe 754b 6fbe be28 a53e
00000020: 2393 b0bd 2ed9 11be 0325 b63d 632c 7c3d
00000030: deb7 6dbd c5be ea3d fb74 123e 87c2 fd3d
00000040: 6b7e 6bbd 0f86 70bc 428d a23c ecb5 8ebe
00000050: 2f9b 193d 6031 09be 9745 17bb 7e11 b43c
00000060: 60bf 3d3e 1527 86bd 5cbc 8b3e 15b3 16bc
00000070: a55b 043e f5f4 893d 78e5 46be ce7b 92be
00000080: 5348 533e a92d 9b3e 5d1c 0ebc 6794 48bd
00000090: 8e51 a5bd 1170 40be e3be 4b3e 4cc0 a93d
000000a0: 9004 2b3d 14ca 36bd 8a7d f23d 655c 2abe
000000b0: cb68 83bd 4f08 6a3e a176 85bd 9796 c5bd
000000c0: f079 43be b61c 35be 5add 8b3e 35e1 e33b
000000d0: 424c 123d 53aa a83b ddee 2e3e 9efb bfbd
000000e0: e55d 5dbc e0ce d1bd 2f87 05be 85c4 403e
000000f0: 0618 41be 9577 41bd 59f4 1e3e 6c80 063e

conv2.att_dst f4 [1, 1, 64]
0.12554216 -0.0031975678 -0.008729363 0.024192365 -0.017305028 0.08204951 0.0064793434 0.111236274
0.024112443 0.049643666 0.113828145 0.117879465 -0.095639385 0.08402946 0.14214258 0.0532559
-0.15565588 0.018334394 -0.011398028 -0.011240138 -0.042590186 -0.058535185 0.10777162 0.1380662
0.024073657 0.0046768393 -0.024802461 -0.037764963 0.07370779 0.07836042 0.03425716 0.0041316645
0.107225664 0.021109972 -0.07363265 0.01833068 -0.018639168 -0.08815012 0.08889055 -0.13084282
-0.15056826 0.0067871613 -0.10270115 0.05559548 -0.0116107855 0.07874818 0.012284487 0.06860137
-0.0037616529 0.053661134 -0.055935293 -0.11107484 -0.087306 0.052236628 0.012578054 0.02724622
-0.037331354 0.07705237 0.0099346135 0.108911574 -0.009027563 -0.006043663 0.03889057 -0.08655562
00000000: 208e 003e 498e 51bb 9a05 0fbc 112f c63c
00000010: 46c3 8dbc 9309 a83d ac50 d43b d8cf e33d
00000020: 7587 c53c 2857 4b3d bb1e e93d ca6a f13d
00000030: 95de c3bd a317 ac3d d38d 113e dc22 5a3d
00000040: 4164 1fbe 0332 963c cbbe 3abc 8e28 38bc
00000050: 0c73 2ebd 97c2 6fbd 5eb7 dc3d 3a61 0d3e
00000060: 1e36 c53c 2c40 993b 882e cbbc 6faf 1abd
00000070: 1cf4 963d 6e7b a03d 3c51 0c3d ea62 873b
00000080: 2199 db3d d2ee ac3c b7cc 96bd 392a 963c
00000090: 2bb1 98bc 0d88 b4bd 400c b63d a9fb 05be
000000a0: 912e 1abe d666 de3b fb54 d2bd 16b8 633d
000000b0: 2a3b 3ebc ba46 a13d df44 493c e07e 8c3d
000000c0: 1086 76bb c7cb 5b3d 681c 65bd 357b e3bd
000000d0: 7dcd b2bd 13f6 553d 2f14 4e3c 7733 df3c
000000e0: c3e8 18bd a2cd 9d3d cac4 223c 080d df3d
000000f0: 58e8 13bc eb09 c6bb b84b 1f3d 1344 b1bd

conv2.bias f4 [64]
0.09971607 0.1310739 0.14576411 -0.0848756 0.14246185 0.11729576 -0.06371227 -0.06037801
-0.0647199 0.13394624 0.061810676 -0.08972123 -0.10091377 0.12284238 0.13255343 0.08338796
0.1419809 -0.08060899 0.13816068 -0.10999982 0.15488969 -0.03131961 -0.065324455 -0.07712114
0.12391929 0.09329895 0.1670194 0.17943816 0.08796373 -0.089065574 0.14216211 0.14679076
-0.08856178 0.1170646 -0.10767907 -0.0763283 -0.059818767 0.098488264 -0.08683357 0.094527856
0.123114824 0.101860985 -0.056178443 -0.09974422 0.13112922 -0.057902668 0.07533532 -0.08267903
0.005049448 0.08707201 0.15377966 0.100457616 0.14069632 -0.005054565 -0.07710806 0.11738076
0.08984004 -0.060904935 -0.03150072 0.113590315 0.024319107 0.09530015 -0.04042964 0.14441487
00000000: f037 cc3d 3d38 063e 3043 153e 42d3 adbd
00000010: 85e1 113e c238 f03d 947b 82bd ef4e 77bd
00000020: de8b 84bd 3429 093e 312d 7d3d c4bf b7bd
00000030: e1ab cebd c994 fb3d 16bc 073e 4fc7 aa3d
00000040: 7163 113e 5316 a5bd fe79 0d3e 9647 e1bd
00000050: 679b 1e3e fe48 00bd d4c8 85bd b0f1 9dbd
00000060: 66c9 fd3d 8513 bf3d 2207 2b3e a3be 373e
00000070: 5426 b43d 0368 b6bd f292 113e 5150 163e
00000080: e15f b5bd 91bf ef3d d886 dcbd 0352 9cbd
00000090: 8604 75bd 37b4 c93d ccd5 b1bd d297 c13d
000000a0: a023 fc3d 7e9c d03d 5e1b 66bd b346 ccbd
000000b0: bd46 063e 592b 6dbd 6749 9a3d a053 a9bd
000000c0: d775 a53b cf52 b23d 6a78 1d3e b9bc cd3d
000000d0: b212 103e c4a0 a5bb d5ea 9dbd 5365 f03d
000000e0: 0efe b73d 7477 79bd e606 01bd 0aa2 e83d
000000f0: dd38 c73c ba2c c33d 8d99 25bd 7ee1 133e

conv2.lin.weight f4 [64, 256]
-0.015686557 0.001226198 0.044813775 0.098259814 -0.008055071 0.005317467 0.0033870996 0.006755417
0.016250268 -0.015248732 0.008009453 -0.021006808 0.055656828 0.008847276 0.035586312 0.0124081075
0.00042302452 0.010533635 -0.0018213165 -0.035406098 -0.004624517 -0.018338496 0.00925171 -0.008582537
-0.015198452 0.00055000716 0.029650448 0.073333114 -0.03216272 -0.018957295 0.0025349045 -0.000977282
-0.015795538 0.008188356 0.03820032 0.0096933395 0.046485595 -0.022533884 -0.021362258 0.004983759
-0.011822869 0.01214004 -0.010943258 -0.009754055 -0.08256959 0.008139747 -0.0053964024 0.0001781942
-0.004632054 0.0024481032 0.1537249 -0.008260746 -0.009579507 -0.014256626 -0.003282792 0.0031992244
0.015788298 -0.08559886 -0.0027117326 -0.012794105 0.0050647277 -0.012111126 0.01123851 0.02221558
0.029853517 -0.015589083 -0.021012984 0.000115523675 0.0023806232 0.011855861 -0.00848922 -0.011768874
0.05989249 0.0044045052 -0.010354348 0.021272972 -0.030543456 0.0119148735 0.025705887 -0.013730345
-0.03712619 0.028894756 0.03497268 0.032530487 -0.008827397 -0.051650234 -0.010323789 0.0009282018
0.0022482376 -0.009750871 -0.00011707859 -0.0101253195 0.006830425 -0.015611348 -0.008998335 -0.05413147
0.010265585 -0.0023606452 -0.017617282 -0.0101205325 0.0055695823 0.06805821 -0.04319046 0.020525739
-0.0146366535 0.07017926 0.007484734 -0.02449363 0.0015146981 0.065452926 0.015590654 0.0006862972
0.0018938173 -0.004508585 -0.007852368 0.005708726 -0.023210546 0.0116278315 0.0057973457 -0.0011776526
-0.004319821 0.046209753 0.00047357052 0.031736292 0.0133731235 -0.0015206487 -0.12016856 -0.005609227
0.015435196 0.02419034 -0.0434776 0.06260145 0.07993663 -0.0013181595 0.07012568 -0.021941861
-0.01601782 0.000266576 -0.02554051 0.039016556 0.13830142 0.02828231 0.10744698 0.037876923
0.046773117 0.016198343 -0.028276792 0.0032861715 -0.005080966 0.09966947 -0.06092035 -0.03631566
0.08575879 0.045785118 -0.001509918 -0.0665535 0.029086158 0.16567421 0.087281816 0.062424447
-0.05722787 0.15176682 -0.012114823 0.08596517 -0.043736015 0.03585483 -0.0018809271 -0.025530914
-0.013101882 -0.033980984 0.00721168 -0.06666596 0.11645331 0.0113678565 0.09197821 0.0018707722
-0.009900151 0.053838123 0.10038818 -0.07115105 0.09983807 0.044330362 0.047210507 -0.06550318
0.17969878 0.025971463 -0.04089286 0.12923677 0.15782616 0.06243318 0.022125889 -0.013152237
-0.057275105 0.091206856 0.019689614 -0.0042409548 0.017871773 0.0150616355 0.06670538 -0.008194843
-0.0077316067 0.0015909793 0.0046955547 -0.050888155 -0.035622757 0.15131192 0.09929038 0.10907912
0.01767109 -0.034054488 -0.00521352 -0.025190283 -0.0573236 0.033904348 0.11953657 -0.014446057
0.001586082 0.0050152577 0.006263858 0.0015553682 -0.0074832304 0.004991594 0.0029778357 0.008111192
-0.02847501 -0.023843387 0.039071437 0.016128035 -0.023016764 -0.0062402226 0.059322096 -0.031085622
-0.011659886 0.038876925 0.014431463 -0.009301757 0.008719709 -0.012763668 0.060140733 -0.028598065
-0.003626413 0.06077123 -0.009667702 0.03866921 0.026903586 0.06316799 0.0062228194 0.025311405
-0.01926185 -0.0013274846 0.009448102 -0.01902857 0.0011177958 -0.014575788 -0.0010632795 -0.00073782034
00000000: 1881 80bc 61b8 a03a a68e 373d 713c c93d
00000010: 6bf9 03bc 253e ae3b 1afa 5d3b 8c5c dd3b
00000020: 481f 853c d1d5 79bc 153a 033c 7816 acbc
00000030: 6af8 633d 2af4 103c f4c2 113d 604b 4b3c
00000040: 64c9 dd39 4495 2c3c 3eb9 eeba fc05 11bd
00000050: 4389 97bb 9d3a 96bc 7c94 173c c59d 0cbc
00000060: ee02 79bc 5b2e 103a 7fe5 f23c ac2f 963d
00000070: 0ebd 03bd 544c 9bbc a420 263b 2418 80ba
00000080: a565 81bc 7428 063c f077 1c3d d0d0 1e3c
00000090: ae67 3e3d fb98 b8bc e7ff aebc cd4e a33b
000000a0: b5b4 41bc 05e7 463c 5a4b 33bc 79cf 1fbc
000000b0: 3f1a a9bd 935c 053c 4ed4 b0bb a4d9 3a39
000000c0: 7cc8 97bb 5b70 203b 0f6a 1d3e 1458 07bc
000000d0: 5df3 1cbc a094 69bc 1c24 57bb 14aa 513b
000000e0: 7656 813c 754e afbd 53b7 31bb 5e9e 51bc
000000f0: 04f6 a53b bf6d 46bc ba21 383c 73fd b53c
00000100: 5d8f f43c 5a69 7fbc 6c23 acbc 4d45 f238
00000110: 3b04 1c3b 163f 423c 5f16 0bbc 3cd2 40bc
00000120: d451 753d ab53 903b 49a5 29bc a844 ae3c
00000130: 4536 fabc 9a36 433c 2795 d23c 3ef5 60bc
00000140: a211 18bd b2b4 ec3c 833f 0f3d b03e 053d
00000150: c9a0 10bc 328f 53bd 1c25 29bc 9252 733a
00000160: 2b57 133b 1ec2 1fbc 1788 f5b8 abe4 25bc
00000170: c2d1 df3b bdc6 7fbc c16d 13bc f6b8 5dbd
00000180: fc30 283c 0eb5 1abb 1e52 90bc 97d0 25bc
00000190: 0b81 b63b 1a62 8b3d 7be8 30bd 9825 a83c
000001a0: 93ce 6fbc 25ba 8f3d 8042 f53b dda6 c8bc
000001b0: d688 c63a 2f0c 863d f16f 7f3c a0e8 333a
000001c0: f739 f83a c1bc 93bb 38a7 00bc 4410 bb3b
000001d0: 0b24 bebc a982 3e3c a9f7 bd3b 775b 9aba
000001e0: 498d 8dbb 7046 3d3d 8f49 f839 eafd 013d
000001f0: f21a 5b3c 8150 c7ba ef1a f6bd 9bcd b7bb
00000200: e8e3 7c3c d22a c63c 9115 32bd 3035 803d
00000210: d1b5 a33d 18c6 acba 0d9e 8f3d 6bbf b3bc
00000220: ce37 83bc 3ac3 8b39 553a d1bc d3cf 1f3d
00000230: e39e 0d3e 4eb0 e73c 2a0d dc3d d524 1b3d
00000240: 2b95 3f3d 63b2 843c bba4 e7bc cf5c 573b
00000250: 3b7e a6bb 821f cc3d 9e87 79bd bbbf 14bd
00000260: 4ea2 af3d 2d89 3b3d 71e8 c5ba 344d 88bd
00000270: 1846 ee3c 80a6 293e cfc0 b23d c7b0 7f3d
00000280: c567 6abd c368 1b3e 407d 46bc 820e b03d
00000290: 8924 33bd 84dc 123d 7189 f6ba 3526 d1bc
000002a0: 47a9 56bc a52f 0bbd f54f ec3b 2a88 88bd
000002b0: 137f ee3d 3f40 3a3c 125f bc3d b334 f53a
000002c0: 3e34 22bc 5d85 5c3d 5198 cd3d a4b7 91bd
000002d0: e777 cc3d c193 353d ce5f 413d 8826 86bd
000002e0: f502 383e 1bc2 d43c 467f 27bd a556 043e
000002f0: 2e9d 213e efb9 7f3d 5a41 b53c 7b7c 57bc
00000300: 4d99 6abd a9ca ba3d 1d4c a13c b5f7 8abb
00000310: d367 923c 14c5 763c d59c 883d aa43 06bc
00000320: 6b59 fdbb 6888 d03a 2bdd 993b 1970 50bd
00000330: 2be9 11bd 83f1 1a3e c158 cb3d e064 df3d
00000340: f6c2 903c b87c 0bbd 2dd6 aabb da5b cebc
00000350: 27cc 6abd 49df 0a3d 97cf f43d 28af 6cbc
00000360: 15e4 cf3a 0857 a43b 0d41 cd3b 7fdd cb3a
00000370: e335 f5bb 8690 a33b cb27 433b cee4 043c
00000380: 6d44 e9bc 3553 c3bc 5f09 203d f11e 843c
00000390: a78d bcbc c87a ccbb bafb 723d 46a7 febc
000003a0: 1b09 3fbc 693d 1f3d f171 6c3c 6666 18bc
000003b0: 1cdd 0e3c b41e 51bc 2156 763d 7d46 eabc
000003c0: 1da9 6dbb 41eb 783d 4865 1ebc 9b63 1e3d
000003d0: e964 dc3c 385e 813d cbe8 cb3b dd59 cf3c
000003e0: 07cb 9dbc fefe adba 36cc 1a3c cee1 9bbc
000003f0: 0183 923a 49cf 6ebc bd5d 8bba 496a 41ba

classifier.weight f4 [2, 64]
-0.040394455 0.012150637 0.07751854 -0.023884246 0.104389034 0.054463655 0.043249525 0.01852367
0.045334958 -0.056220125 0.04592115 -0.026342453 -0.07064877 0.04178459 0.043724544 0.14124392
0.08666316 0.035376135 0.122459754 -0.029999273 0.0848581 -0.007991882 -0.002720178 0.04886492
0.03956463 0.051254082 0.017020065 0.08969437 0.0810659 -0.025421094 0.06532444 0.026658066
-0.030518688 0.065481395 -0.058193 0.017186148 0.075770594 0.09331208 0.0038290627 0.08304451
0.005257445 0.11930538 -0.004929517 -0.08422133 0.07150981 0.0503406 -0.04396064 0.011500771
-0.053439837 0.03348381 0.13434705 0.123717636 -0.084289104 0.008286497 0.03882776 0.08487935
0.07104574 -0.038286623 0.03448304 -0.045871105 -0.009235995 0.042827412 -0.036702573 0.016976276
-0.02439519 -0.06695587 -0.0057279393 -0.009680782 0.020542312 -0.040160403 0.022633625 0.0062480452
0.022563297 -0.146245 -0.087152466 0.036706325 0.008323564 -0.114650115 0.0027622792 0.030218353
-0.032405846 0.036124695 0.017916592 0.038042817 -0.006131903 -0.054624505 -0.023404764 0.04461034
-0.100011796 -0.054255974 -0.09690341 -0.027928885 -0.13368885 0.05699359 -0.022732807 -0.037952807
0.06401029 -0.031513397 0.0015815034 0.0072613033 0.046087522 -0.035637315 0.06109441 -0.05809304
-0.10021287 0.049918108 -0.044023395 0.08070929 -0.033256482 0.015622577 -0.13472083 0.066193946
-0.07335793 -0.12002918 0.03855578 -0.071185745 -0.13320845 -0.058003798 0.030773813 0.014165628
-0.14181238 -0.06524661 -0.022141567 -0.1562612 -0.052954324 -0.099720605 -0.08445443 -0.12701795
00000000: a874 25bd 7713 473c 0ac2 9e3d e5a8 c3bc
00000010: ebc9 d53d 4815 5f3d 6a26 313d f4be 973c
00000020: 26b1 393d 1347 66bd d117 3c3d 21cc d7bc
00000030: 4db0 90bd 5126 2b3d 8218 333d 3fa2 103e
00000040: 747c b13d 91e6 103d 2ecc fa3d 09c1 f5bc
00000050: 15ca ad3d 62f0 02bc 0445 32bb 9526 483d
00000060: 850e 223d cdef 513d aa6d 8b3c afb1 b73d
00000070: e105 a63d e63f d0bc d2c8 853d 0462 da3c
00000080: 5402 fabc 1c1b 863d c85b 6ebd f7c9 8c3c
00000090: 9d2d 9b3d 671a bf3d 03f1 7a3b 3d13 aa3d
000000a0: a546 ac3b 6156 f43d c987 a1bb 3c7c acbd
000000b0: bc73 923d f231 4e3d 1210 34bd bb6d 3c3c
000000c0: bbe3 5abd 5226 093d 4692 093e ac5f fd3d
000000d0: c49f acbd 16c4 073c db09 1f3d 3ad5 ad3d
000000e0: 6e80 913d 6fd2 1cbd 173e 0d3d 57e3 3bbd
000000f0: 9252 17bc cc6b 2f3d 7055 16bd d511 8b3c
00000100: 6cd8 c7bc 2920 89bd 70b1 bbbb 259c 1ebc
00000110: 5a48 a83c 3c7f 24bd 276a b93c 67bc cc3b
00000120: aad6 b83c 40c1 15be fe7c b2bd 5f59 163d
00000130: 8f5f 083c aecd eabd 5b07 353b 7b8c f73c
00000140: febb 04bd 7df7 133d d1c5 923c c9d2 1b3d
00000150: 21ee c8bb f2bd 5fbd 59bb bfbc 55b9 363d
00000160: fcd2 ccbd 833b 5ebd 4c75 c6bd 1ecb e4bc
00000170: bbe5 08be 1c72 693d 273a babc 6774 1bbd
00000180: d417 833d 3114 01bd 734a cf3a 3af0 ed3b
00000190: 45c6 3c3d 6ff8 11bd 223e 7a3d f8f2 6dbd
000001a0: 683c cdbd ee76 4c3d e051 34bd ea4a a53d
000001b0: f337 08bd d6f5 7f3c 42f4 09be b190 873d
000001c0: af3c 96bd dcd1 f5bd aaec 1d3d d5c9 91bd
000001d0: cc67 08be 6495 6dbd 5d19 fc3c f316 683c
000001e0: 4437 11be 04a0 85bd 3b62 b5bc f002 20be
000001f0: a2e6 58bd 513a ccbd 72f6 acbd fe10 02be

classifier.bias f4 [2]
0.03634713 -0.17902696
00000000: bae0 143d d852 37be
