models/gat_baseline_focal_gat_model.pt (torch, 260318 bytes, 10 tensors)

conv1.att_src f4 [1, 4, 64]
0	0x3e2912dd	0.16511102
1	0x3d1fa7be	0.03897833
2	0xbe01c199	-0.12671508
3	0xbb86ffe9	-0.0041198623
4	0xbdcc3d3e	-0.099726185
5	0x3e86a034	0.262941
6	0xbdbd47f2	-0.09242238
7	0x3cdc24cc	0.026873015
8	0x3d99fadd	0.075185515
9	0xbe44fb32	-0.19236448
10	0x3c954afb	0.01822423
11	0x3df38d9c	0.11892244
12	0xbdc9ee4d	-0.098599054
13	0x3e07505e	0.13214251
14	0xb979e237	-0.00023830762
15	0xbda7f1b7	-0.082004
16	0xbdaf1c49	-0.08550317
17	0xbb60c76d	-0.0034298555
18	0x3e181ab7	0.14853941
19	0x3da1b400	0.078956604
20	0xbcf3567d	-0.029704327
21	0x3d0ee471	0.034885827
22	0x3e03f034	0.12884599
23	0xbe15ab8d	-0.14616223
24	0x3d80ccb2	0.062890425
25	0xbe461997	-0.19345699
26	0x3dbaff87	0.09130769
27	0xbdcce542	-0.10004665
28	0x3d552e8f	0.052046355
29	0x3e1609b5	0.1465214
30	0xbdf56c95	-0.11983601
31	0xbcde566e	-0.027140822
32	0xbde95181	-0.11392499
33	0x3d838775	0.06422321
34	0xbd184503	-0.03717519
35	0x3de8722f	0.11349904
36	0xbdc9f782	-0.098616615
37	0x3d17e3e0	0.037082553
38	0x3d6c5efa	0.057707764
39	0x3c1afda7	0.0094598895
40	0xbce8278e	-0.028339174
41	0xbda09933	-0.078417204
42	0x3e37c625	0.1794668
43	0xbe0d8c15	-0.13822968
44	0x3ce34ee6	0.027747583
45	0x3e3d262d	0.18471594
46	0x3d0001b4	0.031251624
47	0x3d403933	0.04692955
48	0xbc8dc346	-0.017305028
49	0xbc8e666b	-0.017382821
50	0xbe7f4663	-0.24929194
51	0x3e4b79f9	0.19870748
52	0xba14b770	-0.0005673086
53	0x3cc1fabe	0.023679134
54	0x3d5836f0	0.052786767
55	0xbc2e383d	-0.010633525
56	0x3dba6749	0.09101731
57	0x3d8877cb	0.06663474
58	0x3e146096	0.1448997
59	0xbe3e0026	-0.18554744
60	0xbd04cd77	-0.03242251
61	0x3d4e86d3	0.050421547
62	0x3e257a9b	0.16160052
63	0x3e402a42	0.1876612
64	0x3e893f55	0.2680613
65	0xbcdfd3a8	-0.027322605
66	0x3d86a4f6	0.065744326
67	0xbe862b19	-0.26204756
68	0x3ded568a	0.11588772
69	0x3e08e20b	0.13367479
70	0xbe030204	-0.12793738
71	0xbdbeb718	-0.09312266
72	0xbe215a80	-0.1575718
73	0xbd53f515	-0.0517474
74	0xbe268097	-0.1625999
75	0x3c9b1fa5	0.018935988
76	0xbe506245	-0.20349987
77	0xbe44cbb3	-0.1921833
78	0x3e110267	0.14161073
79	0xbc428a28	-0.011873759
80	0x3de25536	0.11051409
81	0x3e3bf921	0.18356754
82	0xbe4a70ab	-0.19769542
83	0xbd62de33	-0.055387687
84	0xbe1ff2d8	-0.15619981
85	0xbd64ae59	-0.055830333
86	0x3d8d7833	0.06907692
87	0x3e1210fd	0.14264293
88	0x3e06ecba	0.13176242
89	0xbe8a8168	-0.27051854
90	0xbe0e6d55	-0.13908894
91	0x3cf5e2cf	0.030015377
92	0x3d9d4d1c	0.07680723
93	0xbd4602ca	-0.048342504
94	0x3d02f04a	0.03196744
95	0x3b359f4e	0.0027713361
96	0x3d5ca88e	0.053871684
97	0xbe3f1303	-0.18659596
98	0xbdc836fe	-0.09776114
99	0x3dc37c12	0.09545149
100	0xbda48b83	-0.08034422
101	0x3e1c2405	0.15248115
102	0x3e808ccd	0.25107422
103	0xbd89d307	-0.067297034
104	0x3e163f24	0.14672524
105	0xbd0fc280	-0.0350976
106	0x3d3debae	0.04636734
107	0x3bafb6a1	0.0053623472
108	0xbe1d875f	-0.15383671
109	0xbb935676	-0.004496391
110	0xbd4a8242	-0.04944063
111	0xbe7621ab	-0.24036281
112	0x3e0eb511	0.13936259
113	0x3cd0a0e7	0.02546735
114	0xbde718ad	-0.112840034
115	0xbd3abb93	-0.04558904
116	0x3e1f63cd	0.15565415
117	0xbdfba939	-0.12288136
118	0xbdc879c9	-0.09788854
119	0x3cfb81be	0.030701514
120	0x3e8de7ad	0.27715817
121	0x3d6cdd72	0.057828374
122	0x3e00ac2a	0.12565675
123	0xbe1777ea	-0.14791837
124	0xbbd06c71	-0.0063605835
125	0xbd2b5f89	-0.041839156
126	0x3d3ba69f	0.0458132
127	0x3d297c09	0.041378055
128	0xbe4127aa	-0.18862787
129	0xbe8c2fa9	-0.27380112
130	0x3c7d6158	0.015465103
131	0x3dbd9ca0	0.092583895
132	0x3e0dc050	0.13842893
133	0xbe3c0300	-0.1836052
134	0x3e77ae86	0.24187669
135	0x3e0c6c94	0.13713294
136	0xbe0ae930	-0.13565516
137	0xbd79aeea	-0.060957827
138	0xbd436aad	-0.047709156
139	0x3d946e48	0.07247597
140	0x3e042425	0.12904413
141	0xbd6b7444	-0.057483926
142	0xbda9d1f5	-0.08291999
143	0xbe4cbc7b	-0.19993775
144	0xbda00a13	-0.078144215
145	0xbe153b86	-0.14573488
146	0xbdb9410e	-0.09045611
147	0xbd84f08b	-0.064911924
148	0x3baad734	0.0052136425
149	0xbda784e5	-0.081796445
150	0x3df9381a	0.12168904
151	0xbcbf0cfc	-0.023321621
152	0x3e1aaf5c	0.15105957
153	0x3e00b804	0.12570196
154	0x3e155b4e	0.14585611
155	0xbc364583	-0.011124971
156	0xbdb93617	-0.0904352
157	0x3d6ebeda	0.05828748
158	0x3e3a3e5c	0.1818785
159	0x3e3367fa	0.17520133
160	0xbd4369e4	-0.047708407
161	0xbd988f3c	-0.07449195
162	0x3c50617f	0.012718557
163	0xbbdfc457	-0.0068288255
164	0xbe4747a7	-0.19460927
165	0x3db7fbf4	0.08983603
166	0xbc877f8b	-0.01654031
167	0xbe3aad84	-0.18230253
168	0xbe484c03	-0.19560246
169	0x3de8caad	0.11366782
170	0x3d8b7680	0.068097115
171	0x3dd43a2b	0.10362657
172	0xbe0b94a2	-0.13630918
173	0x3de301c2	0.1108432
174	0xbd401409	-0.046894107
175	0xbc81e329	-0.015855389
176	0xbde48238	-0.1115765
177	0x3e39d54e	0.18147776
178	0xbda099e4	-0.07841852
179	0x3d3e2cc7	0.04642942
180	0xbc260ac1	-0.0101344
181	0x3e3ee8f4	0.18643552
182	0xbd2f33c9	-0.042773996
183	0xbe2e1615	-0.17000611
184	0x3d97156a	0.07377131
185	0x3e350586	0.17677888
186	0x3c9cb26d	0.019128049
187	0xbd78098e	-0.060555987
188	0xbd8d344b	-0.0689474
189	0x3e02eaee	0.12784931
190	0x3c27ff79	0.0102537805
191	0x3dafd327	0.08585196
192	0xbdb7952e	-0.08964001
193	0x3e418e15	0.18901856
194	0xbdfb2ecd	-0.12264786
195	0xbddf3891	-0.10899461
196	0x3e13d43b	0.14436428
197	0x3df3b587	0.11899858
198	0xbdc291ae	-0.095004424
199	0x3e8af191	0.27137426
200	0xbda5abf0	-0.08089435
201	0x3dde2e73	0.10848703
202	0xbd59ca99	-0.053171728
203	0x3c386f4b	0.011257003
204	0xbd562b31	-0.052287284
205	0xbe3f043c	-0.18653959
206	0xbdc3e967	-0.09566002
207	0x3ded33b5	0.11582128
208	0x3c654c82	0.013995292
209	0x3d962ace	0.07332383
210	0x3e18e349	0.14930452
211	0xbd95d9f3	-0.07316961
212	0x3d9b216d	0.07574735
213	0xbe04ad25	-0.12956674
214	0xbe365a3c	-0.17807859
215	0xbe5f3bc2	-0.2180014
216	0x3d30e7a1	0.04318965
217	0x3df39b3a	0.118948415
218	0x3dd8539c	0.10562822
219	0xbd69e6e9	-0.05710498
220	0xbd3cc690	-0.0460878
221	0x3e25c26d	0.16187449
222	0xbe3156bc	-0.17318243
223	0xbd8ad794	-0.067793995
224	0xbd70f68a	-0.058828868
225	0x3dd3d025	0.10342435
226	0x3da73fee	0.081664905
227	0xbe1bf4bb	-0.15230076
228	0xbd0bfad0	-0.03417474
229	0xbe09de41	-0.1346369
230	0xbdb0a72e	-0.08625637
231	0x3d5f0712	0.054450102
232	0xbdc13401	-0.09433747
233	0xbe7b857b	-0.24562638
234	0xbde38620	-0.11109567
235	0xbe9692df	-0.2940893
236	0xbd9266b5	-0.07148496
237	0x3e72bf35	0.23705752
238	0x3deb6c1b	0.11495229
239	0x3e30a223	0.1724935
240	0xbd2eabaa	-0.04264418
241	0xbdc0ca75	-0.094136156
242	0x3e03c7ed	0.12869234
243	0x3cb82610	0.022479087
244	0xbd69c7b9	-0.057075236
245	0xbcb976d1	-0.022639664
246	0xbe367fd0	-0.17822194
247	0x3d437a53	0.04772408
248	0x3e5ab48d	0.21357937
249	0xbdd0bdca	-0.101924494
250	0xbe1cbe9a	-0.15307084
251	0x3e0fb074	0.14032155
252	0x3e097d34	0.13426667
253	0xbda94204	-0.082645446
254	0x3da7ca10	0.08192837
255	0xbbd68b0f	-0.006547339

conv1.att_dst f4 [1, 4, 64]
0	0x3d9395b3	0.07206287
1	0x3d8aad53	0.0677134
2	0x3b8d250f	0.0043073962
3	0xbb5ae928	-0.0033403132
4	0xbde8bb26	-0.11363821
5	0x3b71aa7d	0.00368753
6	0xbc7436c6	-0.014905637
7	0xbcb0b6bb	-0.021571508
8	0x3bc46b05	0.005994203
9	0xbc0466ab	-0.008081119
10	0x3bd85d3c	0.0066029113
11	0x3e0c2dea	0.1368939
12	0xbd6cac32	-0.057781406
13	0xbb53d656	-0.00323238
14	0x3d06cc70	0.03290981
15	0xbc12dccc	-0.008963775
16	0xbcb0fc34	-0.021604635
17	0xbc9976c2	-0.018733386
18	0xbd4f7b6f	-0.050654825
19	0x3d1f6b0f	0.03892046
20	0x3cbd787c	0.02312874
21	0x3ba72035	0.005100275
22	0xbd3672b9	-0.044543
23	0xbd0ed024	-0.034866467
24	0x3bd2e192	0.0064355815
25	0xbbd469f0	-0.0064823553
26	0x3da68bb9	0.08132119
27	0x3b8db75c	0.0043248367
28	0xbc8ab17a	-0.01693033
29	0xbd6b7563	-0.057484996
30	0xbd4f1ddd	-0.05056559
31	0xbd6ec793	-0.058295798
32	0x3d8ba559	0.06818647
33	0x3c9056cf	0.017619519
34	0xbc747c68	-0.014922239
35	0x3bad5833	0.005290055
36	0xbb3b3290	-0.0028564073
37	0x3c7d22b7	0.015450171
38	0x3d319c16	0.043361746
39	0x3ddc5bbf	0.10759687
40	0xbcb5fd14	-0.022215404
41	0xbd3df7b6	-0.046378814
42	0xbd5be49a	-0.05368481
43	0x3cc32b50	0.023824364
44	0xbccc111f	-0.024910508
45	0x3c6f8bcc	0.0146207325
46	0x3ddf708b	0.10910138
47	0xbce6fb08	-0.028195873
48	0x3aa938db	0.0012910621
49	0xbca3a519	-0.019976186
50	0xbd57584b	-0.052574437
51	0xbd34a55b	-0.044103008
52	0x3d9b6527	0.07587653
53	0x3c721273	0.014774906
54	0xbd78cdda	-0.06074319
55	0xbd724c12	-0.059154578
56	0x3d19933e	0.037493937
57	0xbc82fcaf	-0.01598963
58	0x3d33f871	0.043938104
59	0x3d114426	0.035465382
60	0xbcfdb113	-0.030968225
61	0x3cb8276a	0.022479732
62	0x3cc6d90c	0.024273418
63	0xbbdf965d	-0.0068233446
64	0xbb6f04dc	-0.0036471402
65	0x3cab4f3e	0.020911809
66	0x3d446fca	0.047958173
67	0x3caddfde	0.021224912
68	0xb9d1cdb1	-0.00040016838
69	0x3bf7792b	0.007552286
70	0x3d0b9c37	0.034084525
71	0xbcbd2ed8	-0.023093626
72	0xbceb3f64	-0.02871675
73	0x3d909a6e	0.07060705
74	0xb9b1ec7d	-0.00033936268
75	0x3c09ddfa	0.00841474
76	0x3ca950b9	0.020668374
77	0x3d0082d1	0.031374756
78	0x3cd3a34c	0.025834702
79	0xbd6e3e9a	-0.05816517
80	0x3c59b51b	0.013287808
81	0xbc790ce0	-0.015200824
82	0x3cd7ab95	0.026326934
83	0xbd2ed924	-0.04268755
84	0x3d570668	0.052496344
85	0xbcea4b73	-0.02860043
86	0xbd4f37e5	-0.050590415
87	0xbd6253d9	-0.055255745
88	0xbcdedd9d	-0.027205283
89	0xbc6b7c86	-0.01437295
90	0x3c040294	0.008057255
91	0xbbb80b11	-0.0056165536
92	0x3cad367b	0.021144142
93	0x3b715fa2	0.0036830683
94	0x3c0a0817	0.00842478
95	0xbcd43c0f	-0.025907544
96	0x3c6e37c5	0.014539664
97	0xbc1e6722	-0.0096681435
98	0x3d56a9ff	0.052408215
99	0xbc8c69cc	-0.017140292
100	0x3b6e4224	0.003635534
101	0xbc2d6587	-0.010583288
102	0x3b92665a	0.0044677677
103	0x3cece8f3	0.028919673
104	0xbd48332d	-0.04887693
105	0xbd287769	-0.041129503
106	0x3d26378b	0.040580314
107	0xba3c4682	-0.00071821373
108	0xbe10365b	-0.14083235
109	0xbd0b991c	-0.034081563
110	0x3c67c84d	0.0141468765
111	0x3d1f4b73	0.038890313
112	0xbcbcffc6	-0.023071181
113	0x3d823e4e	0.0635954
114	0xbc600351	-0.013672666
115	0x3d90d814	0.07072464
116	0x3aebd683	0.0017993007
117	0x3d0a0046	0.033691667
118	0x3d26b317	0.040698137
119	0xbd0dd2a5	-0.034624714
120	0xbc9a35ac	-0.01882442
121	0xbd1df437	-0.03856298
122	0xbba3a7dd	-0.004994376
123	0x3c469a44	0.012121741
124	0xbd46569a	-0.048422433
125	0x3d9b63da	0.075874045
126	0xbd04ddca	-0.032438077
127	0xb99afe9b	-0.00029562865
128	0x3c034219	0.008011364
129	0x3c410732	0.011781501
130	0x3d1f82a8	0.038942963
131	0xbd9d89b2	-0.07692279
132	0xbd80b213	-0.06283965
133	0xbd069d02	-0.032864578
134	0xbd052c8b	-0.032513183
135	0xbd4f17bd	-0.050559748
136	0xbd984152	-0.07434334
137	0xbc94ea8a	-0.018178243
138	0x3c90ca5d	0.01767462
139	0x3c62a6a6	0.013833677
140	0x3d6b7168	0.0574812
141	0x3d50e44a	0.050998963
142	0x3cb2a68f	0.021807937
143	0xbd5c959c	-0.053853616
144	0x3ac02db3	0.0014662057
145	0x3d06cd1e	0.03291046
146	0xbbd99b56	-0.006640832
147	0x3d4101f1	0.047120992
148	0x3c789703	0.015172723
149	0x3de4c472	0.111702815
150	0x3d57a4d1	0.052647416
151	0xbcb89488	-0.022531763
152	0xbd881404	-0.06644443
153	0x3cbd0ccb	0.02307739
154	0xbb1c9fe9	-0.0023899025
155	0xbd7f4ba5	-0.062328
156	0x3daa7920	0.08323884
157	0xbd75138c	-0.059833094
158	0x3d03a13a	0.03213618
159	0xbb7864c6	-0.0037901863
160	0x3d96711d	0.073457934
161	0x3cc878a1	0.024471583
162	0xbd71250b	-0.058873218
163	0x3cd60e1e	0.026129778
164	0xbd87e674	-0.06635752
165	0x3b0327b0	0.002001267
166	0xbd093a68	-0.033502966
167	0xbd1f505f	-0.038895007
168	0xbd08e7bf	-0.033424135
169	0x3c4ceb3f	0.012507259
170	0xbda6c1fe	-0.0814247
171	0x3d1016d8	0.035178035
172	0xbd262f02	-0.040572174
173	0x3c00ebfb	0.007868762
174	0xbcc596e8	-0.02411981
175	0xbc8ad84d	-0.016948843
176	0x3c09892c	0.008394521
177	0x3c279f48	0.010230847
178	0xbbf6d1af	-0.0075323205
179	0x3d275db6	0.040860854
180	0xbb163adb	-0.0022923264
181	0xbd2a1573	-0.04152436
182	0x3d36eddd	0.044660438
183	0x3c5ec1fb	0.013596053
184	0xbd2110d9	-0.039322708
185	0x3d0e86f5	0.034796674
186	0xbc8f7729	-0.017512875
187	0xbda413d5	-0.08011595
188	0xbd918a4f	-0.071064584
189	0xbd813d1e	-0.06310485
190	0x3b270e49	0.0025490692
191	0x3cbc9765	0.02302141
192	0xbe82a1c2	-0.25514036
193	0xbc958cfd	-0.018255705
194	0x3c30bc79	0.010787123
195	0xbde1f2d4	-0.11032644
196	0x3d491684	0.04909374
197	0xbd4e70c8	-0.050400525
198	0x3c98f7f6	0.018672924
199	0xbdedc002	-0.11608888
200	0xbd5a2baf	-0.053264316
201	0xbddeeca4	-0.10884979
202	0xbd9defcf	-0.077117555
203	0xbdc849a4	-0.09779671
204	0xbd4808d3	-0.04883654
205	0xbcf6139a	-0.030038644
206	0xbd843630	-0.06455648
207	0xbd1b1588	-0.03786233
208	0x3deeafeb	0.116546474
209	0x3d5006f5	0.050787885
210	0xbe372951	-0.17886855
211	0x3dc7c76a	0.09754832
212	0x3d273d0f	0.040829714
213	0x3d0215f5	0.03175922
214	0xbd2e40d3	-0.04254229
215	0xbe400b64	-0.18754345
216	0xbd07342e	-0.033008747
217	0xbe17d15f	-0.14825962
218	0xbb590b69	-0.0033118373
219	0xbbd2a516	-0.006428371
220	0xbddf4890	-0.10902512
221	0xbc630975	-0.013857235
222	0xbd1795ae	-0.03700798
223	0xbdf1e2c0	-0.11810827
224	0xbe06a8c1	-0.13150312
225	0x3e280c1a	0.16410866
226	0x3d146634	0.03623028
227	0xbdcdf0ee	-0.10055719
228	0x3d5896d7	0.052878227
229	0xbc954ae5	-0.018224189
230	0x3b8fd687	0.0043895873
231	0xbd8fb7d6	-0.07017486
232	0x3e208b2b	0.15678088
233	0x3d8705f5	0.06592933
234	0xbe0012f5	-0.12507232
235	0xbe0b4e0b	-0.1360399
236	0x3d02ed0e	0.031964354
237	0xbd9b5665	-0.07584838
238	0xbd6c247f	-0.057651993
239	0xbc422065	-0.011848544
240	0x3d548618	0.051885694
241	0x3cc8d66d	0.024516309
242	0xbd1285c1	-0.03577209
243	0xbe115ad3	-0.14194803
244	0x3cec087d	0.028812641
245	0xbdc03f30	-0.09387052
246	0xbbee63d4	-0.007275084
247	0x3e500283	0.20313458
248	0x3d8308b7	0.063981466
249	0xbe07e726	-0.1327177
250	0xbdb70c1c	-0.089378566
251	0xbdc45eb3	-0.09588375
252	0xbd67a712	-0.056555815
253	0xbd5b26f3	-0.05350394
254	0x3db6a39d	0.089179255
255	0xbd83a062	-0.06427075

conv1.bias f4 [256]
0	0xbd4fe60e	-0.050756507
1	0x3d8ced70	0.06881225
2	0xbd08753c	-0.03331493
3	0x3d91ced5	0.07119528
4	0xbcbcfeb0	-0.023070663
5	0x3d84a480	0.064766884
6	0x3cc7f602	0.024409298
7	0x3cfa8707	0.030581964
8	0x3c2788e7	0.010225511
9	0x3c4a7031	0.01235585
10	0x3d641d3b	0.05569194
11	0x3d8e57a3	0.06950309
12	0x3b303a75	0.0026890312
13	0x3d795bb7	0.06087848
14	0x3b070c85	0.0020606827
15	0x3c9e998c	0.019360326
16	0x3d8165fc	0.0631828
17	0x3d6126db	0.054968696
18	0xbc06bb8d	-0.0082234265
19	0x3d8a7d8b	0.06762227
20	0xbd5dc775	-0.054145295
21	0xbc647960	-0.013944954
22	0x3d635b73	0.055507135
23	0xbc288af8	-0.010287039
24	0x3d976015	0.07391373
25	0x3dad92ff	0.08475303
26	0x3d508b97	0.050914373
27	0x3d46d996	0.04854735
28	0x3c96f8f7	0.018429263
29	0x3cd21047	0.025642527
30	0x3d8b0172	0.06787385
31	0x3d41eaa6	0.04734292
32	0x3d6a9bd4	0.057277516
33	0x3d8764e9	0.06611044
34	0x3bddbbda	0.0067667784
35	0x3d3bd4b4	0.045857146
36	0x3db08e18	0.08620852
37	0x3d3ddf16	0.04635533
38	0xbc896533	-0.016771888
39	0xbcadf38c	-0.021234296
40	0x3da9abc9	0.082847185
41	0xbc0e73e5	-0.008694624
42	0x3d8d9608	0.06913382
43	0x3d85fe28	0.06542617
44	0xbb0d5b76	-0.0021569408
45	0x3b6ce269	0.0036145693
46	0xbbd6038a	-0.0065311836
47	0xbd1731cb	-0.03691272
48	0xbd37d81a	-0.044883825
49	0x3c382153	0.011238414
50	0xbcd94d26	-0.026526045
51	0x3d90bece	0.07067643
52	0x3d80781c	0.06272909
53	0xbd0c066e	-0.03418582
54	0x3cad72af	0.02117285
55	0xbcbdac39	-0.023153411
56	0xbcd79c03	-0.02631951
57	0xbd02399c	-0.03179322
58	0xbd634be2	-0.05549229
59	0x3dceaf52	0.100920334
60	0xbd1b4778	-0.037909955
61	0x39c10383	0.00036814445
62	0xbd48d496	-0.049030863
63	0xbc838bcc	-0.016057871
64	0x3ca1c315	0.019746343
65	0x3c6bd0e3	0.014393064
66	0x3c1ba690	0.009500161
67	0x3d7e0104	0.062012687
68	0x3d00cf02	0.031447418
69	0x3d8c32dd	0.06845639
70	0xbb9d6ec7	-0.0048044655
71	0x3d878249	0.06616647
72	0x3d8df768	0.069319546
73	0xbc5a2810	-0.013315216
74	0x3be6ceac	0.00704368
75	0xbb2f8585	-0.0026782465
76	0x3d8a0702	0.06739618
77	0x3ddf8bbb	0.10915323
78	0x3dae210b	0.08502396
79	0xbcee4fad	-0.029090727
80	0x3d7f2dfe	0.06229972
81	0x3d55fc7f	0.052242752
82	0x3c0d9d30	0.008643433
83	0x3ce6628f	0.028123168
84	0xbbd8af1d	-0.006612672
85	0xbb14b537	-0.002269102
86	0x3cd0ded3	0.025496876
87	0xbc1a60b9	-0.009422475
88	0xbc9b4ef5	-0.018958548
89	0x3d93c187	0.07214647
90	0xbd537ff6	-0.051635705
91	0x3c2ced3a	0.010554606
92	0x3c7610af	0.015018626
93	0xbd874351	-0.066046365
94	0x3cfb6d29	0.0306917
95	0x3d18c7cb	0.037299912
96	0xbd317683	-0.043325912
97	0x3cd46d42	0.025931004
98	0x3dbe5748	0.09293991
99	0xbd2e4f8a	-0.042556323
100	0x3d0b853c	0.03406261
101	0x3d2469c8	0.040139943
102	0xbc743f8b	-0.014907728
103	0xbc95ab75	-0.018270234
104	0x3db8e8ae	0.09028755
105	0xbd1ecccd	-0.038769532
106	0xbc8932cb	-0.016747853
107	0x3b88203a	0.0041542323
108	0xbdcce525	-0.10004643
109	0xbc47bdb3	-0.012191224
110	0x3d177820	0.036979795
111	0x3da618ff	0.081102364
112	0xbd2846e5	-0.041083235
113	0x3bdd2073	0.006748253
114	0xbbd4574d	-0.0064801336
115	0x3d8f6f99	0.070037074
116	0x3da4aea4	0.080411226
117	0xbd51d52f	-0.0512287
118	0xbd488bd2	-0.048961468
119	0x3d8077f1	0.06272877
120	0xbcddd182	-0.02707744
121	0xbcf49df7	-0.02986048
122	0x3da50ca1	0.080590494
123	0x3d45022d	0.048097778
124	0x3d07349c	0.033009157
125	0x3d353409	0.044239078
126	0x3d82f5a4	0.063945085
127	0x3d3b05e6	0.045659922
128	0x3d79605b	0.060882907
129	0x3d9f7935	0.0778679
130	0xbd383386	-0.04497101
131	0xbc938e4f	-0.018012194
132	0x3d99a310	0.07501805
133	0x3c89c9b9	0.016819822
134	0x3d15ce92	0.036573954
135	0x3c9781bc	0.01849448
136	0x3be7b0e4	0.0070706476
137	0xbb8bc98f	-0.004265971
138	0x3cfbe4b4	0.030748703
139	0x3d5aef24	0.05345072
140	0xbd1d2fce	-0.03837567
141	0x3d48567a	0.048910595
142	0xbd194b50	-0.03742534
143	0x3ca9c74e	0.020724919
144	0xbcab25b3	-0.020892
145	0x3d4b746e	0.049671583
146	0x3d60576f	0.054770883
147	0xbd01e7e2	-0.03171528
148	0x3d57b57d	0.052663315
149	0xbd1da4f5	-0.038487393
150	0x3d81f76a	0.063460186
151	0x3d4f9d04	0.05068685
152	0xbd3df02e	-0.04637163
153	0xb890efd2	-6.911125e-05
154	0xbd256c84	-0.04038669
155	0x3d89de23	0.06731822
156	0xbccf9e56	-0.025344055
157	0xbd074fcf	-0.033035096
158	0xbb0ce5d3	-0.002149929
159	0x3d07b0d7	0.033127632
160	0x3daaf5d6	0.08347671
161	0x3d622568	0.055211455
162	0x3d81d14c	0.06338748
163	0xbd52acec	-0.051434442
164	0xbc76d360	-0.015065044
165	0xbd5a68ae	-0.053322487
166	0xbcf68dba	-0.030096877
167	0xbd017596	-0.03160628
168	0xbc90146a	-0.01758786
169	0x3d3ecb2f	0.04658049
170	0xbcc5b2c6	-0.024133097
171	0x3d774776	0.060370885
172	0xbd34c11c	-0.044129476
173	0x3d394460	0.045231223
174	0x3d92baaa	0.071645096
175	0xbd445c6f	-0.047939714
176	0x3d332490	0.04373604
177	0x3d90fd5f	0.07079577
178	0x3d82e45c	0.06391212
179	0x3d1c34ca	0.03813628
180	0xbd217fff	-0.039428707
181	0xbd333417	-0.04375085
182	0x3d58cb1f	0.052928086
183	0x3d9a8f69	0.075468846
184	0xbcef3c44	-0.029203542
185	0x3cf5469d	0.029940898
186	0x3d6da9f2	0.0580234
187	0x3c3e441a	0.011612916
188	0x3d84911b	0.06472989
189	0x3d10aebc	0.03532289
190	0x3c68222a	0.014168302
191	0x3d6a0432	0.057132907
192	0xbccd7550	-0.025080353
193	0x3d8d3059	0.06893987
194	0x3d6a30e1	0.05717552
195	0x3da8d2d8	0.0824334
196	0xbd09a779	-0.03360698
197	0x3d2e19f0	0.042505205
198	0xbd02dbfc	-0.031948075
199	0xbcd8cbed	-0.026464427
200	0xbbffccee	-0.007806412
201	0x3d79d687	0.060995605
202	0x3caa7035	0.020805458
203	0x3d4816d4	0.048849896
204	0x3d696e99	0.05699024
205	0xb8766af5	-5.8750582e-05
206	0xbd8d5156	-0.06900279
207	0x3d8f1ae8	0.06987554
208	0x3bf02e2f	0.0073297243
209	0xbd9e3c19	-0.077263065
210	0xbd27dd63	-0.040982615
211	0x3d0cfc82	0.034420498
212	0xbd0d925d	-0.03456341
213	0x3d4ee0b3	0.05050726
214	0x3d952c6f	0.07283866
215	0x3da8bd69	0.08239252
216	0xbb343883	-0.0027499504
217	0x3d11ee5c	0.035627708
218	0x3d0bef0a	0.034163512
219	0xbd4bc5c3	-0.049749147
220	0x3d3bb169	0.04582349
221	0x3d8cac98	0.06868857
222	0xbd0fe16a	-0.03512708
223	0xb9a264e9	-0.00030974232
224	0xbd494151	-0.049134556
225	0xbc160e75	-0.00915872
226	0xbba2505a	-0.0049534263
227	0x3d85f405	0.06540684
228	0x3d8aaf13	0.06771674
229	0xbd19c402	-0.037540443
230	0xbda430d3	-0.08017125
231	0x3d4d3ccc	0.05010681
232	0xbb0a7095	-0.0021124233
233	0x3d4afc2f	0.049556907
234	0xbd1b5c11	-0.0379296
235	0x3d907e3d	0.07055328
236	0x3d206467	0.03915825
237	0x3d45ecfa	0.0483217
238	0xbd1005cb	-0.035161775
239	0xbd000b08	-0.03126052
240	0x3d8b199c	0.06791994
241	0x3d66fb68	0.056392103
242	0x3d30708e	0.04307609
243	0x3d8dcb84	0.06923583
244	0x3d8b9cf6	0.06817047
245	0x3d2ab4bd	0.04167627
246	0x3c5594c5	0.013035958
247	0xbafb5540	-0.0019175187
248	0x3d2a5fc5	0.04159524
249	0x3ca44440	0.020052075
250	0xbd641870	-0.055687368
251	0xbd4f1994	-0.050561503
252	0x3d6b21e4	0.057405367
253	0xbd498468	-0.049198538
254	0xbbf6e070	-0.0075340793
255	0xbd1c2548	-0.03812149

conv1.lin.weight f4 [256, 182]
0	0xbc812fb9	-0.015769826
1	0xbcbbc0f6	-0.02291916
2	0xbcff3c4b	-0.03115668
3	0xbdbda0a9	-0.09259159
4	0xbdb07751	-0.08616508
5	0xbd08f69b	-0.033438306
6	0xbdf9f04d	-0.12204037
7	0xbb72c752	-0.0037045074
8	0xbc055f3d	-0.008140382
9	0x3bedce70	0.0072572753
10	0xbd52accd	-0.051434327
11	0xb8cc162e	-9.731609e-05
12	0xbb77e27a	-0.00378242
13	0xbd96ab28	-0.07356864
14	0xbd30b6d3	-0.043143105
15	0xbc0b4720	-0.008500844
16	0xbca6421e	-0.020295199
17	0xbc875b0f	-0.016522912
18	0xbcc1b58f	-0.023646144
19	0xbcb9ccf9	-0.022680746
20	0xbb6ae3db	-0.003584138
21	0x3c00af02	0.007854225
22	0x3a8ca813	0.0010731242
23	0xb8f11837	-0.00011496286
24	0xbce0ecff	-0.027456759
25	0xbc573158	-0.013134323
26	0xbc2b3c05	-0.0104513215
27	0xbbb8ad8c	-0.005635923
28	0xbc4b051c	-0.012391355
29	0xbb4d434a	-0.0031320625
30	0x3b70a78c	0.003672096
31	0xbba1fceb	-0.0049434802
32	0xbb6baa2e	-0.003595959
33	0x3dad986a	0.08476336
34	0x3bfeb92c	0.007773539
35	0x3d9bdc76	0.07610409
36	0x3d9226ea	0.071363285
37	0xbcfd1a22	-0.03089625
38	0xbbd36482	-0.0064511904
39	0x3cdcd713	0.026958024
40	0x3cb4aca2	0.022054974
41	0x3c856088	0.016281381
42	0xbc37cd27	-0.011218346
43	0xbc11a3c3	-0.0088891415
44	0xbc56f685	-0.013120298
45	0x3cb2a1d4	0.021805681
46	0xbc0e8570	-0.008698806
47	0xbd224825	-0.039619584
48	0xbbbe2444	-0.005802663
49	0xbc5ee93a	-0.01360541
50	0xbc4fc6e3	-0.012681696
51	0xbbcbd313	-0.0062202304
52	0x3c82408f	0.015899925
53	0x3a12c132	0.00055982464
54	0xbcbce3a8	-0.023057774
55	0x3cea1516	0.028574508
56	0x3bc6052b	0.0060430965
57	0xbb3c6afd	-0.0028750293
58	0xbcaa5cd9	-0.020796226
59	0x3ce5fe9e	0.028075512
60	0xbcb3cf9e	-0.021949586
61	0xbc890228	-0.016724661
62	0x3b78539f	0.003789164
63	0x3b4cd150	0.003125269
64	0xbc82aca8	-0.01595147
65	0x3c816a4c	0.015797757
66	0xbd0b8525	-0.034062523
67	0x3d1b1ba6	0.037868164
68	0x3a807273	0.0009799734
69	0x3d371009	0.044693027
70	0xbb315bbc	-0.0027062735
71	0xbd5dee6b	-0.05418245
72	0x3a24ad86	0.00062819605
73	0xbbac981e	-0.005267157
74	0xbc241d85	-0.010016804
75	0xbc820cb5	-0.0158752
76	0x3d12b5f2	0.035818048
77	0x3ab6fa41	0.001396008
78	0x3d234b93	0.039866995
79	0xbbcffbf3	-0.0063471734
80	0x3d4f2512	0.050572462
81	0xbbf647ac	-0.007515868
82	0xbcbb5d00	-0.022871494
83	0xbbde13ad	-0.006777248
84	0x3ba9cc90	0.0051818565
85	0xbc9e73d3	-0.019342339
86	0x3d679df3	0.056547116
87	0x3b7405a2	0.0037234803
88	0x3c928c80	0.017889261
89	0xbba243b9	-0.004951921
90	0xbcb129c5	-0.021626363
91	0xbc8ee4b1	-0.017443033
92	0x3c16bfce	0.009201003
93	0xbcf45391	-0.029825004
94	0x3c0fbab2	0.008772539
95	0xbcdb2939	-0.026753055
96	0xbcff45b4	-0.031161167
97	0xbba38f8d	-0.004991478
98	0xbc43f559	-0.011960351
99	0x3c852619	0.016253518
100	0x3c66b08e	0.01408018
101	0x3b161658	0.0022901502
102	0xbccb756b	-0.024836263
103	0xbc6215ee	-0.013799174
104	0xbcba440f	-0.022737531
105	0xbb1a1381	-0.002351016
106	0xbcc87459	-0.024469541
107	0xbbec52d0	-0.0072120205
108	0xbc60eaba	-0.013727838
109	0x3ca37dca	0.019957442
110	0xbc7bebfa	-0.015376085
111	0xbcbd028b	-0.023072502
112	0x3ba4869a	0.0050209286
113	0xbc94e15e	-0.01817387
114	0xbca1b337	-0.019738777
115	0xbd365bb8	-0.044521064
116	0x3d02822a	0.031862415
117	0xbb21921d	-0.002465374
118	0xbc9a18c5	-0.01881064
119	0xbc7164ab	-0.014733474
120	0x3c4f656e	0.01265846
121	0x3b468c8c	0.0030296175
122	0x3ceeb909	0.029140966
123	0xbccd44ca	-0.025057215
124	0xbc5876b5	-0.013211896
125	0x3bcaaaa4	0.0061848927
126	0xbc48ec5f	-0.0122633865
127	0x3befb35d	0.007315083
128	0xb9217598	-0.00015397964
129	0x3d0eef11	0.03489596
130	0x3b0c723c	0.0021430394
131	0xbb6209c1	-0.0034490677
132	0x3bd3963c	0.0064571183
133	0xbc481d62	-0.012214037
134	0x3b0baeed	0.002131398
135	0x3c9106ff	0.017703531
136	0x3c4e8f1b	0.012607361
137	0x3b939cb2	0.0045047635
138	0xbce85dd8	-0.02836506
139	0x3b4bd573	0.0031102567
140	0x3a58cf73	0.00082706584
141	0x3d2bb516	0.041920744
142	0xbd60ce6f	-0.05488437
143	0xbc1ceff3	-0.009578693
144	0xbc8ff0a6	-0.017570805
145	0xbc7f9fd8	-0.015602075
146	0xbc8e56fe	-0.017375465
147	0x3c60cf2d	0.01372127
148	0xbb8d44be	-0.004311173
149	0xbd650358	-0.055911392
150	0x3c8723d8	0.016496584
151	0xbca5c304	-0.020234592
152	0xbd234f44	-0.039870515
153	0x3c42ca4a	0.01188905
154	0xbb895422	-0.0041909376
155	0xbc9ffa60	-0.019528568
156	0x3cc8e0a6	0.024521183
157	0xbc2bcad3	-0.010485369
158	0x3cc53f10	0.024077922
159	0xbc9f42eb	-0.019441089
160	0x3c095abe	0.008383451
161	0xba951b63	-0.001137596
162	0xbc3b47c2	-0.011430683
163	0xbb897816	-0.0041952236
164	0x3bb5d05e	0.005548521
165	0x3d0f3ea1	0.034971837
166	0xbd8ce94c	-0.06880435
167	0xbd4309b2	-0.047616668
168	0xbc1b1271	-0.009464846
169	0xbb33d512	-0.0027440232
170	0xbd10afe4	-0.035323992
171	0xbcfa448e	-0.030550268
172	0xbc663ca7	-0.014052547
173	0xbb91c0a0	-0.0044480115
174	0xbaaa4fb2	-0.0012993722
175	0xbc5e4ecc	-0.013568591
176	0xbbcc52f4	-0.0062354747
177	0xb9ebce5a	-0.00044976437
178	0xbcb93a18	-0.02261071
179	0xbd14632a	-0.036227383
180	0xbd19af80	-0.037520885
181	0xbbf5d9c9	-0.0075027687
182	0x3c195785	0.009359245
183	0x3ca85f71	0.020553323
184	0xbb9cd1eb	-0.0047857664
185	0xbb4f4314	-0.0031625675
186	0xbc71f5aa	-0.0147680435
187	0x3cc70910	0.024296314
188	0x3c5a01d8	0.013306104
189	0x3d01d273	0.03169484
190	0x3c219a0c	0.009863388
191	0x3c4da5fa	0.012551779
192	0x3d7203cb	0.05908565
193	0x3c1becd9	0.009516918
194	0x3c8c8968	0.017155364
195	0x3b27456c	0.0025523556
196	0x3d0ca719	0.034339044
197	0xbc4545a5	-0.01204053
198	0x3c3cac10	0.011515632
199	0x3cee4018	0.029083297
200	0x3b8c9ba8	0.0042910166
201	0x3cfaac88	0.030599847
202	0x3d0c3dcc	0.03423862
203	0x3cbfcf17	0.023414178
204	0xbcbe5dee	-0.023238149
205	0xbd030c1b	-0.031993967
206	0xbd30aa4e	-0.043131165
207	0xbc3139ff	-0.01081705
208	0x3ad22ba9	0.001603474
209	0x3c073428	0.008252181
210	0x3d11dfc6	0.035613798
211	0xbd2113d3	-0.039325546
212	0x3b4563ff	0.0030119417
213	0xbb2ba546	-0.002619104
214	0x3cdad80f	0.026714353
215	0xbc52f8b1	-0.012876675
216	0xbbe4d426	-0.006983298
217	0xbc0fcf87	-0.008777506
218	0xbbb5d7ca	-0.0055494057
219	0xbc8032c1	-0.015649201
220	0xbafea452	-0.0019427633
221	0x3c4cf3d7	0.012509308
222	0xbd9cf7bd	-0.0766444
223	0x3ca0fd85	0.019652138
224	0xbd8c1259	-0.06839437
225	0xbd1375f7	-0.036001172
226	0xbcacd61f	-0.021098195
227	0x3bc6c40d	0.0060658515
228	0xbd3db3ab	-0.046313923
229	0x3b986aa1	0.004651383
230	0x3cb74545	0.022371897
231	0xbcb93a88	-0.022610918
232	0xbd2c8e98	-0.042128175
233	0x3d218474	0.039432958
234	0x3d22fb2c	0.039790317
235	0x3d580d99	0.052747343
236	0xbd25890d	-0.040413905
237	0xbcb828b0	-0.022480339
238	0xbcab8ae7	-0.020940257
239	0x3c804c98	0.015661523
240	0xba873ef5	-0.0010318445
241	0xbd0b622c	-0.03402917
242	0x3d82d373	0.06387987
243	0xbd90e8ec	-0.07075676
244	0xbd7b93a4	-0.061420098
245	0x3c852049	0.016250746
246	0x3d478d4b	0.04871873
247	0x3d474106	0.048645996
248	0xba8218d0	-0.0009925608
249	0x3d38832f	0.04504698
250	0xbd496762	-0.04917086
251	0xbafa43bf	-0.0019093676
252	0x3c094d02	0.0083801765
253	0xbabbf38f	-0.0014339554
254	0x3bbc02a7	0.005737621
255	0x3c3a118e	0.011356724

conv2.att_src f4 [1, 1, 64]
0	0x3e1f3af8	0.15549839
1	0xbdede2ee	-0.11615549
2	0xbd429921	-0.047509316
3	0xbd86835c	-0.065680236
4	0x3c7093f6	0.014683714
5	0x3e2b33ab	0.16718929
6	0xbdde3139	-0.10849232
7	0xbdb21294	-0.0869495
8	0xbdd894af	-0.10575234
9	0x3bcbd8de	0.006220921
10	0x3de45335	0.11148683
11	0xbd0cc753	-0.034369778
12	0xbd373aa4	-0.04473366
13	0xbd7d5cad	-0.06185596
14	0xbdaff6c5	-0.085919894
15	0xbd17d7f4	-0.037071183
16	0x3d82e796	0.06391828
17	0xbe148d00	-0.14506912
18	0xbe43dd4b	-0.19127385
19	0xbd9d6087	-0.07684427
20	0x3e6dc5bf	0.23219965
21	0x3cadebfb	0.021230688
22	0xbc3fbb5c	-0.011702385
23	0x3d503809	0.05083469
24	0xbdbc8524	-0.09205082
25	0xbd8857b4	-0.06657353
26	0xbd4d75c6	-0.050161146
27	0x3e7d01d9	0.24707736
28	0xbe01c71a	-0.12673607
29	0xbd288201	-0.041139606
30	0x3e68c3ad	0.22730894
31	0x3e1773b0	0.14790225
32	0x3df326e7	0.118726544
33	0xbce376f6	-0.027766686
34	0x3dbbd6a9	0.091718026
35	0x3d964640	0.07337618
36	0xbe945f9f	-0.28979203
37	0xbda12abd	-0.0786948
38	0xbd5b3bc0	-0.05352378
39	0xbd9ddfe4	-0.077087194
40	0x3db18f1e	0.086698756
41	0xbd01c9b3	-0.031686496
42	0xbd5480c4	-0.051880613
43	0x3e48f7d6	0.19625792
44	0xbe208ece	-0.15679476
45	0x3a96fbf7	0.0011519183
46	0x3da352e6	0.07974796
47	0xbd94f7fa	-0.0727386
48	0xbe18fb58	-0.1493963
49	0xbdea18eb	-0.11430534
50	0x3ea397e3	0.31951818
51	0x3e20e6cf	0.15713046
52	0x3ddc520b	0.10757836
53	0x3d99cce3	0.07509782
54	0xbdf72286	-0.12067132
55	0xbd9f758b	-0.077860914
56	0xbe2a6941	-0.16641714
57	0xbc8c9ff0	-0.017166108
58	0xbb939498	-0.0045037977
59	0x3dce4959	0.10072584
60	0xbba35f87	-0.004985753
61	0xbe37b426	-0.17939815
62	0x3e270e52	0.16314057
63	0x3e0cc1df	0.13745831

conv2.att_dst f4 [1, 1, 64]
0	0xbd09afa9	-0.03361479
1	0x3e2763a6	0.16346607
2	0x3d084ca8	0.03327623
3	0xbc236200	-0.0099720955
4	0xbcbedfcf	-0.02330008
5	0x3dc31652	0.09525742
6	0x3e35fe68	0.1777283
7	0xbc7d3e90	-0.015456811
8	0x3bce9082	0.006303848
9	0x3deee13a	0.11664052
10	0x3d17d558	0.037068695
11	0x3d908679	0.070568986
12	0xbbbb33e3	-0.0057129725
13	0x3dfec1d8	0.124393165
14	0xbd3cd8d2	-0.046105213
15	0x3b0872b0	0.0020820312
16	0x3e0385fe	0.12844083
17	0xbbf329ab	-0.0074207387
18	0xbc9c2001	-0.01905823
19	0x3dabb06f	0.083832614
20	0x3e06c929	0.13162674
21	0x3d6055ed	0.054769445
22	0x3c1da9b5	0.009622981
23	0xbd29c58d	-0.041448165
24	0xbb5f6937	-0.0034089813
25	0xbd543d72	-0.05181641
26	0x3dd46d19	0.10372371
27	0x3da0b1da	0.078464225
28	0xbd04cb3d	-0.032420386
29	0xbaee6d45	-0.0018190524
30	0x3db04b95	0.08608166
31	0xbc3438af	-0.010999843
32	0x3d30187a	0.042992093
33	0x3d05ea5b	0.032694202
34	0xbcbe1b92	-0.023206506
35	0x3b6915b5	0.0035565917
36	0xbc6ea622	-0.014565976
37	0x3e32d06b	0.17462318
38	0x3e0c22ee	0.136852
39	0xbd6d9bd9	-0.058009956
40	0x3d3b8b3f	0.045787092
41	0xbd3e9b4b	-0.046534818
42	0xbd64f5ee	-0.0558986
43	0x3dc99544	0.09842923
44	0x3caf6e92	0.021415029
45	0x3d047bb3	0.03234453
46	0x3bb6dce0	0.0055805296
47	0x3de535b8	0.11191887
48	0x3e1ca82d	0.15298529
49	0x3cd178db	0.025570324
50	0xbd860e26	-0.06545667
51	0x3e18f23c	0.14936155
52	0xb81d3480	-3.748061e-05
53	0xbca774b7	-0.020441396
54	0x3d70ed14	0.058819845
55	0x3cda8ecc	0.026679419
56	0x3d89e9f0	0.06734073
57	0x3e01c401	0.12672426
58	0x3d5a478a	0.05329088
59	0x3cff242f	0.031145183
60	0x3e3def71	0.18548371
61	0xbc7083c9	-0.0146798575
62	0x3c8970b0	0.016777366
63	0x3ca32d06	0.01991893

conv2.bias f4 [64]
0	0x3df0d27d	0.117588975
1	0x3e0dd136	0.13849339
2	0x3e131fb6	0.14367566
3	0x3dc14369	0.094366856
4	0x3e2659d0	0.16245198
5	0xbdc0c193	-0.09411921
6	0xbe023c01	-0.12718202
7	0xbd01f4c4	-0.031727567
8	0x3c563a3e	0.013075409
9	0x3e14a180	0.14514732
10	0xbdde602e	-0.108581886
11	0xbd16d570	-0.036824644
12	0x3e168c1a	0.14701882
13	0x3c9aea4f	0.018910555
14	0x3e4b46d1	0.19851233
15	0xbc544ef6	-0.012958279
16	0x3e393cad	0.18089552
17	0xbcb14610	-0.021639854
18	0x3e0d9b00	0.13828659
19	0x3e2d05e6	0.16896781
20	0x3dba0673	0.09083261
21	0xbda5eac1	-0.081014164
22	0x3e28b6b8	0.16475952
23	0x3de1c3aa	0.11023648
24	0x3d19fd8f	0.037595328
25	0x3e2aff33	0.16698913
26	0xbdb9c724	-0.09071186
27	0x3e052232	0.13001326
28	0xbc4e9385	-0.012608414
29	0x3e058417	0.1303867
30	0x3cd3fd22	0.025877539
31	0xbda27c17	-0.079338245
32	0xbd8a38e9	-0.06749136
33	0x3e0e00a5	0.13867433
34	0x3e08afd9	0.1334833
35	0x3e4c89ef	0.19974492
36	0xbddb0289	-0.10693843
37	0xbdc6e111	-0.09710897
38	0xbde39b18	-0.11113566
39	0x3e39e8c1	0.18155195
40	0x3e23d189	0.159979
41	0xbb49eab5	-0.0030810062
42	0x3e14677e	0.14492604
43	0xbdbe71e0	-0.09299064
44	0x3e318886	0.17337236
45	0x3d767955	0.060174305
46	0x3dba1e13	0.090877675
47	0xbdf5e2b0	-0.12006128
48	0x3e272bde	0.16325328
49	0xbdef0109	-0.11670119
50	0x3e2322de	0.1593127
51	0xbdcdbca8	-0.10045749
52	0xbcdd06b5	-0.026980737
53	0x3d86248e	0.06549941
54	0xbdcd1755	-0.10014216
55	0x3e041c2b	0.1290137
56	0x3e106703	0.14101796
57	0x3e05465b	0.1301512
58	0xbdaf45a4	-0.08558205
59	0x3e365a96	0.17807993
60	0xbdba52ec	-0.09097847
61	0xbd0c1437	-0.034198966
62	0x3e34c97b	0.17654984
63	0xbdd6e67b	-0.104931794

conv2.lin.weight f4 [64, 256]
0	0xbc935dda	-0.017989088
1	0xbd7719d1	-0.060327355
2	0xbcc6b6dd	-0.024257118
3	0xbc5a5713	-0.013326424
4	0xbbcfd68e	-0.0063427156
5	0xbbcbf215	-0.006223927
6	0xbbbcb956	-0.0057593985
7	0x3d03e71e	0.032202832
8	0x3d364bd5	0.044505913
9	0x3d18473f	0.03717732
10	0xbc2dcfa7	-0.01060859
11	0x3d547361	0.051867846
12	0x3c86f4ce	0.016474154
13	0x3d61f9fd	0.055170048
14	0x3d38b555	0.045094807
15	0x3dba3617	0.09092348
16	0x3d259a8d	0.040430594
17	0x3d61703e	0.055038683
18	0xbcab9a9a	-0.020947743
19	0x3cecb823	0.028896397
20	0x3d964795	0.07337872
21	0xbc3b8144	-0.011444394
22	0x3d8b577d	0.068037964
23	0x3d91f001	0.07125855
24	0x3d6312eb	0.055437963
25	0xbd0deefa	-0.034651734
26	0x3dcda8ef	0.10041987
27	0x3d4ef4fc	0.050526604
28	0x3d2f6c45	0.042827863
29	0xbd650406	-0.05591204
30	0xbc9139fd	-0.017727846
31	0x3da152fd	0.07877157
32	0xbcc3f361	-0.023919763
33	0x3dad2d97	0.08455961
34	0x3dc34a3c	0.095356435
35	0xbcce5fe9	-0.025192218
36	0xbb58bc1b	-0.0033071104
37	0x3d2d0a2d	0.042246033
38	0xbd3a4b12	-0.04548175
39	0xbb5cc810	-0.0033688582
40	0x3bc03929	0.005866189
41	0xbc385fc9	-0.011253306
42	0x3d3c63a2	0.045993455
43	0xbb77ef76	-0.0037831939
44	0xbaf3e454	-0.0018607476
45	0x3d848322	0.06470324
46	0xbc338aad	-0.010958356
47	0xbcd17409	-0.025568025
48	0x3ca302bd	0.019898767
49	0x3d347a97	0.044062223
50	0xbbf8f0eb	-0.007597079
51	0xbbd0d30e	-0.006372816
52	0xbc90d32d	-0.017678821
53	0x3c842b07	0.016133798
54	0x3dcd9bb0	0.10039461
55	0x3c954412	0.018220935
56	0x3d695010	0.05696112
57	0x3d652100	0.055939674
58	0x3d4b165a	0.049581863
59	0xbc98050f	-0.0185571
60	0xbd2205f1	-0.039556447
61	0x3cf72150	0.030167252
62	0x3d8b3f32	0.06799163
63	0xbd2b6842	-0.041847475
64	0x3d602aa1	0.054728154
65	0xbd92688d	-0.07148848
66	0x3c191623	0.009343657
67	0xbc60d0b8	-0.013721637
68	0xbe254aad	-0.16141768
69	0xbd8cdc22	-0.068779245
70	0x3d8bfa91	0.06834901
71	0xbd719836	-0.05898305
72	0x3d5856bf	0.052817103
73	0xbddcfb0f	-0.10790073
74	0xbd81ac7c	-0.06331727
75	0xbbefdc28	-0.007319946
76	0xbb214ba3	-0.0024611733
77	0xbd955d9b	-0.072932445
78	0x3b89fa3c	0.0042107385
79	0xbc25b7af	-0.010114594
80	0x3d7ebd30	0.062192142
81	0x3b863598	0.0040957443
82	0xbcea8ebd	-0.028632516
83	0xbdfc30df	-0.12314009
84	0x3d40947c	0.047016606
85	0x3b9adba3	0.00472589
86	0xbda8d820	-0.082443476
87	0xbc825a53	-0.01591221
88	0xbd04d045	-0.032425184
89	0xbcd3a233	-0.025834179
90	0xbd0c5436	-0.034259997
91	0xbe171fb6	-0.1475819
92	0xbddbd81c	-0.10734579
93	0xbd8f807a	-0.07006927
94	0x3cce716e	0.025200572
95	0x3bfa999a	0.0076477053
96	0xbb273664	-0.0025514597
97	0x3cb5e5b4	0.022204258
98	0xbdfaad58	-0.12240094
99	0x3d21923c	0.0394461
100	0xbe114bad	-0.14189024
101	0x3d70f1c7	0.058824327
102	0x3d376e5b	0.044782978
103	0xbe01f2ac	-0.12690228
104	0xbca073a9	-0.019586401
105	0xbdf9bbb7	-0.12194007
106	0xbcd3b2c5	-0.02584208
107	0xbd3841d5	-0.044984657
108	0x3dad183c	0.08451888
109	0xbae8a60b	-0.001774968
110	0x3d9202e9	0.07129461
111	0xbc990ff1	-0.01868436
112	0xbdc3a1ad	-0.095523216
113	0xbb55ab81	-0.0032603445
114	0xbc9066d7	-0.017627163
115	0x3d3085ae	0.043096237
116	0x3ddc9585	0.10770706
117	0xbdd96039	-0.10614056
118	0xbcafc635	-0.021456817
119	0xbd74d83e	-0.059776537
120	0xbdc556be	-0.096356854
121	0xbc87e4ee	-0.016588654
122	0xbc571b3e	-0.013129054
123	0xbd4d3187	-0.05009606
124	0x3d2f908c	0.04286246
125	0xbdc6e256	-0.09711139
126	0xbd269b19	-0.040675256
127	0x3d84e0bd	0.06488178
128	0x3b242ee4	0.0025052363
129	0x3c2ed624	0.010671172
130	0x3db153ad	0.08658538
131	0xbcdd041d	-0.0269795
132	0x3d0da337	0.034579482
133	0x3c01289a	0.007883215
134	0x3d3d91d1	0.04628164
135	0xbcf98e3d	-0.030463332
136	0x3cfd6093	0.03092984
137	0x385155ec	4.9909504e-05
138	0x3d7bb00d	0.061447192
139	0xbd494f8a	-0.04914812
140	0x3cbd3665	0.023097226
141	0xb6a3cdcd	-4.881737e-06
142	0x3d407a97	0.04699191
143	0x3dd3548f	0.10318863
144	0xbd058954	-0.03260167
145	0x3d28ff67	0.041259196
146	0xbd420002	-0.04736329
147	0x3c2527c0	0.010080278
148	0x3cec3ba6	0.028837036
149	0x3cc376ce	0.023860361
150	0x3da66c30	0.08126104
151	0xbc1b030a	-0.009461174
152	0x3d60d35d	0.05488907
153	0xbcfad6a6	-0.03061993
154	0x3d189d9f	0.037259694
155	0xbc293314	-0.010327119
156	0xbc70b624	-0.014691863
157	0xbc890841	-0.016727569
158	0x3cbf867a	0.023379553
159	0xbd79319f	-0.060838338
160	0xbd0366e7	-0.032080557
161	0xbd8999f7	-0.067188196
162	0x3d2c3753	0.04204495
163	0xbc9df60e	-0.019282367
164	0x3c7a5287	0.015278465
165	0xbd2e1248	-0.042497903
166	0x3d0caede	0.034346454
167	0x3d6a0ce5	0.057141203
168	0x3dc2a996	0.09505002
169	0xbd4b23c1	-0.049594644
170	0xbc9b153d	-0.018931026
171	0x3b973f74	0.0046157185
172	0xbc98ac76	-0.018636923
173	0x3d88e33a	0.06683965
174	0xba3de636	-0.0007244082
175	0x3c9003ad	0.017579878
176	0x3d0ecb39	0.034861777
177	0x3c4ee1f3	0.012627113
178	0x3cb116b6	0.021617275
179	0xbc3e21d0	-0.011604741
180	0x3c6614e2	0.014043065
181	0x3de24fd9	0.11050386
182	0xbcb6a8eb	-0.022297343
183	0x3b8e6ff0	0.00434684
184	0xbdad3822	-0.08457972
185	0xbd445971	-0.04793686
186	0xbd1b0c3f	-0.037853476
187	0x3b0e02e2	0.0021669199
188	0xbb23a422	-0.0024969657
189	0x3cbaaba3	0.02278692
190	0x3dc228c5	0.094804324
191	0x3c4b56a6	0.012410795
192	0xbd3cb7d3	-0.046073746
193	0xbd32d14d	-0.043656636
194	0xbc37a3c1	-0.011208476
195	0x3cb85ecf	0.022506146
196	0x3d9d94e3	0.076944135
197	0xbd7a004e	-0.061035447
198	0x3c5366f9	0.012902969
199	0x3d5df397	0.054187384
200	0x3d87b346	0.066259906
201	0x3c8dc702	0.017306808
202	0xbd964ba2	-0.073386446
203	0x3d7f202a	0.062286533
204	0x3d0e6bc9	0.03477076
205	0x3c85bf12	0.016326461
206	0xbcd6c466	-0.026216697
207	0xbdedcdf9	-0.11611552
208	0x3dd0c7ac	0.101943344
209	0x3d851993	0.064990185
210	0xbd44417f	-0.047914024
211	0xbdec1621	-0.11527658
212	0x3d4e6bc8	0.050395757
213	0xbc69447d	-0.01423752
214	0xbe31a3c2	-0.17347625
215	0x3c2a2179	0.010383957
216	0x3d1e2fd9	0.03861985
217	0xbcec36c9	-0.028834717
218	0x3c86e3bb	0.016466012
219	0xbdf1ab84	-0.11800292
220	0x3d968ac2	0.07350685
221	0x3b40e054	0.0029430585
222	0xbcaf6da8	-0.021414593
223	0xbd3765d1	-0.044774834
224	0xbbe82b9d	-0.0070852772
225	0x3d807f6a	0.06274302
226	0x3d4b3f2e	0.0496208
227	0xbcd1ffd2	-0.02563468
228	0x3db8eef3	0.09029951
229	0x3bb86d5e	0.005628272
230	0xbd26b91d	-0.04070388
231	0xbdc939e8	-0.09825498
232	0x3d181a11	0.037134234
233	0xbd211dcc	-0.039335057
234	0x3ccdad20	0.025106966
235	0xbc6c35d5	-0.014417131
236	0xbe0d5f10	-0.13805795
237	0xbde13f5a	-0.109984115
238	0x3c173ee7	0.009231306
239	0xbc93b5e7	-0.018031074
240	0x3d914d8d	0.0709487
241	0x3cf019e6	0.029309224
242	0xbde18ab4	-0.11012784
243	0x3c288131	0.010284708
244	0xbd1e6eb0	-0.03867978
245	0x3bccb2b1	0.0062468876
246	0xbc188c3c	-0.009310778
247	0xbcc8cd54	-0.02451197
248	0xbdbb5475	-0.09146968
249	0xbceeb93f	-0.029141067
250	0x3d6d54c6	0.057942174
251	0xbe362db2	-0.17790869
252	0x3c8bf02a	0.017082293
253	0x3bb1a8e8	0.0054217465
254	0x3da64049	0.0811773
255	0x3bec01dc	0.00720237

classifier.weight f4 [2, 64]
0	0x3ca4a463	0.020097917
1	0x3d1278f5	0.035759885
2	0x3d3b6097	0.045746412
3	0x3d43960c	0.047750518
4	0x3db584bb	0.08863207
5	0xbd69fba8	-0.057124764
6	0xbc79ba15	-0.015242119
7	0xbd62399d	-0.055230726
8	0x3dce726b	0.10080417
9	0x3d301009	0.042984042
10	0xbd8634d1	-0.06553043
11	0xbca97893	-0.020687377
12	0xbac34c21	-0.0014900008
13	0x3deaf859	0.1147315
14	0x3e148f22	0.14507726
15	0x3d8d9c48	0.06914574
16	0xbd316f1e	-0.04331886
17	0x3b9a0d10	0.004701264
18	0xbceb1a5e	-0.028699096
19	0x3ddc81ba	0.10766931
20	0xbb0c2775	-0.0021385823
21	0xbd497acb	-0.04918937
22	0x3cd3fbc4	0.025876887
23	0xbd2730cf	-0.040818032
24	0xbd81fb1d	-0.06346724
25	0xbd1cf781	-0.038321976
26	0xbd53ebfb	-0.05173872
27	0x3d3bc337	0.04584047
28	0x3d374cc4	0.044750944
29	0xbda7deff	-0.0819683
30	0xbc6d9eea	-0.01450322
31	0x3d234da5	0.03986897
32	0xbd8b79e2	-0.06810357
33	0xbd73b60b	-0.05949978
34	0x3da924f5	0.08259002
35	0x3d506279	0.05087516
36	0xbc9241be	-0.017853614
37	0x3cc3f64a	0.02392115
38	0xbd5ca666	-0.053869627
39	0x3d487d10	0.048947394
40	0x3dcb28e3	0.09919908
41	0x3cb4ca74	0.022069193
42	0x3da4d18d	0.08047781
43	0xbdb9f3fa	-0.09079738
44	0x3d9ad740	0.07560587
45	0x3e020ed1	0.12700965
46	0x3dc890b6	0.097932264
47	0xbc88f8f8	-0.01672028
48	0xbcbbbf0c	-0.022918247
49	0xbd84a34f	-0.06476461
50	0x3b8a0fc6	0.004213306
51	0xbb6d0b12	-0.0036169928
52	0x3def21f2	0.116763964
53	0x3e0095f8	0.12557209
54	0xbcf809ea	-0.030278165
55	0xbd197a45	-0.03747012
56	0xbd171e14	-0.03689392
57	0x3bfd2448	0.0077252723
58	0x3c10bcb7	0.008834056
59	0xbd91e141	-0.07123042
60	0x3b834729	0.0040062857
61	0x3dd260eb	0.10272392
62	0xbce82082	-0.028335813
63	0xbd818b68	-0.06325418
64	0x3ce516c8	0.027964965
65	0x3ca3ca55	0.01999394
66	0xbd95fa38	-0.07323116
67	0x3d67cc30	0.056591213
68	0xbd8d0b59	-0.0688693
69	0xbd271d78	-0.040799588
70	0x3dc13d6e	0.09435545
71	0xbda42ed5	-0.08016745
72	0x3d095b72	0.033534475
73	0xbd8d12bf	-0.06888341
74	0x3d3e6b48	0.04648903
75	0xbd78a7ed	-0.06070702
76	0xbe06661f	-0.13124894
77	0x3d72b42c	0.059253857
78	0x3d2e5663	0.042562854
79	0x3d9cff2b	0.07665857
80	0xbdeb66f4	-0.11494246
81	0x3d9f8d7d	0.077906586
82	0xbd69bb45	-0.05706336
83	0xbd91f112	-0.07126059
84	0x3d3b69e1	0.04575527
85	0xbd7a47ce	-0.061103635
86	0xbd84ab4f	-0.06477987
87	0xbdfc154d	-0.1230875
88	0xbe07e6e1	-0.13271667
89	0xbdf8aa38	-0.12141842
90	0xbcf3ca49	-0.029759543
91	0xbd77fd45	-0.06054427
92	0xbac4dc06	-0.0015019185
93	0xbd638973	-0.055551004
94	0xbdb29d06	-0.08721356
95	0x3cbaefb4	0.022819377
96	0xbdb515c6	-0.088420436
97	0xbcbade1a	-0.022810984
98	0xbddf564c	-0.10905132
99	0xbd7cd2be	-0.061724417
100	0xbb8bdc3c	-0.0042681973
101	0x3d762f2c	0.06010358
102	0x3d3da38a	0.04629854
103	0xbdc8a1ea	-0.09796508
104	0xbd0232fa	-0.031786896
105	0xbce7a1b4	-0.028275348
106	0x3d8e695e	0.06953691
107	0xbd0461bd	-0.032319773
108	0xbd8e0260	-0.06934047
109	0x3d4e5fca	0.05038432
110	0x3c9637e7	0.018337203
111	0x3d98480e	0.07435618
112	0xbda688b7	-0.08131545
113	0x39a6260b	0.00031690332
114	0xbcc04754	-0.023471512
115	0x3d0f27f1	0.0349502
116	0x3d931a1e	0.07182716
117	0x3d831898	0.06401175
118	0x3be6850f	0.007034905
119	0xbd2436ba	-0.040091254
120	0xbe075239	-0.13214959
121	0x3d1740d6	0.036927067
122	0xbb23ac05	-0.0024974358
123	0xbe2c6452	-0.16835144
124	0x3daf0a8c	0.085469335
125	0x3d63ecce	0.055645756
126	0xbd7aa3b8	-0.06119129
127	0x3bdfae97	0.0068262327

classifier.bias f4 [2]
0	0x3d5f47ea	0.054511942
1	0xbe4ff82e	-0.20309517
