models/gat_engineered_ce_gat_model.pt (torch, 272592 bytes, 10 tensors)

conv1.att_src f4 [1, 4, 64]
00000000: 06ee 17bd b82f 37be 0d33 b0bd b013 413e
00000010: 1144 a83d ad56 213d 9857 b43d 89c6 37bd
00000020: d59d 26be 3469 3dbe 1edc 14be 9f72 e13d
00000030: 4c7f 1ebd 1f03 2ebd a872 87bd 2126 213e
00000040: 8aff 31bd 79f6 343e f2d4 6bbe bdcb 743d
00000050: 1b13 edbd 7ff6 aabd 0581 023d 0fae e4bd
00000060: 970d 69bd a2a3 2ebd 5c04 afbd 9303 f43d
00000070: 41d9 b93d 09b0 bb3d 290b 243c f587 82be
00000080: 94b0 a83c 5ee3 de3c 66bd b038 14a4 a0bd
00000090: 77bc babc 2bfe ee3d 61e2 2dbe 05ae 66bd
000000a0: 0e4d 4dbe 2554 223e a33c a5bd e0ec e4bd
000000b0: deb6 8d3d 509b 4c3e d59e 4b3e 6153 1f3d
000000c0: d6d9 f6bd 482c 69bc f5cd 2abd db7f d03d
000000d0: ffb2 3abe b603 a6bd bfa0 20be 39aa 70bd
000000e0: 7946 d63d 35ca b33d e4fd 23bd 7d4d c13c
000000f0: 3b9c 4a3e 333c 353c dcaf 2f3e 8ac1 1b3e
00000100: 3f02 703e 3427 3bbe 8889 f0bd 6bd8 a6be
00000110: c32a 483c e121 883e 5045 8dbc 8286 2cbe
00000120: 3c67 3e3d c15b 5bbe 3345 41be 8121 9dbd
00000130: 3eae 893e 0a55 343d 8d6c 9c3d f93f c0bd
00000140: f7fa 353e 9ee4 61be fd84 03be 1093 483d
00000150: 6165 0fbc 9ed9 bb3d 15e7 38be 53eb 3ebe
00000160: 6358 c1bd d63e 263e dd76 9f3e fc98 26bd
00000170: 2d5b 0d3e 5d45 d0bd 4dc2 0b3e 20a1 5bbd
00000180: eb6f c8bd 5dc5 d0bd 524c ce3c c168 0a3e
00000190: 03d2 803c f0f5 1d3d 433b dfbd b52d 22be
000001a0: fd70 983e 5842 0d3e 6a31 913d b7e2 45be
000001b0: 9b69 353e 254e 743e de78 fdbc 3883 963d
000001c0: e9c2 45be e07b 813c 43aa 933d d5c5 dfbc
000001d0: 17b7 3bbe 4cd8 383d 9507 3bbd c50b db3d
000001e0: cbd6 12be 4326 173e b386 86bd 8aeb 10be
000001f0: 732d 1a3e 5aa6 653d 25b3 2b3e 4dea 773e
00000200: 4574 50be f37f 47be 61e4 a2bd 4e1b 56bd
00000210: a391 e03d eee7 adbc a32e 153e 787d a53c
00000220: 2629 323e c281 9ebc 0619 e9bc 92ee 233e
00000230: a400 263e bbce 8bbe 2a7a 14be 30e3 1fbd
00000240: 0f98 ee3d 4cde 9ebd 1875 3dbb 965c 9d3d
00000250: e78e 84be 790d e5bd 4dd6 91bb 6054 09be
00000260: 6f42 003e 3fef 813c 9073 eebd 5e6a 82bd
00000270: 2c17 a4bb 3b2d cfbd 8aca 7a3e 7163 9bbd
00000280: 66b0 823d c83b 82bd c6ed ccbd 9253 663d
00000290: a108 173e 0ec4 4fbe 3f8a 553e 245c 5bbd
000002a0: 5a8c 983d 008b a5bd 4b1f 23be eacf e0bd
000002b0: 11c9 903d 9b39 b5bd 1126 f3bd 3e0a 6a3d
000002c0: d447 74bd 8cb3 933c f4ce 9f3d b65f f83c
000002d0: 6443 903d 0eb8 dbbd 9d6d 8d3e f631 98bd
000002e0: 720d d03d 5501 b63b 3ca2 eabd 1e25 5cbe
000002f0: 993d 86bd 192c b8bd 452b 1a3e d166 cc3d
00000300: f7bd 243d 6f8a 88be 19ed 593e e572 72bd
00000310: 75f4 87bd 211e 903d 3eab be3b 3936 72be
00000320: 1b03 933d 3c00 2ebe 6003 23be 4622 4cbe
00000330: 1cfb 7cbc 1310 bbbd 627c c93d 006e 653d
00000340: a8e4 dabd 0466 3a3d 6fca 363e 3cfc d83d
00000350: b6ad 003e 1760 53be 760e b6bd 6c40 4d3e
00000360: cb58 583e 8a39 223e d1f1 7bbe d3cc 84bd
00000370: aebc 6a3e 8661 05bd f473 9fbc 5ce2 8abe
00000380: 40a7 0f3e 354e d8bd d6ef 5b3e 7e1c 9bbd
00000390: 20bf 29be e628 373c c616 383e b20b e5bd
000003a0: d9ff 8b3e 5c01 2fbe bcdd 753e c2eb 45bd
000003b0: 7469 423e d321 10bd a8bd 39be 5167 323d
000003c0: 251f d2bd 43a5 a1bd 3ecc 64be dfd4 923d
000003d0: f7dc 8b3e 8020 0bbe 76b0 7dbd 6e64 1a3e
000003e0: a546 a9bd b18e 893e 20c6 673d 8036 9abd
000003f0: c6a7 7e3d 7fa6 693d e7ef a33c f19b 11bd
-0.03709223 -0.17889297 -0.08603487 0.18855166 0.08216108 0.0393893 0.0880577 -0.044867072
-0.16271146 -0.18497163 -0.14537093 0.1100819 -0.03869562 -0.042483445 -0.06613666 0.15737201
-0.04345659 0.17672147 -0.23030451 0.059764612 -0.1157591 -0.08347797 0.031861324 -0.111660115
-0.056897726 -0.04263652 -0.08545753 0.11914744 0.09074641 0.091644354 0.010012426 -0.25494352
0.020592012 0.027208026 8.427612e-05 -0.078437954 -0.022794945 0.116695724 -0.16980888 -0.0563183
-0.20048925 0.15852411 -0.08068206 -0.11177993 0.06919645 0.19981122 0.19884808 0.038897876
-0.12053268 -0.014231749 -0.041700322 0.101806365 -0.18232344 -0.081061766 -0.1568632 -0.058756087
0.1046266 0.08778802 -0.04003705 0.02359652 0.1978616 0.011061716 0.17156929 0.15210548
0.23438357 -0.18276674 -0.11744982 -0.3258699 0.012217226 0.26588348 -0.017244965 -0.16848186
0.04648517 -0.2142172 -0.18874054 -0.07672406 0.2689075 0.044026412 0.07637892 -0.09387202
0.17771517 -0.22059867 -0.128437 0.048968375 -0.008752198 0.091723666 -0.18056901 -0.18644457
-0.094406866 0.16234908 0.31145373 -0.04067324 0.13804312 -0.1016948 0.13648339 -0.053620458
-0.09786972 -0.10193894 0.025182877 0.13516523 0.015725141 0.038564622 -0.10899975 -0.15837748
0.29773703 0.1379484 0.07089503 -0.19324766 0.17716067 0.23857935 -0.030941423 0.07349247
-0.19312634 0.015806139 0.07210209 -0.027316013 -0.18331562 0.04512815 -0.045661528 0.10695604
-0.1433975 0.1476069 -0.065686606 -0.14152351 0.150564 0.05606685 0.16767557 0.24210472
-0.20356853 -0.19482403 -0.07953716 -0.052272134 0.10965278 -0.021228757 0.14568572 0.02020143
0.1739851 -0.019348983 -0.028454315 0.16008976 0.16211182 -0.2730616 -0.14499727 -0.039035022
0.116500966 -0.077572435 -0.0028908905 0.07683675 -0.25890276 -0.1118421 -0.0044505955 -0.13411093
0.12525342 0.015861152 -0.116431355 -0.06367944 -0.005007645 -0.10116049 0.24491325 -0.07587326
0.063813016 -0.063590586 -0.10006289 0.056232043 0.14749385 -0.20289633 0.20853518 -0.05355467
0.07448645 -0.08083153 -0.15929906 -0.109771565 0.070696004 -0.08848878 -0.11872495 0.057138674
-0.059638813 0.01802995 0.07803145 0.030319076 0.07044104 -0.10728465 0.2762269 -0.07431404
0.101588145 0.005554358 -0.11456725 -0.21498534 -0.065547176 -0.08992786 0.15055569 0.09980548
0.040220227 -0.26668116 0.21281852 -0.059191603 -0.06638423 0.07036997 0.0058187535 -0.23653497
0.07178327 -0.16992277 -0.15919256 -0.1993495 -0.0154407285 -0.09133925 0.09838177 0.056013107
-0.10688144 0.045507446 0.1785066 0.10594985 0.12566265 -0.20642124 -0.08889477 0.20044106
0.21127622 0.15842262 -0.24603964 -0.064843796 0.22923538 -0.03256371 -0.01946447 -0.27125823
0.14028645 -0.10561792 0.21478209 -0.07573794 -0.16576815 0.011179185 0.17977437 -0.11183871
0.27343634 -0.17090362 0.24010366 -0.04832054 0.1898554 -0.035188507 -0.18138754 0.04355556
-0.102598466 -0.07892849 -0.22343537 0.07169508 0.2731702 -0.13586617 -0.061935864 0.15077373
-0.082654275 0.26866677 0.05658543 -0.07529926 0.06217172 0.05704355 0.020011855 -0.035549108

conv1.att_dst f4 [1, 4, 64]
00000000: 7bad 863c a4e8 fe3c 5afb abbd f0cc 113e
00000010: 1f29 833e 10fd 3d3c 9604 50be 0a5a bebd
00000020: e56f 043e 4974 423d 71b3 b73d ce6a 263d
00000030: b73f a93d bb7e a53d b2ba 39bd 879f d93d
00000040: dc68 2dbd 94c8 ac3b 40c9 9cba 6fdb 31bd
00000050: 4871 9c3d 90ec d73d 685a a5bd 9068 b7bd
00000060: af1e 3a3e 15ed 97bd d199 2dbd 4def 443e
00000070: 390f fcbd f75a 9a3d 171f 77bd f9a2 f1bd
00000080: 0782 39be d341 a3bc a711 f53d 1705 f63d
00000090: a616 b53d c2aa bfbb ae39 9dbd 58f1 cbbd
000000a0: 5c99 bfbd 521c 143c 5866 1d3e 3d6b 35bd
000000b0: acea 963d 7875 e73c c5e1 143d 6a3b a1bd
000000c0: ad6c 89bd 1703 14bd 02c5 8e3d 0954 4b3d
000000d0: 913c 8f3e 6131 f5bc a766 c13d 61ac e1bd
000000e0: 8595 413d c245 c3bc 6b48 e1bd c231 9a3d
000000f0: 0460 7ebc 05c5 11bd 8687 3f3e 9ff4 3e3d
00000100: f78e 11be de85 f9bd a819 ec3c d298 943c
00000110: c1cc 21bd 4bb5 1ebe 3ec7 91be 2a70 04bd
00000120: 2a79 b8bb 13e8 f03b 1716 8abe 5e4d 5fbe
00000130: da38 393e 275a 47ba 1a08 5abc a93f 26bc
00000140: 4a65 3c3e 6d91 cc3c 22a6 21be 0555 293d
00000150: fb2c 38bd 48f0 ca3d 2e7f 98bd 36c8 52be
00000160: 381e a8bc ffa6 793d bad6 333e 58d1 bc3b
00000170: 54fa 003e b31a 8ebd f1b4 bd3d 83c1 fc3d
00000180: d03a 52be a3e7 90be 5249 50be ab4c d53c
00000190: 1ee3 a6bd 7f28 d0bd be7b 15be c726 acbd
000001a0: deae f3bd 83fc a5bd b2d5 5839 2d11 f23c
000001b0: 9644 1b3d 12ed 3cbd 99f4 983d c5d4 b4bd
000001c0: 516c 5bbe 8068 1a3e 856e 0abe c124 ecbd
000001d0: 0b6b 8b3d 738d fbbd 2f93 36be f6b6 6e3e
000001e0: 3a6d 19bd 02bb 20be f3e3 46be 4d39 13be
000001f0: d9e0 8a3e 2ad5 bd3d ad97 db3d 48fc 533e
00000200: 2340 a63d 55ee 4f3e 639c c1be 66be adbd
00000210: 3671 323d 0a78 943e d5b0 74bd 9d3d ce3d
00000220: 9e94 1dbc 6b48 163e 8c7b 15be cf75 be3d
00000230: 4809 363e c950 93be 2a8b 163e 67ef 03bd
00000240: bbcc 7e3d d2ad acbd f280 b6bd f1db 9fbd
00000250: 9aa0 a93d 7036 18be c61f 9dbd 68d5 873d
00000260: 563c 03be 5e6f 62be 4ad6 7bbc e8d1 2fbd
00000270: 0b8a fb3d f654 b8bc 30bf 7fbd 4e75 9b3d
00000280: e63d a43d be55 f13d e436 0abd a68d 57be
00000290: d940 13be b20a 433e 2dd3 8dbe e0d4 803d
000002a0: faf6 e13d 1825 a9bd cea5 8f3d bbc0 a53e
000002b0: a0fb c3bd 37fc 483d 34fb a8bc 5964 5d3d
000002c0: 50b2 8fbc 575e 3dbe 43ae e9bd f5e2 c0bd
000002d0: 0313 0a3e 334d 163d 1db1 32be d97b 073e
000002e0: 4678 9cbd 3f9e a7bd 85c4 acbd d988 f93d
000002f0: 1a37 73be b50f fd3c 70e5 4d3e 61b4 013e
00000300: 7421 d63d 0656 a43d 8683 4dbd 2a40 4cbe
00000310: f54e b1be 9c2b 15be 9a4f 533e ef42 eabd
00000320: 2bea 2b3d 7f1f 7ebe bc32 5ebe aa0e 543e
00000330: 2e1f 69be 86df 243e 7e3f ea3d 8d2d 743e
00000340: 5aed 25be f6a9 9c3e c5c7 bebd 52df cf3b
00000350: 1eb8 d6bc fe48 ab3e 4d51 e43d eb80 b8bc
00000360: d2f8 363e 923b 1fbe 46fd 613d a082 533e
00000370: 5654 12be 5cfc 8e3d a7dd 233e 6921 5abd
00000380: 63f4 32bc c4a6 67be bd6b cc3c daac 2d3c
00000390: f35d 02bd e1b8 b3bd bea3 26be d111 393c
000003a0: 1620 01be c14b 573e a601 1b3e 3077 61be
000003b0: 9f79 823c 8301 2e3d fd45 113e b773 2cbc
000003c0: e29d 9c3e 3d40 88be 51b2 68bd dee0 553e
000003d0: d893 87be 88be 2f3d ab8f eb3d 12bb 5d3e
000003e0: b4b1 81be 1214 0cbe 2ed2 473e 1bdf 443d
000003f0: 08f8 3c3e f1c3 e6bc 9618 8f3d d9de cabd
0.016440144 0.031116791 -0.08397551 0.14238334 0.2561731 0.011595979 -0.2031425 -0.09294517
0.1293331 0.04747418 0.089697726 0.0406292 0.08264106 0.080808125 -0.045344062 0.106261306
-0.04233633 0.005272934 -0.0011961833 -0.04342216 0.07638794 0.105431676 -0.08073884 -0.089554906
0.18175767 -0.07418267 -0.04238302 0.19231911 -0.12307591 0.075368814 -0.060332384 -0.11798663
-0.18116008 -0.019928848 0.119662575 0.120126896 0.088422105 -0.0058492133 -0.07677017 -0.09958142
-0.09355423 0.009039955 0.15371072 -0.044291724 0.07368979 0.028254256 0.036348123 -0.078726605
-0.067101814 -0.03613576 0.0697117 0.04964069 0.27975896 -0.029930772 0.094434075 -0.11019207
0.047261734 -0.023836974 -0.11000141 0.07529022 -0.015525822 -0.035588283 0.18704042 0.046620008
-0.14214693 -0.12183736 0.028820828 0.018139277 -0.03950191 -0.15498845 -0.28472322 -0.03233353
-0.0056296783 0.007351884 -0.26969978 -0.21806857 0.18088093 -0.00076046813 -0.013307596 -0.010147014
0.18398014 0.024971688 -0.15786031 0.041340847 -0.04496477 0.09909111 -0.074461326 -0.20584187
-0.020522222 0.060950276 0.1756238 0.0057622604 0.12595493 -0.06938686 0.092630275 0.12341597
-0.20530248 -0.28301725 -0.2034047 0.026037535 -0.08148788 -0.10163974 -0.14597985 -0.08405834
-0.11898588 -0.081048034 0.00020678973 0.029549206 0.037907206 -0.046124525 0.07468528 -0.08829645
-0.21428038 0.15078926 -0.13518722 -0.11530448 0.06807526 -0.12282839 -0.17829584 0.23311982
-0.037457682 -0.15696338 -0.19422893 -0.14377327 0.2712467 0.092691734 0.10722289 0.20701706
0.08117702 0.2030576 -0.37814626 -0.08483581 0.043564998 0.28997833 -0.059738953 0.100703456
-0.009617953 0.14676063 -0.1459791 0.09299814 0.17776978 -0.28772572 0.14701524 -0.032210734
0.062206965 -0.08431591 -0.08911313 -0.07805622 0.082825854 -0.14864516 -0.07672076 0.06632501
-0.12815985 -0.22112796 -0.015370915 -0.04292479 0.12282189 -0.02250145 -0.06243819 0.075907335
0.08019619 0.11783932 -0.033743754 -0.21050128 -0.14380206 0.19047049 -0.27700177 0.06290603
0.11033435 -0.08259028 0.070140466 0.32373604 -0.09569478 0.049068656 -0.020627595 0.054050777
-0.01754108 -0.18493019 -0.11410191 -0.094182886 0.13483815 0.036694717 -0.17450376 0.13230838
-0.07640128 -0.0818448 -0.084359206 0.12184305 -0.23751488 0.030891279 0.20107055 0.12666465
0.104555994 0.0802422 -0.05017426 -0.19946352 -0.34630552 -0.14567417 0.20635834 -0.11438548
0.041971367 -0.24816702 -0.21699041 0.20708719 -0.227658 0.16100892 0.114378914 0.23845501
-0.16203824 0.3059842 -0.09315447 0.0063437605 -0.02621084 0.33454126 0.111483194 -0.02252241
0.17868355 -0.15550068 0.05517318 0.20655298 -0.14289984 0.069817275 0.16002522 -0.05325452
-0.010922524 -0.2262221 0.024953717 0.010600293 -0.03182788 -0.08775497 -0.162734 0.011295752
-0.12609896 0.21024992 0.15137348 -0.22018123 0.015927134 0.04248191 0.14186855 -0.010525635
0.30589205 -0.2661151 -0.05681068 0.20886561 -0.26479983 0.042906314 0.11502012 0.21653393
-0.2533089 -0.13679531 0.19513771 0.048064332 0.18453991 -0.028169604 0.06987111 -0.09905786

conv1.bias f4 [256]
00000000: d1b5 ae3d 703a cb3d 9a49 f43b 68e5 02bd
00000010: e5f1 0dbc eda1 bf3c 3872 c93d 5cf6 a23d
00000020: b912 443d 5884 88bd b520 973d e028 843d
00000030: c5f1 723d 5eb5 c7bc 50e2 2abd d550 00bd
00000040: 9abd 653d f1c6 4bbc b29e c53d cbda 9f3d
00000050: b617 8ebd 7b47 dabc 836b d5bc 4404 8dbb
00000060: 7df0 68bd 47e0 b33d 4b53 c93d 68bc 9d3d
00000070: 2d29 b83d 1550 b83d e626 1a3d abde 8a3c
00000080: 1d0f b73d 771e 383d bb31 783d 383d 593d
00000090: 326e 0f3d 70b7 ca3d d5df 8f3d 6736 983d
000000a0: 5d76 9c3d 8075 abbc 6af9 78bd 93ab 63bd
000000b0: 6c09 d63d 5d8d d13d 353f e83d 7147 a13d
000000c0: 7113 c73b 0dad 63bd 698f ca3d 143f cabb
000000d0: 5add 96bd a3dd 63bd f0ee 963d ff8b 913d
000000e0: 5f75 aa3c 3295 0dbd 36b4 d4bb 0574 33bd
000000f0: 5bef 79bc 5bd8 dd3d 035c 44bd 0837 5dbd
00000100: 2cb1 ca3d e2e5 cf3d 0015 653c 70b0 1bbd
00000110: ba1b b53d 3e5c cc3d 8b54 9e3d cb7f c9bd
00000120: a42b cb3d 0d80 c63c 3c47 df3d 1dd6 973d
00000130: 4a63 85bd b867 74bd 0016 b63d eee7 803d
00000140: 6526 a33d 1d6b f5bc 9e21 733d 4cab 803d
00000150: a83d 9a3d 36f6 7d3d 63ba a33d 6f36 8d3d
00000160: 5d27 a93d 99b0 213d 5745 81bc 4f69 bf3c
00000170: 7d20 05bd 170a 28bd 4467 813d 4b64 883d
00000180: 9d0b 8f3d 13c6 383d 8683 e43d 0cfe 193e
00000190: 2382 88bd 8411 eabc d054 30bd 95de 283c
000001a0: a144 ce3d 49f1 6abd 7221 083d 6ff0 5e3d
000001b0: ec93 973d 878f 813d 87ac 3ebd dc40 3d3b
000001c0: 4fc5 a03d ed49 9dbd 2303 823d 7bdc 913d
000001d0: 6ef5 f6bc c81a 533d 30f3 ae3d c055 9d3c
000001e0: 6b5d 06bd 814e ad3d 9159 9e3d 96dd 6a3d
000001f0: c5e5 cebc f33b 653d 28df 513c ffe7 393d
00000200: c32e a43d 3ba5 5fbd 0c19 f53d 85f8 423d
00000210: 8874 b33d 3f10 3ebd a92a 873d ed2d af3d
00000220: 3a25 d53d 2403 d33d 4875 bd3d 7c50 b23b
00000230: fc39 fe3d ad24 d23d f440 1f3d f551 f8bc
00000240: 71e4 cd3d 4819 0dbd cb39 9bb9 5e04 643d
00000250: 4518 073e 305a 86bd e348 9fbd 63eb 97bd
00000260: 5c7d 8fbc 8dad c63d cb2d b93d d1e4 d93d
00000270: d94d e23b 774f 55bd e5cc ab3c 897a 10bd
00000280: beae 643c 339c e83c fdfe 0e3e 7007 f23d
00000290: 1dc9 df3d 77b9 cd3d 48db 5ebd 061b d5bc
000002a0: 3fad ba3d abb0 48bd be80 973d 4e47 e53d
000002b0: 8a9d 673d 179e d93d 4fab d83b 7209 c73d
000002c0: c5ee 6dbd f309 d53d 9c89 2fbd df50 ad3c
000002d0: 64b9 d13d a213 2ebc 3b4f a13d ac20 09bd
000002e0: 5335 d23d 1923 963d 965a b0bc ba39 5dbd
000002f0: 4b44 f03d b05a 81bc 046e 9e3d f265 8cbb
00000300: 5e65 d13d cf34 cb3d a383 b33d 75bb babc
00000310: 11ae ce3d f7b6 9e3c 3d56 a93d b12f 2fbd
00000320: 2ed8 43bc 26e5 c13d 6de8 56bd dab2 c03d
00000330: a076 0639 425f d73d bd55 cc3d 6a60 be3d
00000340: 92c1 8b3d 38be d33d b0a0 8b3d 5e38 ac3d
00000350: a81a cc3d 39ac 57bd ce6c 5ebd a914 183c
00000360: c647 783d 40ef 0abd 747f 973d fab9 a03d
00000370: 1277 ab3d 7696 693d 5932 e33d 7431 08bd
00000380: ff9d a23d 6dac f93d c5d1 c33d abd9 f83d
00000390: b549 973b 785f 7bbb a30a bb3d 0189 d23d
000003a0: fca7 a63d eb71 bf3d 51c5 2ebb fc5a bc3d
000003b0: d723 003e 6534 ac3d e1d7 063e f8ed c43d
000003c0: 7214 6f3b b324 b83d f39a b63d 8ba8 f13d
000003d0: b3dc 25bd 2f3d 303d bd5c 073e 1dab 613c
000003e0: 2099 823d c578 04bd 1c3c 3dbc 6e5c 9a3c
000003f0: 99b0 923d 4336 b93d c2ae c73d 668a a13d
0.085307725 0.099232554 0.007455063 -0.03195706 -0.008663629 0.023392642 0.098362386 0.079571456
0.047869418 -0.066658676 0.07379285 0.06453109 0.0593126 -0.024378475 -0.041719735 -0.031327087
0.05608902 -0.012437568 0.09649409 0.07805403 -0.06938116 -0.026645413 -0.026052242 -0.004303487
-0.056869972 0.08783012 0.0983034 0.07701951 0.08992229 0.089996494 0.037634753 0.01695188
0.089384295 0.04495093 0.0605943 0.0530369 0.0350172 0.09898269 0.070251144 0.074322514
0.076397635 -0.020930052 -0.060784735 -0.055583548 0.10451016 0.10232041 0.11340181 0.078749545
0.0060753156 -0.055584956 0.098906346 -0.0061720703 -0.07366438 -0.05563129 0.073697925 0.0710678
0.02080792 -0.034566112 -0.0064912094 -0.043811817 -0.015254821 0.10832282 -0.04793931 -0.05400756
0.09897074 0.101512685 0.013982058 -0.03801006 0.08843179 0.09978531 0.07730969 -0.09838828
0.09920433 0.024230981 0.10902259 0.07413886 -0.065130785 -0.059669226 0.08890915 0.06294237
0.079663076 -0.029958302 0.05935823 0.06282672 0.07531291 0.062002383 0.07994535 0.06895148
0.08259461 0.039475057 -0.015780134 0.023365645 -0.032501686 -0.041025247 0.063185245 0.06659754
0.06984637 0.045110773 0.111578986 0.15038317 -0.066654466 -0.028572805 -0.043049634 0.010306974
0.10071684 -0.057359014 0.03323502 0.054428514 0.07401261 0.06326204 -0.046551254 0.002887777
0.07850134 -0.07680116 0.063482545 0.071221314 -0.030146327 0.051539212 0.08542478 0.019205928
-0.032803934 0.08462239 0.07731927 0.057340227 -0.025256047 0.055965375 0.012809552 0.045387264
0.080167316 -0.054600935 0.11967668 0.047600288 0.08762461 -0.046402212 0.06599934 0.085536815
0.10407491 0.103033334 0.09250885 0.0054417234 0.124134034 0.102609016 0.038880304 -0.030312518
0.10053337 -0.03444794 -0.00029606963 0.055668227 0.13192852 -0.06560171 -0.07777574 -0.07417943
-0.01751583 0.09701071 0.090419374 0.106393464 0.006906253 -0.052077737 0.020971725 -0.03527311
0.013957677 0.028394794 0.13964458 0.11817825 0.10927031 0.1004514 -0.05440834 -0.026013862
0.09115075 -0.04899661 0.073976025 0.11195241 0.056546725 0.10625856 0.0066122185 0.097185984
-0.058089036 0.10402288 -0.042855844 0.021156726 0.102404386 -0.010624798 0.0787644 -0.033478424
0.10264077 0.07330913 -0.02152757 -0.05401013 0.11731776 -0.015790313 0.077358276 -0.0042846138
0.102244124 0.09922182 0.08765342 -0.022794465 0.10091794 0.019374354 0.08268402 -0.04277009
-0.011953397 0.09467535 -0.052467752 0.09409113 0.00012823427 0.10516216 0.09977291 0.09295733
0.0682403 0.10339016 0.06817758 0.08409189 0.09966022 -0.05265448 -0.054302983 0.0092822695
0.060615323 -0.033919573 0.07397357 0.07847972 0.0837232 0.057028256 0.110935874 -0.033250287
0.079402916 0.12191091 0.09561495 0.12150892 0.004616941 -0.0038356464 0.09132888 0.10280038
0.08137509 0.093479 -0.0026667903 0.091970414 0.12513672 0.08408431 0.13168289 0.096157014
0.0036480692 0.08991375 0.08916273 0.11799725 -0.04049368 0.0430271 0.1321897 0.013773707
0.063768625 -0.032341737 -0.011549976 0.018842902 0.071625896 0.09043553 0.09750129 0.078877255

conv1.lin.weight f4 [256, 194]
00000000: 69c2 463d 03eb cebc 2ed3 013b f01f dd3d
00000010: 74b0 3e3d 1a5c 133c e325 d23c 4cd3 853c
00000020: 4bd3 693d 1fa1 7f3c 9bf8 8c3c 8ce0 b33b
00000030: 6fe8 353d 01ac a4bc 10eb e8bc 668a 8b3c
00000040: ca19 033d e7ec 093e 5fa2 fc3d 3c63 feba
00000050: 0791 723d 0cbd 633d c39b 323d 6991 1d3d
00000060: cda4 b53d 077f dd3c 961e a7bc 2a4a b73d
00000070: edab 32bc d59b 943d a5cf 183d 88ab 6e3d
00000080: 4c37 56bc b006 c5bb cb34 6739 3e20 cfbb
00000090: 4215 8bbb e751 693d 0d7d 8f3d 2b79 17be
000000a0: 121f 0bbe 4657 2cbc 9821 83bd db70 46bd
000000b0: 5c09 3d3d 8abc ebbd 3895 11be 6094 5e3b
000000c0: 1ed2 1ebe 2abc b63d 958a 5fbd 4f81 923d
000000d0: e2a3 193d 521d 063d cada 963c c2cc 603d
000000e0: b8d1 993d 6804 773d d974 a83c fe1a f93c
000000f0: d1ef 1d3d fc79 89ba 7ab9 3f3d a24d 4a3d
00000100: 72d6 123d 84cc 92bc c723 583d b2ff 44bd
00000110: 5a5c 523d bf49 6bbd 28ee 7abc 34a7 183d
00000120: a941 6bbc d1db 0bbd 2d0c 91bd e6bb 103e
00000130: cecf ffbd 6b3d c8bd b0c2 e8bd 0fac a73b
00000140: abf5 063d ca86 463d 2f81 b4bd 8773 0dbe
00000150: 182c abbd 7ed2 9bbc 56ec 52bd c9f4 16bd
00000160: c8d5 dc3d 4948 393d e6dc 05bd 2f98 813d
00000170: a809 983c c45b 173c d995 9c3d 0de5 c33c
00000180: 9d5f 793d 6714 acbd 33db 89bd ecab dfbb
00000190: 979b 1bbd 524e f0bc 11f7 c1bd beb1 a3bd
000001a0: 024d 12bd fee6 dcbc da2e 85bd dfed 11bd
000001b0: 9c86 b9bc ee3e 8e3c f4f5 a23d b017 83bc
000001c0: f71a 91bc b87e 593c 58f0 2cbd 9262 923d
000001d0: b022 e5bb 8f16 9e3c 7508 a53d 248d 2a3d
000001e0: e5d3 563d 4424 7b3d 1409 da3d c6cc 1b3b
000001f0: 04c9 ccbd 9f6e ae3c 83da 32bd a860 0f3d
00000200: c8d0 5fbd ca99 8c3d 8f8a bebc cbf3 573d
00000210: 7e70 233d 9b82 d53d c2bb 103e 7c88 a6bc
00000220: dc23 bfbd a571 d03b d5e8 89bd c492 08be
00000230: 6b8d babd 71a8 e0bd 8bd3 3fbd 1736 e0ba
00000240: ab03 a8bd e6df 46bd f0f9 adbc a08e 33bd
00000250: 8b8a 5c3d ab41 6e3d af78 aebd dc0f 913c
00000260: 90b8 1cbd d574 35bd 06ad 87bd e2f5 a53c
00000270: 27cd d33c 6772 f93c 9fb7 9dbd 618b a53d
00000280: b563 63bc ab18 763b a80c a43d db9d ebbc
00000290: c32d 913c bcb1 923d e0cc d33c 4413 143d
000002a0: 1880 8a3c 13d5 6b3d 4b85 a63d 180c 1bbc
000002b0: aeb2 663d 98b3 db3c 2ae8 9e3d 6b58 67bc
000002c0: c932 df3c dd5e 0b3c 1cdd 313d a21e 573c
000002d0: 2f5c ca3c 753d 0b3d 1b96 7d3c ec07 52bc
000002e0: b559 b83d da82 88bd 6387 4fbc aaaa 4cbd
000002f0: c3cc b83c ee92 38bd 4b38 5cbd df7e 1b3c
00000300: 028e efbd 9e7f 54bd c556 9abc cae5 2c3b
00000310: 47e4 b1bc 77ac bf3d d844 26bd 54f8 fb3c
00000320: d9ca 293d 1a5a aeba b8e2 b93d 914b acbc
00000330: 3074 66bc 68c7 11be e82e c3bd dc0c 1fbd
00000340: 4ce3 803a 4178 2f3c 011b 103b 1d5b 713d
00000350: 18ec 49bc 990b 8abd e906 8fbc c26a c9bb
00000360: 20c6 963d 6a20 973d 9f2f f83c f67a a6bc
00000370: 1857 463c ac0b a0bc dcff ca3d 58c5 b93c
00000380: 73b1 03bd f18f 80bd 5598 2dbd 9c46 b0bb
00000390: a6a3 b8bb 82d4 693c e452 c2bc 65e0 37bc
000003a0: 1077 833a d906 b43d 3e25 be3c 4f1c cfbc
000003b0: cb25 7c3d fe32 7cbb 2ced 953c 266a 273d
000003c0: 0961 203d 65a7 6b3d d334 853d fb3f 653d
000003d0: 8374 973c 79d9 dbbc bb15 87bd 8871 a2bc
000003e0: e3c0 133d 2306 a4bc 0877 3dbd 4884 0bbd
000003f0: f1e6 613d 539a b63c 1128 b93c f2f1 77bc
0.048525248 -0.025258547 0.001980971 0.10797107 0.046554998 0.008994127 0.025652831 0.016336106
0.05708627 0.015602379 0.017208388 0.0054894146 0.04441112 -0.02010155 -0.028432399 0.017033767
0.032007016 0.13469277 0.12335657 -0.0019408236 0.05922034 0.05560021 0.043605577 0.038468752
0.08869324 0.02703811 -0.020400327 0.089496925 -0.010905248 0.07256285 0.0373074 0.058269054
-0.013074707 -0.00601276 0.00022049544 -0.0063209822 -0.0042444775 0.056962874 0.070062734 -0.14792316
-0.13586071 -0.0105188545 -0.06402892 -0.04844747 0.046151504 -0.1151057 -0.14217079 0.003396295
-0.15509841 0.08922608 -0.05457552 0.0715357 0.037509806 0.032742806 0.018414874 0.054882772
0.07510704 0.060306937 0.02056353 0.030408379 0.038558785 -0.0010488625 0.046807744 0.049390443
0.035849042 -0.017919786 0.052768495 -0.048095413 0.051357605 -0.057443377 -0.01531557 0.037268832
-0.014358916 -0.03414518 -0.070824005 0.14134178 -0.124908075 -0.097773395 -0.11365259 0.0051169465
0.03294913 0.04846839 -0.08813702 -0.13813601 -0.083580196 -0.019021269 -0.05149492 -0.03685454
0.10782963 0.045234952 -0.03268137 0.06327855 0.018559292 0.009238187 0.07645769 0.02391293
0.0608822 -0.08402329 -0.06731262 -0.0068259146 -0.03799018 -0.029334221 -0.09470952 -0.07992886
-0.03571797 -0.026965614 -0.06503077 -0.035627242 -0.022647195 0.017363992 0.07957068 -0.016002506
-0.017713053 0.013274841 -0.042221397 0.07147707 -0.0069926605 0.019297866 0.08058254 0.04163851
0.052448172 0.061313882 0.10646263 0.0023773178 -0.09999278 0.021292983 -0.04366542 0.035004288
-0.05464247 0.068652704 -0.02325943 0.052722733 0.039902203 0.10425302 0.14134124 -0.020328753
-0.093330115 0.0063612037 -0.06733862 -0.13337237 -0.091090046 -0.10969628 -0.046832602 -0.0017105964
-0.082038246 -0.04855337 -0.021237344 -0.04383719 0.053843062 0.058168095 -0.08519112 0.017707758
-0.03826195 -0.044300873 -0.066247985 0.020258848 0.02585466 0.03045006 -0.077010386 0.08083225
-0.0138787525 0.0037551324 0.080102265 -0.028761795 0.017722016 0.071628064 0.025854528 0.036151186
0.016906783 0.05757625 0.08130892 -0.009463333 0.056322746 0.026819035 0.077591255 -0.014120202
0.027245896 0.008506504 0.043423757 0.013129862 0.02470216 0.033994157 0.015477682 -0.012819272
0.09001485 -0.06665583 -0.012666556 -0.049967445 0.022558575 -0.045061998 -0.053764623 0.009490698
-0.11697008 -0.051879518 -0.018840203 0.0026382082 -0.021715296 0.09359067 -0.040593 0.03075806
0.041453216 -0.0013301999 0.09076446 -0.021032127 -0.014065787 -0.14236224 -0.09530431 -0.038830623
0.0009833365 0.010709823 0.0021988752 0.058924783 -0.012324356 -0.06740493 -0.01745935 -0.0061467597
0.07362008 0.07379229 0.030296145 -0.020322304 0.012105726 -0.019536816 0.099120826 0.022677109
-0.03215165 -0.06277455 -0.042381603 -0.005379511 -0.005634743 0.014271857 -0.023721166 -0.011222933
0.001002999 0.087903686 0.023211118 -0.025282053 0.06155948 -0.0038482542 0.018301569 0.040872715
0.03915504 0.057532687 0.06504216 0.05596922 0.018488174 -0.026837097 -0.06595942 -0.019829527
0.036072623 -0.020022457 -0.046256095 -0.0340617 0.055151884 0.022290384 0.022602113 -0.015133368

conv2.att_src f4 [1, 1, 64]
00000000: 6f1d da3d 0756 253e aba2 35be 6a12 37bc
00000010: eea0 b23d 3c33 f3bd 30a6 023e 8450 423d
00000020: 6bbb 04bd 4fec 10be 8574 7b3d f941 a8bd
00000030: 46a1 6e3d f373 263e b249 57be 2518 5d3e
00000040: 80f7 20be 4d6f 06bc 1530 ff3c 86f6 ae3c
00000050: 10bd 46be a471 7dbd c600 76bc e568 c73d
00000060: db62 3b3e 90d5 c03d 0352 8ebc eb57 673d
00000070: 1c7e f6bc 29d0 d1bd 481d 4dbd bebd fcbc
00000080: 86af b43c 3e43 c93d d714 203e 1cfa 003e
00000090: 7c7a 22bc 1960 6ebd 5e3c 0f3e 7b88 cdbc
000000a0: e725 c73c fd0c ca3d 9d45 ac3c 5771 7ebd
000000b0: 4dee 443e 7815 26be 5736 9a3c d381 03be
000000c0: af96 babc 90e0 5cbd 33a8 24be 39ce 923c
000000d0: dafa c9bc 5b73 0ebd 8e26 563c 42ab d5ba
000000e0: 36bd d93b 81a8 71bd 77bf d73d 0068 293d
000000f0: 0566 c3bd 0a71 b5bd 37d1 a03d fcb3 f53d
0.10650145 0.16146098 -0.17737834 -0.011173824 0.08722101 -0.118750066 0.12758708 0.047440067
-0.0324053 -0.14152645 0.06139042 -0.08215708 0.05825927 0.16255169 -0.21024206 0.21591242
-0.15719414 -0.008205247 0.031150857 0.021357786 -0.19408059 -0.061875954 -0.015014833 0.09736804
0.18299429 0.09415734 -0.01737309 0.05648033 -0.03008943 -0.102447815 -0.050076753 -0.030852195
0.022056352 0.098272786 0.1563295 0.12595409 -0.009916898 -0.058197115 0.13987872 -0.025089493
0.024310065 0.098657586 0.021029288 -0.062119808 0.1923153 -0.16219127 0.01882474 -0.12842493
-0.02277693 -0.053925097 -0.16079788 0.0179206 -0.024655748 -0.03477798 0.013070716 -0.0016301649
0.00664487 -0.05899859 0.10534566 0.041358948 -0.09540943 -0.08859451 0.078524046 0.1199722

conv2.att_dst f4 [1, 1, 64]
00000000: 3e0c 44be 77d1 703e aba0 3a3d f92d a4bc
00000010: d61a 17bd 84e4 08be 037d 4e3b 6ad0 a5bd
00000020: fc3e 273e 3e23 61be 680a 8abd 3ec3 873d
00000030: 3e5d fdbd 94aa 1d3d 4b8f d93d 357a 8f3e
00000040: 8f5a 8fbd 774e 26be 5fc0 523e 97f9 073e
00000050: ae13 7cbe 2223 b73d fd4a 2cbe 57de 2cbe
00000060: f60e 87bb a025 b63d 0a20 383d c360 a8be
00000070: 9823 73bc fb56 193e 94c8 883e a0c3 8d3e
00000080: 6767 563d ac7b 62bd 838a 12be 007a e7bd
00000090: f6db 0bbe 64f2 75be 5e05 413c 90fc bbbc
000000a0: 4f14 16be 5dae 12be ef77 12be b990 173e
000000b0: e951 a33e 2ba4 983e 9896 673e e056 9ebd
000000c0: 68a2 8abe 30ad 6c3e 2c1e 64bd 927c 73bd
000000d0: 6ce3 203e f409 633d d5c6 453e f627 edbd
000000e0: 04f1 bebc 4eaa 49be 924e a83e e0cd 163e
000000f0: b000 803d 6240 46be 200b 8c3e 79e9 0abe
-0.19145295 0.23517404 0.04556338 -0.020041453 -0.036890827 -0.13368422 0.0031507618 -0.080963925
0.1633262 -0.219861 -0.06740266 0.06629036 -0.123713 0.038492754 0.10623034 0.28022924
-0.069996946 -0.1624087 0.20581196 0.13278805 -0.24616882 0.08942248 -0.16825481 -0.16881691
-0.0041216565 0.08893895 0.04495243 -0.32886323 -0.014840029 0.14974587 0.2671553 0.27688313
0.052344706 -0.055293724 -0.1431065 -0.113025665 -0.13658127 -0.24018246 0.011781065 -0.02294758
-0.14656185 -0.14324327 -0.14303564 0.14801301 0.3189843 0.2981275 0.2261604 -0.07731414
-0.2707703 0.23112941 -0.055692837 -0.05944497 0.15711755 0.055429414 0.1931413 -0.115798876
-0.023308285 -0.19693872 0.32872444 0.14726973 0.06250131 -0.19360498 0.27352238 -0.13565625

conv2.bias f4 [64]
00000000: b9e6 27be e960 a2bc 1fb7 673e e59f 253e
00000010: 9c8b 03be 7d2c 03be 110b a53e ac19 14be
00000020: 78bc 6f3e 801e 93bd 3bb4 cbbd daa4 9a3e
00000030: 7fd2 44bd 166a 81be df36 813e 3527 e2bd
00000040: d866 b8bd ecde 2f3e 4793 893e d2b9 e5bd
00000050: aa2c 18be 36ae 7dbd ed9e 963e f3e1 793e
00000060: b9b5 9e3d 983e ca3d fc23 413e 9d19 0bbe
00000070: 4968 903e e575 85be 6f5c 12be a1d7 b1bd
00000080: 1681 913e 3202 7d3e 0a74 07bd 418c 943e
00000090: 09ea 053e 025d 373e 29f2 9bbe 7637 923e
000000a0: 4eb5 673e 9ff4 923e f074 f2bd b6de 173e
000000b0: b123 b3bc 3b9f 25be c877 9a3e 9c7f 773e
000000c0: f747 9f3e cdd2 073e bc68 0fbe d18d 983e
000000d0: 85c6 a53e 4fec 933e 7cfa 00be 331d 01be
000000e0: 0cd2 973e 4cda 053e 33d9 933e 7059 1ebe
000000f0: 0766 813e b19f 04be 0521 723e a6d5 b4bd
-0.16396607 -0.019821601 0.22628449 0.16174276 -0.12846226 -0.1280994 0.32235005 -0.14462918
0.23411739 -0.07183552 -0.099464856 0.30203897 -0.048052307 -0.2527625 0.25237176 -0.110426344
-0.09003991 0.17174882 0.26870176 -0.11217083 -0.14860788 -0.06193372 0.29418126 0.24402599
0.077495046 0.0987522 0.18861383 -0.1358399 0.28204563 -0.2606651 -0.14293073 -0.08683706
0.28418797 0.24707869 -0.033069648 0.29013255 0.13077559 0.17906573 -0.3045819 0.28557938
0.22627756 0.28702256 -0.1183871 0.14831051 -0.021867605 -0.16174023 0.3016951 0.24169773
0.31109592 0.13264008 -0.14004797 0.29795697 0.3237802 0.28891227 -0.12595552 -0.12608795
0.2965244 0.13071555 0.28876647 -0.15463805 0.25273153 -0.12951542 0.23645408 -0.08829813

conv2.lin.weight f4 [64, 256]
00000000: beb7 adbd 51ea 8bbd 5fd1 1e3d b003 b9bd
00000010: 781b c4bd 6524 e2bd e6a9 43be ccdc 90bc
00000020: bbc4 14bd b492 213b 7122 ebbd 8b2e 25bd
00000030: b029 bdbd e845 9ebd 027d 64bd 9fdb 083d
00000040: 80a3 96bd 6ecf 06bd 8d87 04be 70f3 10be
00000050: b27a 103d c653 e6bc cdbd dcbd c278 843d
00000060: fd94 6b3d 7a6d adbd 7945 2abd d8e5 93bc
00000070: fffc 01be f7c0 0fbd fedf 3fbe 6ffc f3bd
00000080: 278f a6bd 6501 463d 0f8b a0bd f810 1fbe
00000090: 565b 55bc deee febd 1050 5bbd 6ee8 8a3c
000000a0: 2409 08be 2f36 2bbd b197 adbd e031 8b3d
000000b0: d471 e6bd c53a 2bbe df31 50be 2562 05be
000000c0: b6bb b9bd 374e a3bc c2df edbd 42d9 05be
000000d0: dbda 01be 72c7 d13c f543 adbd 9d4f 86bd
000000e0: 374b 22be f65a 883d daaf acbd 54a6 273d
000000f0: 9121 67bc 8f6d 893b 5dc2 3c3d c873 d93c
00000100: 261f e1bd 45d2 31bd b3a4 b0bc d7fd 4a3c
00000110: d1fb 26be b657 fbbd 884e 27bd daf3 08bd
00000120: e744 79bd 855c 61bd f69d a9bc e5b3 713c
00000130: f83d 4abd 3a2d 943d 39aa 97bd 64e6 f5bd
00000140: bd09 0bbd 5d3b 34bd c229 c2bd dca9 dabd
00000150: cbf6 adbd 8470 ddbd f188 e6bd 7253 bfbd
00000160: da9d 34bd 4633 72bc 8401 5b3d 78bc f8bd
00000170: a2f7 03be eb64 45bd 7155 19be 038d cd3d
00000180: 6828 b5bc 1dee 32bd ceca 5c3d 4a5e 9fbd
00000190: 2059 263d ca1a 57bd e109 bcbc a7c9 50bc
000001a0: 07e7 9dbd 0228 52bc 15ee 2abc 1825 4bbd
000001b0: 5954 b8bd f87d aebd 7f99 e2bc c88b a4bd
000001c0: 5b68 17be a17f 4b3d ce39 1cbd 4161 593c
000001d0: 2e75 98bd 3b08 aebd 8048 e1bd 060d b3bd
000001e0: 5a8d d53c 25ba f1bd f390 13be 2b75 a2bd
000001f0: 1768 3cbd d644 24bd e411 c7bd 66e0 00be
00000200: 0293 78bd 6273 843d 939a 26bd ca66 c9bd
00000210: 1b5b 01be 31f9 94bd 9e89 27be dc22 efbb
00000220: 3242 eabd be4d 9abc 3a7b 01bc 4683 b2bd
00000230: 5e75 21be 391b a73d c6e0 17bd 56ad c5bc
00000240: 1307 38bd ad9c 3f3d 0aad 8dbd ca17 2ebe
00000250: e4f3 c8bd 7dc9 15be 1499 923c 3206 f0bc
00000260: d260 a9bd 0942 7c3c 708c edbc d491 203d
00000270: 8784 00bd c3ec f4bd 0b0d 85bd 6144 2a3d
00000280: b45d 30be d395 5abd 9476 92bc 1f47 47bd
00000290: c711 0fbe f80b b5bc ebc1 063c 6753 6d3d
000002a0: 5dd4 d0bd 93bf 5bbd 6da5 633b ec7a e0bd
000002b0: 9c62 9739 64c9 0bbe 5f6e d6bd 555c 9fbd
000002c0: d13a e83c 89dc 7ebd 4bd6 eebc 24d1 973d
000002d0: 99c6 80bd 9e31 0abe 598d a0bd 581c 31bc
000002e0: 346e 13bd ed77 33bd 7475 ccbd 3f97 12be
000002f0: fba2 edbd 1ead 4dbd cb03 afbc a592 8a3d
00000300: e93e 28be b880 7bbd 084c 843c 66f0 e0bd
00000310: 1409 ffbc 0779 61bd 470e 0abe 8a8c e8bd
00000320: f01a e23c 02d9 553c f111 933d ede8 9f3c
00000330: f27e 1bbd 2e8a 3bbb 6979 debd 3ec1 c8bd
00000340: 894e 19be 8fc6 25bd 9891 2bbe d181 f4bd
00000350: e7e6 933c ab8c 733d 6b60 8f3a ce94 9fbd
00000360: bf21 d6bc eaa3 273d 826a e2bd 2265 fabd
00000370: 3ba8 8b3d fbcf 913c aaa2 e1bd 035a a2bc
00000380: 6eab 19be 4803 c7bd 1fc8 753b 4a18 afbd
00000390: dccf 9abd 99e5 9fbd 790a 3f3d 3313 b4bd
000003a0: 524b ccbd 3361 963d bf33 39bd e240 2cbe
000003b0: e1e8 253d 6c0f 32be ee13 3fbd 4cf1 adbc
000003c0: a483 06be d3f6 bcbd 2841 633d e0ed a9bd
000003d0: a92d 1fbe ccd6 8dbd 38d0 e83b 72cb dc3c
000003e0: d693 16be cf2d 7c3c 71ea 6e3d bd9a 6bbd
000003f0: 88d5 90bd 50e9 25be 2350 cabd 45b1 15bc
-0.08482312 -0.06831802 0.03877389 -0.090339065 -0.09575552 -0.11042098 -0.1910778 -0.01768341
-0.03632043 0.0024654092 -0.114811786 -0.04032759 -0.09236467 -0.07728177 -0.05578328 0.033412572
-0.07355404 -0.032912664 -0.12942334 -0.14155364 0.03527326 -0.028116118 -0.10778389 0.06468345
0.057515133 -0.084681466 -0.04157016 -0.018053934 -0.12694167 -0.035096135 -0.1873779 -0.11913382
-0.08132773 0.048341174 -0.07839023 -0.15533817 -0.0130222645 -0.12447904 -0.05354315 0.016956534
-0.13284737 -0.04179972 -0.084761985 0.06796622 -0.1125218 -0.16721638 -0.20331524 -0.1302572
-0.09069006 -0.019934757 -0.11614944 -0.13071159 -0.12681143 0.025607798 -0.084602274 -0.06558154
-0.15849005 0.066579744 -0.084319785 0.040930107 -0.014107124 0.0041939686 0.046083797 0.026544467
-0.10992269 -0.04341342 -0.02156291 0.012389622 -0.16306998 -0.12272589 -0.040846378 -0.03343568
-0.060856726 -0.055019874 -0.020705204 0.014752363 -0.049375504 0.07235189 -0.07405514 -0.12006834
-0.033944834 -0.044001926 -0.09480621 -0.10676929 -0.08494338 -0.10812476 -0.11256588 -0.09342088
-0.04409585 -0.014782732 0.053468242 -0.121453226 -0.12887433 -0.048191946 -0.14974 0.100366615
-0.022113994 -0.043684114 0.053904347 -0.07781656 0.04061234 -0.052515782 -0.02295393 -0.01274339
-0.077100806 -0.012826921 -0.01043274 -0.049595922 -0.09000463 -0.085201204 -0.027661083 -0.08034474
-0.14785902 0.049682263 -0.038141064 0.013267816 -0.07444225 -0.084976636 -0.110001564 -0.087427184
0.026068378 -0.118030824 -0.14410762 -0.07932504 -0.045997705 -0.04010471 -0.09720209 -0.12585601
-0.060687073 0.0646732 -0.040674757 -0.098340586 -0.1263241 -0.07274092 -0.1636109 -0.0072978567
-0.11438407 -0.018835898 -0.007902915 -0.08716445 -0.15767428 0.08159489 -0.037079595 -0.024130505
-0.04492862 0.046780277 -0.0691777 -0.17001262 -0.098121434 -0.14627643 0.017895259 -0.02929983
-0.0827042 0.015396603 -0.02899763 0.039201573 -0.031376388 -0.11959221 -0.064966284 0.041569117
-0.17223245 -0.05336554 -0.017878808 -0.04865181 -0.13971625 -0.022100434 0.008224945 0.057940867
-0.10196755 -0.053649496 0.0034736053 -0.109609455 0.00028874434 -0.13651043 -0.1047027 -0.07781283
0.028348358 -0.062222037 -0.029154917 0.07412937 -0.062878795 -0.1349549 -0.0783946 -0.01080998
-0.03599377 -0.043815542 -0.0998334 -0.14315508 -0.11603352 -0.050213926 -0.021364113 0.067662515
-0.16430248 -0.061402053 0.016149536 -0.10983352 -0.031132258 -0.05504706 -0.13482009 -0.11354931
0.027600735 0.013052227 0.071811564 0.019520247 -0.03796286 -0.0028616297 -0.10863001 -0.09802483
-0.14971365 -0.040472563 -0.16754758 -0.11938823 0.018054439 0.059460323 0.0010938769 -0.07792054
-0.026139138 0.040927805 -0.11055471 -0.12226321 0.06819197 0.017799368 -0.11017354 -0.019818312
-0.15006801 -0.09717423 0.0037503315 -0.08549555 -0.07559177 -0.07807464 0.046640847 -0.087927245
-0.09975304 0.07342758 -0.045215365 -0.16821626 0.040505294 -0.17388695 -0.046649866 -0.021233223
-0.13136154 -0.092267655 0.05548206 -0.08297324 -0.15544762 -0.06925735 0.0071048997 0.026952479
-0.14704832 0.015391781 0.05832905 -0.057520617 -0.07071978 -0.16202283 -0.09878566 -0.009136503

classifier.weight f4 [2, 64]
00000000: a444 e5bd 6bd3 0e3d 6f5f a0bc 9b88 a63c
00000010: 1990 8cbd b2cb 553d 566c 3f3e 02d4 90bd
00000020: b27a 0b3e 233f 3bbd e04a 0dbd aa56 fc3d
00000030: 27ad 523d 8878 61be 773e c43c 19d8 f4bd
00000040: 26b3 723d 117b 533d 70df 443d 8ef2 9f3c
00000050: 186f 59bd d409 1a3d dece 913d 779e 083e
00000060: bc46 a83b fc3f a73a 3fde febc e194 053c
00000070: 8fd8 803d f09c 4cbe 6dd6 c3bd 0d0c 82bd
00000080: 3758 983d 1065 d63d 6866 e83d 07e8 2f3d
00000090: a0f4 00bd b9a0 b23d 0310 2fbe 2713 8f3d
000000a0: 0f82 9c3d 47bd 2d3e c545 ad3c 0456 363d
000000b0: 1ddc 893d dd44 62bd a397 063e e931 023e
000000c0: 108d 873d 0fea 5d3d 9ddc f5ba ae5e 0a3e
000000d0: aa82 413e 1494 fb3d e8ae 8ebd 2f68 3bbc
000000e0: c769 923d 8e3e 82bc add1 283b 41ac 02be
000000f0: 8bfe 423a 8661 6bbc 6b9a 703c a85c 72bc
00000100: b5b8 6b3d a20a 8e3c aedb e0bd 2e26 b43c
00000110: 6613 dbbc 1575 123d 6d65 f5bb 428e 143d
00000120: 0082 14be 1777 f9bd d71f 9e3c 6713 7d3c
00000130: 3369 b33c 9dee 813d ce9d efbc 60cc 97bc
00000140: 99eb f23d 6891 30bc 31c8 54bd add2 e33d
00000150: dfd8 703c 1afe 043d 81bf a9bd c569 87bd
00000160: cb59 ad3d 07ea 853d c761 f5bd d8de 2d3e
00000170: b0ca d9bd fb00 c13c 3dff 88bb 32e7 13bd
00000180: 78e3 b4bd 1ef8 18be 1039 eb3c 535f 23be
00000190: 1fb4 eabd 8cb3 843d ec53 403c 9072 77bd
000001a0: 11fe e73b b3a8 ed3c 2dd4 7a3c 5d23 c7bc
000001b0: d3e1 403d a109 b23d cf02 cabd 8f9a 9cbd
000001c0: ca2c 60bd 08e5 eb3c 0c22 ba3d 0768 c1bc
000001d0: bc54 a83c 6555 80bc ae64 663c a5b0 193d
000001e0: 3e20 34bd 4908 35bc 5a36 2bbe 5fba 403e
000001f0: 7cdd 2dbe 3e83 13bd 1130 82bd af33 87bd
-0.11194733 0.034869593 -0.019576756 0.02032881 -0.06863422 0.052196212 0.1869367 -0.07071687
0.13621023 -0.04571451 -0.034495234 0.12321217 0.051434662 -0.22018635 0.023955567 -0.1195528
0.05925288 0.051631037 0.04806465 0.019524839 -0.053084463 0.03760703 0.07119535 0.133417
0.0051353853 0.0012760158 -0.031111835 0.008153171 0.06291305 -0.19981742 -0.09562383 -0.06349955
0.07438701 0.10468495 0.113476574 0.042945888 -0.031483293 0.08722062 -0.17095952 0.06986075
0.07641994 0.16966735 0.021151433 0.044515625 0.067314364 -0.055241454 0.13143782 0.12714352
0.066187024 0.054178294 -0.0018757764 0.1351268 0.188975 0.12284103 -0.069669545 -0.0114384135
0.07149082 -0.015898969 0.0025759742 -0.12761022 0.00074384426 -0.014366513 0.014685254 -0.014792599
0.057549197 0.017339054 -0.109794006 0.021990862 -0.026742648 0.03575619 -0.0074888975 0.03626848
-0.14502716 -0.12180918 0.019302292 0.01544652 0.021900749 0.0634434 -0.029250052 -0.01853007
0.11861343 -0.010776855 -0.05194873 0.111241676 0.014700144 0.032468893 -0.082884796 -0.06611971
0.08464392 0.06538778 -0.1198154 0.1697954 -0.10634363 0.023560038 -0.0041808174 -0.036109157
-0.08832449 -0.14938399 0.028713733 -0.15954332 -0.114601366 0.06479558 0.0117387585 -0.06041199
0.0070798476 0.029011106 0.015309376 -0.024308855 0.047090363 0.08693243 -0.09863817 -0.07646667
-0.054730214 0.028795734 0.09088525 -0.023609174 0.020548217 -0.01566572 0.01406209 0.037521977
-0.04397606 -0.011049339 -0.16719952 0.18821095 -0.16979021 -0.036013834 -0.06356824 -0.06601655

classifier.bias f4 [2]
00000000: 0b1b 963e 4ef2 17be
0.29317507 -0.14838526
