models/gat_baseline_ce_gat_model.pt (torch, 260276 bytes, 10 tensors)

conv1.att_src f4 [1, 4, 64]
-0.006513642 -0.14547335 -0.10014288 0.123519994 0.032947496 -0.044989537 0.0073497933 -0.038003877
0.17555146 -0.027980639 -0.1037038 0.13052323 -0.050888967 -0.09158222 0.011230454 0.13460067
0.008522037 0.03391099 -0.03365735 -0.23997152 0.021119118 0.109608814 0.04429375 0.09600801
0.014609196 0.16379054 -0.09658639 -0.15862787 -0.11947361 -0.04865208 -0.07385483 -0.010845422
0.003960607 0.025857182 -0.028086169 -0.13152547 0.007502121 0.038955204 -0.023067163 -0.11476591
0.048934408 -0.11492583 -0.15311016 0.10314094 -0.10811459 0.07529674 0.0038760055 -0.061438788
0.109225385 -0.13983461 0.036426745 0.047629435 -0.075040296 -0.018831711 0.015357657 -0.040796433
-0.086904086 0.118165895 -0.022137944 -0.22548014 -0.06131038 0.16941214 -0.022400284 -0.01191249
-0.18184274 -0.13481945 -0.045443892 -0.06146063 -0.0051813605 -0.0451032 0.00844349 -0.038151138
-0.07339983 0.13960984 -0.023198737 -0.06782227 -0.07905511 0.00060414313 0.14357309 0.009350643
0.048279878 -0.026441222 0.04481254 -0.0088602025 0.0054475204 0.116517395 0.1369228 0.03868686
0.08391194 0.12836301 0.02704903 -0.034588516 0.163845 -0.018788772 -0.07837901 -0.012177193
-0.06726917 0.20856696 -0.09412015 0.052791733 -0.10659452 0.035040803 -0.0072944663 0.013532397
-0.053196542 0.003163189 0.061059427 -0.0828406 0.10134215 -0.09817283 0.11903912 -0.046427082
-0.083991565 0.17374793 -0.014434352 -0.20820604 0.09077604 0.010506829 0.033284795 0.17492284
-0.059412003 0.11329661 -0.1416675 -0.023000885 0.091681845 -0.005595804 -0.09797302 -0.20673235
-0.018750036 -0.19696303 -0.112805225 0.16198622 0.068810165 0.13224335 -0.13075563 -0.0835239
0.0809191 -0.18893401 -0.092781395 -0.010572833 0.17610285 -0.12948224 0.1502088 -0.06692977
0.11344564 -0.04252081 0.16888584 -0.051734187 0.08092422 -0.17495522 -0.16104689 -0.2387139
0.018464955 -0.06420516 0.05017179 0.08803627 0.012810962 -0.21396281 -0.04610339 -0.052694686
0.055182196 -0.14475144 0.018740047 0.094357 0.2021903 0.018897017 0.05037219 -0.004430335
-0.15217263 -0.22747627 -0.12606345 0.17466629 0.12048125 0.13149756 0.08820949 0.08784296
0.07014436 -0.19184336 0.10032889 -0.1361992 -0.00121174 0.13063784 -0.019709246 0.036691166
-0.044153426 -0.1648682 -0.086902 0.047798708 0.07897397 -0.08204079 0.18026793 0.04152466
0.121608905 -0.19804977 -0.20218706 0.065749966 -0.18961719 0.14302127 0.04930221 -0.120938085
0.26178172 0.06758991 -0.10859962 0.24015053 0.34920412 0.21469429 0.09996674 -0.04787325
-0.056149837 0.038830627 -0.07977631 -0.057362664 -0.015109817 0.17493354 0.31784853 -0.086029194
0.28128392 -0.10260601 -0.023594918 0.1713859 -0.06049166 0.016526358 0.08000556 0.27263665
-0.018166913 -0.1868696 0.018997187 0.08442575 0.1313008 -0.08806804 0.33660546 0.08273787
0.07068171 0.10343318 0.13892452 -0.14294419 0.22379723 0.098687805 -0.17902651 -0.0070838677
0.12305413 -0.10846083 0.14505944 0.05773228 0.30949545 -0.20089826 0.183314 -0.049559027
-0.23427488 -0.11008916 0.20731288 0.1845982 0.025073927 -0.16560157 -0.00044568162 0.08774881
00000000: 6470 d5bb f7f6 14be b617 cdbd 0df8 fc3d
00000010: f4f3 063d f346 38bd 89d6 f03b f4a9 1bbd
00000020: c3c3 333e a737 e5bc a862 d4bd e2a7 053e
00000030: f370 50bd 758f bbbd f0ff 373c c2d4 093e
00000040: 04a0 0b3c 40e6 0a3d 4adc 09bd 18bb 75be
00000050: 0002 ad3c 967a e03d 5d6d 353d d99f c43d
00000060: 695b 6f3c b5b8 273e 16cf c5bd 586f 22be
00000070: 94ae f4bd 6747 47bd 3341 97bd ffb0 31bc
00000080: fbc7 813b 71d2 d33c f714 e6bc 9dae 06be
00000090: 5ad4 f53b 7e8f 1f3d 59f7 bcbc 640a ebbd
000000a0: 726f 483d 3c5e ebbd e9c8 1cbe 8f3b d33d
000000b0: 2f6b ddbd 2d35 9a3d 9504 7e3b 3da7 7bbd
000000c0: 8fb1 df3d ce30 0fbe 3634 153d 1517 433d
000000d0: baae 99bd f644 9abc af9e 7b3c 291a 27bd
000000e0: c5fa b1bd f600 f23d a25a b5bc 44e4 66be
000000f0: 9820 7bbd 607a 2d3e cd80 b7bc 9b2c 43bc
00000100: fc34 3abe 1c0e 0abe 6023 3abd 24be 7bbd
00000110: 67c8 a9bb 22be 38bd 9056 0a3c 5e44 1cbd
00000120: a652 96bd e2f5 0e3e 470b bebc 67e6 8abd
00000130: a5e7 a1bd 5c5f 1e3a d304 133e 7033 193c
00000140: 1fc1 453d 439b d8bc 5b8d 373d 622a 11bc
00000150: 1d81 b23b aca0 ee3d 7e35 0c3e 1d76 1e3d
00000160: 06da ab3d 9871 033e ed95 dd3c b0ac 0dbd
00000170: fcc6 273e e9ea 99bc 2d85 a0bd d982 47bc
00000180: 6bc4 89bd 9492 553e 11c2 c0bd 253c 583d
00000190: 3a4e dabd f286 0f3d 6b06 efbb fdb6 5d3c
000001a0: 9ee4 59bd 814d 4f3b 7319 7a3d 55a8 a9bd
000001b0: 798c cf3d d60e c9bd c8ca f33d 532a 3ebd
000001c0: c503 acbd faea 313e 0f7e 6cbc f733 55be
000001d0: cae8 b93d d624 2c3c a355 083d f91e 333e
000001e0: 005a 73bd 0e08 e83d 4911 11be 5a6c bcbc
000001f0: b1c3 bb3d 025d b7bb 14a6 c8bd a5b1 53be
00000200: ad99 99bc adb0 49be 6d06 e7bd b7df 253e
00000210: 58ec 8c3d cd6a 073e cee4 05be 940e abbd
00000220: eab8 a53d eb77 41be 2c04 bebd ad39 2dbc
00000230: 4e54 343e fe96 04be 56d0 193e 7a12 89bd
00000240: 3056 e83d 4d2a 2ebd 69f0 2c3e 3ae7 53bd
00000250: 99bb a53d 7627 33be 7ae9 24be 6b71 74be
00000260: d143 973c ff7d 83bd ef80 4d3d 5c4c b43d
00000270: 12e5 513c 1119 5bbe e9d6 3cbd 62d6 57bd
00000280: ba06 623d b939 14be ba84 993c 3e3e c13d
00000290: f90a 4f3e ebcd 9a3c 1253 4e3d 582c 91bb
000002a0: 24d3 1bbe 8aef 68be c716 01be b8db 323e
000002b0: e0be f63d 4ca7 063e 2da7 b43d 03e7 b33d
000002c0: d9a7 8f3d 9672 44be 3c79 cd3d ce77 0bbe
000002d0: 3fd3 9eba edc5 053e 4975 a1bc 7a49 163d
000002e0: 39da 34bd 36d3 28be adf9 b1bd 94c8 433d
000002f0: 1bbd a13d 0005 a8bd 2898 383e c315 2a3d
00000300: 170e f93d 8fcd 4abe 200a 4fbe eba7 863d
00000310: 022b 42be 2b74 123e 1df1 493d 63ae f7bd
00000320: 4108 863e 946c 8a3d 7a69 debd 05ea 753e
00000330: e2ca b23e d2d8 5b3e 5dbb cc3d be16 44bd
00000340: 5ffd 65bd dd0c 1f3d c361 a3bd 1df5 6abd
00000350: 2a8f 77bc c721 333e 0bbd a23e 1330 b0bd
00000360: 7204 903e 1a23 d2bd 214a c1bc c97f 2f3e
00000370: 1ac6 77bd 4962 873c f4d9 a33d 0897 8b3e
00000380: c7d2 94bc bf5a 3fbe fd9f 9b3c 68e7 ac3d
00000390: b873 063e 045d b4bd 8d57 ac3e 7972 a93d
000003a0: 93c1 903d c6d4 d33d 3b42 0e3e f65f 12be
000003b0: 1a2b 653e d51c ca3d ba52 37be ca1f e8bb
000003c0: ce03 fc3d b620 debd 768a 143e af78 6c3d
000003d0: 3076 9e3e 46b8 4dbe aab6 3b3e 68fe 4abd
000003e0: c1e5 6fbe 6d76 e1bd d449 543e 4f07 3d3e
000003f0: d667 cd3c 7593 29be 60aa e9b9 a6b5 b33d

conv1.att_dst f4 [1, 4, 64]
-0.003370098 -0.0235933 -0.029787498 0.05423655 0.008777134 -0.021250024 -0.05958925 -0.051888216
-0.035995036 -0.0141774 -0.06982056 0.030417925 0.0059518516 0.022636957 0.016882945 -0.0061200964
-0.031432778 0.027261745 -0.0002541591 0.017766042 0.048987526 0.07525469 -0.06567965 0.03418465
-0.065376855 -0.010644882 -0.06875976 -0.077808656 0.093743786 0.02445884 -0.06854035 -0.016256327
-0.016940681 0.10455312 -0.0027758202 0.036329105 0.080157846 -0.0016370133 -0.023904923 0.009287002
0.04506109 -0.3964453 -0.081685804 0.01355728 -0.010326717 -0.10128842 -0.037325867 0.080638036
-0.056169305 0.07776367 0.1252276 -0.06346757 0.018698584 -0.10602574 -0.0051568598 0.07322566
0.055681948 -0.040286694 -0.014633362 -0.014814355 -0.035017867 0.010064562 0.058601994 0.057776857
-0.17788206 -0.07791429 -0.05858973 -0.040006503 0.08174529 -0.06878839 -0.031751674 -0.04178257
0.11112222 0.25313127 -0.18883498 -0.029672217 0.26163036 -0.082625456 -0.050814252 -0.032987256
0.005189015 -0.10508634 0.022442752 -0.18729015 0.057605248 -0.06449671 -0.028783964 -0.005117425
-0.18388005 0.16807671 -0.014550935 -0.013579354 0.12838529 0.06936416 -0.07929199 -0.047338456
0.067568585 -0.009823298 0.011487226 -0.03840323 -0.08131791 0.0040273387 -0.13293158 0.046949696
-0.102986075 -0.19375789 -0.05017183 -0.24415095 0.2504802 0.27171382 -0.21758592 0.029339248
-0.08845101 0.10456773 0.045153864 0.23288134 0.05902732 -0.0599025 -0.030118244 -0.0646246
-0.06473299 0.08564734 -0.26925737 0.13963977 -0.039473902 -0.13944362 0.06746968 0.13644317
0.004074295 0.05445509 -0.010330865 -0.0642615 0.14018255 -0.029326232 0.036093123 -0.045496915
0.15969244 -0.05442343 0.012456831 -0.02397489 -0.055441596 -0.032859452 -0.0868441 0.046797436
0.07137888 -0.0092660235 -0.032456603 -0.0242173 0.025289023 0.06611254 -0.03358119 -0.18660316
-0.046963472 0.04033763 -0.09590422 0.077705994 0.07749564 0.018831845 0.020240745 0.12840827
0.009907032 -0.16683307 -0.06626913 -0.012086234 -0.021887377 0.05225425 -0.12415952 -0.012986532
-0.059287943 0.020042313 0.00362072 0.007390354 0.0021039566 -0.0101893125 -0.011744652 0.00837876
0.00785491 -0.012568781 0.03901127 0.00074945966 -0.041675672 -0.048105102 -0.012323187 -0.011751639
-0.011342507 0.0128362365 -0.03533918 -0.0089215785 0.04236823 0.025936317 0.10450716 0.047942955
0.10967573 -0.19872507 -0.25843325 0.01349761 0.12781778 0.10939714 0.17533767 -0.34100667
-0.11739258 0.2875435 0.18516468 -0.22070579 -0.34298328 0.09202018 0.06931792 0.08599461
0.07678986 -0.17054603 -0.081005886 0.052079003 0.18728119 0.32108626 0.1991434 -0.12698376
-0.07967794 -0.13101935 -0.0725461 0.25936612 0.021983745 0.16296983 0.21156918 -0.11640433
-0.045657367 -0.040497046 0.06685347 0.04124201 0.09526526 0.13032441 0.17000373 -0.34148335
0.21306862 -0.07280031 0.044348795 0.23859195 0.13939865 0.2728093 -0.1127143 0.2009158
-0.14604343 -0.07498311 0.10193121 0.071000166 0.13693178 -0.10267699 -0.1853282 -0.2553025
-0.26929682 -0.068491414 0.11670465 0.057431467 0.22019258 -0.29606643 -0.34681186 0.0521788
00000000: dddc 5cbb bc46 c1bc e904 f4bc 2527 5e3d
00000010: f8cd 0f3c 8814 aebc db13 74bd bd88 54bd
00000020: 886f 13bd 5348 68bc 15fe 8ebd 032f f93c
00000030: c007 c33b 2471 b93c 1a4e 8a3c 178b c8bb
00000040: a8bf 00bd 0654 df3c a840 85b9 178a 913c
00000050: 25a7 483d 221f 9a3d 0d83 86bd 3405 0c3d
00000060: 4de4 85bd df67 2ebc ebd1 8cbd 255a 9fbd
00000070: befc bf3d e85d c83c e25e 8cbd fd2b 85bc
00000080: 2fc7 8abc f21f d63d 89ea 35bb d4cd 143d
00000090: cc29 a43d 0d91 d6ba 42d4 c3bc 8228 183c
000000a0: fa91 383d e1fa cabe e34a a7bd 5b1f 5e3c
000000b0: 6431 29bc 4e70 cfbd 02e3 18bd 8e25 a53d
000000c0: c911 66bd 8f42 9f3d aa3b 003e 49fb 81bd
000000d0: c62d 993c 0624 d9bd e0fa a8bb 56f7 953d
000000e0: c112 643d a903 25bd c5c0 6fbc e9b7 72bc
000000f0: e56e 0fbd d5e5 243c a508 703d 6da7 6c3d
00000100: b726 36be 8791 9fbd c9fb 6fbd dcdd 23bd
00000110: 136a a73d ede0 8cbd 0b0e 02bd 3324 2bbd
00000120: 0c94 e33d 6c9a 813e f55d 41be 2613 f3bc
00000130: 6af4 853e 8937 a9bd 9b22 50bd a51d 07bd
00000140: 9d08 aa3b 8237 d7bd ddd9 b73c fdc8 3fbe
00000150: 7bf3 6b3d da16 84bd 59cc ebbc 13b0 a7bb
00000160: 0d4b 3cbe 4d1c 2c3e 0b67 6ebc f07b 5ebc
00000170: 6f77 033e cc0e 8e3d d763 a2bd f8e5 41bd
00000180: 6661 8a3d e6f1 20bc eb34 3c3c b54c 1dbd
00000190: 018a a6bd c4f7 833b 371f 08be 534e 403d
000001a0: 5dea d2bd 7868 46be fa80 4dbd b502 7abe
000001b0: f13e 803e 131e 8b3e d8ce 5ebe dd58 f03c
000001c0: ce25 b5bd 9b27 d63d 42f3 383d 7278 6e3e
000001d0: a2c6 713d 535c 75bd 89ba f6bc e759 84bd
000001e0: bb92 84bd df67 af3d 1adc 89be bafd 0e3e
000001f0: 63af 21bd 4fca 0ebe 8b2d 8a3d c2b7 0b3e
00000200: aa81 853b 4d0c 5f3d ca42 29bc 899b 83bd
00000210: 048c 0f3e 913d f0bc 62d6 133d f95a 3abd
00000220: 6a86 233e 1aeb 5ebd bc17 4c3c fd66 c4bc
00000230: ba16 63bd a297 06bd 52db b1bd abae 3f3d
00000240: 172f 923d 85d0 17bc 37f1 04bd 5c63 c6bc
00000250: ed2a cf3c 0366 873d 6e8c 09bd e614 3fbe
00000260: c55c 40bd 1239 253d 6f69 c4bd 5224 9f3d
00000270: 09b6 9e3d 3e45 9a3c ebcf a53c 757d 033e
00000280: 1b51 223c 4ad6 2abe 1cb8 87bd 5705 46bc
00000290: 284d b3bc 8d08 563d 5947 febd 77c5 54bc
000002a0: ead7 72bd c72f a43c 9a49 6d3b c82a f23b
000002b0: 89e2 093b 13f1 26bc a46c 40bc 1147 093c
000002c0: e1b1 003c 4aed 4dbc 48ca 1f3d 6377 443a
000002d0: 1cb4 2abd db09 45bd 31e7 49bc f289 40bc
000002e0: ecd5 39bc 144f 523c d1bf 10bd d02b 12bc
000002f0: 4f8a 2d3d 6678 d43c da07 d63d d55f 443d
00000300: ab9d e03d 967e 4bbe 5d51 84be 1425 5d3c
00000310: aae2 023e 9c0b e03d b88b 333e 6d98 aebe
00000320: 856b f0bd e738 933e cf9b 3d3e b300 62be
00000330: 819b afbe 1375 bc3d 8ef6 8d3d f11d b03d
00000340: 0144 9d3d 9ea3 2ebe 6ae6 a5bd cb50 553d
00000350: a4c6 3f3e 6b65 a43e 3fec 4b3e 0808 02be
00000360: 302e a3bd f029 06be 0d93 94bd a3cb 843e
00000370: 4117 b43c 90e1 263e 97a5 583e 6565 eebd
00000380: 3803 3bbd 3be0 25bd 79ea 883d 62ed 283d
00000390: 6f1a c33d c373 053e 7515 2e3e e8d6 aebe
000003a0: a92e 5a3e 5418 95bd 15a7 353d 7351 743e
000003b0: 85be 0e3e a9ad 8b3e c1d6 e6bd dfbc 4d3e
000003c0: 698c 15be bf90 99bd 4fc1 d03d 8968 913d
000003d0: d837 0c3e 5048 d2bd adc6 3dbe 02b7 82be
000003e0: 46e1 89be 3a45 8cbd d902 ef3d 423d 6b3d
000003f0: 2a7a 613e 0596 97be 5391 b1be 70b9 553d

conv1.bias f4 [256]
0.0006215478 -0.0087203 0.018858138 0.006422092 0.08456918 0.0639615 -0.018086746 0.04199364
0.056441672 0.011913977 0.062653765 0.094438225 0.063682474 0.06255357 0.050973427 -0.014359985
-0.03793643 0.053709894 0.0071320944 0.06781575 0.07259974 0.047195278 -0.045057353 0.046320595
0.03156082 0.04378165 0.07366222 -0.01772317 0.10631232 -0.017929945 0.0870313 0.043995533
0.079995096 0.06583029 0.05483439 -0.018863568 0.03445004 -0.018579934 0.006486749 0.061774034
0.0803179 -0.0052179084 -0.0044254134 -0.021483783 0.0653553 -0.0099237375 -0.0095790615 0.075876854
0.015806293 0.0025082699 0.07238167 0.015745575 -0.019960383 -0.0081149 0.05614981 -0.005078813
0.03205011 0.017173283 0.07830655 0.066543035 0.051136136 -0.017577419 0.029288027 -0.025462054
0.04652851 0.0087640695 0.06807409 0.0369129 0.057240523 0.017983923 0.04294271 -0.032433145
-0.049917 -0.0034465862 -0.039155368 0.061166678 0.046746325 0.019509187 0.03252003 0.0032198313
0.042479917 0.0745407 0.07156366 -0.029551476 -0.028231781 0.029101627 -0.0093663605 -0.046464134
-0.024088295 0.04460611 0.042310875 0.032576762 -0.029767923 0.04409025 0.010629937 0.0667212
-0.015138043 -0.05661089 -0.019219209 0.008244445 0.02038188 0.015700426 -0.0074114287 -0.04409491
9.0521324e-05 0.07549046 0.012822188 0.06317379 -0.05882574 0.039558176 0.051628772 0.059507817
0.011415034 -0.03201219 0.05593348 -0.047819525 0.03412217 -0.02765432 0.07600261 0.030230455
0.0022728066 -0.037779216 -0.0047794487 0.038004186 -0.06141612 0.049420696 -0.019499637 0.064699434
-0.015159453 -0.015286771 0.0558839 0.02979689 -0.015016934 -0.007749975 -0.02744086 0.0774729
0.05402687 0.01392801 0.06072814 0.084674686 -0.04965694 0.009050294 0.05229126 -0.026716739
0.046093646 0.010423767 -0.011735838 0.06634569 0.022702554 -0.035654027 0.06538881 -0.024303429
-0.010556458 -0.017375506 0.035291035 0.04750761 0.08779215 -0.018581657 0.034731586 -0.028891196
0.05772007 -0.028301295 -9.334909e-05 0.06097951 0.014131682 -0.017509233 0.07991527 -0.031984113
0.048368067 0.07911267 -0.00036654482 0.060304154 0.0480772 -0.039186765 -0.012768255 0.031663593
0.043946154 0.0431697 0.01784274 -0.026404297 0.06335867 0.026768906 -0.037058447 0.07154136
0.08324529 0.051466927 -0.04355718 -0.049042143 0.018942488 0.012306329 0.070275836 -0.0070284237
0.05108228 0.031450264 0.09086173 0.0592943 0.0015069911 0.069431365 -0.024779215 0.08764008
0.046519708 0.06286438 0.044904698 0.060637284 -0.03166435 0.060145944 0.062433872 -0.025145508
0.011931876 0.014167148 0.04376983 -0.019692019 -0.0392622 0.048858654 0.055653743 0.010007458
-0.059384394 0.077170745 -0.037814204 -0.030607052 -0.027281867 0.06005011 -0.03248911 0.073557355
0.042159714 -0.023842853 0.04961213 -0.014774862 -0.01875092 0.05441892 0.04802219 0.0695799
-0.024297858 -0.017511206 0.06247902 0.070106395 0.05371341 -0.00575015 0.071208365 0.057314973
-0.028432615 -0.029575523 -0.04631419 0.03718719 0.045167282 0.13394679 -0.052560553 0.030318258
0.0749939 0.10049345 0.008058645 -0.053994413 0.050716184 -0.033161875 -0.03208896 0.022744758
00000000: 5eef 223a 97df 0ebc 627c 9a3c 6a70 d23b
00000010: 9b32 ad3d 3ffe 823d a82a 94bc 8601 2c3d
00000020: 622f 673d d732 433c 9e50 803d d468 c13d
00000030: f56b 823d 161c 803d 83c9 503d 2446 6bbc
00000040: 3b63 1bbd e8fe 5b3d 58b4 e93b fce2 8a3d
00000050: 2caf 943d d64f 413d 0f8e 38bd aaba 3d3d
00000060: eb45 013d 6354 333d 38dc 963d 2e30 91bc
00000070: 46ba d93d d2e1 92bc 773d b23d a934 343d
00000080: 78d4 a33d 08d2 863d 069a 603d c587 9abc
00000090: 7c1b 0d3d f234 98bc cb8e d43b c506 7d3d
000000a0: b67d a43d fdfa aabb 0f03 91bb c2fe afbc
000000b0: 00d9 853d 2c97 22bc 7ff1 1cbc 5365 9b3d
000000c0: 337c 813c c961 243b d73c 943d ddfc 803c
000000d0: f583 a3bc 5cf4 04bc 58fd 653d 2c6c a6bb
000000e0: fa46 033d fcae 8c3c 2f5f a03d b747 883d
000000f0: 2074 513d 85fe 8fbc 72ed ef3c cc95 d0bc
00000100: ae94 3e3d 2c97 0f3c 6e6a 8b3d fb31 173d
00000110: 0a75 6a3d 0553 933c b2e4 2f3d 9ed8 04bd
00000120: c575 4cbd 1fe0 61bb 6161 20bd e989 7a3d
00000130: 1379 3f3d bbd1 9f3c b933 053d ce03 533b
00000140: 6cff 2d3d cba8 983d f88f 923d f015 f2bc
00000150: 5646 e7bc 8966 ee3c 5d75 19bc 2d51 3ebd
00000160: d154 c5bc e5b4 363d 2b4e 2d3d 366f 053d
00000170: dcdb f3bc fa97 343d 3029 2e3c 20a5 883d
00000180: 8e05 78bc d2e0 67bd 9a71 9dbc b513 073c
00000190: e7f7 a63c 2e9e 803c 92db f2bb dd9c 34bd
000001a0: 44d6 bd38 be9a 9a3d 2814 523c 4361 813d
000001b0: 42f3 70bd c107 223d b178 533d 78be 733d
000001c0: 1f06 3b3c 371f 03bd 811a 653d 68de 43bd
000001d0: b0c3 0b3d 508b e2bc 42a7 9b3d dca5 f73c
000001e0: 5ef3 143b 61be 1abd ec9c 9cbb 47aa 1b3d
000001f0: 788f 7bbd 5b6d 4a3d b4bd 9fbc 2381 843d
00000200: 5b5f 78bc 5d75 7abc 84e6 643d 9c18 f43c
00000210: 9609 76bc 81f3 fdbb a8cb e0bc 1daa 9e3d
00000220: 474b 5d3d 4f32 643c 12be 783d ec69 ad3d
00000230: 1365 4bbd af47 143c 5c2f 563d 10dd dabc
00000240: b1cc 3c3d 73c8 2a3c ac47 40bc 40e0 873d
00000250: b5fa b93c f509 12bd 92ea 853d fc17 c7bc
00000260: fef4 2cbc 1457 8ebc 558d 103d 5797 423d
00000270: 5fcc b33d 8f38 98bc b542 0e3d 3bad ecbc
00000280: e16b 6c3d 1ed8 e7bc 69c4 c3b8 a7c5 793d
00000290: 9288 673c 866f 8fbc 9eaa a33d c601 03bd
000002a0: 981d 463d d305 a23d d02c c0b9 7d01 773d
000002b0: 99ec 443d 4d82 20bd f131 51bc afb1 013d
000002c0: e200 343d b6d2 303d f02a 923c d34d d8bc
000002d0: 31c2 813d 774a db3c 99ca 17bd 4784 923d
000002e0: 827c aa3d fcce 523d 0369 32bd 6ae0 48bd
000002f0: 472d 9b3c 7ca0 493c c7ec 8f3d b14e e6bb
00000300: a73b 513d fed1 003d b715 ba3d 94de 723d
00000310: 3b86 c53a 0832 8e3d c8fd cabc a47c b33d
00000320: 738b 3e3d 0abf 803d fded 373d cd5e 783d
00000330: 7ab2 01bd 985b 763d a9ba 7f3d f4fd cdbc
00000340: ea7d 433c 531d 683c fe47 333d 2851 a1bc
00000350: 67d1 20bd 0320 483d 2ef5 633d 52f6 233c
00000360: 0d3d 73bd b20b 9e3d 11e3 1abd a4bb fabc
00000370: 397e dfbc 1bf7 753d 4d13 05bd 3da5 963d
00000380: aaaf 2c3d 1652 c3bc 1736 4b3d 4312 72bc
00000390: 889b 99bc 60e6 5e3d eab2 443d e87f 8e3d
000003a0: 4d0c c7bc a973 8fbc 00ea 7f3d f193 8f3d
000003b0: 9802 5c3d c16b bcbb b1d5 913d 1bc3 6a3d
000003c0: 84eb e8bc 5e48 f2bc f3b3 3dbd 9851 183d
000003d0: 5401 393d 5929 093e bc49 57bd ff5d f83c
000003e0: 6796 993d 83cf cd3d 6808 043c 3f29 5dbd
000003f0: c6bb 4f3d bfd4 07bd b76f 03bd 3753 ba3c

conv1.lin.weight f4 [256, 182]
0.001385551 -0.03533591 0.019445749 0.02089585 0.028642796 0.029512435 -0.04264685 0.006101714
-0.0025103427 0.0071299607 0.013156832 0.049428575 0.035973735 0.030395882 0.0065588458 0.005962131
0.0021169866 -0.0948143 0.009381008 0.018708983 0.007591066 0.029373296 0.021395383 -0.018903868
0.032310408 0.03608233 -7.17626e-05 0.041162066 0.025374815 -0.005255026 0.034215096 -0.00787567
0.004458928 -0.013403216 -0.030989885 0.014565605 -0.003695473 0.021446604 0.0040978193 -0.016592463
-0.0017228717 0.025498934 -0.017525326 0.016235372 0.01192047 -0.029952522 -0.016571281 0.02169863
-0.026478812 -0.008245666 -0.010380008 -0.029924138 0.018308237 0.034926835 0.00067349814 0.019922864
-0.010439545 0.030045923 0.022470256 0.032409452 0.025458487 0.117334 0.13306265 0.02742159
0.01943077 0.036338635 0.03143058 0.086990714 0.07178784 -0.029598739 -0.03596994 -0.0109226415
0.00026772113 0.10891238 0.102243654 0.0033146737 -0.005053088 0.0056887553 0.006273202 0.07319505
0.039868984 0.011539102 0.002700248 -0.010238348 0.018544484 0.0459291 0.053732768 -0.10549359
0.0020337114 0.02411425 -0.03050582 0.051229484 -0.017398499 0.043092173 0.044599023 0.024023654
0.016105082 -0.046839528 -0.021084977 0.02314693 -0.038877405 -0.015369083 -0.0019204494 0.055910327
0.055550016 0.007211852 0.0033974578 0.03278389 0.011041844 0.011322204 0.00983445 -0.023277665
0.028161949 0.01943161 -0.018794756 0.026247844 0.009832773 0.0012377398 0.029238345 0.04067101
0.01753397 0.012064562 0.008820563 0.017474156 0.033142053 -0.01275958 0.009167343 0.026700301
0.02257454 -0.08496892 0.031405915 0.020681337 0.0012748374 -0.043542437 -0.08953783 0.034334052
0.0049879504 -0.045116663 0.00402349 -0.116311975 -0.08432948 0.018579086 0.011923199 -0.03718773
-0.0004045012 0.0021440333 -0.00914436 0.02179548 0.011972089 -0.030889878 0.026323957 0.12279071
0.11198964 0.044597585 -0.03824116 -0.023857087 -0.031160021 -0.080011226 -0.059381127 0.039867673
0.02892497 0.030672884 0.06343311 0.049548596 0.06935669 0.025814204 0.014224242 0.012721688
-0.03967509 0.017319424 0.02324157 0.027925255 0.004837923 0.008452598 -0.020130102 0.004459447
0.015774092 -0.0050668935 -0.05579539 0.009184029 -0.009272991 0.026745476 0.0054841433 -0.022516076
0.019747254 -0.01790689 0.0013255227 0.038326524 0.04203868 -0.008042181 0.0018715148 -0.0007372289
0.015280749 0.003252867 0.019963361 0.037222255 0.01652557 -0.0011719038 1.8850531e-05 0.03821465
-0.0032542313 0.0031367168 0.0023076362 -0.028602637 -0.016520819 -0.012452435 -0.0010946271 0.04168102
0.06110496 -0.009118126 -0.0035699056 -0.0016215532 -0.013434321 0.026653767 0.047789373 -0.020880122
-0.0051682396 -0.0007867976 -0.00921169 -0.02115669 -0.023862664 -0.029899986 -0.009437956 -0.017936189
-0.009039218 0.096391596 0.113119535 -0.016568335 -0.013712213 0.027196009 -0.021766454 0.109111585
0.08648885 0.082494505 0.010184778 0.00013982801 0.054230317 0.10320868 0.11228385 -0.03895753
0.0019235595 0.003227347 -0.0046715853 -0.008728772 0.04533655 -0.02023856 -0.00436217 -0.004048952
-0.0025363155 0.023740193 -0.009195715 -0.0017956829 0.004695847 0.017781014 0.02134312 -0.04727362
00000000: 609b b53a 63bc 10bd b14c 9f3c c62d ab3c
00000010: 4ca4 ea3c 10c4 f13c 77ae 2ebd e3f0 c73b
00000020: 9084 24bb 72a2 e93b c18f 573c 9e75 4a3d
00000030: 3259 133d c900 f93c 96eb d63b fb5d c33b
00000040: 24bd 0a3b 002e c2bd cdb2 193c 9543 993c
00000050: 7abe f83b 44a0 f03c 5f45 af3c 49dc 9abc
00000060: eb57 043d 11cb 133d 417f 96b8 8e99 283d
00000070: d8de cf3c 5a32 acbb 2125 0c3d f408 01bc
00000080: 331c 923b 2a99 5bbc 80de fdbc 93a4 6e3c
00000090: c02f 72bb cab0 af3c 0047 863b ebec 87bc
000000a0: fbd1 e1ba 24e3 d03c 4691 8fbc 0b00 853c
000000b0: 134e 433c fe5e f5bc 7fc0 87bc 53c1 b13c
000000c0: 18ea d8bc d418 07bc e910 2abc 7723 f5bc
000000d0: 28fb 953c 710f 0f3d b28d 303a 4635 a33c
000000e0: a00a 2bbc de22 f63c 8b13 b83c c6bf 043d
000000f0: 518e d03c cf4c f03d 9341 083e 3ea3 e03c
00000100: 472d 9f3c d2d7 143d 5abd 003d 3028 b23d
00000110: 8105 933d 0e79 f2bc 3755 13bd e1f4 32bc
00000120: ec5c 8c39 740d df3d 1f65 d13d ff3a 593b
00000130: 6094 a5bb bd68 ba3b 6f8f cd3b 49e7 953d
00000140: a94d 233d 800e 3d3c a5f6 303b bebe 27bc
00000150: 9aea 973c 2720 3c3d e416 5c3d 060d d8bd
00000160: 0448 053b 3f8b c53c 57e7 f9bc 02d6 513d
00000170: 4c87 8ebc 6b81 303d 77ad 363d 41cd c43c
00000180: ceee 833c ceda 3fbd 67ba acbc a19e bd3c
00000190: ea3d 1fbd 9bce 7bbc 97b7 fbba 3a02 653d
000001a0: 6a88 633d 6651 ec3b e2a7 5e3b 6648 063d
000001b0: dae8 343c c480 393c ac20 213c cdb0 bebc
000001c0: e3b3 e63c 0a2f 9f3c 76f7 99bc b805 d73c
000001d0: a419 213c a83b a23a 4185 ef3c a596 263d
000001e0: 66a3 8f3c 71aa 453c 1f84 103c f625 8f3c
000001f0: f6bf 073d 8f0d 51bc a032 163c 97ba da3c
00000200: 3eee b83c 2f04 aebd 7da3 003d e86b a93c
00000210: 7218 a73a 8e59 32bd 9c5f b7bd dda1 0c3d
00000220: f671 a33b 40cc 38bd 7bd7 833b f934 eebd
00000230: efb4 acbd 2b33 983c 8559 433c 2952 18bd
00000240: 3b13 d4b9 e982 0c3b 3ad2 15bc 6f8c b23c
00000250: 9526 443c c50c fdbc 57a5 d73c b279 fb3d
00000260: d35a e53d f5ab 363d c3a2 1cbd f06f c3bc
00000270: 4d43 ffbc eddc a3bd a039 73bd 494c 233d
00000280: 0ff4 ec3c b345 fb3c 38e9 813d 78f3 4a3d
00000290: e10a 8e3d 4f78 d33c cc0c 693c a06e 503c
000002a0: 5982 22bd 77e1 8d3c 1b65 be3c 81c3 e43c
000002b0: 7187 9e3b c47c 0a3c e2e7 a4bc 8e20 923b
000002c0: ab38 813c 2f08 a6bb b589 64bd 9c78 163c
000002d0: beed 17bc 5419 db3c 54b4 b33b a273 b8bc
000002e0: fec4 a13c 78b1 92bc 29bd ad3a 46fc 1c3d
000002f0: c030 2c3d 5ac3 03bc 9e4d f53a 9842 41ba
00000300: 1b5c 7a3c 0d2e 553b 348a a33c 5d76 183d
00000310: a260 873c 919a 99ba 3521 9e37 f786 1c3d
00000320: f144 55bb 6091 4d3b b63b 173b 1450 eabc
00000330: ab56 87bc 4c05 4cbc 9779 8fba b8b9 2a3d
00000340: 3249 7a3d 3164 15bc 14f5 69bb 4c8a d4ba
00000350: a01b 5cbc 0059 da3c cabe 433d ca0c abbc
00000360: 565a a9bb 1841 4eba a1ec 16bc cb50 adbc
00000370: a27b c3bc d1f0 f4bc a8a1 1abc eaee 92bc
00000380: 3a19 14bc f568 c53d 37ab e73d 51ba 87bc
00000390: 31a9 60bc 2aca de3c 904f b2bc e575 df3d
000003a0: 1121 b13d e1f2 a83d 0ede 263c cc9e 1239
000003b0: 9c20 5e3d 135f d33d 13f5 e53d ee91 1fbd
000003c0: f21f fc3a e681 533b 1914 99bb 2003 0fbc
000003d0: d1b2 393d 56cb a5bc 89f0 8ebb 12ad 84bb
000003e0: 5038 26bb cb7a c23c a0a9 16bc 1f5d ebba
000003f0: 9fdf 993b 7da9 913c c4d7 ae3c fca1 41bd

conv2.att_src f4 [1, 1, 64]
0.06141081 0.08327346 0.21896942 0.081684336 -0.023162698 -0.07108423 0.083768755 0.15080522
-0.14883189 0.23509185 -0.08703205 -0.06417903 0.07837316 -0.060852304 0.15309113 0.06907565
-0.24044997 -0.0030811485 0.13707161 -0.16634145 0.08640449 -0.07445872 0.14085636 0.084058926
-0.21184829 -0.019888505 -0.027709333 0.101838656 0.0819475 0.1841646 0.11499335 0.09495349
-0.006849095 -0.14201498 0.061359454 0.01705579 -0.18936056 -0.17574939 -0.1861389 0.08439187
-0.2226144 -0.15428735 -0.14489636 -0.13172577 0.14302903 -0.08168838 -0.08881377 0.15941712
-0.021471415 -0.28094274 -0.10099778 0.051869728 0.10658206 -0.040789094 -0.3294319 -0.060864072
-0.108002834 -0.07991027 -0.12822673 0.10151908 0.06592176 0.07693342 0.11425818 0.08629161
00000000: e789 7b3d 478b aa3d 8539 603e 1e4a a73d
00000010: b3bf bdbc 9c94 91bd f48e ab3d af6c 1a3e
00000020: 6367 18be ebbb 703e dc3d b2bd 4c70 83bd
00000030: 1b82 a03d 4440 79bd ecc3 1c3e 8977 8d3d
00000040: 8438 76be 18ed 49bb 805c 0c3e 6a55 2abe
00000050: d6f4 b03d d07d 98bd a63c 103e 1627 ac3d
00000060: c2ee 58be 38ed a2bc affe e2bc c990 d03d
00000070: 17d4 a73d a595 3c3e a281 eb3d fa76 c23d
00000080: 606e e0bb 606c 11be 0d54 7b3d 96b8 8b3c
00000090: bce7 41be a6f7 33be 329b 3ebe a5d5 ac3d
000000a0: 07f5 63be 81fd 1dbe b65f 14be 1fe3 06be
000000b0: 3476 123e 3d4c a7bd fee3 b5bd 3e3e 233e
000000c0: d2e4 afbc bad7 8fbe edd7 cebd 5a75 543d
000000d0: b247 da3d 7712 27bd 4cab a8be 9b4c 79bd
000000e0: 9730 ddbd ffa7 a3bd de4d 03be 3ce9 cf3d
000000f0: fd01 873d 458f 9d3d 3100 ea3d a8b9 b03d

conv2.att_dst f4 [1, 1, 64]
0.07475284 0.24581574 0.2289978 -0.009890701 -0.08164705 0.21250238 0.02804618 -0.14323546
-0.010754545 -0.06941866 0.050144754 -0.043687955 -0.102240875 0.06260174 0.026643518 -0.08760015
-0.13109195 -0.16619623 0.029191151 0.123169795 0.11489442 -0.18954636 0.06649904 0.040819068
-0.0088042375 -0.14997886 0.10441865 0.25118405 0.14186405 0.28395903 -0.1256058 -0.010713052
0.04121377 -0.02255328 0.13119587 -0.11564325 0.019343715 -0.009266694 0.14675611 -0.08204543
0.037538253 0.055232067 0.023523565 0.104242116 0.06297994 0.092623994 0.06994565 0.113024585
0.1698412 0.028662875 0.034122743 0.16922583 0.042845957 0.06137134 -0.0013846683 0.026797568
0.022271903 -0.22885227 0.03688142 -0.0069897342 -0.10820647 0.21622702 -0.17727008 0.17635325
00000000: 0418 993d 1fb7 7b3e 667e 6a3e 9b0c 22bc
00000010: 9236 a7bd 399a 593e 1ac1 e53c 51ac 12be
00000020: d533 30bc 5f2b 8ebd 9664 4d3d 24f2 32bd
00000030: aa63 d1bd 5735 803d 8243 da3c b567 b3bd
00000040: f83c 06be 582f 2abe 4822 ef3c 7240 fc3d
00000050: c44d eb3d 7118 42be a630 883d e531 273d
00000060: a63f 10bc 0f94 19be 72d9 d53d 329b 803e
00000070: cf44 113e 1463 913e cf9e 00be cc85 2fbc
00000080: c5cf 283d a8c1 b8bc 3658 063e 5ed6 ecbd
00000090: b676 9e3c 55d3 17bc 3c47 163e 6f07 a8bd
000000a0: b6c1 193d 053b 623d 7eb4 c03c e47c d53d
000000b0: a0fb 803d a6b1 bd3d aa3f 8f3d 6f79 e73d
000000c0: daea 2d3e 68ce ea3c 4ac4 0b3d 8949 2d3e
000000d0: 3e7f 2f3d 8460 7b3d c27d b5ba 9386 db3c
000000e0: 9173 b63c 4058 6abe f910 173d 240a e5bb
000000f0: 5b9b ddbd 9e6a 5d3e 4a86 35be f295 343e

conv2.bias f4 [64]
-0.08295172 0.016044935 -0.10098019 0.26466694 -0.08517964 -0.10107523 0.007741457 0.19580753
0.11682067 0.21352085 0.22371855 -0.05313973 0.15095091 -0.0763792 -0.11403743 -0.11106704
0.21687697 0.198992 -0.102233894 0.21315804 -0.04905019 0.20019412 -0.08784374 0.23043342
0.20969798 0.010429127 0.25008672 0.15987858 0.11213333 -0.09179924 0.24622178 -0.093080044
0.14615169 0.23820506 0.23940219 0.2460171 -0.055603463 0.23895612 0.20178643 -0.10168525
0.066356406 0.14963984 0.07790018 -0.03533812 0.25328353 0.25768623 0.10797849 0.25228533
0.28063372 0.17544761 0.19839567 -0.08363561 0.2637423 0.21444237 -0.08117745 0.237913
-0.056632515 0.23681806 -0.096413456 0.20916079 -0.080652565 -0.05398352 0.28204888 0.22719909
00000000: 97e2 a9bd ab70 833c b4ce cebd 6d82 873e
00000010: aa72 aebd 8800 cfbd 0cac fd3b c581 483e
00000020: ad3f ef3d 36a5 5a3e 7a16 653e 0ca9 59bd
00000030: e092 1a3e b36c 9cbd 758c e9bd 1e77 e3bd
00000040: ff14 5e3e 8fc4 4b3e 0160 d1bd 1a46 5a3e
00000050: dae8 48bd b0ff 4c3e 6be7 b3bd bdf6 6b3e
00000060: 11bb 563e eede 2a3c 5e0b 803e 36b7 233e
00000070: 29a6 e53d 3d01 bcbd 9021 7c3e c0a0 bebd
00000080: caa8 153e 07ec 733e d925 753e e8eb 7b3e
00000090: 75c0 63bd eab0 743e 1aa1 4e3e 5b40 d0bd
000000a0: dee5 873d 303b 193e 218a 9f3d b4be 10bd
000000b0: 61ae 813e 73ef 833e d423 dd3d 8b2b 813e
000000c0: 39af 8f3e 8aa8 333e 3c28 4b3e 2649 abbd
000000d0: 3b09 873e c896 5b3e 5d40 a6bd 779f 733e
000000e0: 7ff7 67bd 6f80 723e 6b74 c5bd 3f2e 563e
000000f0: 2c2d a5bd d31d 5dbd b668 903e e1a6 683e

conv2.lin.weight f4 [64, 256]
-0.013516096 0.022809377 -0.010007532 -0.11438698 -0.079479285 -0.032129403 0.015445241 -0.110135406
-0.016783586 -0.056375064 -0.014282401 -0.07378311 -0.051782273 -0.028568795 -0.08710251 -0.008662178
-0.018641558 -0.044850767 -0.00074679445 -0.016321104 0.004984239 -0.009318813 0.014182552 -0.06248613
-0.056607287 -0.006702686 -0.052739684 -0.057179745 -0.04649773 -0.011789243 -0.08495688 -0.0056394427
-0.0054309573 -0.1173631 -0.037953816 0.013710499 -0.055707578 -0.008404038 -0.009044746 -0.029535782
-0.053796783 -0.013826256 -0.017228441 0.0027452465 -0.019640489 -0.01714167 -0.017230367 -0.06730344
0.026138749 -0.015135067 -0.05682877 -0.017211407 0.01635001 -0.017721672 -0.07691799 -0.015320959
-0.09865806 -0.0954483 -0.0065890993 -0.06408905 0.010465118 -0.07319849 -0.04157693 -0.04647233
0.025190467 -0.031134717 0.005515224 -0.03476878 0.12310906 -0.050395723 -0.10327446 -0.024256041
-0.040449176 -0.05240839 0.01613623 -0.04860592 -0.024871558 -0.05179961 0.0023350925 0.024496693
0.04353029 0.016607715 -0.051176693 -0.003109986 -0.1565874 -0.061841384 -0.049651545 0.011720518
0.062346105 0.04169565 0.024660917 -0.065310575 -0.035308175 -0.042979967 -0.05659817 -0.03998449
0.038577072 -0.14787722 -0.019983284 -0.01036685 -0.038593493 0.023585692 -0.044731632 0.06576019
-0.027377391 -0.019094888 -0.00614168 -0.04166223 -0.0050851363 -0.059932176 -0.0788563 -0.105792455
0.0539329 -0.08796598 0.14659266 -0.035163824 -0.032601908 -0.07337334 -0.031520657 0.03537484
0.012646684 0.010706603 0.0041450337 -0.04441935 -0.13890554 -0.059016194 -0.088566884 -0.00048084953
-0.054484412 -0.014685622 -0.054128606 -0.013053597 -0.008237897 -0.036093008 -0.072007455 -0.0026301008
-0.006408913 -0.079645865 -0.0787248 -0.069806255 0.03642554 -0.07455767 0.04680135 -0.048225444
-0.08645511 -0.038053874 0.0074170916 -0.035873044 0.017100736 -0.015056927 -0.014067881 -0.014210046
-0.02513388 -0.0062284055 -0.024984116 -0.023914479 -0.06640897 -0.098188646 -0.054058693 0.019054214
-0.117037654 -0.051499907 0.03154061 -0.03800556 -0.033504978 -0.061408434 -0.014482514 -0.002334055
-0.036419895 -0.08953882 -0.047410313 -0.013495889 0.009207317 0.04580278 0.029774116 -0.0142486
-0.049418278 -0.017353633 -0.029006315 -0.0057850545 -0.045025732 0.041700177 -0.021400318 -0.034496907
-0.023295505 -0.019265505 -0.042554684 -0.040946566 -0.013121984 -0.030198896 0.00067837234 -0.073348574
-0.04911674 -0.0023564722 -0.042562466 -0.10924819 -0.053256184 -0.02694078 -0.063332535 -0.048217382
-0.08143838 0.0012903196 -0.07974301 -0.017158188 0.02880062 -0.040480107 -0.13273662 -0.0019483953
-0.013726814 0.022719564 -0.0970505 -0.0024166098 -0.022912228 -0.003237201 -0.030629931 -0.045575622
0.0029186578 -0.050121322 -0.072165065 -0.030106856 0.011171565 -0.022232974 0.065459 -0.0007587571
-0.029094597 -0.11379521 -0.093982674 0.021030866 0.043971352 -0.021929735 0.058520373 -0.091137
-0.030157363 -0.03644013 0.009266188 -0.10981824 0.04107568 0.020241281 -0.08435383 0.0026064215
-0.03888239 0.03360725 -0.0072240555 -0.09512324 -0.039958313 -0.07459683 0.002450617 -0.04004178
-0.06609936 -0.011760221 0.01605879 0.03703726 -0.031696483 -0.03786081 -0.06291548 -0.00973866
00000000: 9e72 5dbc bbda ba3c a2f6 23bc b943 eabd
00000010: 09c6 a2bd 1f9a 03bd 090e 7d3c ac8e e1bd
00000020: bb7d 89bc 8ae9 66bd bb00 6abc 991b 97bd
00000030: a619 54bd 1b09 eabc cd62 b2bd cfeb 0dbc
00000040: 2eb6 98bc 70b5 37bd 87c4 43ba d6b3 85bc
00000050: d452 a33b efad 18bc ef5d 683c 75f1 7fbd
00000060: 0bdd 67bd 35a2 dbbb 9105 58bd 4f35 6abd
00000070: 6774 3ebd ab27 41bc dffd adbd 13cb b8bb
00000080: 2cf6 b1bb 115c f0bd 7675 1bbd 00a2 603c
00000090: a12d 64bd 17b1 09bc 6a30 14bc 06f5 f1bc
000000a0: 045a 5cbd 8587 62bc a922 8dbc 98e9 333b
000000b0: 17e5 a0bc b06c 8cbc b326 8dbc 63d6 89bd
000000c0: ee20 d63c 12f9 77bc 49c5 68bd f0fe 8cbc
000000d0: 75f0 853c 0a2d 91bc 2e87 9dbd c204 7bbc
000000e0: 3d0d cabd 667a c3bd 5fe9 d7bb 1f41 83bd
000000f0: e375 2b3c 17e9 95bd 924c 2abd c559 3ebd
00000100: 3d5c ce3c 3c0e ffbc 0db9 b43b b569 0ebd
00000110: 9a20 fc3d bf6b 4ebd 8f81 d3bd 9bb4 c6bc
00000120: 09ae 25bd 2eaa 56bd 2130 843c 0017 47bd
00000130: 70bf cbbc d42b 54bd 5a08 193b 4aad c83c
00000140: d14c 323d e70c 883c a79e 51bd e8d0 4bbb
00000150: 7358 20be 644d 7dbd 6b5f 4bbd 6a07 403c
00000160: a15e 7f3d 0fc9 2a3d b105 ca3c 8dc1 85bd
00000170: 4e9f 10bd c30b 30bd 7cd3 67bd c7c6 23bd
00000180: fe02 1e3d 206d 17be fcb3 a3bc b8d9 29bc
00000190: 3614 1ebd c836 c13c 8438 37bd 47ad 863d
000001a0: 8d46 e0bc e26c 9cbc 2540 c9bb 04a6 2abd
000001b0: 37a1 a6bb 717b 75bd 697f a1bd b7a9 d8bd
000001c0: bfe8 5c3d 8227 b4bd 631c 163e f107 10bd
000001d0: 9489 05bd c344 96bd ce1b 01bd 35e5 103d
000001e0: 0a34 4f3c bf6a 2f3c 10d3 873b 10f1 35bd
000001f0: 413d 0ebe f7ba 71bd 8e62 b5bd 881a fcb9
00000200: 0c2b 5fbd f79b 70bc f5b5 5dbd c1de 55bc
00000210: 3ff8 06bc 43d6 13bd a578 93bd c55d 2cbb
00000220: dc01 d2bb 5f1d a3bd 783a a1bd 95f6 8ebd
00000230: f232 153d b1b1 98bd c6b2 3f3d 0b88 45bd
00000240: 600f b1bd 61de 1bbd 130b f33b 9def 12bd
00000250: d816 8c3c 54b1 76bc f87c 66bc 41d1 68bc
00000260: 91e5 cdbc a717 ccbb 7dab ccbc 4ce8 c3bc
00000270: 6d01 88bd 2117 c9bd a66c 5dbd 9517 9c3c
00000280: 70b1 efbd 91f1 52bd ba30 013d b8ab 1bbd
00000290: 843c 09bd 6987 7bbd 1148 6dbc f2f6 18bb
000002a0: 072d 15bd 2160 b7bd 5131 42bd dc1d 5dbc
000002b0: 49da 163c b29b 3b3d d9e8 f33c f672 69bc
000002c0: d26a 4abd 3529 8ebc a79e edbc 8e90 bdbb
000002d0: e76c 38bd cecd 2a3d b84f afbc a14c 0dbd
000002e0: 37d6 bebc b1d2 9dbc d24d 2ebd 96b7 27bd
000002f0: 97fd 56bc ad63 f7bc ccd4 313a c737 96bd
00000300: a22e 49bd 0b6f 1abb fb55 2ebd 84bd dfbd
00000310: 2823 5abd e9b2 dcbc 7db4 81bd 977f 45bd
00000320: 2ac9 a6bd f11f a93a 4e50 a3bd 548f 8cbc
00000330: 47ef eb3c 78ce 25bd 1cec 07be 4c61 ffba
00000340: 6ee6 60bc 611e ba3c 6ac2 c6bd fc5f 1ebb
00000350: 6db2 bbbc 3827 54bb 9feb fabc 81ad 3abd
00000360: f446 3f3b 044c 4dbd 47cb 93bd a7a2 f6bc
00000370: f108 373c ed21 b6bc 5e0f 863d 54e7 46ba
00000380: cb57 eebc 770d e9bd fd79 c0bd ec48 ac3c
00000390: 4e1b 343d fda5 b3bc 0fb3 6f3d 09a6 babd
000003a0: 930c f7bc 3f42 15bd 36d1 173c 63e8 e0bd
000003b0: f93e 283d 0bd1 a53c b3c1 acbd 7fd0 2a3b
000003c0: 2443 1fbd c1a7 093d c5b7 ecbb f9cf c2bd
000003d0: 54ab 23bd 39c6 98bd 889a 203b d902 24bd
000003e0: 1a5f 87bd f1ad 40bc b98d 833c 62b4 173d
000003f0: 2cd4 01bd f013 1bbd d5d9 80bd e78e 1fbc

classifier.weight f4 [2, 64]
-0.022034766 -0.0045553967 -0.11376456 0.14188324 -0.010660206 -0.09237077 0.08294802 0.006260994
-0.011474851 0.15190002 0.13838387 -0.00843406 0.12560423 -0.26226988 -0.046340365 -0.042124797
0.124474645 0.098351605 -0.11365314 0.13282908 -0.01896303 -0.0054567233 -0.059120204 0.15848826
0.078813605 -0.013558648 0.076506905 0.08124289 0.07846965 -0.07428016 0.16400272 -0.0042631505
0.12593104 0.13238683 0.025113985 0.059387356 0.007795018 0.07379388 0.08309677 -0.02687153
-0.11849508 0.03804703 -0.06659315 0.053426903 0.034825988 0.06897636 -0.00014502804 0.074285924
0.015442074 0.002218618 0.1389853 -0.075191036 0.14593013 0.06658467 -0.078332216 0.12506157
0.050186038 0.063106835 -0.065601796 0.02720634 -0.07695941 -0.002485837 0.017647047 0.1288236
0.11844356 0.05390184 0.08757452 0.039912008 0.0055875564 -0.0033919085 0.11065837 -0.08340529
0.051187612 0.054181848 -0.040873956 -0.021708572 0.03341752 0.2933801 0.0707951 0.12882665
-0.14154029 0.041988462 0.03607546 -0.08255739 -0.0058439896 -0.02791478 0.15855053 -0.12766264
-0.033500317 0.09298803 -0.12451551 0.01753695 0.020799892 0.1810125 0.023825556 0.12852164
0.040937494 -0.007822725 -0.21637332 -0.062412124 0.0067801126 -0.049795516 -0.070211425 0.11334989
-0.0071991393 -0.0070465473 -0.044043813 0.037448153 -0.11960656 -0.08814302 -0.025181552 -0.19201705
-0.17806558 -0.045621708 -0.15336105 0.10481459 -0.027519021 -0.094727226 -0.061736602 -0.113230646
0.028363248 -0.09504399 0.022207364 -0.10359962 -0.043171905 -0.012489476 -0.10454278 -0.1245031
00000000: 4182 b4bc 7045 95bb 65fd e8bd d749 113e
00000010: 25a8 2ebc e32c bdbd a7e0 a93d 0629 cd3b
00000020: 0301 3cbc ae8b 1b3e 80b4 0d3e 032f 0abc
00000030: 659e 003e 3d48 86be 65cf 3dbd 0d8b 2cbd
00000040: 90ec fe3d 916c c93d fac2 e8bd 5904 083e
00000050: 5b58 9bbc 50ce b2bb 0728 72bd bf4a 223e
00000060: 0769 a13d 1725 5ebc a7af 9c3d ac62 a63d
00000070: b2b4 a03d 3220 98bd 54f0 273e e6b1 8bbb
00000080: 11f4 003e 6a90 073e d8bb cd3c 2840 733d
00000090: 5a6d ff3b 3f21 973d a42e aa3d af21 dcbc
000000a0: 8cad f2bd 34d7 1b3d fd61 88bd 2bd6 5a3d
000000b0: b2a5 0e3d 7a43 8d3d ab12 18b9 3823 983d
000000c0: c100 7d3c 3c66 113b 2a52 0e3e c2fd 99bd
000000d0: b56e 153e 8b5d 883d a46c a0bd 2410 003e
000000e0: e08f 4d3d 283e 813d 3c5a 86bd d5df de3c
000000f0: e59c 9dbd 6de9 22bb 8a90 903c 55ea 033e
00000100: 8a92 f23d 2dc8 5c3d 455a b33d c67a 233d
00000110: d217 b73b c84a 5ebb dba0 e23d 65d0 aabd
00000120: 1aaa 513d c9ed 5d3d 736b 27bd 2dd6 b1bc
00000130: cfe0 083d eb35 963e 05fd 903d 22eb 033e
00000140: f0ef 10be 18fc 2b3d ddc3 133d d913 a9bd
00000150: f07e bfbb 89ad e4bc 125b 223e ffb9 02be
00000160: a137 09bd 8270 be3d fd01 ffbd a6a9 8f3c
00000170: 8964 aa3c 575b 393e d02d c33c 2d9b 033e
00000180: 13ae 273d e32a 00bc f890 5dbe dba3 7fbd
00000190: b52b de3b 62f6 4bbd 02cb 8fbd fd23 e83d
000001a0: c2e6 ebbb b9e6 e6bb 4967 34bd 3c63 193d
000001b0: 49f4 f4bd 5484 b4bd 8b49 cebc 1ea0 44be
000001c0: d356 36be d4dd 3abd ae0a 1dbe 08a9 d63d
000001d0: 926f e1bc 5900 c2bd 85df 7cbd 78e5 e7bd
000001e0: 0b5a e83c 6ca6 c2bd 38ec b53c 0a2c d4bd
000001f0: 06d5 30bd a9a0 4cbc 861a d6bd 7bfb febd

classifier.bias f4 [2]
0.27007312 -0.24815005
00000000: 0647 8a3e 0c1b 7ebe
