models/gcn_engineered_ce_gcn_model.pt (torch, 136208 bytes, 6 tensors)

conv1.bias f4 [128]
0	0xbd144e0b	-0.03620724
1	0x3d43aac0	0.04777026
2	0xbc5c2d45	-0.0134385275
3	0xbd50eb73	-0.051005792
4	0x3d7827c6	0.060584806
5	0xbe0ef36b	-0.13960044
6	0xbc5efd84	-0.0136102475
7	0xbe1cfbff	-0.15330504
8	0x3c843fb7	0.016143663
9	0xbd41de9e	-0.047331445
10	0xbc952c30	-0.018209547
11	0x3cf5ab81	0.029989006
12	0xbd7778f5	-0.060418088
13	0x3d017d1d	0.031613458
14	0xbb9991a9	-0.0046865535
15	0x3daa6d16	0.08321588
16	0xb4d24ae6	-3.9170044e-07
17	0x3d8a345f	0.0674827
18	0x3cc9fb29	0.024655895
19	0x3cb7acd1	0.022421272
20	0xbe016461	-0.12635948
21	0x3c790a22	0.01520017
22	0xbccd3439	-0.025049316
23	0xbdf3d9b3	-0.11906757
24	0xbd143e10	-0.036192
25	0x3d357c98	0.044308275
26	0xbd33fd19	-0.043942545
27	0x3dbbeee6	0.09176426
28	0xbe8aa17a	-0.27076322
29	0xbe1f5bba	-0.15562335
30	0xbc9078ea	-0.017635781
31	0xb8dd4b09	-0.000105520776
32	0x3d419f4a	0.04727105
33	0x3c9a2722	0.018817488
34	0xbe44ae2e	-0.1920707
35	0xbd63f3e9	-0.055652533
36	0xbc970f00	-0.01843977
37	0x3d2574e3	0.040394675
38	0xbd3846c4	-0.044989362
39	0x3d858789	0.06519992
40	0x3c8d9fe3	0.017288154
41	0xbde9633a	-0.11395879
42	0xbd287bcb	-0.041133683
43	0x3d2d5570	0.042317808
44	0x3dbdd63e	0.09269379
45	0xbdbb9d5a	-0.09160872
46	0xbe7c825b	-0.24659102
47	0x3d4bf91c	0.049798116
48	0xbc1d43c7	-0.009598679
49	0xbe1b6f13	-0.1517909
50	0xbd177854	-0.03697999
51	0xbd5cbd3b	-0.0538914
52	0xbe516a83	-0.20450787
53	0x3d2047af	0.039130863
54	0xbc4b516e	-0.012409551
55	0x3d98f82a	0.074692085
56	0x3d692198	0.056916803
57	0x3d2271c9	0.039659295
58	0xbe41df19	-0.18932761
59	0x3cdeae7c	0.02718281
60	0xbd6652f7	-0.056231465
61	0xbe0998b2	-0.13437155
62	0xbca0404e	-0.019561913
63	0x3d1e5b35	0.0386612
64	0xbe1b807c	-0.15185732
65	0x3d93c447	0.07215171
66	0xbe8ccadf	-0.27498528
67	0xbd0b834a	-0.034060754
68	0x3db7cbe5	0.08974437
69	0xbe223c7f	-0.1584339
70	0xbca484af	-0.0200828
71	0x3d81fcaf	0.06347024
72	0xbc39710c	-0.011318456
73	0x3a06a82a	0.0005136753
74	0xbd091829	-0.033470307
75	0xbda82c67	-0.08211594
76	0x3cc36009	0.023849504
77	0x3d83275a	0.0640399
78	0xbc6fa3a9	-0.014626422
79	0x3da36b3a	0.07979436
80	0xbdd8347d	-0.10556886
81	0xbdc68f3a	-0.09695287
82	0xbd05b90f	-0.03264719
83	0x3c9f93a5	0.019479582
84	0xbe42dc12	-0.19029263
85	0xbd364578	-0.044499844
86	0xbe41f119	-0.18939628
87	0xbd537acc	-0.05163078
88	0xbe420de2	-0.18950608
89	0x3d18b533	0.03728218
90	0x3abf2362	0.0014582688
91	0xbd389855	-0.04506715
92	0x3db1ad4e	0.08675633
93	0xbddc362d	-0.10752521
94	0xbd4c883f	-0.049934622
95	0xbd8873e3	-0.06662729
96	0xbe65c4b2	-0.22438315
97	0xbe400bf2	-0.18754557
98	0x3b0f3aa7	0.0021855028
99	0xbd9e1c82	-0.07720281
100	0x3c5591e9	0.013035276
101	0x3ca420f6	0.020035248
102	0x3d1ccaa4	0.03827919
103	0x3dd84184	0.10559371
104	0xbd0ef638	-0.03490278
105	0xbe2d7de8	-0.1694256
106	0xbe4006e0	-0.18752623
107	0x3cf5e450	0.030016094
108	0x3c40b716	0.011762401
109	0x3dcf42cc	0.10120162
110	0xbd2af592	-0.0417381
111	0x3ce91e39	0.028456794
112	0xbd22110d	-0.039567042
113	0xbe16a53d	-0.14711471
114	0xbc450323	-0.012024674
115	0x3c8f3cad	0.017484987
116	0x3d22dd74	0.039761975
117	0xbe1b1d2b	-0.15147845
118	0xbae19e8c	-0.0017213388
119	0xbb968ee5	-0.004594671
120	0x3d8a517e	0.06753825
121	0xbccb61ff	-0.024827002
122	0xbe77067b	-0.24123566
123	0xbd0b0373	-0.033938836
124	0xbc85e32a	-0.016343672
125	0x3d87a597	0.06623381
126	0xbe062a24	-0.13102013
127	0xbe1f42d7	-0.15552841

conv1.lin.weight f4 [128, 194]
0	0xbc876dfb	-0.016531935
1	0x3ac18b2c	0.0014766208
2	0x3c75b0d8	0.014995776
3	0xbcbf9ab3	-0.023389196
4	0xbc000a3d	-0.007814941
5	0xbc99ce81	-0.018775227
6	0xbcca46b9	-0.024691926
7	0xbc5a3d3c	-0.0133202635
8	0xbc81ee2d	-0.015860641
9	0xbb9524c5	-0.0045515024
10	0xbc6f575b	-0.0146082295
11	0x3cfa2109	0.03053333
12	0xbca57074	-0.020195223
13	0xbaa78fa3	-0.0012783896
14	0x3dba0a9e	0.09084056
15	0x3b685136	0.0035448796
16	0xbc8a9132	-0.016914938
17	0xbca7e2dc	-0.020493917
18	0xbcafa0c8	-0.021438971
19	0xbca2c519	-0.019869374
20	0xbc9ab409	-0.018884676
21	0x3c028cad	0.00796811
22	0x3c54dacd	0.012991619
23	0x3c332089	0.01093305
24	0x3c3ad9bb	0.01140445
25	0xbd4ec9c9	-0.050485406
26	0xbd8b04c3	-0.067880176
27	0x3bf7468d	0.007546252
28	0x3c54b11a	0.012981677
29	0x3c2fda6a	0.010733226
30	0x3c3ab429	0.011395493
31	0xbd4e3462	-0.050342925
32	0xbd8b2c4f	-0.067955606
33	0xbb46bd91	-0.0030325393
34	0xbc4f34af	-0.012646838
35	0xbc87bab4	-0.01656852
36	0xbbe0eccd	-0.0068641664
37	0x3c393bed	0.011305791
38	0x3b8e4527	0.0043417397
39	0xbac7a1bf	-0.0015230699
40	0x3ad0b0e7	0.0015921862
41	0x3be28912	0.0069133127
42	0x3a2d9142	0.00066210714
43	0xbca050a4	-0.019569702
44	0xbd2abe3e	-0.041685335
45	0xba33af82	-0.0006854461
46	0x3b89aecf	0.004201747
47	0x3c56f2f5	0.013119449
48	0x3ae695a7	0.0017592207
49	0xbc4ac227	-0.012375391
50	0xbd10276c	-0.035193846
51	0x3d273887	0.040825393
52	0x3dd2d887	0.102952056
53	0x3e0da3ba	0.13831988
54	0x3dc7d0dd	0.097566344
55	0xbc2590d9	-0.010105335
56	0xbc53044f	-0.012879445
57	0xb9342f02	-0.0001718365
58	0x3c6438e9	0.013929584
59	0x3c718730	0.014741704
60	0x3c60ad0d	0.0137131335
61	0xbb7d5b6f	-0.0038659235
62	0xbbb59e4c	-0.005542552
63	0xba52cbed	-0.00080412516
64	0x3c6c3547	0.014416999
65	0x3c679c2a	0.0141363535
66	0x3c608df6	0.013705721
67	0xbb4d8f3b	-0.003136589
68	0xbb90574a	-0.004404937
69	0xbc3029ba	-0.010752136
70	0xbc4f7fa6	-0.012664711
71	0xbc43d72e	-0.011953158
72	0xbc4f96d7	-0.01267024
73	0x3dc2f07f	0.09518527
74	0x3dcc5bd9	0.09978456
75	0xbcf8cd4b	-0.030371329
76	0x3c8178d2	0.015804682
77	0x3c94795c	0.018124275
78	0x3c815779	0.01578878
79	0x3cc76afd	0.024343008
80	0x3cc6ba01	0.024258615
81	0xbc3bf2bb	-0.011471446
82	0x3ccc63c4	0.024949916
83	0x3cdcd835	0.026958564
84	0x3cd817af	0.02637848
85	0x3c4de9fc	0.012567993
86	0x3c17fe0c	0.009276878
87	0x3d3da8fd	0.046303738
88	0x3c574249	0.013138362
89	0xb913b946	-0.00014088032
90	0x3ca3f851	0.020015867
91	0xbce37241	-0.027764441
92	0xbcfd1916	-0.030895751
93	0xbc407df0	-0.011748776
94	0xbc543a29	-0.01295332
95	0x3c2ac698	0.010423325
96	0xbbf0be55	-0.007346908
97	0x3c957eaa	0.018248875
98	0x3c87ed34	0.0165926
99	0x3c62a1b2	0.0138324965
100	0x3bc5bbe9	0.0060343635
101	0xbcbc9535	-0.023020366
102	0x3c064ee2	0.008197518
103	0xbd0d98cd	-0.03456955
104	0xbd574b2f	-0.052561935
105	0xbbf04832	-0.007332825
106	0x3b514593	0.0031932339
107	0xbc48198c	-0.012213122
108	0xbcdfb4a6	-0.02730782
109	0xbd689f76	-0.0567927
110	0xbdb6d51b	-0.089273654
111	0xbcedf228	-0.029046133
112	0x3c1e6a0b	0.009668837
113	0x3d894373	0.06702318
114	0xbb0bfe56	-0.0021361313
115	0x3ca23c35	0.0198041
116	0xbc27af9e	-0.0102347415
117	0xbc82687a	-0.015918959
118	0xbcc3ded0	-0.023909956
119	0x3bdd84a5	0.006760197
120	0xbc3b059e	-0.011414913
121	0x3d7eb0c8	0.06218031
122	0x3d876fde	0.06613134
123	0x3bab499c	0.005227281
124	0x3bcfeb5e	0.0063451966
125	0x3b8f36d1	0.0043705483
126	0xba5cdf19	-0.0008425578
127	0xbcc20ae1	-0.023686828
128	0xbcb8799d	-0.022518927
129	0xbcf0938d	-0.029367233
130	0xbc71e618	-0.014764331
131	0xbba54faa	-0.005044897
132	0xbbfe545c	-0.0077615213
133	0x3c565b5b	0.013083304
134	0x3c6aecf4	0.014338721
135	0x3af57ed9	0.001872982
136	0xbc993e14	-0.018706359
137	0xbcb72986	-0.022358667
138	0xbb1f8e29	-0.0024346209
139	0xbce75faf	-0.028243868
140	0xbcef960a	-0.029246349
141	0xbd2d5b30	-0.04232329
142	0xbc6ec9ec	-0.014574509
143	0x3c93cbce	0.018041518
144	0xbc65c897	-0.014024875
145	0xbcfcdf69	-0.030868249
146	0xbcaf521c	-0.021401457
147	0x3dd051ab	0.10171827
148	0x3bb961a3	0.005657391
149	0xbddab130	-0.10678327
150	0x3d5ddfc6	0.054168485
151	0xbcb96873	-0.022632813
152	0xbcc07b0b	-0.023496171
153	0xbd0b889a	-0.03406582
154	0x3c7379b4	0.014860559
155	0x3cc24085	0.023712406
156	0xbc659cdb	-0.014014448
157	0x3c42c62b	0.011888067
158	0x3c8766c8	0.016528502
159	0xbd42c550	-0.047551453
160	0x3c3bc693	0.011460918
161	0x3cde9359	0.02716987
162	0xbc04c670	-0.008103952
163	0x3d9f54ff	0.077798836
164	0x3daa7ffb	0.083251916
165	0x3d19e48a	0.037571467
166	0x3c95aeec	0.018271886
167	0xbc88a5a2	-0.016680542
168	0x3b0c974b	0.0021452482
169	0xbd12a7e0	-0.03580463
170	0xbcbe2d3b	-0.023214927
171	0xbb1c7de1	-0.002387874
172	0xbc5b701a	-0.013393426
173	0xbc81ede5	-0.015860507
174	0xbc70236d	-0.014656884
175	0xbc6ab1e5	-0.01432464
176	0xbc8842cf	-0.01663342
177	0x3ab4f088	0.0013804594
178	0xbc8b1315	-0.016976872
179	0xbcafac80	-0.02144456
180	0xbca65cf7	-0.020308001
181	0xbc884594	-0.01663474
182	0x36ef12c8	7.1249415e-06
183	0xbc93f4b0	-0.018061012
184	0xbc698e61	-0.014255137
185	0xbdc60c88	-0.09670359
186	0x3ca2384a	0.019802231
187	0xbd994afe	-0.07485007
188	0xbd30b248	-0.043138772
189	0x3d17fdcb	0.03710727
190	0x3cf2791c	0.029598765
191	0xbd3e137b	-0.046405297
192	0x3d07bbc4	0.03313805
193	0xbc185ed5	-0.0092999535
194	0x3c9aa9a4	0.01887972
195	0xbd79e8b6	-0.061012946
196	0x3dd9be70	0.10632026
197	0x3c027093	0.00796141
198	0xbc4980f4	-0.012298811
199	0x386a6fc8	5.5894052e-05
200	0x3cf8f2d8	0.030389234
201	0x3a5d945e	0.00084525894
202	0xbac4102b	-0.0014958432
203	0x3c0777d4	0.008268315
204	0x3b471efb	0.0030383456
205	0x3c8bd416	0.017068904
206	0x3caea4fe	0.021318909
207	0xbc33a1ee	-0.0109639
208	0xbcdef8cb	-0.027218243
209	0xbc264c35	-0.010150005
210	0x3b70da0b	0.0036751057
211	0x3d114e70	0.035475194
212	0x3c9fe5ea	0.019518811
213	0x3d059c74	0.03261991
214	0x3cc660c1	0.024216058
215	0x3c9909b2	0.01868138
216	0xbb8c17f9	-0.0042753187
217	0xbb8f2c96	-0.0043693287
218	0x3cac8d37	0.02106343
219	0x3d2e2e44	0.04252459
220	0x3af334c4	0.0018555154
221	0x3c4676b3	0.012113261
222	0x3ab7dbae	0.0014027262
223	0xbb827ae4	-0.003981935
224	0x3c91e5aa	0.017809708
225	0x3d1c3c8b	0.038143676
226	0x3b68b007	0.003550531
227	0x3c2ed19d	0.010670093
228	0x3ba037fa	0.0048894854
229	0x3bfb83be	0.007675617
230	0x3befc4f4	0.00731718
231	0xbd066d5e	-0.032819144
232	0xbcf92e29	-0.030417519
233	0x3d4f60b9	0.05062935
234	0x3d56bb7d	0.052424897
235	0x3ba0345e	0.004889055
236	0x3d651bf0	0.055934846
237	0x3c3c20ec	0.011482459
238	0xbc8afc60	-0.016966045
239	0x3ce9c316	0.028535407
240	0x3cd0e8a8	0.025501564
241	0x3baf6314	0.005352387
242	0x3d46ce53	0.04853661
243	0x3d1c341e	0.03813564
244	0x3c459e2a	0.012061635
245	0xbdd06ce5	-0.1017702
246	0xbcef123e	-0.029183503
247	0x3d6fe32d	0.05856626
248	0xbc9ec2ab	-0.019379934
249	0xbcc013a2	-0.023446862
250	0x3be001fa	0.006836173
251	0x3d222ed8	0.039595455
252	0x3babab5a	0.0052389326
253	0x3c964005	0.018341074
254	0x3d2f22f8	0.04275796
255	0xba98764d	-0.0011631936

conv2.bias f4 [64]
0	0xbcdf73b8	-0.027276859
1	0x3ca5757a	0.020197619
2	0x3cc56fe2	0.024101201
3	0x3ec240b0	0.37939978
4	0x3c542fa5	0.0129508125
5	0xbd532a85	-0.05155422
6	0x3ce15092	0.02750424
7	0x3ebdbc28	0.37057614
8	0xbd43c566	-0.047795676
9	0xbc7e621e	-0.015526323
10	0x3eae1cbf	0.34006307
11	0x3d226761	0.03964937
12	0x3ca1e8c5	0.019764313
13	0x3cc163d4	0.023607172
14	0xbd6c25cd	-0.057653237
15	0xbd728b77	-0.059215035
16	0x3eb9af56	0.36266583
17	0x3bf9d1dd	0.0076238946
18	0x3d437829	0.047722016
19	0xbd423930	-0.04741782
20	0xbd4b9d92	-0.049710818
21	0x3cf42c18	0.029806182
22	0xbd749d4b	-0.05972032
23	0x3d00fa28	0.031488568
24	0x3cf047d1	0.02933112
25	0x3baef4bb	0.0053392327
26	0xbd0fba0b	-0.035089534
27	0xbd7808cb	-0.06055526
28	0xbd0eee07	-0.03489497
29	0x3cf00a65	0.029301831
30	0x3c83152b	0.016001305
31	0x3cd720eb	0.026260814
32	0xbd2776e7	-0.04088488
33	0xbd65b1d8	-0.05607781
34	0x3cb62a35	0.022236923
35	0xbd23bc9e	-0.0399748
36	0x3cb2623d	0.02177536
37	0xbd775ffd	-0.060394276
38	0x3cd175cf	0.02556887
39	0xbd5f99b9	-0.05458996
40	0x3cd6d46c	0.026224338
41	0x3ccb0eac	0.02478727
42	0xbd648116	-0.05578717
43	0xbd5498cc	-0.05190353
44	0xbcac1146	-0.02100433
45	0x3ca4dd5f	0.02012509
46	0xbc625fcd	-0.013816786
47	0xbd4f5760	-0.050620437
48	0xbd199915	-0.037499506
49	0x3d37d7f0	0.04488367
50	0x3cfb7cc7	0.030699147
51	0x3d03e1d2	0.03219778
52	0x3cdf7b96	0.02728061
53	0xbd576249	-0.052583966
54	0xbd0f1bf2	-0.03493876
55	0x3cb17a95	0.021664897
56	0xbd09eb0c	-0.033671424
57	0x3d13296c	0.035928175
58	0x3cab3452	0.020898972
59	0xbcd75df5	-0.02628992
60	0x3ca9a92e	0.020710554
61	0x3d29bd0f	0.041440066
62	0x3d0961f2	0.033540674
63	0x3cd5d03c	0.02610027

conv2.lin.weight f4 [64, 128]
0	0x3bc36485	0.0059629106
1	0xba215891	-0.000615486
2	0x3ae090d1	0.0017133002
3	0xb9e6eaf5	-0.00044044075
4	0xbba216cd	-0.0049465657
5	0x3a30798e	0.000673198
6	0xb92c4f1e	-0.00016432672
7	0x398d902a	0.00027001026
8	0x3c3c1d14	0.011481542
9	0xbb72e3b8	-0.0037062
10	0xbb121bf5	-0.0022294496
11	0x3c62ff39	0.013854795
12	0x3b30855f	0.0026934964
13	0xbacbcbb6	-0.0015548381
14	0x38f6a9ae	0.000117617994
15	0xbc3c7be5	-0.011504148
16	0xbba08a75	-0.004899318
17	0xbaeac0bd	-0.0017910224
18	0x3bcf8e67	0.0063341144
19	0x3be6e890	0.0070467666
20	0xb90bf9a8	-0.00013349077
21	0x3b13640f	0.002249006
22	0xbb8d38af	-0.0043097357
23	0x3c476687	0.0121704405
24	0xbbd282d8	-0.006424289
25	0x378399d0	1.5688041e-05
26	0x3c2f51ee	0.010700686
27	0x3ab81876	0.0014045376
28	0xb9099168	-0.00013119506
29	0xba814579	-0.0009862623
30	0xbc89a2f1	-0.01680133
31	0x39e9b458	0.0004457559
32	0x3c1124f6	0.00885891
33	0xba23cd08	-0.00062485086
34	0xba6f3538	-0.00091250567
35	0xbb4576ae	-0.0030130553
36	0xbb4bcef9	-0.0031098707
37	0xba7db3fa	-0.00096780027
38	0xb7c91a63	-2.3973354e-05
39	0x3bbef8bc	0.0058279913
40	0x388053cb	6.119123e-05
41	0x3b813004	0.0039424915
42	0x3a89cdca	0.00105136
43	0xbbd9dd57	-0.0066487
44	0x3be799fc	0.007067917
45	0x3b23c3c2	0.0024988507
46	0xba8d8f41	-0.0010800139
47	0x389f92a5	7.6090255e-05
48	0xb9c11a9c	-0.00036831654
49	0x39993e08	0.0002922865
50	0x3c3e55d3	0.011617142
51	0x3c2010d4	0.009769637
52	0xba36c2bf	-0.00069717685
53	0xbb857333	-0.0040725707
54	0x3b510d70	0.0031898879
55	0xba08fdec	-0.00052258256
56	0xbaa2f466	-0.0012432456
57	0x3b654a4d	0.0034986914
58	0x3b826f91	0.003980585
59	0x3c11bc4b	0.00889499
60	0xba39e54c	-0.0007091358
61	0xba83a742	-0.0010044354
62	0x3abe6188	0.0014524916
63	0x3c33dc9e	0.010977892
64	0xb881d0cc	-6.190091e-05
65	0x3a0f215f	0.000545999
66	0xbb66a51a	-0.0035193623
67	0x39ca845f	0.00038627067
68	0xbc140ebd	-0.009036717
69	0xb8852dcd	-6.350465e-05
70	0x3b7909f1	0.003800031
71	0x392146eb	0.00015380575
72	0xbae621da	-0.0017557696
73	0xb9241a46	-0.00015650046
74	0xba95deda	-0.0011434213
75	0xba87dd9f	-0.0010365731
76	0xba098eb2	-0.00052473985
77	0xb7241b39	-9.7815e-06
78	0x3a0470a5	0.0005052186
79	0xbadd794f	-0.0016897115
80	0xbbc31173	-0.005953008
81	0xbc98c3c0	-0.018648028
82	0x3437f21d	1.7131283e-07
83	0xbae67ccf	-0.0017584803
84	0x3c90d4a7	0.017679526
85	0x3a0a9356	0.0005286237
86	0xbc6c2090	-0.01441206
87	0xbb995a21	-0.0046799337
88	0x39b084f2	0.00033668388
89	0xb6a63895	-4.9537725e-06
90	0x3c51deec	0.012809496
91	0x38afb391	8.378097e-05
92	0x3b9a7c91	0.0047145565
93	0xbb155750	-0.0022787638
94	0xbbbb8d12	-0.005723604
95	0xba12b0db	-0.00055958115
96	0x39cd3908	0.0003914314
97	0xbbd190a6	-0.0063954173
98	0xba4ad685	-0.00077376544
99	0x3ba4d805	0.0050306343
100	0x3b3e6229	0.0029050207
101	0x3c297f39	0.010345274
102	0xbbd4559d	-0.0064799325
103	0xbb006f01	-0.0019597413
104	0x39136e91	0.00014060202
105	0x3c075d78	0.008262031
106	0xba9fbb97	-0.0012186643
107	0x3ab149bb	0.0013526002
108	0xbb8c02cd	-0.004272795
109	0x39817b09	0.00024696466
110	0x39ef7c01	0.00045678022
111	0x3a2e16fd	0.0006640999
112	0x3bc0b0eb	0.0058804653
113	0xbaf01e64	-0.0018319604
114	0xbb3f97f6	-0.0029234863
115	0xba0e314c	-0.0005424216
116	0x3b3d6383	0.0028898425
117	0x3a044d87	0.0005046953
118	0xb8ffb700	-0.00012193434
119	0x39fbfcca	0.00048062793
120	0x3c18d94a	0.0093291495
121	0xbb046916	-0.0020204238
122	0x376a1fac	1.3954861e-05
123	0x38a3b220	7.805624e-05
124	0x3a6221ff	0.00086262816
125	0x3a127711	0.00055872
126	0xbba4abd4	-0.0050253663
127	0x3b85fd81	0.004089058
128	0xbd84d95f	-0.06486773
129	0x3d8a4793	0.06751933
130	0x3d489784	0.04897262
131	0xbd90569f	-0.07047772
132	0x3c0dccb6	0.008654764
133	0x3d8c58bc	0.06852862
134	0x3db5bb48	0.08873612
135	0xbd7bf78f	-0.061515387
136	0x3c93fb90	0.01806429
137	0x3a78f865	0.0009497463
138	0x3d5a74ef	0.053334173
139	0x3ceca417	0.028886838
140	0x3cea3046	0.028587472
141	0x3d8e4ea2	0.06948592
142	0x3c508c53	0.012728768
143	0x3dccc7b0	0.09999025
144	0x3df1a543	0.11799099
145	0x3d9231f6	0.071384355
146	0xbd36ff9d	-0.044677366
147	0x3d901d4c	0.07036838
148	0x3d89bcb1	0.06725443
149	0x3d9612ae	0.073277816
150	0x3d986d05	0.07442669
151	0x3da326f5	0.07966415
152	0x3d6f3973	0.058404397
153	0x3db0b99c	0.08629152
154	0xbce0e6ac	-0.027453743
155	0x3d9872e2	0.07443787
156	0xbdc8a626	-0.09797315
157	0x3d778f7e	0.06043958
158	0x3ded942f	0.116005294
159	0x3c3ca9c0	0.011515081
160	0x3dd19b4c	0.10234699
161	0x3d72310a	0.0591288
162	0x3d9a9c29	0.075493164
163	0x3c2c4bbc	0.010516103
164	0xbcb085ec	-0.021548234
165	0xba968b13	-0.0011485539
166	0x3cf00d48	0.029303208
167	0x3d45a86d	0.048256326
168	0x3d039ef2	0.032134004
169	0xbd55e392	-0.05221898
170	0x3c65e32d	0.014031214
171	0x3d8c72a5	0.06857804
172	0x3cf68e4d	0.030097151
173	0x3ce7cd3c	0.028296106
174	0xbdfdcf2e	-0.12393032
175	0x3d32975e	0.043601386
176	0x3db91497	0.0903713
177	0xbd7738f0	-0.060357034
178	0xbd9abc7b	-0.07555481
179	0x3da5dbf7	0.080985956
180	0x3cad0d5b	0.021124532
181	0x3dd0aa5c	0.101887435
182	0x3cba554a	0.022745747
183	0x3cfba5c5	0.030718694
184	0x3d96ef86	0.07369904
185	0xbcb9b037	-0.022667034
186	0x3da168a2	0.07881285
187	0x3dab2832	0.08357276
188	0x3db07b92	0.08617319
189	0x3db2880f	0.08717357
190	0x3d2d3abc	0.04229234
191	0xbd8ed6f8	-0.06974596
192	0xbd2f9494	-0.042866305
193	0x3ccd95ad	0.025095785
194	0x3d8831fb	0.06650158
195	0x3cd3489a	0.025791455
196	0x3d3f0324	0.046633855
197	0xbd2dbbfc	-0.042415604
198	0x3d54877c	0.05188702
199	0x3d72b6b3	0.059256267
200	0x3dbbc266	0.09167938
201	0x3cd1a0ba	0.025589336
202	0x3d420bcf	0.047374543
203	0x3d27f8fa	0.041008927
204	0x3dc0c909	0.094133444
205	0x3d9cd988	0.07658678
206	0x3d992429	0.074776
207	0x3d54d172	0.051957555
208	0x3d1056a5	0.03523888
209	0x3d42a031	0.04751605
210	0x3c96a11f	0.018387375
211	0x3d82eee4	0.06393221
212	0x3d155f77	0.036467995
213	0x3d809732	0.06278838
214	0xbd4a0181	-0.04931784
215	0x3d1ca7a7	0.038245823
216	0x3d3ecc51	0.04658157
217	0x3db61df9	0.088924356
218	0xbd85566d	-0.06510625
219	0x3d74dd7d	0.05978154
220	0x3d8995b0	0.06718004
221	0x3d7d72c5	0.06187703
222	0x3cb62520	0.0222345
223	0x3cdef2ab	0.027215322
224	0x3dd057d9	0.101730056
225	0xbd0216c8	-0.031760007
226	0x3d7fb169	0.06242505
227	0xbdcf162c	-0.10111651
228	0x3d79539d	0.060870755
229	0xbcaf0c4d	-0.02136817
230	0x3da8be68	0.08239442
231	0x3d3a8437	0.045536246
232	0x3ce06fb4	0.027397014
233	0x3dce5f1c	0.100767344
234	0x3d1f9089	0.0389562
235	0x3d0cdecb	0.03439216
236	0x3deaf11e	0.11471771
237	0x3da060f8	0.07830995
238	0xbbbb94a5	-0.005724507
239	0x3cdcbd2a	0.02694567
240	0x3c98ebd6	0.018667143
241	0xbdea5b95	-0.11443249
242	0xbd3e7422	-0.04649747
243	0x3d96149f	0.07328152
244	0x3d5d2240	0.05398774
245	0x3d7dc183	0.061952125
246	0x3d8057f2	0.06266774
247	0xbcac5f57	-0.021041555
248	0x3c862717	0.016376061
249	0x3cf52bea	0.029928166
250	0xbd2c20b2	-0.04202337
251	0xbd0bf04c	-0.03416471
252	0x3d8e7f84	0.069579154
253	0x3dbc27ed	0.09187303
254	0xbd366dc3	-0.04453827
255	0x3daf34dd	0.08555005

classifier.weight f4 [2, 64]
0	0x3ddfecb1	0.10933817
1	0x3e113d43	0.14183526
2	0x3dda0fc9	0.10647542
3	0xbef22456	-0.47293347
4	0x3eaab365	0.33339992
5	0xbcf42f12	-0.029807601
6	0x3e1901fb	0.14942162
7	0xbee0c0ba	-0.4389704
8	0x3c73aa32	0.014872121
9	0x3f1f8faf	0.6232862
10	0xbf0e9559	-0.55696636
11	0x3dc17f92	0.0944816
12	0x3d87ba56	0.06627338
13	0x3e84027d	0.25783148
14	0xbbd96d72	-0.0066353614
15	0x3da3b3a6	0.079932496
16	0xbee77a6d	-0.4521059
17	0x3e3f0b2a	0.18656603
18	0x3e4fac35	0.20280536
19	0xbd13aee0	-0.036055446
20	0xbd06db28	-0.032923847
21	0x3e5fb2ad	0.21845503
22	0xbb3456eb	-0.0027517627
23	0x3e427a30	0.18991923
24	0x3d8203d4	0.063483864
25	0x3d671844	0.056419626
26	0x3be65001	0.00702858
27	0x3d72a5c2	0.05924011
28	0xbbb7f7bb	-0.0056142486
29	0x3de86cc9	0.11348874
30	0x3e297c86	0.16551408
31	0x3e636f50	0.22210431
32	0x3d88339f	0.06650471
33	0x3c2e8720	0.0106523335
34	0x3d3fcf2b	0.04682843
35	0x3c445f90	0.0119856745
36	0x3e8018f7	0.25019047
37	0xbc0607a4	-0.008180533
38	0x3e4962ab	0.19666545
39	0xbc9bc685	-0.01901556
40	0x3e33c79d	0.17556615
41	0x3d9adf38	0.07562107
42	0x3ce7d4d0	0.02829972
43	0x3d3b4237	0.045717444
44	0x3d265626	0.0406095
45	0x3e6342ab	0.221934
46	0x3f17c906	0.5929111
47	0xbc1bacf8	-0.009501688
48	0xbcde2026	-0.027114939
49	0x3e1b9d35	0.15196688
50	0x3e83796c	0.25678575
51	0x3e208e99	0.15679397
52	0x3e370e6d	0.17876597
53	0x3deaf158	0.11471814
54	0x3d2c87e1	0.04212177
55	0x3ea3ac0d	0.31967202
56	0x3daf4b1c	0.08559248
57	0x3e481d82	0.19542506
58	0x3e079539	0.13240518
59	0xbd4d78fc	-0.050164208
60	0x3e107ce2	0.14110139
61	0x3d129246	0.03578403
62	0x3d6dec26	0.058086537
63	0x3dce80d6	0.10083167
64	0x3c94100c	0.018074058
65	0xbd7727db	-0.060340744
66	0xbe0edb44	-0.1395083
67	0x3ee8a55d	0.45438662
68	0xbe343f14	-0.17602187
69	0xbb498151	-0.0030747245
70	0xbe8417a2	-0.2579928
71	0x3f00d4b7	0.5032458
72	0xbb2fa311	-0.0026800076
73	0xbf288181	-0.6582261
74	0x3efa4bb7	0.4888589
75	0xbdad582b	-0.08464082
76	0xbe7f2516	-0.24916491
77	0xbd43108d	-0.047623206
78	0xbc546a5d	-0.012964812
79	0x3c04ecf0	0.008113131
80	0x3f0089cd	0.5021027
81	0xbdf3ad28	-0.11898261
82	0xbda2332f	-0.07919919
83	0x3cd57f78	0.026061758
84	0xbca1bfbc	-0.019744746
85	0xbd484f16	-0.048903547
86	0xbce954bf	-0.028482793
87	0xbe45c60d	-0.19313832
88	0xbe2ba997	-0.16763912
89	0xbdb5ee95	-0.088833965
90	0xbda8d832	-0.08244361
91	0x3d468f34	0.048476413
92	0xbdeaf509	-0.11472518
93	0xbe8bb072	-0.27283055
94	0xbd9efd8c	-0.07763204
95	0xbe01b0cf	-0.12665103
96	0x3cf98d65	0.03046293
97	0x3d3c82fa	0.046023346
98	0xbe55c8f5	-0.2087744
99	0xbd6906d2	-0.05689127
100	0xbe0602aa	-0.13086954
101	0x3c384950	0.011247948
102	0xbe079523	-0.13240485
103	0xbdf26f91	-0.11837686
104	0xbe290a40	-0.16507816
105	0xbdeb02e6	-0.11475162
106	0xbab6bc13	-0.0013941549
107	0xbc5c02a9	-0.013428369
108	0xbd1967bc	-0.037452444
109	0xbea60670	-0.32426786
110	0xbf26c90c	-0.65150523
111	0xbbfdb771	-0.007742815
112	0xbcdc7620	-0.026911795
113	0xbd667c2d	-0.056270767
114	0xbdf654ad	-0.120278694
115	0xbe287780	-0.16451836
116	0xbd2a48f6	-0.041573487
117	0x3d04b315	0.03239735
118	0x3c982579	0.018572556
119	0xbe149ba0	-0.14512491
120	0x3d354789	0.044257674
121	0xbaea8334	-0.0017891885
122	0x3bce4e73	0.006295973
123	0xbe22d27d	-0.15900607
124	0xbe1a0149	-0.15039553
125	0xbe3d2409	-0.18470778
126	0xbe0ac1af	-0.13550447
127	0xbe302fa2	-0.1720567

classifier.bias f4 [2]
0	0xbe08884a	-0.1333324
1	0x3e703071	0.23455979
