models/gcn_engineered_focal_gcn_model.pt (torch, 136238 bytes, 6 tensors)

conv1.bias f4 [128]
00000000: 3417 5a3c 9cee 933b 8906 253d a2a2 b7bd
00000010: 66bc 6f3d 83a7 c0bd 4557 10bd a630 04bc
00000020: ec93 4fbd 693c c839 a744 a03d 3f46 c4bd
00000030: b3c8 5abd 98c6 0ebd 7d72 293d 50c1 17bb
00000040: 0ec7 683d 32e9 9b3c c2dc 353d 24b4 28bd
00000050: 6a63 4fbd a741 6a3d 94c7 36bd 5c48 02bd
00000060: f4bd 54bd cf7a 0dbd 55e1 0ebd fbb9 33bd
00000070: 9a1e 8e3d 633f 86bd 8c2b b0bd 1be9 1abd
00000080: 1323 95bb 0a3d b1bd f889 653d f337 c7bd
00000090: 1dcd 4bbd ad35 edbc 1458 65bd c472 013d
000000a0: c52a 71bd 1cc7 3bbd 4073 28bd ba12 78bd
000000b0: 4f1a e33c 64bb abbd e608 403d 15f3 b3bd
000000c0: db65 6f3c 9b64 cebc 854d 84bd 7608 65bd
000000d0: 7f0b 1c3d 01a3 543c 8b28 75bd 9cdf 57bb
000000e0: 6857 f0bc 0240 9c3c 5e01 703d 0cbd babd
000000f0: 6f49 fabd 7dfc dbbc 9b59 ea3c 6ea6 7bbd
00000100: 2119 35bd 879d f3bd 43ab 9cbd 406d a13d
00000110: 0b85 0b3c b7af 0a3d 1189 33bd fea5 2f3d
00000120: 7061 173d 3f80 aebd a6ea 81bc 0c1f 31bd
00000130: f025 1e3d 8395 9cbc c3c9 55bd 70c8 fa3c
00000140: 207f 94bc fb3b de3b 1d4c ac3c cf9c de3b
00000150: 6dbd b63d 11b5 393d 1746 a5bd 0e52 6abd
00000160: 8193 b2bc 6ae7 7e3d 38a8 88bd ac21 d73c
00000170: 08b6 0bbd 0a49 0abd 225d b7bd eab0 9dbd
00000180: d8fa 4f3d 9f54 463d c7ad 78bd 94ad 903d
00000190: b78c 1fbc ea06 3bbc e418 a7bc 453e 2cbd
000001a0: cddf 0b3a f377 e7bc cc3f 313d 1719 7a3d
000001b0: 66bf b43d 7ee6 4cbc 6d2e 73bd 723f f5bd
000001c0: a0a0 893d 37f8 6139 7d62 8bbd 7591 10bd
000001d0: 6eb9 2d3c 4fb5 423d 1c98 723c bff2 89bd
000001e0: 7bb6 88bd 9023 ce3d 45cc 98bd 5bf4 3ebc
000001f0: 9b92 fa3c 7f4b 05bb f8d2 1f3d 94d4 203d
0.013311196 0.0045145284 0.040289436 -0.089665666 0.05852928 -0.0940695 -0.035239477 -0.008068239
-0.05067818 0.00038191982 0.078255944 -0.09583711 -0.053414058 -0.034857363 0.04136895 -0.0023155995
0.05683046 0.019032095 0.044399984 -0.04118742 -0.050631918 0.057191517 -0.044623926 -0.03180729
-0.051938966 -0.034540948 -0.034882862 -0.043878537 0.069394305 -0.06555059 -0.08602056 -0.037819963
-0.0045513003 -0.086542204 0.05603978 -0.09727468 -0.04975616 -0.028956259 -0.0559922 0.03160359
-0.05887868 -0.045844182 -0.041125536 -0.060564734 0.027722506 -0.08385351 0.046883486 -0.087865986
0.014611687 -0.025194457 -0.06460098 -0.055916272 0.0380969 0.012978316 -0.059853118 -0.0032939678
-0.029338554 0.01907349 0.058595054 -0.09118089 -0.122210376 -0.026853794 0.02860718 -0.061438017
-0.044213418 -0.1189528 -0.07649853 0.07882166 0.008515607 0.03385898 -0.04383189 0.04288291
0.036958158 -0.08520555 -0.01585896 -0.0432425 0.0386104 -0.019114261 -0.052194368 0.030613154
-0.018127024 0.0067820526 0.021032387 0.0067935954 0.08922849 0.045338694 -0.08070009 -0.05720716
-0.021798851 0.062232412 -0.0667271 0.026261173 -0.034109145 -0.03376106 -0.089533105 -0.07699759
0.050776333 0.048420545 -0.060712602 0.070643574 -0.009738139 -0.011415223 -0.020397611 -0.042051572
0.0005335778 -0.028255438 0.043273732 0.061059084 0.08825569 -0.0125061255 -0.059370447 -0.11974992
0.0672009 0.0002155014 -0.068058945 -0.03529497 0.010603292 0.04753619 0.0148067735 -0.06735753
-0.066754304 0.10065377 -0.07460836 -0.011654939 0.030587485 -0.0020339189 0.039019555 0.03926523

conv1.lin.weight f4 [128, 194]
00000000: dc02 98bb eb5b bd3c 878e 28bd 19e4 7e3b
00000010: 410e 7a3b 6737 3d3b aa6e dabc 7631 cebb
00000020: b32e 09bb dbe3 5e3c 4eb3 acbb 4b6d 513d
00000030: 1d7e 0e3d 19bd da3a 5bcf 383d 0f28 833c
00000040: 78f6 61bb 6045 04bc 1e80 33bb 6161 c4bc
00000050: 31e4 c4bc 96d8 843b 8f40 b73a b3cb 853a
00000060: 0392 d63a 0803 0cbb 99df 31bc 274d 833b
00000070: c076 c93a 7a61 8b3a c10a c73a 6c75 daba
00000080: 62c5 2bbc f47b f43b 0dfe dd3b 0a36 74bb
00000090: 3057 f63b 0cf4 cabb ab9f 2ebc 2e04 d4bb
000000a0: f161 25bb a57a d4ba 1722 bfbb 3b93 be3b
000000b0: 41f8 d73a eead 51b9 fc63 93b9 64b5 83ba
000000c0: 3779 dcbb 07b3 143b 15e0 70bb 1742 f93c
000000d0: cf3b 093d 19b1 ad3c 46ff 2b3d c224 9cbc
000000e0: a94e 13bc 5b5e fcbb 1e04 86bb 19cb 84bb
000000f0: a1b8 bfbb 3c8c 65b9 1ce3 6b3a 2459 f9bb
00000100: 1f0d 86bb 8c38 87bb 0357 bfbb 30cf 0b3b
00000110: 2301 683b 1829 acbc 2773 03bb 415a dcbb
00000120: d171 b4bb e138 e23c 1d40 e23c 9c77 b5ba
00000130: d296 31bc 78f5 33bc 16df 37bc 3ce2 febb
00000140: eada 2ebc a04d 64bc a376 03bc 7a7b 03bc
00000150: f4f4 25bc a09b 343c d727 063c 7574 cabb
00000160: ab72 223c 936b 6d3c 68bc d23b b83f b8bb
00000170: 8d86 02bc 40f1 13bc a5be 92bc 0865 15bc
00000180: 2597 37bc 8fab 183d c0fc 113d a41d eabb
00000190: 7d53 8fbc 35e9 d3bb 5b3f 7fbc 0024 163c
000001a0: e588 a93b 2241 18bb 5efd f53b 56aa cb3c
000001b0: bc08 643c d1cd ae3c 6b12 183c 9e1c e9bb
000001c0: e18e afbb 5bd3 1e3d 2026 3a39 1de3 983b
000001d0: 7a9f 75bb fed7 303c 67e0 2c3c 78bf ac3c
000001e0: 0d23 923c 1c7b f73b 1f53 423c 810c 383a
000001f0: 315b 0a3c 8e90 96ba 107e 433c 496b 303d
00000200: 9e6f 1a3d 3f1d 92bb 658f 7a3c a30d e4ba
00000210: f89d aabb 7344 87bc c15b 5fbc 223b a0bc
00000220: 8e04 98bc 480c 23ba 43c5 a1bc 0b8c 983c
00000230: 71de a23c 31f5 6bbc ae11 333c 0eb8 d83c
00000240: ee8c 833c dff2 99bc 97de 8abc 917e e53c
00000250: ae50 b1bb 969d 37bd fee0 883c de89 ebbc
00000260: 12ae efbc fa7a c4bc dd2b 833c 96e1 4f3c
00000270: 0d7f 013c 9508 6abc bcbf 3abc a351 cabc
00000280: 6ee4 3e3b d96c 003c ea26 acbb 7409 d43c
00000290: 279a f03c 4700 f83b 50e5 5ebb 4d0e 8ebb
000002a0: 930f c03c 4834 89ba 1843 573b 93cc 633b
000002b0: b282 c3bb 38cc f7ba 30c7 acbb 48c3 bfbb
000002c0: 0dd1 98bb dcc6 833c a3d7 54bb 9b2f 25bb
000002d0: 22b8 fbba 49a0 8abb 5d3c 503b af39 223b
000002e0: 1e68 00bc 84b5 c8bc 4d19 34bc 4269 d33c
000002f0: e75c 413c ea37 c63b 9d5d 0d3c a9e3 e7bb
00000300: 3fa3 3b3c cc38 41b9 7a27 86bb fa18 15bd
00000310: ba63 ab3d 1a8b b13a 0f1b 60bc ef12 86bc
00000320: 33ee 923d 35d5 d8bb a1ff d3bb 8d33 523b
00000330: 4eb0 58bc d0f6 913b ac23 a33b bf85 61bc
00000340: 3ba4 44bd 0ce9 1d3b f024 6abb a7a0 0a3a
00000350: 1542 9d3b 16b4 803c 4575 14bc 15ca c53b
00000360: a930 873a 84e5 0bbc b5b7 353b e23f 463c
00000370: 6f92 88ba 4080 bd3b 1d33 06ba 270a 24bc
00000380: a971 213b 9fba 3a3c 87c0 72ba 22f4 5dbb
00000390: d6a4 e5bb c81e edbb 755a abbb 41ea 90bc
000003a0: 3386 8fbc 07d1 1f3d c7d4 533d 8b03 533c
000003b0: 5a39 743d c290 7fba 8514 a3ba a8c1 673d
000003c0: 517d d83c 5208 763b ec56 223d 665c 9f3c
000003d0: a960 9d3c 21d1 b9bc 8e30 a03c cce9 7a3c
000003e0: ec84 a43b a3cd 1dbc 8fd7 563c 0e53 0f3c
000003f0: 3a56 36bc 660d 0dbb 64ce 913a 6250 d4bb
-0.0046390127 0.023115119 -0.04115155 0.003889328 0.0038155469 0.0028872134 -0.026664097 -0.0062925173
-0.0020932376 0.01360413 -0.005270398 0.05112962 0.03478824 0.0016688436 0.045119625 0.016010312
-0.0034479182 -0.008073181 -0.0027389596 -0.023972215 -0.024034591 0.0040541394 0.0013981032 0.0010207802
0.0016370419 -0.0021364111 -0.0108565325 0.004007 0.0015370473 0.0010633909 0.00151857 -0.0016667075
-0.010484071 0.0074610654 0.00677467 -0.0037263655 0.007517718 -0.0061936434 -0.010658185 -0.006470225
-0.002523538 -0.0016210867 -0.0058329212 0.005815891 0.0016477184 -0.00019996587 -0.0002811252 -0.0010048565
-0.006728317 0.0022689716 -0.0036754657 0.030427022 0.033504304 0.02120261 0.041991495 -0.019060496
-0.008990922 -0.0077016777 -0.0040898463 -0.0040525314 -0.005850867 -0.00021891383 0.00089983805 -0.0076095033
-0.0040909196 -0.004126614 -0.00583923 0.002133321 0.0035401068 -0.021015689 -0.002005765 -0.0067246263
-0.005506732 0.027615013 0.027618462 -0.001384485 -0.010839181 -0.010983817 -0.011222621 -0.007778434
-0.01067231 -0.013934523 -0.008023891 -0.008025045 -0.010129202 0.011023432 0.0081882095 -0.0061784335
0.009915034 0.01449098 0.006431151 -0.0056228302 -0.00796665 -0.009029686 -0.017913172 -0.009118326
-0.011205469 0.037272986 0.03564143 -0.0071446467 -0.017495865 -0.0064670094 -0.01557907 0.0091638565
0.00517379 -0.0023232182 0.0075070104 0.024861496 0.013918098 0.021338375 0.009281735 -0.007114007
-0.0053576087 0.038775783 0.00017752545 0.004665746 -0.0037479089 0.010793684 0.010551549 0.021087393
0.01783898 0.0075525176 0.011860638 0.0007020906 0.008444593 -0.0011487172 0.011931911 0.043071065
0.037704103 -0.004459053 0.015292977 -0.0017399084 -0.0052068196 -0.016512131 -0.013632716 -0.019559447
-0.01855686 -0.00062197866 -0.019747382 0.018621465 0.019881459 -0.01440172 0.010929508 0.026454952
0.016058411 -0.018792568 -0.016951842 0.028014453 -0.005411229 -0.04482802 0.016708847 -0.028752264
-0.029257808 -0.023984421 0.016012127 0.012688061 0.007903826 -0.014284273 -0.011398252 -0.02469713
0.0029127854 0.007838451 -0.0052536624 0.025883414 0.02937038 0.0075683924 -0.0034011193 -0.004335201
0.023444926 -0.0010467852 0.0032846387 0.0034759387 -0.005966508 -0.0018905466 -0.0052727684 -0.0058521368
-0.0046635927 0.016086034 -0.0032477162 -0.0025205377 -0.0019204656 -0.0042305333 0.003177426 0.002475362
-0.0078373235 -0.024500616 -0.01099236 0.025807027 0.011801935 0.006049146 0.008628276 -0.0070766998
0.011452495 -0.00018427073 -0.0040940614 -0.036400773 0.08368631 0.0013545484 -0.013678326 -0.01636645
0.07174339 -0.006617213 -0.0064696823 0.0032074184 -0.013225628 0.004454471 0.0049786177 -0.013764798
-0.048008185 0.0024095206 -0.0035727583 0.00052882213 0.0047991374 0.015710872 -0.009061162 0.006036053
0.0010314184 -0.0085386075 0.0027727906 0.012100192 -0.0010419617 0.005783111 -0.0005119311 -0.010012186
0.0024634397 0.011397033 -0.0009260256 -0.0033867438 -0.0070081754 -0.0072363354 -0.005229289 -0.017689826
-0.017520046 0.039017703 0.051716592 0.012879263 0.059625007 -0.00097490486 -0.0012442028 0.05658117
0.026426943 0.003754158 0.039633676 0.019453239 0.01921113 -0.022682728 0.019554403 0.015314531
0.0050207283 -0.009631547 0.013112917 0.008747829 -0.011128956 -0.0021522879 0.0011124131 -0.006479309

conv2.bias f4 [64]
00000000: aa74 9f3c b4a5 1abd 6ce4 223d 17dd 32bd
00000010: e2b3 383d 89d8 413d 3e92 ec3a f225 a6bc
00000020: 7c14 1abd 6ae3 1abd 7ff2 123d 3fa3 3fbd
00000030: b22f ac3d 62fa 52bd 53ed 28bc 2b81 08bd
00000040: b88a 42bd 9291 cc3c 37b1 86bc ac21 363d
00000050: 8435 58bd 78ee 213d bba5 ffbc 279e 45bd
00000060: 78e6 893c 0c26 24bd ee34 303c b4fc e33c
00000070: 6ab5 fbbc 0c9b 033d 233e dd3c ffe1 e93c
00000080: 1651 bcbc d5e9 efbc 870f 15bd c4ce 213d
00000090: 3a08 1d3d de61 bbbc 47ab 093d e7d8 923c
000000a0: aa49 033d 18a6 d93c 1934 8e3e da05 61bd
000000b0: 8feb c13c da05 773c 0949 3ebd ebd1 753c
000000c0: 7fc7 45bd fa1d bfbc 584a 873c da45 993d
000000d0: c43c 4bbd 93f4 b13c 32b9 f0bc faed 0d3d
000000e0: 49b1 3b3d 183c 0abd 8d04 223c 24d6 04bd
000000f0: 4a4d 36bd 61c4 5cbd 315b c23c db01 013d
0.01946481 -0.037755683 0.03976862 -0.04366788 0.045093425 0.047325645 0.0018048955 -0.020281766
-0.03761719 -0.037814535 0.035875794 -0.046786543 0.08407535 -0.051508315 -0.010310489 -0.03332631
-0.047495574 0.024971757 -0.016441924 0.044465706 -0.05278541 0.039534062 -0.031206956 -0.04824653
0.016833529 -0.040075347 0.010754807 0.02783046 -0.030726153 0.032130286 0.027007168 0.028550146
-0.022987884 -0.029286304 -0.03639176 0.039503828 0.038337924 -0.022873815 0.03361061 0.017925693
0.032052673 0.026568457 0.27774122 -0.05493722 0.023671893 0.015077079 -0.04645637 0.015003662
-0.048285957 -0.023329724 0.016514942 0.07484026 -0.049618497 0.021723067 -0.029385183 0.03465078
0.04582337 -0.033748716 0.00988878 -0.032430783 -0.044507302 -0.05389822 0.023725124 0.03149591

conv2.lin.weight f4 [64, 128]
00000000: 6310 a6bd bbe8 ec3d abd4 a03d 1e6c 38bd
00000010: ef3b 4e3d e2de ec3d fd41 0ebd ef52 843d
00000020: a1c5 c13d 3835 123d a9b9 c13d f563 07bd
00000030: 3b05 043e 6143 a4bc 2f21 f63c b75f dbbc
00000040: d034 063d a291 193d 2ac6 ae3d 4135 b33d
00000050: db52 8cbd 48e8 c53d 8914 6b3b 967e 5ebc
00000060: 7481 2ebc 9e6f b2bc 73ee e1bd ce3e be3d
00000070: e5f4 1b3e f60b 743d b7b9 af3c 9980 6e3d
00000080: 2005 0f3d 18be a1bd 0a39 933d fb8d a8bd
00000090: 1510 11bd 8407 c53c b2c2 ccbd e47d 803d
000000a0: 0745 f3bb 7994 e23d b1d1 b53d 945a 53bd
000000b0: fa72 10bb ec12 b3bd e208 413d fb3c 4f3d
000000c0: eb03 5b3d 1aaa b53d faba 39bd 745b 8bbc
000000d0: ff03 debc 98c2 163e 28ec bf3d 1cc1 393c
000000e0: bb88 d2bc a145 fb3d 3615 963d 0982 57bc
000000f0: 7d20 e83d 6c88 603d 1344 23ba 4ecb b83d
00000100: dae5 753d 520f c5bc e950 6fbd d2b4 913a
00000110: b46f 1a3d dfd5 023e 1aa7 69bd 2b08 7a3c
00000120: fe65 2a3b d6d7 f63d 7210 7f3d d596 1d3e
00000130: 4983 ce3d 2d6d a03c cb88 cdbb 7582 9ebc
00000140: 2643 03bb 91d1 3c3d f812 4b3d acf5 713d
00000150: 6c52 a63d 83b9 6b3d fd96 81ba 1322 863c
00000160: 22c5 3f3c a58d b73d b20f 4e3c 21e5 afb9
00000170: b228 17bc 790d a23c 33e0 683d b398 9c3d
00000180: d3e1 5a3d 709b 2d3d b8b3 5c3d 3f08 903d
00000190: 08f9 e53d 55a1 9c3d e31e bcbc 05e6 28bd
000001a0: 3af3 733c 8fcb 31bd 2940 1cbd 10be 59bc
000001b0: bfc1 cc3d bb4f 553d ecaf 3b3c 8707 b1bd
000001c0: fac9 79bb 4087 bb3d 1e41 a13c 45ae 31bd
000001d0: 0f9b 8e3d e59c b63d a7c4 a8bc 2c98 c63c
000001e0: f428 563d 2ad2 1c3c 91af e03d d961 b53d
000001f0: c11c 143d 9a14 3b3c a5a0 123d 1810 3a3d
00000200: 1095 61bd 4276 adbc dc1d a63c aa45 8f3c
00000210: a5fd e5bb 1fc0 233c 393e 28bc a904 0abd
00000220: 5c90 a8bc 989c 72ba 3741 bdbc f74e 673b
00000230: 43b0 2fbc ea7a 543b fbbb 423d 2831 52bd
00000240: ae53 cabb 5545 8fbd 66a9 40bb f8bd f13c
00000250: 2f99 d9bc bcc8 ecbc 50d8 a0bc b589 1ebc
00000260: b41c 433d a9b5 393c 6054 6abd c50f 2dbd
00000270: c7a3 023d 9e6b 2abd 9c86 f63c 918f 11bd
00000280: 7622 943a f45e 3a3d 1d3b a2bc a292 043c
00000290: d716 94bc 74e2 33bc 8893 de3c af91 f1bb
000002a0: f876 2fbb 52a1 77bb 0bfd 61bd 386e d4bb
000002b0: 6c8d 60bd d8e8 aebc 2040 6b3c 2207 94bd
000002c0: 024e a7bd 0611 01bd ba1a 323c 8583 12bd
000002d0: ea40 22bb 5d70 d33c 4fc0 d83b b0ee f03c
000002e0: 67e9 c63c a855 c13c 8642 23bd 732b 03bb
000002f0: 4b56 77bc 4dc9 bcbc cd68 a9bc abbd 5bbd
00000300: ee1c 1e3c 335d 02bd 5265 f1bc 54af 27ba
00000310: 6340 1ebd e2ff 7ebc 9cdf 00bd 3e8b 7cbd
00000320: 1f66 65bd 2f06 253d 3d3f 6cbd 8283 88bc
00000330: 9906 cebb 0d82 203d df7e 54bd 394b 51bc
00000340: c92c e03b 8050 9f3c 56b9 8fbc 41d8 37bd
00000350: 8134 28bd 74b7 1cbd e7df 5c3d 3b18 063d
00000360: c57b 09bc 0abd 4bbd 6b55 8abd 695f 8dbc
00000370: ea75 363c d19c d0bc f421 dd3b 1705 2abd
00000380: 3ff9 64bd 4f03 c23c b86a 01bc 2269 0ebd
00000390: 3887 8cbc 497b 29bc 8e8f ce39 9589 33bd
000003a0: 4063 f6bc 1768 50bc 09b9 ec3c 365e b4bc
000003b0: 498d 423c d4d3 d7bc 331a 503c c173 8c3c
000003c0: 6dd2 7bbc 620a 133a 49d5 543c 4a4e 52bc
000003d0: 2b93 78bb be7f d33b 4413 39bd 15ef 18bd
000003e0: d9ae 0fbd 15cc 06bd 5edb 1bbc b49a 0abd
000003f0: 9120 d9bb e401 2bbd 8260 fdbc 44bb 1abd
-0.08108594 0.11567827 0.07853063 -0.045024984 0.050350126 0.11565949 -0.0347309 0.06461131
0.09461523 0.035695285 0.0945924 -0.03305431 0.1289262 -0.02005166 0.03004512 -0.026779039
0.03276521 0.037492402 0.085338905 0.08750392 -0.06851741 0.09663445 0.0035870394 -0.013579985
-0.010650981 -0.021781739 -0.11031809 0.09289323 0.15230139 0.05958172 0.02145086 0.05822811
0.034916997 -0.07897586 0.07188614 -0.082302056 -0.035415728 0.024051435 -0.09998073 0.06274012
-0.007424 0.11063475 0.08877886 -0.051600054 -0.0022041188 -0.087438434 0.047127612 0.050595265
0.053470533 0.08870335 -0.04534433 -0.017011382 -0.027101515 0.14722669 0.09371215 0.011337545
-0.025699964 0.1226914 0.073282644 -0.013153561 0.11334322 0.054817602 -0.00062281004 0.09023152
0.060033657 -0.024055157 -0.05842677 0.0011116511 0.037704185 0.12776898 -0.057044126 0.015260736
0.0026000733 0.12052886 0.062271543 0.15389569 0.100836344 0.01958331 -0.0062724105 -0.019349316
-0.0020029037 0.046098296 0.049578637 0.05907218 0.081211895 0.057549965 -0.0009886917 0.01637367
0.011704715 0.089625634 0.012576984 -0.00033549315 -0.009226011 0.019781815 0.056854438 0.076463126
0.05343802 0.042384565 0.05388233 0.07032823 0.112291396 0.07647959 -0.022963947 -0.04123499
0.014889533 -0.04340702 -0.038147125 -0.013289943 0.09997892 0.05207799 0.011455517 -0.08644014
-0.0038114772 0.09156656 0.01968437 -0.043379087 0.06963169 0.08916644 -0.020601584 0.024242483
0.05228515 0.009571591 0.10970987 0.088565536 0.036160234 0.011418486 0.035797734 0.045425504
-0.055073798 -0.021174554 0.02027791 0.017489273 -0.007018762 0.009994536 -0.010268741 -0.03369585
-0.020576648 -0.00092549017 -0.023102386 0.003529487 -0.010723176 0.0032421895 0.047542553 -0.05131641
-0.006174526 -0.06995646 -0.0029397844 0.02950953 -0.026562301 -0.028904311 -0.019634396 -0.009676387
0.047634795 0.011334815 -0.057209373 -0.042251367 0.03189447 -0.041606538 0.030093484 -0.035537306
0.0011301774 0.04550071 -0.019803578 0.008091601 -0.018077297 -0.010979284 0.027169958 -0.007372103
-0.0026773792 -0.0037785363 -0.05517296 -0.0064828657 -0.05482237 -0.021351263 0.01435855 -0.07227923
-0.08169176 -0.031510375 0.01087063 -0.035769958 -0.002475793 0.025810415 0.006614722 0.02941069
0.024281217 0.023600414 -0.039858364 -0.0020014911 -0.015096257 -0.023045206 -0.020679856 -0.05364768
0.009650452 -0.031827163 -0.029467259 -0.00063966704 -0.038635623 -0.015563937 -0.03146325 -0.06165623
-0.056005593 0.0402891 -0.057677496 -0.01666427 -0.0062874076 0.039186526 -0.051878806 -0.012774282
0.0068412763 0.019447565 -0.01754443 -0.04488397 -0.041065697 -0.038260892 0.053924467 0.03273795
-0.008391325 -0.04974083 -0.067545734 -0.01725741 0.011136511 -0.0254654 0.0067484323 -0.04150876
-0.055901762 0.023683218 -0.007898979 -0.03476823 -0.017154321 -0.010344335 0.00039398338 -0.04383238
-0.030076623 -0.012720129 0.028896825 -0.02201758 0.011874505 -0.026346125 0.012701559 0.01714504
-0.015369994 0.0005609152 0.012990304 -0.012836048 -0.0037929516 0.006454437 -0.04518439 -0.03733738
-0.035078857 -0.03290947 -0.00951275 -0.033838943 -0.0066261967 -0.04174985 -0.030929808 -0.037776247

classifier.weight f4 [2, 64]
00000000: f5fa 613e 7c65 8d3c 4b41 273e 890b fcbb
00000010: ed10 f43d eb4b 293e a04d c33e d9d3 ad3d
00000020: ee86 d0bc 2508 9e3c eb21 753d 99f4 a3bc
00000030: aecf 2dbe 8b34 21bd df29 443c 5700 0abd
00000040: 826e 583c d250 443d 11aa 7fbd d896 1f3e
00000050: 1909 cd3c 3504 ef3d ed90 e03d 0f55 c63b
00000060: 4e2f 643e 5f38 9b3a 7072 94bc d6c1 833d
00000070: 112d 5fbd b0ff ee3d cda7 773d cc02 2b3e
00000080: fbd4 103e 1dcb d93c 1699 aa3d 5fc2 363e
00000090: 5aed 5bbc cdbb 3bbb 484a 823d 68ec 9fbd
000000a0: 6b59 f23d 9ecf 873d a78d a8be 4f51 843c
000000b0: e383 4d3e b604 353e a622 813d e8f7 c33d
000000c0: 8330 193c e5fc aabc 7b4b 603e 6615 49be
000000d0: 249c 69bd ca0e 333e 1217 f6bc 1373 d2bd
000000e0: a55e 2d3e 226d f2bc bec5 863d 24e9 683c
000000f0: f4f9 78b9 8f3c 4abd a1c1 183e 5ae0 183e
00000100: 836c 37be 4e39 9d3b 564d 473c f575 02bd
00000110: 3472 22be cbc6 15bd e796 97be a771 d53c
00000120: a58a 5fbd dcc2 3fbd 2528 0fbe 305c 57bb
00000130: 03b6 0f3e 8568 d0bc 75de a7bd f629 d7bd
00000140: 66e1 07bd 90fa 1cbe c8e6 1fbe e2ca dbbd
00000150: 1349 7b3d 020d 14be 2baf 2b3d 7657 4f3d
00000160: 8483 40be eb9a 97bd deca c1bd c7c0 15be
00000170: 62d6 b9bd 637c 05be 94e6 d1bd 835e 6bbe
00000180: 711b 523d 6551 99bb 07e8 96bb 212e 37bc
00000190: 4952 e5bd 19b0 033d bc9f 2abe e845 bd3d
000001a0: 37e3 d8bd afd8 10be 6414 883e 7af3 d93c
000001b0: ea61 27be 6e17 39be 663d c93c ceef 2abe
000001c0: a4d8 9abc 9261 a1bb 2f14 44be 05b9 953d
000001d0: a48e 44bd 02fb e1bd bc9c b53c 8063 c13d
000001e0: 9fb7 96bd 02e3 c5bd ef62 863c 0bbd c0bb
000001f0: ab4e 8bbd e707 a43b 98da 63bd baef 07be
0.22068389 0.017260306 0.16333501 -0.007691805 0.11917291 0.16532867 0.3814516 0.08487672
-0.025454964 0.019290993 0.0598468 -0.020014094 -0.16973755 -0.03935675 0.0119728735 -0.03369173
0.013209941 0.04792864 -0.062418047 0.15584886 0.025028752 0.11670724 0.109651424 0.0060526202
0.2228367 0.0011842361 -0.018120974 0.06433456 -0.054486338 0.11669862 0.06046276 0.16700286
0.14143746 0.02658611 0.0832998 0.17847584 -0.013423288 -0.0028645874 0.06361824 -0.07808763
0.118334614 0.06631397 -0.32920572 0.016152052 0.20069842 0.17677578 0.06305437 0.09568769
0.009349945 -0.020872543 0.21903794 -0.19637069 -0.057033673 0.1748611 -0.030040298 -0.10275855
0.16930635 -0.029593054 0.06580685 0.014215741 -0.00023744238 -0.04937416 0.14917614 0.14929333
-0.17912488 0.004798091 0.012164434 -0.031850774 -0.15863878 -0.036566537 -0.29607317 0.02605517
-0.05457558 -0.04681669 -0.13980158 -0.0032861345 0.14034276 -0.025440464 -0.08196727 -0.1050605
-0.03317394 -0.15329957 -0.1561538 -0.10732056 0.061348986 -0.14458087 0.0419151 0.05062052
-0.18800169 -0.07402595 -0.09462522 -0.1462432 -0.090740934 -0.13035731 -0.102490574 -0.22985272
0.0512957 -0.0046788924 -0.0046052965 -0.011180432 -0.11197335 0.03215036 -0.16662496 0.09241849
-0.10590213 -0.14145158 0.26578057 0.026605356 -0.16345945 -0.18075344 0.02456541 -0.1669304
-0.01890213 -0.0049249614 -0.19148324 0.0731068 -0.047987595 -0.11034204 0.022169463 0.09442806
-0.07359242 -0.09662439 0.016404597 -0.0058819107 -0.06802114 0.005005825 -0.05562839 -0.13275042

classifier.bias f4 [2]
00000000: 7989 ccbd 3c39 fd3d
-0.09987158 0.12364432
