models/graphsage_engineered_focal_graphsage_model.pt (torch, 269156 bytes, 8 tensors)

conv1.lin_l.weight f4 [128, 194]
0	0xbc20e07a	-0.009819144
1	0x3cc4da90	0.02403
2	0xbd8c3bb4	-0.06847325
3	0xbc924b9f	-0.017858325
4	0x3b379d25	0.002801725
5	0xbcac2e28	-0.021018103
6	0x3c1348d5	0.0089895325
7	0xbc466c89	-0.012110838
8	0xbc2b506c	-0.010456186
9	0xbb8e861c	-0.004349483
10	0xbc54b3a2	-0.012982281
11	0x3ca5a3d8	0.020219728
12	0x3d876c97	0.06612509
13	0xbbf9e4ad	-0.007626137
14	0xbc687eb6	-0.0141903665
15	0x3d49aa38	0.0492346
16	0xbc6b4529	-0.014359751
17	0xbc852a14	-0.016255416
18	0x3af1c02c	0.0018444113
19	0xbc6d9abf	-0.014502226
20	0xbc8ba42b	-0.017046055
21	0x3c1bb1b8	0.009502821
22	0x3c302229	0.010750332
23	0x3c1188e4	0.008882735
24	0x3c2bb56a	0.010480264
25	0xbcfff4d0	-0.031244665
26	0x3c00bf2e	0.007858081
27	0x3c1b9e15	0.009498139
28	0x3c302da5	0.01075307
29	0x3c1231cb	0.008923004
30	0x3c2abb86	0.010420686
31	0xbcfe6c08	-0.031057373
32	0x3c016763	0.0078981845
33	0xbc1c625d	-0.009544936
34	0xbc1cfca7	-0.009581721
35	0xbc166543	-0.009179416
36	0xbc2f58b4	-0.010702301
37	0xbc16583f	-0.009176313
38	0xbc121d37	-0.008918098
39	0x3c118287	0.008881218
40	0x3c881d44	0.016615517
41	0x3cabe163	0.020981496
42	0x3c5875d2	0.013211684
43	0xbcc4f885	-0.024044285
44	0xbca8368e	-0.020533826
45	0x3bc30812	0.00595189
46	0x3c415bb7	0.011801652
47	0x3ca6c290	0.020356447
48	0x3c12fa8f	0.008970871
49	0xbcc03aad	-0.023465479
50	0xbc9855c3	-0.018595582
51	0xbcb57079	-0.022148358
52	0x3ced0863	0.028934663
53	0x3d1934f9	0.037404034
54	0xbc3f961a	-0.011693502
55	0xbc435493	-0.0119220195
56	0xbc32c557	-0.010911307
57	0x3cf375da	0.029719282
58	0x3cc43e7a	0.023955572
59	0x3cbcecbf	0.023062108
60	0x3cdeb11d	0.027184064
61	0xbbfcc5a8	-0.007713992
62	0xbc0a136a	-0.00842748
63	0x3cf27ab4	0.029599525
64	0x3cc3a159	0.023880647
65	0x3cbcc85a	0.023044754
66	0x3cde1885	0.027111301
67	0xbc24c37b	-0.010056372
68	0xbc30e9ca	-0.010797927
69	0x3c6c9520	0.014439851
70	0x3c9b1afb	0.018933764
71	0x3cf1ed01	0.029531958
72	0x3ce359fc	0.027752869
73	0x3d1669ce	0.036721997
74	0x3d27ca34	0.04096432
75	0x3c9a733a	0.018853772
76	0x3ca6db79	0.020368325
77	0x3c9af297	0.018914504
78	0x3ca3bd63	0.019987768
79	0x3bdcd701	0.0067394977
80	0x3b97eb13	0.0046361773
81	0x3c15f848	0.009153433
82	0x3c9e3d36	0.019316297
83	0x3c95b38c	0.018274091
84	0x3c9215de	0.017832693
85	0xba621f83	-0.00086259114
86	0xbbb94b85	-0.0056547546
87	0x3d299800	0.041404724
88	0x3d4b54ea	0.049641527
89	0x3d320f83	0.043471824
90	0x3d899963	0.06718709
91	0x3ca311e1	0.019905986
92	0x3cbfd316	0.023416083
93	0x3999db4b	0.0002934582
94	0xbbf54afe	-0.0074857464
95	0x3ab86987	0.0014069536
96	0x3b2c7ec1	0.0026320668
97	0xbda46e7d	-0.080288865
98	0xbd4a22f7	-0.04934975
99	0x3d02d8c7	0.031945016
100	0x3d1bed52	0.038068123
101	0x3b596f65	0.0033177969
102	0x3d16bd02	0.036801346
103	0x3cbfd95d	0.023419077
104	0x3d0c8430	0.03430575
105	0xbc15d569	-0.009145119
106	0x3b73d4e9	0.0037205762
107	0x3d06b081	0.03288317
108	0x3c5e347d	0.013562319
109	0xbcdd46da	-0.027011324
110	0xbcb0316d	-0.021507943
111	0xbcc259db	-0.023724487
112	0x3b98c7cb	0.004662489
113	0x3c8b898f	0.017033366
114	0xbcb11725	-0.021617481
115	0x3d0561ce	0.032563977
116	0x3d3d0aac	0.046152756
117	0x3ba11ad1	0.004916527
118	0x3b55b4c4	0.0032608965
119	0x3c393456	0.011303982
120	0x3b92ab67	0.004475999
121	0x3b93c3fc	0.004509447
122	0x3b86ef65	0.0041178935
123	0x3baaf21e	0.005216851
124	0x3b9478f2	0.0045310194
125	0x3c5a3a49	0.01331956
126	0x3c86be8d	0.016448284
127	0xbc880066	-0.016601752
128	0xbd0b499a	-0.03400574
129	0xbcfeb6df	-0.03109306
130	0xbbcf9d15	-0.0063358643
131	0x3c6e79b1	0.014555381
132	0x3c33e920	0.010980874
133	0xbda709d5	-0.08156172
134	0xbda4e302	-0.08051111
135	0x3cff8f30	0.031196207
136	0x3d2523a6	0.0403172
137	0x3c4cb60f	0.012494578
138	0x3d06a7d4	0.032874897
139	0x3cff9f3d	0.03120386
140	0x3d037019	0.032089327
141	0x3c2784df	0.01022455
142	0xbd0113ee	-0.031513147
143	0x3c27f262	0.01025066
144	0x3c796426	0.015221631
145	0xbc855bb8	-0.016279086
146	0xbc7a6784	-0.015283469
147	0x3d314d4d	0.04328661
148	0xbd81a2fa	-0.063299134
149	0xbde3125c	-0.11087486
150	0xbc04ee80	-0.008113503
151	0x3c9c05da	0.019045759
152	0x3c8fced8	0.017554685
153	0xbcbce6c9	-0.023059266
154	0x3ad15028	0.0015969323
155	0x3cc89fb0	0.024490207
156	0x3c47f764	0.012204979
157	0x3c68b0a0	0.014202267
158	0x3c39cd29	0.011340418
159	0x3cbe78a2	0.023250882
160	0x3aa5d9be	0.0012653393
161	0x3b44d5bc	0.0030034622
162	0x3cae7cfa	0.021299828
163	0x3ca2cbc1	0.019872548
164	0x3c86355e	0.01638287
165	0x3c36b86f	0.011152371
166	0x3a8fc21a	0.0010967881
167	0xbc241e90	-0.010017052
168	0x3cba2651	0.022723349
169	0xbbc2ed03	-0.005948664
170	0xbc93002a	-0.017944414
171	0xbd24f838	-0.040275782
172	0xbc466766	-0.012109613
173	0xbc2bb68a	-0.010480532
174	0xbc561d6f	-0.013068541
175	0xbc6436f6	-0.013929119
176	0xbc20d20f	-0.009815707
177	0x3d4bff5a	0.04980407
178	0xbc6d99cd	-0.014502001
179	0x3aeee940	0.0018227473
180	0x3c15c0d9	0.009140217
181	0xbc1fff89	-0.009765514
182	0xbd8610ca	-0.06546171
183	0xbcace786	-0.021106493
184	0x3acc247b	0.0015574837
185	0x3c8df38e	0.01732805
186	0xbcb57aea	-0.022153337
187	0xbd665cd3	-0.056240868
188	0x3c7977e1	0.015226335
189	0xbcf1422a	-0.029450495
190	0x3cbfb475	0.023401478
191	0x3d24a1ed	0.040193487
192	0x3bf88faa	0.0075854855
193	0xbc5a7e16	-0.013335725
194	0xba98524d	-0.0011621207
195	0xbbfa038b	-0.007629817
196	0xbcf142c6	-0.029450785
197	0xbb90473c	-0.004403023
198	0xbb9c4e96	-0.0047701104
199	0xbb732470	-0.0037100576
200	0xbc94d8e0	-0.01816982
201	0xbb895586	-0.0041911034
202	0x39015159	0.00012332703
203	0x3c657a6d	0.014006239
204	0xbb1ac2e1	-0.0023614692
205	0xbc117da1	-0.00888005
206	0xbc20cb73	-0.009814131
207	0xbbe44eb4	-0.00696739
208	0x3d2fa33e	0.04288029
209	0x3b74e680	0.0037368834
210	0x3ab28e7e	0.0013622788
211	0x3b5dd428	0.0033848379
212	0x3c232957	0.009958587
213	0xbc0d32dd	-0.008618084
214	0xbc4524bb	-0.012032683
215	0x39ffa2de	0.00048758736
216	0xb9676f7c	-0.00022071408
217	0xba79fce6	-0.0009536281
218	0xb7895cde	-1.6374917e-05
219	0xbc15903a	-0.009128625
220	0xbc044bcf	-0.008074715
221	0x39ff7ce2	0.00048730435
222	0xb95ff3eb	-0.00021357804
223	0xba75d7a7	-0.0009378143
224	0x38103e13	3.4390087e-05
225	0xbc167dd6	-0.009185275
226	0xbc0818c9	-0.0083066905
227	0x397a0d2c	0.00023846765
228	0xbb7ed504	-0.0038884291
229	0xbc64c03d	-0.013961849
230	0xbb22a9cc	-0.0024820445
231	0xbb934c4b	-0.004495179
232	0xbb98d3ac	-0.004663905
233	0xba82dc48	-0.0009983862
234	0xbb2a583a	-0.0025992529
235	0xbb2da8b8	-0.002649827
236	0xbaa9983a	-0.0012939044
237	0x3c480cc6	0.012210077
238	0x3c0b0f4a	0.008487532
239	0xba77984d	-0.0009444997
240	0xbb03eed7	-0.0020131373
241	0xbb3709b3	-0.0027929365
242	0xbaa68358	-0.0012703938
243	0x3afe08b7	0.0019381259
244	0x3ac12e12	0.0014738461
245	0xbbf8b220	-0.0075895935
246	0xbca73a80	-0.020413637
247	0xbc9e04c4	-0.019289382
248	0xbc603b51	-0.013686017
249	0xbc85f251	-0.016350897
250	0xbc8dc53b	-0.01730596
251	0xbb1cfb71	-0.0023953582
252	0xb9b8c6df	-0.00035243385
253	0xba141a76	-0.0005649695
254	0xba73f265	-0.0009305834
255	0x3b551167	0.0032511593

conv1.lin_l.bias f4 [128]
0	0xbc9e4f6b	-0.019324979
1	0xbc649be1	-0.01395318
2	0x3c11034a	0.008850882
3	0xbd0066ba	-0.031347968
4	0xbb91578e	-0.004435486
5	0x3c352005	0.011054997
6	0xbbb59f38	-0.005542662
7	0x3a0ae8a0	0.0005298946
8	0x3d1f0bfb	0.038829785
9	0xbd10b962	-0.035333045
10	0xbc291a32	-0.010321187
11	0x3b0c56d0	0.002141405
12	0xbd9f8db4	-0.077906996
13	0xbbdb3e18	-0.0066907518
14	0xba98f978	-0.0011671027
15	0x3c42beb1	0.011886285
16	0xbc1ead65	-0.009684895
17	0xbbd18e81	-0.0063951616
18	0x3b5ae50d	0.0033400685
19	0x3bb14cbe	0.0054107597
20	0xbadb9aee	-0.0016754547
21	0xbd1b4d42	-0.037915476
22	0xbc6e4e61	-0.014545054
23	0x3b8fdce5	0.0043903464
24	0xbca8b3e6	-0.020593595
25	0xbd084228	-0.033266217
26	0xbcfd452d	-0.030916775
27	0x3c80e214	0.015732802
28	0xbd014f6a	-0.031569876
29	0x3c408b8f	0.011752023
30	0xbd7a75a3	-0.061147343
31	0xbd95dab1	-0.07317103
32	0x3ba4a216	0.005024205
33	0xbd28a8c9	-0.04117659
34	0xbb84ca96	-0.0040524704
35	0xbc6779fe	-0.014128206
36	0xbc2e107d	-0.010624048
37	0x3b07f67f	0.0020746288
38	0xbce82837	-0.028339488
39	0xbc0cc248	-0.008591242
40	0xbcb8a31a	-0.02253871
41	0x3b0b85dd	0.0021289506
42	0xbc60e163	-0.013725611
43	0xbc08d17e	-0.008350728
44	0xbd3424cb	-0.0439804
45	0xbd32ae95	-0.043623526
46	0x3c188df2	0.009311186
47	0xbd281c9f	-0.04104292
48	0xbcfc331c	-0.03078609
49	0xbd7dff07	-0.06201079
50	0xbc21f7e9	-0.009885767
51	0xbc982e3d	-0.018576736
52	0xbc8e1ea4	-0.017348595
53	0xbdc44fe2	-0.09585549
54	0xbd018fdd	-0.03163134
55	0xbcbae12b	-0.022812447
56	0xbb9e28f2	-0.0048266584
57	0x3a88a9cf	0.0010426583
58	0xbd168145	-0.036744375
59	0xbcc954d6	-0.024576586
60	0x3b88526e	0.004160217
61	0xbcec74d9	-0.028864311
62	0xbb0792aa	-0.0020686784
63	0xbe092673	-0.13393573
64	0x3c2cbf7f	0.010543703
65	0x3c4c9ad3	0.012488085
66	0xbacb0e5a	-0.0015491948
67	0x3c3b4ee2	0.011432381
68	0xbc418c40	-0.011813223
69	0xbd4f9407	-0.05067828
70	0xbce2cd61	-0.027685823
71	0xbac98660	-0.001537513
72	0xbd87e95a	-0.06636305
73	0xbc0688f4	-0.008211363
74	0x3bb12bb5	0.0054068216
75	0xbbc0d5ac	-0.0058848467
76	0xbd292455	-0.041294415
77	0x3bfdc664	0.0077445973
78	0x3c8231f9	0.01589297
79	0x3b76dcb9	0.0037668182
80	0xbe02b6f0	-0.12765098
81	0xbddf8a5b	-0.10915061
82	0xbc9b0de4	-0.018927522
83	0xbc0473f8	-0.00808429
84	0xbc47e508	-0.012200601
85	0xbc037242	-0.008022847
86	0xbd0a0ca6	-0.03370347
87	0xbc55363d	-0.01301342
88	0xbdd691d5	-0.10477034
89	0xbc8d342f	-0.017236797
90	0xbc90d215	-0.0176783
91	0xbc5a8b4d	-0.013338876
92	0xbc2d5969	-0.010580399
93	0x3b6ef789	0.003646346
94	0x3c9b7d99	0.018980788
95	0x3caf9ca9	0.021437006
96	0x3bc5eb36	0.006040002
97	0xbc86911f	-0.016426621
98	0xbc0c52dc	-0.008564677
99	0xbcb0653c	-0.021532647
100	0x3c7828a8	0.015146412
101	0xbd235f7f	-0.039885994
102	0x3d1518cb	0.036400598
103	0xbd67cb94	-0.05659063
104	0xbe11a38e	-0.14222547
105	0x3d007c8f	0.03136879
106	0x3ce608a7	0.028080298
107	0xbcb4b123	-0.022057122
108	0x3c920bfe	0.017827984
109	0x3baa55b9	0.005198207
110	0x3d0bebc5	0.034160394
111	0xbd20eeed	-0.039290357
112	0xbca32fb7	-0.019920213
113	0x3cec621e	0.02885538
114	0x3c306709	0.010766753
115	0xbb9e3a4e	-0.004828728
116	0xbdb40e07	-0.08791738
117	0xbce0c927	-0.027439667
118	0x3caec085	0.021332035
119	0xbb5c53a6	-0.0033619194
120	0x3b58c076	0.00330737
121	0xbccfeded	-0.025382007
122	0x3b76e384	0.003767223
123	0xbd2c229a	-0.042025186
124	0xbcfa47e1	-0.030551853
125	0xbcaa3bb7	-0.020780427
126	0xbcc168d0	-0.023609549
127	0x3cd4c1c2	0.025971297

conv1.lin_r.weight f4 [128, 194]
0	0xba83ad1b	-0.0010046096
1	0xbd409aa9	-0.047022495
2	0xbd88a414	-0.066719204
3	0xbd0303e1	-0.03198612
4	0x3c5989f8	0.013277523
5	0xbd27f112	-0.041001387
6	0x3cbbd01a	0.022926379
7	0xbb57d7bf	-0.0032934991
8	0xba371cc0	-0.000698518
9	0x3bd7145d	0.006563707
10	0xbb12d94d	-0.0022407353
11	0x3cb8b1ba	0.022545684
12	0x3d1244e8	0.035710245
13	0x3c912ee8	0.017722562
14	0x3d3499fb	0.04409216
15	0x3bf1c89f	0.007378652
16	0xbaab24de	-0.0013057252
17	0xbc04e7f5	-0.0081119435
18	0xbacb5b5f	-0.0015514902
19	0x3cbd3eee	0.023101296
20	0x3cb19b29	0.021680431
21	0x3c7982c3	0.01522893
22	0x3c6e4de0	0.014544934
23	0x3c46a496	0.012124201
24	0x3c8b2676	0.016986113
25	0x3b6a5c1d	0.003576047
26	0x3c120947	0.008913345
27	0x3c794870	0.015215024
28	0x3c6e7130	0.014553353
29	0x3c44bc7e	0.012007831
30	0x3c8b2d20	0.01698929
31	0x3b664709	0.0035137555
32	0x3c12e46d	0.008965594
33	0xbc3e1720	-0.011602193
34	0xbbef03a2	-0.0072941342
35	0x3b797172	0.0038062003
36	0xbc2772f0	-0.010220274
37	0xbc52b313	-0.012860077
38	0xbc487bb6	-0.012236526
39	0x3caceaed	0.021108115
40	0x3cbe7eee	0.023253884
41	0x3c534295	0.012894292
42	0x3cc14dd5	0.023596684
43	0xbc20b6f9	-0.009809249
44	0x3aef45b5	0.0018255027
45	0x3c8b62c8	0.017014876
46	0x3ca090b9	0.01960026
47	0x3c4c24ad	0.012459916
48	0x3c9b67d9	0.018970417
49	0xbbe772df	-0.0070632542
50	0x3b5945d2	0.0033153188
51	0x3d1d5fb5	0.03842135
52	0x3ceb5db3	0.028731203
53	0xbc74d5b9	-0.014943534
54	0x3cdf09c0	0.027226329
55	0xbc590d70	-0.013247833
56	0x38c52f99	9.402558e-05
57	0x3c27b689	0.010236391
58	0x3c8fe1cf	0.017563729
59	0x3c9829fa	0.018574703
60	0x3c9f951f	0.019480286
61	0xbc16c2c3	-0.009201708
62	0xbc37497f	-0.011186956
63	0x3c2783a5	0.010224258
64	0x3c8fec1d	0.017568642
65	0x3c983c5d	0.018583471
66	0x3c9f4441	0.019441726
67	0xbc16e85c	-0.009210672
68	0xbc39c526	-0.011338508
69	0x3b1da8db	0.0024056945
70	0xbbe79889	-0.007067744
71	0xbac695fa	-0.0015150898
72	0xbac85dfd	-0.00152868
73	0x3d142b0d	0.03617387
74	0x3d072743	0.032996427
75	0x3c7445bd	0.014909205
76	0x3cb6b06d	0.022300923
77	0x3c9fce74	0.019507624
78	0x3ca0dfc4	0.01963795
79	0xbcd3625c	-0.025803737
80	0xbcdea9ff	-0.02718067
81	0x3c3993d7	0.011326752
82	0x3cad9c81	0.021192791
83	0x3c947469	0.018121915
84	0x3c910427	0.017702175
85	0xbcfec177	-0.03109811
86	0xbd117361	-0.035510425
87	0xbc41b3ba	-0.011822635
88	0x3c7bc669	0.015367129
89	0x3c55cedb	0.0130498065
90	0x3cb136b4	0.02163253
91	0xbc4a5b00	-0.012350798
92	0xbc05186c	-0.008123498
93	0xbb2af916	-0.0026088408
94	0x3a8f8eb8	0.0010952568
95	0x3c42a87a	0.011880988
96	0xbadce40a	-0.0016852629
97	0x3c287c5c	0.010283556
98	0x3ca7192d	0.020397747
99	0x3cfbc44f	0.030733256
100	0x3d1f221f	0.0388509
101	0x3c6a7cd0	0.014311984
102	0x3d15e809	0.03659824
103	0xbd2f8e8f	-0.042860564
104	0xbcc9042d	-0.024538124
105	0x3b1da500	0.0024054646
106	0x3a8c8a8e	0.0010722445
107	0x3c0af8db	0.008482183
108	0x3c8232a7	0.015893294
109	0x3bccf3ee	0.0062546646
110	0x3bdacdbd	0.006677358
111	0x3cc425ad	0.023943746
112	0xbc3f1b83	-0.011664274
113	0xbd38d454	-0.045124367
114	0xbb2c96b3	-0.002633494
115	0x3af1b79a	0.0018441558
116	0x3c9a55bc	0.01883971
117	0x3c6472bc	0.01394337
118	0xbbd84c5e	-0.0066009006
119	0xbca951bc	-0.020668857
120	0x3c228f8e	0.009921921
121	0xbc07b1e3	-0.008282158
122	0xbbd8c3dc	-0.006615145
123	0x3c012b39	0.00788384
124	0x3c29153c	0.010320004
125	0x3bf43fd1	0.0074538966
126	0x3c42a3aa	0.011879841
127	0x3c9a7a4b	0.018857142
128	0x3ca5df4d	0.02024808
129	0xbd104b3b	-0.035227995
130	0x3ab56637	0.0013839666
131	0x3c372a86	0.011179572
132	0x3bcf76fa	0.006331322
133	0x3d5c6c19	0.053814027
134	0x3d643b20	0.05572045
135	0x3ce9d4f4	0.028543927
136	0x3d4ed62e	0.050497226
137	0x3b45ef48	0.0030202437
138	0x3ccebbee	0.025236096
139	0x3d7954c9	0.060871873
140	0x3d857280	0.0651598
141	0xbc4bd6f1	-0.012441383
142	0x3c7d2554	0.015450794
143	0x3d2bace9	0.041912947
144	0x3ca3cc3b	0.019994846
145	0x3ca11eca	0.019668002
146	0x3c923f76	0.017852526
147	0xbc8a15ff	-0.016856192
148	0xbc6dda6d	-0.014517409
149	0xbbbe72e8	-0.0058120377
150	0xbc40c2ec	-0.011765223
151	0x3d3a7fdd	0.045532096
152	0x3d40f87f	0.047111984
153	0xbd4c333e	-0.049853556
154	0x3cfd414d	0.030914927
155	0x3d2d4098	0.04229793
156	0xbb950a54	-0.0045483503
157	0x3d3fc824	0.04682173
158	0x3d416c5e	0.047222488
159	0x3c0f0edc	0.00873157
160	0xbba34412	-0.00498248
161	0x3b6ea400	0.003641367
162	0x3c2daa96	0.010599753
163	0xbbadb56d	-0.0053011687
164	0xbb52d29e	-0.0032168995
165	0x3b83fe3a	0.004028109
166	0x3d153bea	0.03643409
167	0xba856b80	-0.0010179132
168	0xbd41e3f0	-0.04733652
169	0xbbc608aa	-0.0060435133
170	0xbd038257	-0.032106724
171	0x3c057c48	0.008147307
172	0xbb5eb5fa	-0.0033982978
173	0xba257e72	-0.00063130923
174	0xbb1441b1	-0.0022622163
175	0xbb31d378	-0.0027134102
176	0xba82ee54	-0.000998924
177	0x3bdaa8c0	0.0066729486
178	0xbaae4f6d	-0.0013298817
179	0xbacdbbcc	-0.0015696227
180	0xba9ef8f5	-0.0012128638
181	0xba856d2c	-0.001017963
182	0x3c093a03	0.0083756475
183	0xbd287474	-0.041126683
184	0x3c907f77	0.017638905
185	0x3d1fb4b6	0.0389907
186	0xbd970012	-0.0737306
187	0x3d7a1120	0.061051488
188	0xbd3d15ff	-0.046163555
189	0x3c53becf	0.01292391
190	0xbc1999b6	-0.009375026
191	0x3ce2c94d	0.027683878
192	0xbcb3e4d4	-0.0219597
193	0x3c07b020	0.008281738
194	0x3b5d099b	0.003372765
195	0xbc0f939e	-0.008763222
196	0x3cd9d002	0.026588444
197	0x3c772088	0.01508344
198	0xbad49b30	-0.0016220566
199	0x3c9de18c	0.019272588
200	0xbcec2d09	-0.028830068
201	0x3bb37229	0.0054762554
202	0x3b9d9700	0.0048092604
203	0xbaf3600f	-0.0018568056
204	0x3ba24281	0.0049517755
205	0x3cb1232a	0.021623213
206	0x3c890c12	0.016729388
207	0x39b93515	0.000353255
208	0x3b0cc27c	0.0021478226
209	0xbbaa39fb	-0.0051949
210	0x3b8b02ab	0.0042422614
211	0x3c1bb2e4	0.0095031
212	0x3bdc20d9	0.006717783
213	0x3a0c0603	0.0005341472
214	0x3b8dcd5b	0.004327459
215	0xbad5f1cd	-0.0016322673
216	0xba9b52e1	-0.0011850261
217	0xba22700f	-0.00061965076
218	0xba8ae50e	-0.0010596828
219	0x3ae3c740	0.0017378107
220	0xbca631f8	-0.020287499
221	0xbadc1414	-0.0016790652
222	0xba987ee4	-0.0011634496
223	0xba225cd8	-0.00061936444
224	0xba8258dd	-0.0009944696
225	0x3abe0512	0.0014497361
226	0xbc9c2ec5	-0.01906527
227	0xbb10b04f	-0.0022077744
228	0xbc805611	-0.01566604
229	0xbcdacb41	-0.026708247
230	0xbc26eac3	-0.0101878075
231	0x3cf3eec1	0.029776933
232	0x3cddb87f	0.027065514
233	0xbb4de00a	-0.0031414055
234	0xbb50cd82	-0.0031860773
235	0xba49d5a8	-0.0007699379
236	0xbb622df0	-0.0034512244
237	0xbc80dd79	-0.015730606
238	0xbc6d6b09	-0.014490851
239	0xbb52216f	-0.0032063385
240	0xbb7f7aa8	-0.003898302
241	0xbaa76005	-0.0012769705
242	0xbb6d9a46	-0.0036255284
243	0xbb1839c8	-0.00232278
244	0xb93c82d3	-0.00017977813
245	0x3c4d421d	0.01252797
246	0x3c812c16	0.015768092
247	0x3c0a15a2	0.008428009
248	0x3c701e86	0.014655715
249	0xbb87ddc5	-0.00414631
250	0xbbe7ae38	-0.007070329
251	0x3bad097f	0.005280673
252	0x3ad047af	0.0015890504
253	0x3ae1a611	0.0017215629
254	0x3b2be85e	0.002623103
255	0x3cdad05c	0.026710682

conv2.lin_l.weight f4 [64, 128]
0	0x3d024fdd	0.031814445
1	0xbc6b2d00	-0.014353991
2	0x3cd899ff	0.026440619
3	0x3bd0dc35	0.006373907
4	0x3ce27f8a	0.027648706
5	0xbceb0d1b	-0.028692773
6	0xbd2a5b8e	-0.04159122
7	0x3a7406d0	0.00093088765
8	0xbcde6fb4	-0.027152874
9	0x3b845381	0.0040382748
10	0xbc82ffb9	-0.015991079
11	0x3ccb36ba	0.02480637
12	0xbd7e3aea	-0.062067904
13	0x3c1127b4	0.008859564
14	0x3d0b682b	0.03403489
15	0xbb3bf950	-0.0028682537
16	0x3cb940f3	0.022613978
17	0x3c7156dd	0.0147301825
18	0x3c33832d	0.010956568
19	0x3ca002a2	0.019532505
20	0x3c36bfdd	0.011154142
21	0xbbad2ba7	-0.005284745
22	0xbb413f93	-0.0029487356
23	0x3d265b65	0.040614504
24	0x3c5e7712	0.013578193
25	0xbbaf2224	-0.005344646
26	0xbc57de64	-0.013175581
27	0xbd64dcf6	-0.055874787
28	0x3bcf426f	0.006325058
29	0x3bbcd604	0.0057628173
30	0xbce8af69	-0.028403955
31	0xbc1bc224	-0.009506736
32	0x3cea2f61	0.028587045
33	0x3c05b314	0.008160371
34	0x3a74a764	0.00093328045
35	0x3cf9df2c	0.030501924
36	0x3bc61b63	0.006045745
37	0x3d191fbd	0.037383784
38	0x3b97bc3d	0.004630594
39	0xbd4f3e7b	-0.050596695
40	0xbd18acb8	-0.037274092
41	0x3bf177dc	0.0073690247
42	0x3cda1e6d	0.026625836
43	0x3af36422	0.0018569271
44	0xbd59f0a6	-0.053208016
45	0xbc4c7658	-0.012479387
46	0x3b801320	0.00390853
47	0x3b07991f	0.0020690633
48	0xbc68542d	-0.014180225
49	0xbd1dfeec	-0.03857319
50	0x3d3fde4b	0.046842854
51	0x3c75dc6e	0.015006168
52	0x3d111adc	0.035426006
53	0xbcb53fb9	-0.022125112
54	0x3c095bde	0.008383719
55	0xbd6b01ed	-0.057374883
56	0x39979095	0.00028908686
57	0x3c6b9f99	0.014381313
58	0x3d3b4baa	0.045726456
59	0x3cdbb801	0.026821138
60	0x3d4085f9	0.047002766
61	0xbb90ef15	-0.004423032
62	0xbc0cee36	-0.008601716
63	0xbd12693e	-0.035744898
64	0xbc8a6c2c	-0.016897283
65	0xbc457514	-0.012051839
66	0x3cc2c069	0.023773389
67	0x3d160d9d	0.036634076
68	0x3ce5e35d	0.028062517
69	0xbc984431	-0.018587204
70	0xbcb5d764	-0.022197433
71	0x3d05af77	0.03263804
72	0xbd3c55d7	-0.0459803
73	0x3bb8091f	0.0056163217
74	0x3cace98a	0.021107454
75	0x3cd0922c	0.025460325
76	0x3d05c770	0.0326609
77	0x3d284cb1	0.041088764
78	0x3d4a5f83	0.049407493
79	0x3d226e76	0.039656125
80	0xbc7d3265	-0.0154539095
81	0x3a55a651	0.0008150088
82	0xbc026ef7	-0.007961026
83	0x3c5067fe	0.012720106
84	0x3cdf9366	0.027291965
85	0x3cbfe84b	0.023426196
86	0x3b778096	0.0037765852
87	0x3a09dc29	0.00052589417
88	0xbbe7b612	-0.007071265
89	0x3ca78ce3	0.020452922
90	0xbc6100db	-0.013733114
91	0xbcd91b24	-0.0265022
92	0x3c05a02f	0.0081558665
93	0x3cdb156d	0.026743615
94	0x3d46915f	0.04847848
95	0x3c79fffc	0.015258785
96	0x3d36fd09	0.044674907
97	0x3cf51dc0	0.029921412
98	0x3b3e021d	0.0028992959
99	0x3d170b7b	0.036876183
100	0x3ceb39be	0.028714057
101	0xbcc086fe	-0.02350187
102	0x3bc89956	0.0061217947
103	0x3d69b8a0	0.057060838
104	0xbc2a486a	-0.010393241
105	0xbbf45783	-0.0074567213
106	0x3d12b48e	0.03581672
107	0x3cbf4d7c	0.023352377
108	0xbcc9a95b	-0.024616888
109	0xbb820894	-0.0039683077
110	0xbb3c6b71	-0.0028750564
111	0x3d30c560	0.04315698
112	0xbc9f4a9d	-0.019444758
113	0xbb29658c	-0.002584788
114	0xbc86fb87	-0.01647736
115	0x3cfb5ca6	0.030683827
116	0xbcc84ec0	-0.024451613
117	0xbb430f53	-0.0029763773
118	0xbd3a1dac	-0.045438454
119	0x3d1b605e	0.0379337
120	0x3ca61140	0.020271897
121	0xbc8416b7	-0.016124113
122	0x3cc9a5f9	0.024615275
123	0x3ce1d181	0.02756572
124	0xbc9691bd	-0.01838004
125	0xbd1837ba	-0.03716252
126	0x3cd1fdae	0.02563366
127	0x3ca380a7	0.019958807
128	0x3bee41b9	0.0072710183
129	0xbb8e242c	-0.004337808
130	0x3bd5abbf	0.006520718
131	0x3a02034e	0.0004959599
132	0x3cec57ed	0.02885052
133	0xbb66c1be	-0.0035210694
134	0xb9cc9435	-0.00039020335
135	0xbc09786f	-0.00839053
136	0x3bbeb314	0.0058196876
137	0xbbbf7699	-0.0058429954
138	0x3b8a2116	0.00421537
139	0xbc15b3ce	-0.009137107
140	0xbc1fe44d	-0.009759021
141	0xbc52015b	-0.012817706
142	0x3c05463a	0.008134419
143	0x3b91d5d0	0.0044505373
144	0x3c3fb8b8	0.011701755
145	0x3bf668ea	0.007519831
146	0x3be9165a	0.00711326
147	0x3bffd345	0.0078071677
148	0xbb26c245	-0.0025445384
149	0x3b5c1f36	0.003358794
150	0x3b9119fe	0.0044281473
151	0x3bb779e6	0.005599248
152	0x3c3abee1	0.011398048
153	0xb89200b4	-6.9619535e-05
154	0xbc4f70dd	-0.012661186
155	0x3a951887	0.0011375108
156	0x3c002006	0.007820135
157	0x3ba49bc5	0.005023452
158	0xbc8d2ee7	-0.017234279
159	0xbaec9de5	-0.0018052427
160	0x3bcc5139	0.0062352684
161	0x3aed3b5d	0.0018099357
162	0x39b48c57	0.00034436837
163	0xba8ea558	-0.0010883017
164	0xbc15ea1b	-0.009150053
165	0x3bbb3149	0.0057126624
166	0xbc00b9f2	-0.007856833
167	0xbd03aead	-0.032149006
168	0xb9a54923	-0.00031525744
169	0xb9b13b63	-0.00033804317
170	0x3b5db71e	0.003383107
171	0x3995800c	0.00028514897
172	0x3b277859	0.002555391
173	0xbb9ac68f	-0.004723377
174	0x38a4be18	7.855537e-05
175	0x3af3d649	0.0018603291
176	0xbc3b11b0	-0.011417791
177	0xbc294b6c	-0.010332923
178	0x3cbfd58e	0.02341726
179	0x3b37de7d	0.0028056197
180	0x3c17ef2d	0.009273333
181	0x3bda174c	0.0066556092
182	0xba19979b	-0.0005859078
183	0xba23c0df	-0.00062466966
184	0x3b112883	0.002214939
185	0xba12f603	-0.00056061166
186	0x3c09c7f4	0.008409489
187	0x3bec3a26	0.0072090803
188	0x3c32e473	0.010918724
189	0xbc7f18db	-0.015569891
190	0x3c1097d4	0.008825261
191	0xbc157b88	-0.00912369
192	0x3a245282	0.0006268398
193	0x3bbcafa4	0.0057582427
194	0x3ba0bbc6	0.004905197
195	0x3c15c37e	0.009140847
196	0x3c09113b	0.0083659245
197	0xbacb02e1	-0.0015488529
198	0xbaee3bf0	-0.0018175822
199	0x3b79cdf4	0.0038117142
200	0xbbcff4de	-0.006346329
201	0x3a859dac	0.0010194085
202	0x3b44fa91	0.0030056576
203	0x3b916294	0.0044368003
204	0x3b733dac	0.0037115617
205	0x3c212f60	0.009837955
206	0xb940a34f	-0.00018371384
207	0x3c0c869e	0.008577017
208	0xbc16b156	-0.009197554
209	0x3c50d4fa	0.01274609
210	0x3b6df4ef	0.0036309322
211	0x3bdf5791	0.0068158587
212	0x3bc86e87	0.0061166915
213	0x3c8d9874	0.01728461
214	0x3bd62876	0.006535585
215	0xbbe3fe0e	-0.006957776
216	0x3c6dc355	0.014511903
217	0x3ac3536d	0.0014902182
218	0xba916dc8	-0.001109534
219	0x3bc41840	0.005984336
220	0x3b690db5	0.0035561149
221	0x3bfe753a	0.0077654393
222	0x3c57a963	0.013162944
223	0xbb2ef85d	-0.002669833
224	0x3c21810d	0.009857428
225	0x3bcd6169	0.0062677157
226	0x3b9a34c7	0.0047059986
227	0x3be47c03	0.006972791
228	0x3cf9f327	0.030511452
229	0xbc59f70c	-0.0133035295
230	0xba264f83	-0.00063442456
231	0x3a53a55e	0.0008073653
232	0xbc1c6293	-0.009544986
233	0xba7cf591	-0.00096496294
234	0x3bb0002d	0.0053711147
235	0x3d46c471	0.048527185
236	0x3aa89560	0.00128619
237	0x3bdc7d65	0.0067288154
238	0xbab008ac	-0.0013430319
239	0x3c1e9d53	0.009681064
240	0x3bd8ca36	0.0066159023
241	0x3ba10019	0.0049133417
242	0x3bc81df2	0.0061070854
243	0x3c0f219f	0.008736043
244	0xbc2270fb	-0.009914632
245	0x3b6ba2a4	0.0035955096
246	0x3bfc36a2	0.0076969424
247	0x3be365b5	0.0069396147
248	0xbba41154	-0.0050069485
249	0xbc098cbf	-0.008395373
250	0x3bb55845	0.005534204
251	0x3b8000f3	0.003906363
252	0xbb8f2f93	-0.004369685
253	0xbba7bab4	-0.0051186923
254	0x3bc3f666	0.0059803007
255	0x3c0171ae	0.0079006385

conv2.lin_l.bias f4 [64]
0	0x3d4bcf4f	0.04975825
1	0x3c8b97bf	0.017040132
2	0xbc7a5177	-0.015278212
3	0x3c125068	0.008930303
4	0xbc17b3be	-0.0092591625
5	0xbbd143c9	-0.0063862544
6	0x3cf9bf48	0.030486718
7	0xbcd77479	-0.026300656
8	0x3d4259a9	0.047448788
9	0x3d4ce6f2	0.050024934
10	0x3d36c2f4	0.044619516
11	0xbda22103	-0.07916453
12	0x3cda8b1a	0.026677657
13	0x3e43b0de	0.19110438
14	0xbcf210ef	-0.02954909
15	0x3c55e76a	0.013055662
16	0x3a808308	0.0009804675
17	0x3c730663	0.014833066
18	0xbc2162bb	-0.009850199
19	0x3b4525b0	0.0030082278
20	0x3e84c32d	0.25930157
21	0x3c542d6e	0.012950284
22	0xbc1344b5	-0.008988549
23	0x3c7cf742	0.01543981
24	0x3d32340a	0.04350666
25	0xbcdc2e6b	-0.026877603
26	0x3c240595	0.0100110965
27	0x3c685221	0.014179737
28	0xbc37f7e9	-0.01122854
29	0x3d346d5a	0.0440496
30	0xbc22853e	-0.009919463
31	0x3e5fb0d4	0.21844798
32	0x3cf22c79	0.029562222
33	0xbc02821a	-0.007965589
34	0x3d17daf5	0.037074048
35	0x3c006fca	0.007839153
36	0x3ccb836c	0.02484294
37	0xbcd5bf79	-0.026092278
38	0xbceabdf6	-0.028655034
39	0x3aabb420	0.0013099946
40	0xbca1b4f0	-0.019739598
41	0x3bf06b5d	0.0073370175
42	0xbd5389a7	-0.051644947
43	0x3c2ca42e	0.01053719
44	0xbd4842fe	-0.048892014
45	0x3baeb518	0.0053316467
46	0xbd1e616c	-0.038667127
47	0xbd58574d	-0.05281763
48	0x3cbfbf16	0.023406547
49	0xbbacbdef	-0.0052716653
50	0xbc008084	-0.0078431405
51	0x3cb4cdd3	0.0220708
52	0xbb96fb09	-0.0046075624
53	0x3c803d62	0.01565427
54	0xbca903ca	-0.02063169
55	0x3c57f577	0.013181082
56	0x3c8105ac	0.015749775
57	0xbdb30808	-0.08741766
58	0xbc1b108d	-0.009464395
59	0x3ca98b35	0.020696262
60	0xbc914bac	-0.017736278
61	0xbc8fdb2a	-0.01756056
62	0xbddeee83	-0.10885336
63	0x3e24dd18	0.16099966

conv2.lin_r.weight f4 [64, 128]
0	0x3d3139d5	0.043268044
1	0x3c0891c0	0.008335531
2	0x3c82afeb	0.015953025
3	0x3c422812	0.011850374
4	0x3ceae37d	0.028672928
5	0x3d24772a	0.040152706
6	0x3d0c9d0a	0.03432945
7	0xbc430719	-0.011903548
8	0x3d01eff7	0.03172299
9	0x3cad618a	0.021164674
10	0x3c99f1b3	0.018792009
11	0x3d06c91b	0.032906633
12	0xbccc1f71	-0.024917336
13	0x3cffbcdb	0.031217983
14	0xbb6df231	-0.0036307687
15	0x3cefc7ff	0.02927017
16	0xbbbb0b88	-0.0057081617
17	0x393f1897	0.0001822434
18	0x3d2cad6c	0.042157575
19	0x3cf5e3a2	0.03001577
20	0x3bf4a6c1	0.0074661677
21	0xbcfcf29b	-0.030877402
22	0x3bf87b77	0.0075830775
23	0x3d59f6da	0.05321393
24	0x3adb8d6f	0.0016750525
25	0xbd37ea9b	-0.04490147
26	0xbc1a118c	-0.009403598
27	0x3c4f4902	0.012651684
28	0x3be6622b	0.0070307455
29	0x3d0f1020	0.034927487
30	0xbcebc5e2	-0.028780881
31	0xbd245ac4	-0.040125623
32	0x3aa87a5d	0.001285385
33	0x3c525b54	0.012839157
34	0x3b27fb62	0.0025632014
35	0x3ccc2df0	0.024924248
36	0x391763c7	0.00014437652
37	0x3c950a91	0.018193515
38	0x3d4d9c45	0.05019786
39	0x3d02ad40	0.031903505
40	0x3d8002ce	0.06250535
41	0x3d37c8f0	0.044869363
42	0x3d600f2c	0.05470197
43	0x3ca2fd2b	0.01989611
44	0x3aa791fa	0.0012784593
45	0xbb508f99	-0.0031823872
46	0x3d22d817	0.03975686
47	0xba32744c	-0.0006807491
48	0xbcaf9b43	-0.02143634
49	0x3d1401b4	0.036134437
50	0xbc3ff48b	-0.011716018
51	0xbc3de6ba	-0.011590654
52	0x3d1da3df	0.038486358
53	0xbcde01d2	-0.027100477
54	0xbb5e951f	-0.0033963395
55	0x3bb423b6	0.005497421
56	0x3d680a7d	0.056650627
57	0x3d0e61ed	0.034761358
58	0x3d6ceea0	0.057844758
59	0x3cfd4f70	0.030921668
60	0x3cebfdc4	0.028807528
61	0xbcec6d7c	-0.0288608
62	0x3d0ee961	0.034890536
63	0xbce1b642	-0.027552728
64	0x3d0234c0	0.031788588
65	0x3d33f09a	0.043930627
66	0x3d35de13	0.04440124
67	0x3ce9826f	0.028504578
68	0x3d0a1665	0.033712763
69	0x3c551190	0.0130046755
70	0xbaa22a77	-0.0012372275
71	0x3cf0fb30	0.02941665
72	0xbc9b3d82	-0.018950228
73	0x3b9c1c0f	0.004764087
74	0x3d32584d	0.04354124
75	0x3d22526e	0.039629392
76	0x3bfebc5b	0.0077739186
77	0x3d15b54b	0.036549848
78	0x3d5723aa	0.052524246
79	0x3d10bf53	0.03533871
80	0xbd04a132	-0.03238029
81	0xbd00399f	-0.03130495
82	0x3cb0011b	0.021484902
83	0x3cd01cf9	0.02540444
84	0x3d4d583f	0.050132986
85	0x3d02d145	0.031937856
86	0x3bca5d2f	0.006175659
87	0x3baa5e76	0.005199249
88	0xbd0d679e	-0.034522645
89	0xbc59f148	-0.013302155
90	0xbc062b59	-0.008189046
91	0x3c83e49b	0.016100219
92	0x3c3fc8b9	0.011705571
93	0x3d38570d	0.045004893
94	0x3c96890c	0.018375896
95	0x3d5788d6	0.05262073
96	0x3cee1964	0.029064842
97	0x3c4eb46a	0.012616256
98	0x3bffe05e	0.007808729
99	0x3d21115b	0.039323192
100	0x3d443da5	0.04791035
101	0x3cd8aef6	0.026450615
102	0x3d483dad	0.048886944
103	0x3d0ea873	0.034828614
104	0xbd2e2366	-0.042514227
105	0x3d0080bc	0.03137277
106	0x3d5536e9	0.05205432
107	0x3cfbf217	0.030755086
108	0x3d6fd776	0.05855509
109	0x3b9aa53d	0.004719405
110	0x3d1d35a9	0.038381252
111	0x3cf8074e	0.03027692
112	0x3c4c9ea4	0.012488995
113	0x3d18c4c0	0.03729701
114	0x3cdd22e3	0.026994174
115	0x3d0130e3	0.031540763
116	0xbcc65de6	-0.024214696
117	0x3c4273da	0.0118684415
118	0x3d4f2821	0.05057538
119	0x3d2973f1	0.041370336
120	0x3c2ace48	0.010425158
121	0xbc90d7c5	-0.017681012
122	0x3cfe4df6	0.031043034
123	0x3cb041ff	0.021515844
124	0x3c55eb57	0.013056598
125	0xbc55fa0d	-0.013060105
126	0x3caffd98	0.021483228
127	0x3d362377	0.044467416
128	0x3c18e817	0.009332678
129	0x3b70b2f5	0.003672776
130	0x3b86751f	0.0041033174
131	0x3b1c2ba9	0.0023829734
132	0x3bf6b128	0.007528443
133	0x3c0fafcf	0.008769943
134	0x3bf6c93e	0.007531314
135	0xbba2c115	-0.004966865
136	0x3c046f38	0.008083157
137	0x3b5e2fed	0.0033903078
138	0x3b72214f	0.0036946123
139	0x3c92e0c1	0.017929437
140	0xbc32d7f8	-0.010915749
141	0xbb160261	-0.0022889602
142	0xbbb23ada	-0.0054391446
143	0x3c2601c8	0.010132261
144	0x3a6e4afc	0.0009090153
145	0x3bea7b29	0.007155795
146	0x3c321dab	0.010871331
147	0x3bb2c6b1	0.005455815
148	0x3cfe9fe9	0.03108211
149	0xbb43c70a	-0.0029873275
150	0x3c6098c7	0.0137083
151	0x3c4ae497	0.012383602
152	0xbbfce466	-0.007717657
153	0xbba4f239	-0.005033758
154	0xbbc52389	-0.006016199
155	0x3ae96362	0.0017806108
156	0x3b56ec20	0.003279455
157	0x3c07414a	0.008255312
158	0xbc3c647f	-0.0114985695
159	0xbc45966d	-0.01205979
160	0x3b317820	0.0027079657
161	0xbbbb9caf	-0.0057254652
162	0x3be56613	0.0070006936
163	0x3c229aac	0.009924572
164	0x3aa4a4fd	0.0012561377
165	0x3ab60fb3	0.0013890177
166	0x3cc310f6	0.023811799
167	0x3d0ea00d	0.034820605
168	0x3c087230	0.008328006
169	0x3c7f246a	0.015572647
170	0x3c711369	0.0147141
171	0x3ba5f195	0.005064199
172	0x3b749bb4	0.0037324252
173	0x3931123f	0.00016886833
174	0x3be66977	0.0070316154
175	0xbbb263df	-0.0054440345
176	0xb95457ef	-0.00020250653
177	0x3c249258	0.010044657
178	0xbb95e04b	-0.004573857
179	0xbb8e72b8	-0.0043471716
180	0x3c093b74	0.008375991
181	0xbbf59b19	-0.0074952957
182	0x38597689	5.1847226e-05
183	0xbad44c18	-0.0016196994
184	0x3c49c1f5	0.012314309
185	0x3bf80b7e	0.0075697294
186	0xbaeddd54	-0.0018147626
187	0x3c28c907	0.010301835
188	0x3c822da3	0.015890902
189	0xbc2dc870	-0.01060687
190	0x3bd8a36f	0.0066112797
191	0xbc1c889f	-0.009554057
192	0x3c02ac0e	0.007975591
193	0x3c376b63	0.011195037
194	0x3c0a1c01	0.008429528
195	0x3c0003f1	0.00781344
196	0x3c735609	0.014852055
197	0x3acbe4c1	0.0015555845
198	0xbac1962a	-0.0014769484
199	0x3bf49d83	0.007465066
200	0xbbd000d8	-0.006347757
201	0xbaa82e45	-0.0012831172
202	0x3c0e8d87	0.008700735
203	0x3c87db04	0.016583927
204	0xbbc61217	-0.006044637
205	0x3be40315	0.006958375
206	0x3c405c27	0.011740721
207	0x3c041973	0.008062708
208	0xbc27f810	-0.010252014
209	0xbc2e737c	-0.010647651
210	0x3bc317e9	0.005953778
211	0x3bec50ba	0.007211772
212	0x3c8b354c	0.016993187
213	0x3c01e13e	0.007927237
214	0x3b47dc40	0.003049627
215	0x3c1c95e3	0.00955722
216	0xbc44784e	-0.0119915735
217	0xbbff7731	-0.007796191
218	0xbb99f3ca	-0.0046982514
219	0x3ba903bf	0.0051579173
220	0x3b2d1e1e	0.0026415656
221	0x3c2cd032	0.0105476845
222	0x3c098e9c	0.008395817
223	0x3c72eb7a	0.01482665
224	0x3bd1c339	0.006401446
225	0x3c1cfefc	0.009582277
226	0xbc18b5cf	-0.00932069
227	0x3c1ecfd5	0.009693106
228	0x3c6bbbf1	0.01438807
229	0x3b962afe	0.004582762
230	0x3c65004b	0.013977121
231	0x3c3141f6	0.010818949
232	0xbc7993f5	-0.01523303
233	0x3c2657d3	0.010152775
234	0x3c1d73c6	0.009610122
235	0x3b66b978	0.0035205763
236	0x3d19693e	0.037453882
237	0x3c885bfa	0.01664542
238	0x3c348ef5	0.011020412
239	0x3c34b4c0	0.011029422
240	0x3bad2125	0.005283492
241	0x3c76f993	0.015074152
242	0x3b91e1aa	0.00445195
243	0x3bc27f94	0.0059356187
244	0xbb9cfe8b	-0.004791086
245	0x3aef457e	0.0018254963
246	0x3c5b6d6b	0.0133927865
247	0x3c1a10d0	0.0094034225
248	0x3b2129db	0.0024591598
249	0xbc482107	-0.012214906
250	0x3bfc5b1e	0.0077012917
251	0xb9c93872	-0.00038379763
252	0x3b259d06	0.0025270595
253	0xbbb526c9	-0.005528305
254	0x3b524bde	0.0032088677
255	0x3c17e65b	0.00927123

classifier.weight f4 [2, 64]
0	0x3e4eeaad	0.20206709
1	0xbc7f0ab6	-0.0155665185
2	0x3cc9fee6	0.024657678
3	0xbcbf60f8	-0.023361668
4	0xbd1321f2	-0.035921045
5	0xbc7ddbfa	-0.015494341
6	0xbd3a4794	-0.04547842
7	0xbccd3aa9	-0.025052385
8	0x3de57f78	0.11205953
9	0x3e248bd4	0.16068965
10	0x3daf9afd	0.085744835
11	0x3d6e4f0d	0.058180857
12	0x3dd46717	0.10371225
13	0xbe6653be	-0.22492883
14	0x3d8a4e36	0.06753199
15	0x3e302247	0.17200576
16	0xbce52774	-0.027972914
17	0x3e3bbf88	0.18334782
18	0x3d2763ed	0.04086678
19	0x3d8a2245	0.06744818
20	0xbe849356	-0.25893658
21	0x3e1cf885	0.15329178
22	0xbd22ad6c	-0.03971617
23	0x3c7d04d2	0.015443044
24	0x3dd41b17	0.103567295
25	0x3c8ca7ad	0.017169798
26	0x3d832afb	0.06404682
27	0x3dbf1157	0.09329479
28	0x3c56e348	0.0131157115
29	0x3da9a613	0.08283629
30	0x3cc5051c	0.024050288
31	0xbe9320bc	-0.28735912
32	0x3c67f4e3	0.014157507
33	0xbd236ad5	-0.039896805
34	0x3e30433e	0.17213151
35	0x3da47326	0.08029775
36	0x3e102a73	0.14078693
37	0xbc49db3c	-0.012320336
38	0x3d23be22	0.039976247
39	0x3e102eb9	0.14080323
40	0x3e635317	0.22199665
41	0x3d9a00c2	0.07519676
42	0x3d4f09c7	0.050546434
43	0x3e44aa71	0.19205643
44	0xbc946299	-0.018113421
45	0x3c6e06f4	0.014528025
46	0x3d52d052	0.0514682
47	0xbcf6eb5d	-0.030141527
48	0x3dfac9b7	0.12245505
49	0xbd1188c2	-0.035530813
50	0xbd61869c	-0.055060014
51	0xbc1b84a5	-0.009492074
52	0x3e0995c6	0.1343604
53	0x3df15bfb	0.11785122
54	0x3d9c2b8e	0.07625495
55	0x3d8d1fa7	0.06890803
56	0x3dd4c440	0.10388994
57	0xbd13ea27	-0.036111977
58	0x3d981b7b	0.074271165
59	0x3dffdaec	0.12492928
60	0xbd78bbb4	-0.060725883
61	0xbd59d847	-0.053184774
62	0xbc88f17a	-0.016716707
63	0xbd193c7f	-0.03741121
64	0xbc098d62	-0.008395525
65	0xbd6f4840	-0.058418512
66	0x3cbb6475	0.02287505
67	0xbcec7930	-0.02886638
68	0xbdaf288b	-0.08552655
69	0x3c79ac2d	0.015238804
70	0xbe2fc5f2	-0.17165354
71	0x39ce47ba	0.00039344822
72	0xbe12ec08	-0.14347851
73	0xbd5423af	-0.051791843
74	0xbabbaf8e	-0.0014319287
75	0x3cece72d	0.028918827
76	0xbdf96a8a	-0.12178524
77	0x3e3bee22	0.18352559
78	0x3b25e398	0.0025312658
79	0xbe0bb885	-0.13644607
80	0xbcb484aa	-0.022035915
81	0xbd0d168d	-0.034445334
82	0xbd19a307	-0.03750899
83	0xbda714f5	-0.08158294
84	0x3e8647d0	0.26226664
85	0xbde4f0b7	-0.11178725
86	0xbddb6228	-0.10712081
87	0xbd8a67ff	-0.06758117
88	0xbd563e81	-0.052305702
89	0xbd7d8def	-0.061902937
90	0xbdf574fd	-0.11985204
91	0xbe2ad62d	-0.16683264
92	0xbcddc80d	-0.02707293
93	0xbde5f794	-0.112288624
94	0xbd5899f1	-0.052881185
95	0x3e499f3f	0.19689654
96	0xbe0fb040	-0.14032078
97	0xbd227540	-0.0396626
98	0x3d17863e	0.036993258
99	0xbe102091	-0.14074923
100	0xbe19a69e	-0.15004966
101	0xbd0f1c93	-0.03493936
102	0xbcd7f0de	-0.026359972
103	0xbe0f7cf6	-0.14012513
104	0xbe87370f	-0.26409194
105	0x3d3c1b9a	0.04592476
106	0x3c50143c	0.012700137
107	0xbddb277b	-0.1070089
108	0xbd30acce	-0.04313355
109	0x3bf26298	0.007397007
110	0x3cce8f18	0.025214717
111	0x3d5ac406	0.0534096
112	0xbd0463e3	-0.032321822
113	0xbdd45dd1	-0.103694566
114	0x3d4ee058	0.05050692
115	0xbe1f39ba	-0.15549365
116	0xbde1954b	-0.110148035
117	0xbe161757	-0.14657341
118	0xbcb575cb	-0.022150895
119	0x3db19479	0.08670897
120	0xbdd9b58c	-0.106303304
121	0xbd422cd7	-0.047406044
122	0x3bdadd20	0.006679192
123	0xbdbb739d	-0.09152911
124	0xbdc5fa1e	-0.09666847
125	0xbd30c743	-0.04315878
126	0x3d76b093	0.060226988
127	0x3e18cafa	0.1492118

classifier.bias f4 [2]
0	0xbe08899b	-0.13333742
1	0x3e652a72	0.22379473
