models/graphsage_baseline_focal_graphsage_model.pt (torch, 256844 bytes, 8 tensors)

conv1.lin_l.weight f4 [128, 182]
-0.0038044387 0.050560053 0.013763989 -0.013837574 -0.005359318 -0.014222328 -0.00822993 -0.020732816
-0.011672472 0.016665792 -0.020533733 -0.01590505 -0.021691443 -0.0074096825 -0.016779322 0.010501197
0.0020348816 0.006387047 0.011600793 0.020112945 0.015729362 3.8196933e-05 0.0005907084 0.002264281
0.0011033572 0.023064299 -0.00085087563 -1.3067976e-05 0.00065922353 0.0023079743 0.0011058769 0.023148926
-0.0007472274 -0.0050995513 -0.0025969276 0.01854767 -0.0052878577 -0.000236265 0.00554257 -0.014224694
-0.0063384823 0.009180076 -0.009767655 0.0049016303 0.002698291 -0.018204432 -0.014582628 0.008142577
-0.01634331 -0.0014899187 0.0010442821 0.021504346 0.059454422 0.0069345892 0.037304293 0.037218537
0.07298653 0.026436321 0.004705895 0.008275676 0.015345727 -0.009248315 -0.018597933 0.026286386
0.0047145784 0.008294522 0.015359772 -0.0065557254 -0.017326513 -0.014640049 -0.021631818 -0.010121698
-0.0057002185 -0.019035647 -0.0087622395 0.01632278 -0.0031925798 -0.0025838085 0.00056954584 -0.025431937
-0.024593867 0.0077953055 -0.008778929 -0.0072944444 -0.0045969454 -0.03009955 -0.026431961 0.048139866
0.026938185 0.002512409 0.050664935 0.0030450309 0.016663596 -0.017229997 0.01108977 0.014217574
-0.009031239 0.008950103 0.00083470653 -0.014721578 -0.012439763 0.016506938 -0.014452167 -0.038154308
-0.049238585 0.01451709 -0.0044510444 -0.003250628 -0.0045436127 -0.009218697 -0.020861479 0.016689647
0.021575896 0.0095669 0.03732021 0.02095554 0.043119866 0.027251702 0.025960576 0.017847981
0.04062861 0.02322293 0.021034503 0.0016941634 -0.012149699 -0.004977674 0.0022535457 0.07517078
0.051409487 0.036823917 -0.028096864 -0.0032948346 0.005966104 0.00072385545 0.00026749884 -0.009189429
0.0082641 0.008116185 -0.0030797967 0.036608342 0.03562344 0.0045019635 -0.026558163 0.028895378
0.026373256 -0.011905849 -0.010162625 -0.004928496 0.012171635 -0.033155642 0.007845363 0.018796727
0.015113129 -0.015957953 -0.014608358 0.0145931365 0.0020528825 0.0005190412 -0.012483182 0.0008359049
-0.011794608 0.033996798 0.064168595 -0.012831892 -0.017977688 0.025474546 -0.010885315 -0.0037488078
0.05056362 -0.010168688 -0.013779411 -0.014315816 -0.020587416 -0.011463182 -0.020267865 -0.020935949
-0.0037276854 0.010370438 0.0020888844 0.011496724 0.020107243 -0.0037274354 -0.014338045 -0.008060399
0.026884414 0.0061726524 -0.012053718 0.018602995 -0.020812407 -0.015317872 -0.016838402 -0.010043829
-0.015515254 0.005597644 -0.01436145 -0.011493578 -0.0060965456 0.020195054 -0.01442644 -0.019097004
-0.013174939 -0.004448831 0.005839257 -0.0056641106 0.008545402 0.013778235 0.004113244 0.017101826
0.01343298 -0.005568578 0.008558026 0.013721751 0.004111071 0.017026264 0.01330164 -5.493826e-05
-0.0014854207 0.0018422873 0.00026815958 0.029157953 0.025093667 0.00783691 0.008244107 0.0057408037
0.0086853225 0.019059038 0.019559473 0.016368799 0.019642346 0.0130675 0.018434545 0.014167102
0.016282551 0.020104632 0.016843578 0.00968407 0.031808145 0.008781557 -0.002785113 -0.0040770797
0.017178446 0.015285681 0.013549594 -0.011481482 -0.006748499 -0.003998543 0.017178629 0.015333795
0.013593739 -0.016185926 -0.01184927 -0.0042794747 0.019717177 0.021821374 0.022016734 -0.092261866
00000000: e453 79bb 0f18 4f3d 5b82 613c feb6 62bc
00000010: 389d afbb c404 69bc d4d6 06bc ded7 a9bc
00000020: e53d 3fbc b386 883c 5c36 a8bc 4f4b 82bc
00000030: 41b2 b1bc eccc f2bb ca74 89bc 360d 2c3c
00000040: a65b 053b 6f4a d13b 4111 3e3c e7c3 a43c
00000050: ddda 803c a535 2038 c5d9 1a3a 5564 143b
00000060: 869e 903a 57f1 bc3c 4c0d 5fba 883e 5bb7
00000070: becf 2c3a 6241 173b 12f3 903a d1a2 bd3c
00000080: 95e1 43ba 231a a7bb 3731 2abb 49f1 973c
00000090: c445 adbb e7bd 77b9 729e b53b b10e 69bc
000000a0: 0bb3 cfbb 0868 163c 8408 20bc db9d a03b
000000b0: d0d5 303b 7621 95bc faeb 6ebc 7168 053c
000000c0: 68e2 85bc 6049 c3ba 4be0 883a e229 b03c
000000d0: 7b86 733d 8d3b e33b 63cc 183d 7772 183d
000000e0: f679 953d fc90 d83c e933 9a3b b396 073c
000000f0: a56c 7b3c 3f86 17bc b15a 98bc 8c56 d73c
00000100: c07c 9a3b bfe5 073c 8ea7 7b3c 69d1 d6bb
00000110: 55f0 8dbc d1dc 6fbc 3635 b1bc 7ad5 25bc
00000120: e6c8 babb a5f0 9bbc 7f8f 0fbc 5ab7 853c
00000130: 9a3a 51bb 1d55 29bb 934d 153a a356 d0bc
00000140: 1479 c9bc c36f ff3b 7fd5 0fbc 3c06 efbb
00000150: f9a1 96bb 5593 f6bc d787 d8bc 4f2e 453d
00000160: 78ad dc3c 3aa7 243b 0986 4f3d 248f 473b
00000170: 1882 883c ec25 8dbc deb1 353c d4f0 683c
00000180: c3f7 13bc 74a3 123c 35d0 5a3a c632 71bc
00000190: 26d0 4bbc 8f39 873c c8c8 6cbc b147 1cbd
000001a0: 66ae 49bd 17d9 6d3c 11da 91bb 7d08 55bb
000001b0: 96e2 94bb 050a 17bc b1e5 aabc bab8 883c
000001c0: efbf b03c 7dbe 1c3c 14dd 183d f4aa ab3c
000001d0: 759e 303d f63e df3c 46ab d43c ee35 923c
000001e0: 2f6a 263d 043e be3c 8d50 ac3c b10e de3a
000001f0: 880f 47bc c21b a3bb 39b0 133b 23f3 993d
00000200: c192 523d add4 163d 652b e6bc 27ee 57bb
00000210: 4f7f c33b 1ec1 3d3a 163f 8c39 428f 16bc
00000220: 2666 073c bff9 043c 6ad6 49bb a1f2 153d
00000230: e2e9 113d 3585 933b 8190 d9bc 00b6 ec3c
00000240: ba0c d83c c010 43bc 2481 26bc 397f a1bb
00000250: 8a6b 473c 36ce 07bd d689 003c 98fb 993c
00000260: 0f9d 773c 41ba 82bc e557 6fbc 0d18 6f3c
00000270: a789 063b 4410 083a 4386 4cbc a120 5b3a
00000280: 2c3e 41bc 3a40 0b3d d36a 833d db3c 52bc
00000290: f245 93bc ffaf d03c 5258 32bc 8fae 75bb
000002a0: cc1b 4f3d 929a 26bc 0ac3 61bc e28c 6abc
000002b0: f1a6 a8bc 12d0 3bbc cb08 a6bc de81 abbc
000002c0: 2f4c 74bb c5e8 293c aae5 083b c15c 3c3c
000002d0: f2b7 a43c fd47 74bb 1fea 6abc c40f 04bc
000002e0: b43c dc3c f643 ca3b f57c 45bc 4f65 983c
000002f0: c87e aabc d0f7 7abc b0f0 89bc df8e 24bc
00000300: b133 7ebc 716c b73b 4a4c 6bbc 8f4f 3cbc
00000310: 88c5 c7bb 1970 a53c e05c 6cbc 5271 9cbc
00000320: b3db 57bc 80c7 91bb 3d57 bf3b 019a b9bb
00000330: 0402 0c3c 1bbe 613c 64c8 863b 2119 8c3c
00000340: 0016 5c3c 9e78 b6bb f636 0c3c 32d1 603c
00000350: 2ab6 863b aa7a 8b3c 1fef 593c 826d 66b8
00000360: 73b2 c2ba e778 f13a c597 8c39 a9dc ee3c
00000370: 3c91 cd3c 6266 003c 4a12 073c 5a1d bc3b
00000380: e24c 0e3c b321 9c3c 303b a03c dc17 863c
00000390: fce8 a03c 1119 563c 0b04 973c 221d 683c
000003a0: fc62 853c 78b2 a43c 8bfb 893c efa9 1e3c
000003b0: 4249 023d 85e0 0f3c 7186 36bb 0699 85bb
000003c0: d0b9 8c3c cb70 7a3c 1eff 5d3c d31c 3cbc
000003d0: 8322 ddbb 3606 83bb 32ba 8c3c 993a 7b3c
000003e0: 46b8 5e3c 5998 84bc 7123 42bc d63a 8cbb
000003f0: eb85 a13c bdc2 b23c 705c b43c caf3 bcbd

conv1.lin_l.bias f4 [128]
0.0060772495 -0.09529845 -0.022864416 0.015160306 -0.11236505 -0.025293065 -0.038157526 0.031622503
-0.00833979 0.006039632 -0.04221994 -0.05039146 -0.039852902 -0.012454252 0.032484327 -0.11907524
-0.007250945 0.0047574043 -0.010929199 -0.10662495 -0.0012186206 -0.05083208 -0.02706243 -0.0028021128
-0.023077397 0.01024399 -0.1769367 -0.027459357 0.009703808 -0.022032507 -0.053096596 0.034010004
-0.041984804 -0.013335372 -0.055963065 0.012250788 -0.1717183 0.0041367672 -0.0062414575 0.016965806
-0.005268569 -0.008939946 -0.008466288 0.010435365 -0.00807091 -0.00022318093 0.02407395 -0.009087731
-0.051881034 -0.00783343 0.016741179 -0.039086364 -0.036002323 -0.014390485 -0.022196287 -0.08056204
-0.021563087 0.019991118 -0.054818448 -0.019281935 -0.022533482 -0.06663648 0.015576001 -0.03471198
0.03845601 0.03905506 -0.020708602 -0.0502516 0.003061543 -0.07968909 -0.030592304 -0.030979391
-0.018645575 -0.005704027 0.00756362 -0.0028408165 -0.035322677 -0.004581737 0.0037333362 -0.0073442874
-0.012263172 -0.037437066 0.0002686541 -0.015601707 -0.000777474 9.028092e-05 -0.034616906 -0.015333319
-0.019401424 -0.0017684117 -0.021697216 -0.06618275 -0.014937384 0.018622167 0.0013318916 -0.011505344
-0.030804805 -0.05717242 0.0036812641 0.0013421173 -0.033662386 -0.021831354 0.002993903 -0.007240804
-0.0368132 -0.0036655916 -0.015789757 0.060687106 0.008662904 -0.031707283 -0.0301498 0.0012179192
-0.046262667 0.0064748097 -0.018882899 0.018880518 -0.012100389 0.041814357 -0.03674448 -0.0035690055
-0.007723012 -0.0033257469 -0.0035248937 -0.01361259 -0.0070931134 0.004074862 -0.0068692877 0.008521256
00000000: aa23 c73b d52b c3bd 284e bbbc ef62 783c
00000010: a61f e6bd 6733 cfbc 114b 1cbd 9986 013d
00000020: 9da3 08bc 1be8 c53b d1ee 2cbd 4767 4ebd
00000030: cc3c 23bd eb0c 4cbc 490e 053d b8dd f3bd
00000040: 5699 edbb 00e4 9b3b 6210 33bc 2f5e dabd
00000050: 1fba 9fba 4d35 50bd 07b2 ddbc a7a3 37bb
00000060: cf0c bdbc 69d6 273c e52e 35be 72f2 e0bc
00000070: b9fc 1e3c 847d b4bc d17b 59bd 134e 0b3d
00000080: 42f8 2bbd 9b7c 5abc 8739 65bd 87b7 483c
00000090: ecd6 2fbe b88d 873b 2485 ccbb e0fb 8a3c
000000a0: f6a3 acbb da78 12bc 30b6 0abc 18f9 2a3c
000000b0: da3b 04bc ad05 6ab9 bb36 c53c b5e4 14bc
000000c0: 3581 54bd c957 00bc cc24 893c 0619 20bd
000000d0: 2c77 13bd 12c6 6bbc fdd4 b5bc b6fd a4bd
000000e0: 12a5 b0bc 6ac4 a33c 4f89 60bd 26f5 9dbc
000000f0: 2398 b8bc b578 88bd 7c32 7f3c 262e 0ebd
00000100: 0d84 1d3d 33f8 1f3d 16a5 a9bc 9fd4 4dbd
00000110: 2ba4 483b 0934 a3bd b69c fabc 7ec8 fdbc
00000120: 9bbe 98bc d9e8 babb 3ed8 f73b fe2c 3abb
00000130: 83ae 10bd 6522 96bb fdaa 743b 59a8 f0bb
00000140: 79eb 48bc 9c57 19bd 25da 8c39 4d9e 7fbc
00000150: 66cf 4bba 3355 bd38 75ca 0dbd 9a38 7bbc
00000160: bcef 9ebc 0dca e7ba 5cbe b1bc d28a 87bd
00000170: eebb 74bc 848d 983c de92 ae3a e980 3cbc
00000180: 5c5a fcbc a12d 6abd 5d41 713b fce9 af3a
00000190: 92e1 09bd abd7 b2bc 5b35 443b 4444 edbb
000001a0: 70c9 16bd 6c3a 70bb 8559 81bc 0b93 783d
000001b0: daee 0d3c 7fdf 01bd b7fc f6bc 96a2 9f3a
000001c0: ec7d 3dbd a42a d43b 4fb0 9abc 51ab 9a3c
000001d0: b640 46bc 8845 2b3d 6181 16bd fae5 69bb
000001e0: 5211 fdbb c6f4 59bb e701 67bb 5707 5fbc
000001f0: 596d e8bb 6c86 853b c317 e1bb bd9c 0b3c

conv1.lin_r.weight f4 [128, 182]
0.008468685 -0.02100304 0.020954182 0.005381406 0.047138803 -0.0005742886 0.035992745 0.011487847
0.010739182 0.004483802 0.012460571 -0.06803773 -0.053697363 0.033038825 0.0021619094 0.00090148085
0.010988892 0.006474754 0.009068028 -0.12369827 -0.12267788 0.011061997 0.012523305 0.010692812
0.015081768 -0.012625554 -0.011481426 0.011097359 0.012578016 0.010650561 0.015086574 -0.012326839
-0.011463779 0.009296834 0.013928639 0.010050205 0.01084962 -0.0006554671 0.006430939 -0.0016409383
0.0036374833 0.012976346 0.0015257371 -0.002438496 -0.00095290097 -0.0073955283 -0.004811075 0.013084118
-0.0060220943 0.01096051 0.0120008495 0.02420569 0.015544956 -0.019219909 0.015497669 -0.022247666
-0.025672043 0.0050274828 0.006350174 0.0069365543 0.009094783 -0.030774092 -0.035938736 0.005014865
0.006211964 0.0069433167 0.009096399 -0.007039612 -0.012432746 -0.012100683 -0.0008213432 -0.012441695
-0.017694535 -0.04360413 -0.03554138 0.038333885 0.0116430875 0.009210524 0.013134743 0.04987817
0.060220357 0.012617532 0.003298459 0.0017586569 0.0041099903 0.054456294 0.061797064 -2.3683528e-05
0.05481961 0.026020678 0.066145614 0.019090272 0.03989969 -0.01990873 -0.013551886 0.0078059086
-0.017738935 -0.0052458635 0.020754777 -0.00945512 -0.0127077345 -0.00024078558 -0.011182871 -0.0039469637
0.02019084 -0.012098627 -0.017596621 -0.0026513806 -0.0053446805 0.0015688895 -0.009076729 -0.033303075
-0.07092791 -0.053351913 -0.04898334 -0.0049673854 -0.0046093445 0.027450094 -0.005602062 -0.025036689
0.021729726 -0.007602717 -0.023599468 0.004829375 0.004213737 0.007221104 0.008175985 0.005332437
0.00019681461 -0.00022036066 0.013350955 0.017010689 0.018503742 -0.018398648 -0.0084908735 -0.015671013
0.016318105 -0.0035484543 -0.0134645635 0.005124654 0.017837187 0.004810105 0.008193022 -0.027979625
-0.02472431 0.013011659 0.013600612 -0.018940585 0.058463156 -0.01432772 0.02275905 0.024184188
0.019885754 -0.015351897 -0.018442553 -0.032990552 -0.048916884 0.018492442 0.018351344 0.013808173
0.027263358 0.009286156 0.013993265 -0.03279794 -0.055816416 -0.06595304 0.061210927 0.00828108
-0.022340119 0.03458083 0.0044573764 0.048390567 0.0113542825 0.010637453 0.01258708 0.012437329
0.008391662 0.0013708498 0.010950775 0.008992129 0.0018493319 0.008297476 -0.002429994 0.016725149
-0.075580165 -0.056340683 0.0004312552 -0.052957762 0.08947425 -0.0032150678 -0.0014595165 -0.0003722189
-0.0025579752 0.0072940304 -0.04662136 0.00048420083 0.006101774 0.0021630113 -0.0023725291 -0.008724532
-0.0028651075 0.008090127 0.0030929956 -0.0038978197 0.00632409 0.012223842 0.0008159288 0.043979023
0.024538958 -0.004008149 0.0061917016 0.012311083 0.0008594382 0.044236176 0.02461439 -0.008718586
-0.006355594 0.007371811 -0.007923298 -0.0047590556 -0.0058330833 0.0073978473 0.0005309412 -0.0067169853
0.00169784 -0.014945207 -0.028437736 0.018275358 0.017610673 0.0047259196 0.017246703 0.01042887
-0.0012700638 -0.0043975655 -0.009836649 0.019768434 0.000990402 0.039551347 0.02079903 -0.0037294186
0.004619875 0.0057699457 0.0037738509 -0.009469896 -0.016116085 -0.0036741442 0.0048436797 0.0057606297
0.004069051 -0.019638723 -0.026572408 0.0008858502 0.005929088 0.0045652175 0.0038441918 -0.09699419
00000000: 3dc0 0a3c 910e acbc 1ba8 ab3c 8156 b03b
00000010: 9e14 413d db8b 16ba 216d 133d 8637 3c3c
00000020: 65f3 2f3c dbec 923b 6c27 4c3c 5e57 8bbd
00000030: c4f1 5bbd b853 073d d2ae 0d3b 5b51 6c3a
00000040: c10a 343c 2c2a d43b 1192 143c 8555 fdbd
00000050: 8a3e fbbd 613d 353c 8c2e 4d3c e730 2f3c
00000060: 8519 773c 69db 4ebc 971c 3cbc b2d1 353c
00000070: 0614 4e3c b17f 2e3c ad2d 773c 83f6 49bc
00000080: 93d2 3bbc bf51 183c f234 643c 9da9 243c
00000090: 9bc2 313c a7d3 2bba a0ba d23b c114 d7ba
000000a0: d862 6e3b bd9a 543c 3efb c73a 2dcf 1fbb
000000b0: 1acc 79ba 3056 f2bb 39a6 9dbb c55e 563c
000000c0: fd54 c5bb b693 333c 369f 443c 034b c63c
000000d0: 45b0 7e3c 1273 9dbc efe9 7d3c bd40 b6bc
000000e0: 2d4e d2bc 95bd a43b 1f15 d03b 094c e33b
000000f0: 4902 153c f319 fcbc 7f34 13bd bd53 a43b
00000100: bb8d cb3b c384 e33b 1009 153c 8cac e6bb
00000110: b7b2 4bbc f141 46bc 694f 57ba 40d8 4bbc
00000120: 21f4 90bc 3f9a 32bd d793 11bd fe03 1d3d
00000130: a6c2 3e3c bde7 163c 1b33 573c 0d4d 4c3d
00000140: 9fa9 763d c4b9 4e3c f62a 583b bc82 e63a
00000150: 19ad 863b 900d 5f3d eb1e 7d3d fdab c6b7
00000160: 878a 603d 5129 d53c 5a77 873d 3463 9c3c
00000170: db6d 233d a217 a3bc bb08 5ebc b5c8 ff3b
00000180: 3e51 91bc 7ee5 abbb ec05 aa3c a6e9 1abc
00000190: 1a34 50bc 637b 7cb9 5c38 37bc 8855 81bb
000001a0: 4367 a53c 5239 46bc ca26 90bc c9c2 2dbb
000001b0: 6e22 afbb 32a3 cd3a 90b6 14bc ce68 08bd
000001c0: a742 91bd 8987 5abd c1a2 48bd 73c5 a2bb
000001d0: fc09 97bb 05df e03c 8191 b7bb be19 cdbc
000001e0: 8a02 b23c 3620 f9bb ac53 c1bc bc3f 9e3b
000001f0: 6313 8a3b 039f ec3b 91f4 053c b9bb ae3b
00000200: 0560 4e39 9d10 67b9 f7bd 5a3c 005a 8b3c
00000210: 2995 973c c3b8 96bc 4e1d 0bbc 7f60 80bc
00000220: 8cad 853c 2f8d 68bb 799a 5cbc b7ec a73b
00000230: 4b1f 923c 169e 9d3b 063c 063c 8735 e5bc
00000240: a38a cabc da2e 553c 1ad5 5e3c 4929 9bbc
00000250: 1077 6f3d d0be 6abc 3071 ba3c eb1d c63c
00000260: 73e7 a23c 8686 7bbc d614 97bc 1a21 07bd
00000270: 125d 48bd 767d 973c 8f55 963c ad3b 623c
00000280: 6857 df3c f624 183c 0244 653c 2257 06bd
00000290: c19f 64bd 6312 87bd 4fb8 7a3d 5ead 073c
000002a0: a002 b7bc a1a4 0d3d 2f0f 923b 3035 463d
000002b0: 5007 3a3c b648 2e3c 0a3a 4e3c f0c5 4b3c
000002c0: 2e7d 093c 16ae b33a e16a 333c b953 133c
000002d0: 4865 f23a 23f2 073c 8940 1fbb 2e03 893c
000002e0: c6c9 9abd 7dc5 66bd 181a e239 3dea 58bd
000002f0: 473e b73d e3b3 52bb 3f4d bfba 6026 c3b9
00000300: b4a3 27bb c302 ef3b 0af6 3ebd 56dc fd39
00000310: 64f1 c73b 4fc1 0d3b 6f7c 1bbb 57f1 0ebc
00000320: 87c4 3bbb 748c 043c dbb3 4a3b 9072 7fbb
00000330: 503a cf3b 8246 483c 0ee4 553a 5923 343d
00000340: ed05 c93c ca56 83bb c2e3 ca3b 6db4 493c
00000350: ec4b 613a fe30 353d 1ea4 c93c 66d8 0ebc
00000360: 9642 d0bb 3c8f f13b b8d0 01bc daf1 9bbb
00000370: 7323 bfbb a469 f23b dc2e 0b3a 281a dcbb
00000380: 0f8a de3a bedc 74bc 41f6 e8bc 34b6 953c
00000390: 4244 903c e3db 9a3b f548 8d3c dadd 2a3c
000003a0: 4578 a6ba 7419 90bb e529 21bc 69f1 a13c
000003b0: 60d0 813a 9800 223d ba62 aa3c 4369 74bb
000003c0: 5262 973b d011 bd3b b652 773b 9f27 1bbc
000003d0: e105 84bc e9c9 70bb bbb7 9e3b aac3 bc3b
000003e0: ac55 853b 63e1 a0bc 61ae d9bc 6738 683a
000003f0: cc48 c23b d297 953b d6ee 7b3b e4a4 c6bd

conv2.lin_l.weight f4 [64, 128]
-0.06196811 -0.045335375 -0.04024329 0.009609782 0.0034888207 0.013758686 -0.034010466 0.0174637
-0.030453632 -0.11056413 0.0072754575 -0.03710098 -0.057312835 -0.006407147 -0.056106467 -0.0025682298
-0.0740025 -0.054782264 -0.100881234 -0.0031261966 -0.067000344 -0.06351068 0.006493923 -0.044110212
-0.06122754 0.013017682 -0.013626378 0.001673057 -0.0045563807 -0.057384893 -0.023583522 0.018128175
-0.042807393 -0.027899386 0.009779436 -0.06734839 -0.04914393 -0.08937964 -0.036004778 -0.05753824
-0.04504851 -0.06950251 -0.06704679 -0.039304953 0.006724251 -0.06638461 -0.017452246 -0.057026375
-0.016871728 -0.026577078 -0.02693777 0.018324925 -0.04716687 -0.06356847 -0.04370027 0.0015281319
-0.031458937 -0.06553833 0.0227433 -0.06642046 0.018056702 -0.0023777706 -0.054990698 0.009317134
-0.09331101 -0.046230022 -0.005420798 -0.044953194 -0.04693803 -0.0014643108 -0.01662664 0.012844396
-0.032036286 0.018649423 -0.05390512 -0.028299429 0.017173667 -0.037567392 -0.019457387 -0.0034575951
-0.043634657 -0.030397769 -0.06945969 -0.006964983 -0.0011412032 -0.098683886 -0.0116270315 -0.012710815
-0.03142502 -0.020749405 0.00026689295 0.009992376 -0.010695143 -0.008482237 0.0045138723 -0.061826926
-0.050798703 -0.024277272 -0.055801414 -0.06819912 -0.016182901 -0.052298807 -0.025576334 -0.033263113
0.0031527337 -0.018289484 0.001054453 -0.121464744 -0.04517513 0.008775388 0.00023492813 -0.0016457931
0.007956741 -0.0055997153 0.013884814 -0.02968173 0.00022073755 -0.06578454 -0.03950031 -0.039534844
-0.011531817 -0.022359202 -0.008658697 -0.029568821 0.013708035 0.021493305 -0.04960418 -0.012398037
-0.06783486 -0.01929232 0.01116034 -0.024892336 -0.035607416 -0.022728445 -0.03582303 -0.056306116
-0.032756485 -0.0004905033 -0.003890899 -0.028757246 -0.007341492 -0.028807709 -0.025966741 -0.029073952
-0.016978752 -0.029638823 -0.086097926 -0.009805853 -0.062135324 -0.019888045 -0.003201613 -0.0215809
-0.044702224 0.013621417 -0.037162755 -0.015643626 -0.017587712 -0.016658662 -0.0055308677 -0.08591266
0.00989021 -0.06503547 0.013105954 -0.014771703 -0.06292098 -0.014472488 -0.037858684 0.0008996721
-0.012948431 0.0013475281 -0.065090016 -0.045848522 -0.018668454 -0.033425115 -0.041595533 -0.0072623333
0.016842691 -0.04169711 -0.0018297659 -0.06290393 -0.024545008 0.00873027 -0.06731399 -0.025394209
-0.012531529 -0.007126343 -0.061409988 0.0016389778 0.009869742 -0.03725194 -0.061528325 -0.006954943
-0.03582607 -0.03203251 -0.05013167 -0.021758853 0.010045217 -0.017208755 -0.033788048 -0.03088428
-0.024611445 0.0039938358 0.026635567 -0.031059718 -0.0455195 -0.016701031 0.007389078 -0.037920203
-0.07091529 -0.05726782 -0.05648379 -0.06547333 -0.058133774 -0.009040489 -0.031535413 -0.0035450552
-0.002357815 -0.00407132 -0.04211786 0.00043200262 -0.024739115 -0.017896922 -0.0120436605 -0.0052596233
-0.0077753565 -0.0042965026 -0.023887474 -0.034815025 0.0045197723 0.005711736 -0.0025465053 -0.012886314
-0.013391443 -0.011630011 -0.045886632 -0.104578875 0.00070976536 0.0034625118 -0.04755091 -0.024215117
-0.0013688959 -0.03035371 0.008223962 -0.038320042 -0.016173618 -0.033475038 -0.01790933 0.0069622444
-0.00016358292 0.0044148974 -0.039137624 -0.031057622 -0.01702615 0.021289233 -0.028514372 -0.047595937
00000000: 46d2 7dbd 96b1 39bd 26d6 24bd 5972 1d3c
00000010: b3a4 643b 1d6c 613c 8f4e 0bbd 0910 8f3c
00000020: e579 f9bc 726f e2bd f666 ee3b 32f7 17bd
00000030: ddc0 6abd 0bf3 d1bb e5cf 65bd bf4f 28bb
00000040: 9f8e 97bd 5e63 60bd d29a cebd e0e0 4cbb
00000050: 7a37 89bd e311 82bd f9ca d43b e9ac 34bd
00000060: bbc9 7abd 1e48 553c 2c41 5fbc 7a4a db3a
00000070: b14d 95bb 6c0c 6bbd 3b32 c1bc 8a81 943c
00000080: ce56 2fbd 418d e4bc ed39 203c f4ed 89bd
00000090: 254b 49bd ac0c b7bd bf79 13bd 38ad 6bbd
000000a0: c984 38bd 5557 8ebd d44f 89bd 3bfe 20bd
000000b0: 1b57 dc3b a8f4 87bd 03f8 8ebc 7d94 69bd
000000c0: 9436 8abc 2cb8 d9bc 99ac dcbc 271e 963c
000000d0: 0c32 41bd 3030 82bd 0eff 32bd 994b c83a
000000e0: 16db 00bd f638 86bd 2850 ba3c 7307 88bd
000000f0: a6eb 933c 5fd4 1bbb ed3d 61bd e4a6 183c
00000100: d819 bfbd b15b 3dbd f3a0 b1bb d720 38bd
00000110: 1742 40bd 1eee bfba 9734 88bc 4d71 523c
00000120: 7b38 03bd adc6 983c 9dcb 5cbd 34d4 e7bc
00000130: caaf 8c3c 44e0 19bd 1965 9fbc d298 62bb
00000140: 41ba 32bd be04 f9bc e240 8ebd 833a e4bb
00000150: 6d94 95ba c71a cabd 4e7f 3ebc 0641 50bc
00000160: 86b7 00bd a8fa a9bc c4ed 8b39 10b7 233c
00000170: ae3a 2fbc 15f9 0abc 1be9 933b 3b3e 7dbd
00000180: 4d12 50bd 21e1 c6bc 0690 64bd fbab 8bbd
00000190: 0192 84bc 4637 56bd 7685 d1bc e73e 08bd
000001a0: 189e 4e3b d4d3 95bc 9235 8a3a 82c2 f8bd
000001b0: 8f09 39bd a5c6 0f3c 0a57 7639 a7b7 d7ba
000001c0: fe5c 023c d17d b7bb 227d 633c 1927 f3bc
000001d0: c975 6739 0bba 86bd 14cb 21bd 4aef 21bd
000001e0: f2ef 3cbc a52a b7bc 35dd 0dbc 503a f2bc
000001f0: ab97 603c ba12 b03c c12d 4bbd 2321 4bbc
00000200: 01ed 8abd ed0a 9ebc dcd9 363c 03eb cbbc
00000210: 15d9 11bd 0131 babc 2bbb 12bd 3ea1 66bd
00000220: aa2b 06bd 1f95 00ba 74fe 7ebb 5194 ebbc
00000230: e690 f0bb 25fe ebbc 34b8 d4bc 7f2c eebc
00000240: 0617 8bbc 1ecd f2bc 1c54 b0bd baa8 20bc
00000250: 9c81 7ebd 41ec a2bc 27d2 51bb 6dca b0bc
00000260: ae19 37bd 5d2c 5f3c f937 18bd 1027 80bc
00000270: 1b14 90bc bf77 88bc 483c b5bb faf2 afbd
00000280: 8c0a 223c 5131 85bd 5bba 563c 0305 72bc
00000290: b7dc 80bd 041e 6dbc b511 1bbd f9d7 6b3a
000002a0: a825 54bc 8a9f b03a ea4d 85bd a9cb 3bbd
000002b0: 96ee 98bc c6e8 08bd 1460 2abd def8 edbb
000002c0: aff9 893c 97ca 2abd c1d4 efba c7d3 80bd
000002d0: 9d12 c9bc 6809 0f3c ebdb 89bd 8407 d0bc
000002e0: 0b51 4dbc 1984 e9bb 0a89 7bbd f8d2 d63a
000002f0: b3b4 213c 7e95 18bd 2005 7cbd 4ae6 e3bb
00000300: 5bbe 12bd 8534 03bd de56 4dbd 9f3f b2bc
00000310: b294 243c 60f9 8cbc 5665 0abd 0801 fdbc
00000320: f19d c9bc b9de 823b d532 da3c f370 febc
00000330: a872 3abd 9ad0 88bc 1420 f23b 3752 1bbd
00000340: 093c 91bd a991 6abd 8c5b 67bd e216 86bd
00000350: ae1d 6ebd 8f1e 14bc 472b 01bd 2854 68bb
00000360: 9285 1abb b568 85bb c783 2cbd 697e e239
00000370: afa9 cabc 919c 92bc c652 45bc eb58 acbb
00000380: 6bc8 febb adc9 8cbb aaaf c3bc 339a 0ebd
00000390: 991a 943b 8429 bb3b 45e3 26bb 1e21 53bc
000003a0: c867 5bbc cd8b 3ebc 9ff3 3bbd 732d d6bd
000003b0: 8c0f 3a3a 4feb 623b bec4 42bd c85e c6bc
000003c0: 866c b3ba 58a8 f8bc ccbd 063c 7af5 1cbd
000003d0: 897e 84bc 1f1d 09bd 96b6 92bc 8a23 e43b
000003e0: 7587 2bb9 d8aa 903b c64e 20bd 8e6c febc
000003f0: 6d7a 8bbc c266 ae3c f996 e9bc f5f3 42bd

conv2.lin_l.bias f4 [64]
-0.06327248 -0.09518349 -0.029106006 -0.04294362 0.017617768 -0.017481834 -0.0037587641 -0.059820153
0.0077996333 0.1776297 0.013183192 0.015476339 -0.004425668 -0.018519944 0.005817893 0.26566246
0.0029983376 -0.023039833 -0.016117036 -0.024129836 -0.008303949 -0.027584067 0.011638082 0.017831976
-0.05191928 -0.034095798 0.28503793 0.029872201 -0.009575666 0.0032217745 0.018187964 -0.0354769
0.015506634 0.009602378 0.17439456 -0.00927818 -0.08019491 0.012466188 -0.008078486 -0.004075679
0.04194212 -0.009254606 -0.01841774 -0.032170825 0.01109754 -0.0117874695 0.01472454 -0.015525315
0.0045239767 0.04275549 0.025127104 -0.013275678 0.028676894 -0.006759624 -0.043769352 0.03197851
0.016743094 -0.0005934018 0.05078234 0.02420889 0.019548682 -0.036446054 -0.10489444 0.024350574
00000000: 0195 81bd 90ef c2bd b86f eebc a6e5 2fbd
00000010: 2353 903c 1036 8fbc 9955 76bb fa05 75bd
00000020: 1194 ff3b 8fe4 353e 51fe 573c 7890 7d3c
00000030: 3205 91bb 23b7 97bc 06a4 be3b e904 883e
00000040: c27f 443b 08be bcbc e007 84bc efab c5bc
00000050: 490d 08bc fbf7 e1bc a7ad 3e3c 5d14 923c
00000060: 50a9 54bd 09a8 0bbd 7ef0 913e 8cb6 f43c
00000070: 41e3 1cbc 6824 533b edfe 943c 3a50 11bd
00000080: 890f 7e3c 4b53 1d3c 7d94 323e 8203 18bc
00000090: 3b3d a4bd fb3e 4c3c a05b 04bc 468d 85bb
000000a0: 80cb 2b3d a2a0 17bc cde0 96bc 8ec5 03bd
000000b0: 75d2 353c 3b20 41bc 323f 713c e45d 7ebc
000000c0: de3d 943b 6120 2f3d 5bd7 cd3c 3b82 59bc
000000d0: ceeb ea3c d67f ddbb 7e47 33bd e6fb 023d
000000e0: d028 893c 858e 1bba 2501 503d b951 c63c
000000f0: 8f24 a03c 7548 15bd e5d2 d6bd db7a c73c

conv2.lin_r.weight f4 [64, 128]
-0.024347309 0.008858137 -0.060424056 -0.0654969 -0.022445781 -0.008599566 -0.0023651351 -0.02229701
-0.030136999 -0.016861532 -0.053640455 0.0022394003 -0.045477845 -0.029682891 -0.035368845 -0.028127318
-0.022803077 -0.034856312 -0.04084048 -0.04978313 -0.09829066 -0.033045225 -0.027084693 0.0010549875
-0.03084943 0.0030245322 -0.02944663 -0.015048959 -0.04548879 -0.028101996 -0.009209048 -0.10228944
0.007908179 -0.017668227 -0.0028546776 -0.0034789965 -0.07478682 -0.018980935 -0.058452357 -0.002650202
0.004309508 0.0049621123 0.0016634734 0.020025976 0.009776119 -0.014409163 -0.05169618 0.0022691379
-0.037822124 0.016001608 -0.056092348 0.01056323 0.0123446295 -0.051829178 -0.055788945 -0.06982408
-0.011675419 -0.03999702 -0.041338913 -0.05089276 -0.059535928 0.010291477 -0.030748645 -0.03405861
-0.04914575 -0.07501497 -0.032844003 -0.048695896 -0.01479998 -0.01566991 0.0163278 0.0041853543
-0.010021029 -0.018555295 -0.063266985 -0.008184025 -0.07224227 -0.060412344 -0.011934679 -0.04062505
-0.08734882 -0.062733255 -0.06853695 -0.011678084 -0.07999986 -0.035948243 -0.013726306 -0.07026618
-0.060024057 -0.013286183 -0.0624501 -0.022755114 -0.03331362 -0.07613895 -0.0812101 0.009539986
0.008747946 -0.047906715 -0.06868398 -0.10326773 -0.014826247 -0.009280321 -0.042766813 0.011057149
0.0011911984 -0.025467362 -0.08961564 -0.020795569 -0.06018676 -0.019313069 0.0077045183 -0.029750623
-0.094077624 -0.039989304 -0.008904425 -0.07567833 -0.03943848 -0.07328715 0.018716823 -0.002476881
-0.051383745 -0.007184133 -0.0282995 -0.024385555 -0.027747922 -0.023522532 -0.01743147 -0.01841267
0.006317086 -0.026774753 0.008808089 -0.037049163 -0.0004091233 -0.02297335 -0.030455725 0.007105262
-0.041547768 -0.012289 -0.0024457274 0.0071134176 -0.006344235 -0.0063011358 -0.017066358 0.01641313
0.001943793 0.0022853538 -0.017441362 -0.022518964 -0.08262995 -0.016760776 -0.01716364 -0.028902035
-0.025574293 -0.03094959 -0.075023465 0.0036856392 -0.038692754 0.010948366 -0.005032718 -0.054406844
-0.023653654 -0.052758425 -0.013474105 -0.02341454 -0.033570267 -0.04151471 -0.017009081 -0.01169117
-0.008231914 -0.0092419535 -0.050270647 -0.024569394 0.012327069 0.008463233 0.021524863 -0.030907078
-0.034870386 -0.022439368 -0.0069574653 -0.019726843 -0.071681805 -0.03352161 -0.009718215 -0.053956788
-0.011498885 -0.03364694 -0.007727938 -0.017961394 -0.002262753 -0.03614661 -0.043007642 -0.00509045
-0.011094676 -0.027416008 0.013431461 -0.02937727 -0.05319716 -0.0107996175 0.021602858 -0.0133201
-0.0065147695 -0.04789455 -0.020855667 -0.05029443 -0.0014237813 -0.037928075 -0.019399228 -0.021236842
-0.07509134 -0.030249914 -0.02756353 -0.027343597 -0.064711995 -0.02460942 0.014584364 -0.016463727
-0.033080403 -0.0135156885 -0.06592128 -0.0029232467 -0.0043550115 -0.021041436 -0.042731155 -0.063373104
-0.015678795 0.01072545 -0.00088416255 -0.058221567 -0.021308012 -0.022610107 -0.034311373 -0.07649603
-0.0035757136 -0.017190829 -0.010865164 -0.053630855 0.003087464 -0.038785495 0.00896881 -0.010586989
-0.009254157 -0.00062154484 0.013341735 -0.08000593 -0.0146379545 -0.0054702684 -0.02008151 -0.023035975
-0.044964734 -0.014206914 -0.02450074 -0.03617052 -0.020429647 0.009148736 -0.032526728 -0.026864845
00000000: 0274 c7bc b821 113c 377f 77bd 3d23 86bd
00000010: 37e0 b7bc 32e5 0cbc 6200 1bbb 38a8 b6bc
00000020: dee1 f6bc 3221 8abc 18b6 5bbd e7c2 123b
00000030: fa46 3abd 8929 f3bc ecde 10bd 436b e6bc
00000040: 85cd babc 7ec5 0ebd 5948 27bd 65e9 4bbd
00000050: 9d4c c9bd 6e5a 07bd b8e0 ddbc 8247 8a3a
00000060: f2b7 fcbc 3b37 463b 0f3a f1bc e98f 76bc
00000070: 7452 3abd 2836 e6bc 8ce1 16bc 207d d1bd
00000080: 4f91 013c f5bc 90bc 8b15 3bbb e0ff 63bb
00000090: d529 99bd e87d 9bbc bd6b 6fbd 03af 2dbb
000000a0: c636 8d3b 3799 a23b e808 da3a 840d a43c
000000b0: 042c 203c 6914 6cbc 60bf 53bd d1b5 143b
000000c0: 5feb 1abd ce15 833c 17c1 65bd 6611 2d3c
000000d0: 2141 4a3c d54a 54bd f382 64bd edff 8ebd
000000e0: 424a 3fbc ead3 23bd fe52 29bd ed74 50bd
000000f0: f2db 73bd 959d 283c 95e4 fbbc 0b81 0bbd
00000100: 0e4d 49bd 73a1 99bd 6f87 06bd 5975 47bd
00000110: 9e7b 72bc 2f5e 80bc e1c1 853c 4c25 893b
00000120: 3e2f 24bc 4601 98bc 1f92 81bd 4a16 06bc
00000130: c1f3 93bd ef72 77bd ac89 43bc 7466 26bd
00000140: f0e3 b2bd 4b7a 80bd 1a5d 8cbd 6f55 3fbc
00000150: f7d6 a3bd 773e 13bd 4de4 60bc b7e7 8fbd
00000160: c9db 75bd 4aae 59bc adcb 7fbd ef68 babc
00000170: dd73 08bd bdee 9bbd 7b51 a6bd 9a4d 1c3c
00000180: 8b53 0f3c d539 44bd 30aa 8cbd 087e d3bd
00000190: c9e9 72bc 7d0c 18bc 412c 2fbd 0b29 353c
000001a0: fc21 9c3a eea0 d0bc 6888 b7bd 785b aabc
000001b0: 6486 76bd 7136 9ebc 2f76 fc3b 94b7 f3bc
000001c0: c5ab c0bd d3cb 23bd dee3 11bc 3efd 9abd
000001d0: 3e8a 21bd 9317 96bd 0654 993c 2b53 22bb
000001e0: c377 52bd e068 ebbb 5ad4 e7bc 37c4 c7bc
000001f0: 9c4f e3bc 53b2 c0bc 71cc 8ebc 2bd6 96bc
00000200: 8fff ce3b ba56 dbbc ce4f 103c ddc0 17bd
00000210: 9a7f d6b9 9b32 bcbc 497e f9bc 42d3 e83b
00000220: fe2d 2abd cd57 49bc 7f48 20bb ac17 e93b
00000230: 4de3 cfbb c279 cebb bfce 8bbc d474 863c
00000240: dfc6 fe3a e0c5 153b 30e1 8ebc b179 b8bc
00000250: e439 a9bd e54d 89bc c39a 8cbc f6c3 ecbc
00000260: 2e81 d1bc ff89 fdbc e7a5 99bd c48a 713b
00000270: 4b7c 1ebd c660 333c 80e9 a4bb b6d9 5ebd
00000280: 4fc5 c1bc 3819 58bd 7ec2 5cbc d9cf bfbc
00000290: fa80 09bd 540b 2abd a156 8bbc 528c 3fbc
000002a0: 26df 06bc 906b 17bc 98e8 4dbd c145 c9bc
000002b0: 7af7 493c 5fa9 0a3c e954 b03c d730 fdbc
000002c0: 40d4 0ebd c4d2 b7bc 73fb e3bb 309a a1bc
000002d0: e9cd 92bd f54d 09bd 2639 1fbc cb01 5dbd
000002e0: d265 3cbc 60d1 09bd a43a fdbb c623 93bc
000002f0: b24a 14bb 780e 14bd c828 30bd cacd a6bb
00000300: 72c6 35bc 8997 e0bc a10f 5c3c 9aa8 f0bc
00000310: 44e5 59bd e1f0 30bc 7af8 b03c 8c3c 5abc
00000320: d979 d5bb 132d 44bd 81d9 aabc 8801 4ebd
00000330: 2c9e baba 785a 1bbd 21eb 9ebc e3f8 adbc
00000340: 7dc9 99bd abce f7bc e9cc e1bc aeff dfbc
00000350: b987 84bd b299 c9bc 42f3 6e3c f0de 86bc
00000360: 517f 07bd e870 5dbc bc01 87bd f193 3fbb
00000370: 7cb4 8ebb 175f acbc dd06 2fbd c2c9 81bd
00000380: d170 80bc ccb9 2f3c 25c7 67ba bd79 6ebd
00000390: 248e aebc d538 b9bc 158a 0cbd f3a9 9cbd
000003a0: 8556 6abb c8d3 8cbc cd03 32bc 07ac 5bbd
000003b0: 0d57 4a3b 8add 1ebd eaf1 123c 0d75 2dbc
000003c0: bf9e 17bc 2bef 22ba 4b97 5a3c 26da a3bd
000003d0: 08d4 6fbc f03f b3bb fb81 a4bc f1b5 bcbc
000003e0: f12c 38bd 1ec4 68bc c7b5 c8bc 8a27 14bd
000003f0: 135c a7bc 94e4 153c bf3a 05bd aa13 dcbc

classifier.weight f4 [2, 64]
-0.035656247 0.011197526 0.04540498 0.00076517946 -0.043660343 0.11739876 0.076635115 0.057533443
0.11736228 -0.023779072 0.15274544 0.10965247 0.002465621 0.10736528 0.2924984 -0.26634774
0.16687813 -0.008195515 0.025877494 0.108788215 -0.013674665 -0.037820272 0.0843066 0.07400685
0.033352606 0.09562996 -0.21237582 -0.05794114 0.072570324 0.08182122 0.19753487 0.06635177
0.07996688 0.02413598 -0.16301733 0.0370646 0.0060313437 0.043340206 0.10251489 0.100354314
0.0088881375 -0.05200162 0.12916048 0.049077842 -0.0002275675 -0.0030031928 0.052419245 0.064698085
0.062126026 0.05807805 0.14616787 0.16640414 0.0047538127 0.13437428 -0.05281936 0.08504094
0.13411047 0.15385784 0.13473232 -0.006003499 0.16189356 0.110586934 -0.037134387 0.03653924
0.040889986 0.041986007 0.060324933 0.0047465432 0.04663594 -0.06906301 0.0063493615 -0.03294577
-0.14318232 0.15050173 0.02987624 -0.19898905 -0.13750486 0.03353347 -0.20481703 0.1610636
-0.3426747 -0.067084484 -0.023610363 -0.09145523 -0.07014361 -0.11744478 -0.047563378 -0.09508496
-0.02847405 0.05129741 0.22005494 0.06607666 -0.084238864 0.06541303 -0.00456436 -0.10266978
-0.07733921 0.0034123077 0.2161752 -0.06520759 0.05272339 0.045304812 -0.15534061 -0.1418077
-0.12271835 -0.05758722 -0.10053263 -0.008540603 -0.1658746 -0.03591667 -0.11631527 -0.02954954
0.0422731 -0.04166442 -0.037279356 -0.1209464 -0.0732126 -0.12995833 -0.050274838 -0.0952702
0.009710328 -0.09240135 0.03668233 -0.16537428 -0.096274175 0.055829763 0.04448068 -0.09018973
00000000: 490c 12bd d475 373c 93fa 393d 5396 483a
00000010: 30d5 32bd c36e f03d dff2 9c3d 30a8 6b3d
00000020: a35b f03d 54cc c2bc 4d69 1c3e 7991 e03d
00000030: 4296 213b 54e2 db3d 5ac2 953e bb5e 88be
00000040: 1ae2 2a3e 7b46 06bc 0afd d33c 5bcc de3d
00000050: b40b 60bc 6ee9 1abd f0a8 ac3d e790 973d
00000060: be9c 083d a4d9 c33d 0c79 59be b053 6dbd
00000070: c09f 943d e291 a73d 9546 4a3e 70e3 873d
00000080: adc5 a33d d2b8 c53c 04ee 26be 0dd1 173d
00000090: 94a2 c53b 8085 313d 54f3 d13d 9086 cd3d
000000a0: 8d9f 113c a7ff 54bd a542 043e d905 493d
000000b0: 309f 6eb9 37d1 44bb 90b5 563d 6e80 843d
000000c0: dc77 7e3d 40e3 6d3d 08ad 153e d965 2a3e
000000d0: dfc5 9b3b 6999 093e 1d59 58bd f229 ae3d
000000e0: 4154 093e e98c 1d3e 45f7 093e 00b9 c4bb
000000f0: 6dc7 253e 677b e23d 3a1a 18bd 2caa 153d
00000100: 427c 273d 85f9 2b3d 4717 773d e488 9b3b
00000110: 5405 3f3d e870 8dbd 4e0e d03b 25f2 06bd
00000120: 639e 12be 201d 1a3e 04bf f43c c9c3 4bbe
00000130: 13ce 0cbe 645a 093d 8ebb 51be dbed 243e
00000140: 0f73 afbe 9763 89bd 856a c1bc e14c bbbd
00000150: 74a7 8fbd e486 f0bd d1d1 42bd e7bb c2bd
00000160: 6942 e9bc 3c1d 523d 1556 613e 3353 873d
00000170: 6d85 acbd 44f7 853d a090 95bb 8944 d2bd
00000180: 0564 9ebd 06a1 5f3b 085d 5d3e 8f8b 85bd
00000190: 7bf4 573d 8a91 393d 9c11 1fbe 0a36 11be
000001a0: c253 fbbd 94e0 6bbd 0de4 cdbd e3ed 0bbc
000001b0: 08db 29be 5c1d 13bd b336 eebd e011 f2bc
000001c0: 8f26 2d3d 50a8 2abd 3db2 18bd bfb2 f7bd
000001d0: 7df0 95bd cc13 05be fdec 4dbd 061d c3bd
000001e0: 1118 1f3c eb3c bdbd 3640 163d e057 29be
000001f0: 652b c5bd c0ad 643d 6031 363d 65b5 b8bd

classifier.bias f4 [2]
-0.25441438 0.07588156
00000000: 9a42 82be cb67 9b3d
