models/graphsage_engineered_ce_graphsage_model.pt (torch, 269056 bytes, 8 tensors)

conv1.lin_l.weight f4 [128, 194]
00000000: f89c 87bb 52d7 85bc 3f4e dbbb 2f43 08bd
00000010: 0148 f6bc d5c6 1dbd ea0e 433d 7b12 0a3b
00000020: 0f67 d9ba e3c4 053c 244a 593a 6a6c 783b
00000030: ceed fbbc e1d4 45bc 3c12 81bc 62cc 07bc
00000040: c181 9ab9 9cf6 ceba 4e6b 02bc 3103 593c
00000050: 2f5b bd3c a47e 70bc 76c5 cf39 030f 713c
00000060: 447e cabb 1245 61bc 06cd 97bc 8e86 6ebc
00000070: 9ee6 033a afca 7d3c 8bdb d3bb ba18 62bc
00000080: e618 9fbc 5763 67bc 6399 35bc beb7 5d3b
00000090: 468c 4fbc bcce 15bb 8713 46bb 64fc 533d
000000a0: bb99 2c3d e1eb d539 59d9 3e3d 2645 ea3c
000000b0: 12a1 5f3d 651c 813d 7362 713d cd20 e1ba
000000c0: e98c 7d3d c724 043c d1b6 053d 4b40 0fbc
000000d0: 0bed b8bd b58f 52bd b5e6 31bd 7020 963c
000000e0: eca0 f43c 7452 4dbd 64e0 1abc 3541 40bb
000000f0: ff1a 4dbc f3d0 17bd 07a2 6cbc 08ad 4dbd
00000100: 4494 1abc b1ad 42bb a8b7 4cbc 79ef 18bd
00000110: dde6 42bc f4b7 313b 1a41 793b 78f7 083d
00000120: 40ce 043d 9852 14bd c72f 04bd a11c 8dbd
00000130: 22a0 e93c 2b5c 1a3d 2ac1 073d 6a89 a4bd
00000140: c386 98bd aec9 a0bd c798 313d f59c 6c3d
00000150: 8a13 3d3d 00da 8a3d c1e1 973d 78a3 053e
00000160: 7abc e9b9 79c0 a3bd a669 cbbc fbc0 a73d
00000170: f1fd 9b3d 15a6 0fbc 86c6 a03b 65b1 d43b
00000180: 2929 70bc 8b05 07bc 99db d7bb f1ea cfbc
00000190: e50c a3bc ee2a 0d3d d1f4 b7bc adc7 84bd
000001a0: be8a 98bd de43 343d 13aa a73c aaae 813c
000001b0: e1e6 473d 7416 953a 6e14 a5bb f71a 923d
000001c0: 2df4 37bd 867d 02be d544 913c ed05 d7bc
000001d0: 9ade 1ebd acdb 9d3c 2fce f7bc c417 e4bc
000001e0: 0d1e 93bb 17a1 dc3b e958 00bc 3cf7 c03c
000001f0: 27b1 5d3b 2c35 8c3b d0e5 b63c acdf a1bc
00000200: a068 64bc f72a 66bd 8ac1 1abb 5a91 b6bb
00000210: 1476 d8bc 8f2f 3fbd 9bbb d1bc 3087 b83c
00000220: e444 2dba 91f5 e8bc 1cf8 853c a764 83bd
00000230: 84fe 97bd c247 0b3d d271 dc3d a2d4 88bc
00000240: 52bc e6bb 45db b6bd 80ce babd b553 4abd
00000250: 61ab 8cbd 86f2 a3bd 986b a9bd ffc8 b7bd
00000260: d70d b2bd e4ee 18bb bd20 df3d 5ebb c4bc
00000270: d117 8cbc 5eca a2bd eb35 a2bd 6ffe 8dbc
00000280: 9646 3d3c 16e6 fabc 52ee 82bd fc21 23bc
00000290: b433 86bc 0e91 3cbd e112 9dbd 0bf9 88bb
000002a0: 5297 82bc 54a2 4fbd 8f4b 08bd 1a16 b6bc
000002b0: fdaa cb3a de95 92ba a70c a43a a1e7 a13a
000002c0: f62a 92bb 59d4 07bc 6f38 32b9 473c f5bb
000002d0: 5590 51bc 425a 7fbb f868 2ebd c52b 1dbd
000002e0: 7055 5b3c 41f8 44be c3d4 4a3e 4893 3dbd
000002f0: 5af9 26bd f117 b0bd c4b9 6d3c c698 763b
00000300: fd30 8ebd 8d47 22bc 587e 1cbd b7c4 77bc
00000310: 7dd0 8d3b b431 0f3c 3810 a33b eada 443c
00000320: 75ff 1fbd 9456 1cbd 39bf 1bbd 4b65 243a
00000330: 6db2 1cbd 2e99 97bc 2a67 27bb dc3c 9c3b
00000340: 4351 4cbd 438f 97bb 6051 14bd 7853 1ebd
00000350: f397 12bd 8b45 c13b 2282 443b 10c0 843c
00000360: d15a b63c bd5f af3c f18b a73c 4e1d 3d3c
00000370: bcf4 8c3c af69 853c c4fe b03c ac5b b13c
00000380: aac7 ad3c af00 3c3c a7f2 973c 379f 4cba
00000390: 0503 79ba b74c 023b e74f 31ba 0232 6bbc
000003a0: cfd8 7ebc 74e1 0abc d122 b039 e8c9 9d3c
000003b0: 5b84 54bb 7cdc a1bb f3c0 cfbc 59b9 14bc
000003c0: 9847 19bb 06a9 b93c bf75 aebb 69b2 4cbc
000003d0: c0f8 f4bc 38b9 8c3c 2155 063d e3f1 953c
000003e0: e076 d73c 0db5 373c 9871 a73c 25a1 d63c
000003f0: 9647 e53c eaaa e23c 6464 f63c 5ffb b0bb
-0.004138585 -0.016338024 -0.0066926773 -0.033267196 -0.030063631 -0.0385197 0.047621645 0.0021068144
-0.00165865 0.008164617 0.0008288941 0.0037906417 -0.030753043 -0.01207468 -0.015755765 -0.008288475
-0.00029469843 -0.0015790048 -0.007960154 0.01324539 0.023114769 -0.014678631 0.00039629237 0.014713052
-0.006179603 -0.013749378 -0.01853038 -0.0145584475 0.0005031618 0.015490218 -0.0064653805 -0.013799841
-0.019421052 -0.014122806 -0.0110839335 0.0033831443 -0.012667721 -0.002285882 -0.0030224042 0.05175437
0.042138796 0.0004080227 0.046593998 0.028597426 0.054596968 0.06304244 0.05893178 -0.0017175913
0.06190196 0.008065409 0.03264505 -0.008743356 -0.09029587 -0.05140658 -0.04343291 0.018326014
0.02986189 -0.05012746 -0.009452913 -0.0029335741 -0.012518643 -0.037064504 -0.014442927 -0.050213844
-0.009434763 -0.002970558 -0.012494959 -0.037337754 -0.011895862 0.0027117701 0.0038033188 0.03343913
0.032423258 -0.03621158 -0.032272127 -0.06890226 0.02851874 0.037685554 0.0331432 -0.08034022
-0.07447579 -0.07850967 0.04335859 0.057766873 0.046161212 0.067798615 0.07416106 0.1305064
-0.0004458165 -0.079956956 -0.02483065 0.08191105 0.07616795 -0.008767624 0.0049064783 0.0064908736
-0.014658251 -0.008241068 -0.0065874574 -0.025380583 -0.01990361 0.03446477 -0.022455605 -0.06483398
-0.07448338 0.044010036 0.02046684 0.015830357 0.048804168 0.0011374489 -0.005037836 0.071340494
-0.0449106 -0.12743196 0.017733017 -0.026247943 -0.03878651 0.019269787 -0.030249683 -0.027843364
-0.0044896663 0.0067330706 -0.007833698 0.02355539 0.0033827515 0.0042787995 0.02232638 -0.019759975
-0.01394096 -0.05619332 -0.0023613893 -0.0055715265 -0.026423492 -0.046676215 -0.025602153 0.0225254
-0.0006609692 -0.028437408 0.01635366 -0.06415682 -0.07421592 0.03400398 0.10763897 -0.016702954
-0.0070414925 -0.08928541 -0.09121418 -0.049396235 -0.068686254 -0.08005242 -0.08272475 -0.08973884
-0.08694046 -0.002333575 0.10894916 -0.024015125 -0.0171012 -0.07948755 -0.0792044 -0.017333237
0.0115524735 -0.030627292 -0.06393112 -0.009956833 -0.016382076 -0.046036772 -0.076696165 -0.004180079
-0.015941296 -0.050691918 -0.033275183 -0.022227336 0.0015538629 -0.001118358 0.0012515978 0.0012352356
-0.0044606877 -0.008290374 -0.00016996426 -0.0074839923 -0.012790759 -0.003896371 -0.042580575 -0.03837182
0.013387069 -0.19235326 0.19807725 -0.046283036 -0.040765144 -0.085983165 0.014509622 0.003762768
-0.069429375 -0.009904754 -0.03820643 -0.015122584 0.0043278323 0.0087398775 0.0049762987 0.012015084
-0.039061982 -0.038168505 -0.03802416 0.00062711973 -0.038256098 -0.018505659 -0.0025543668 0.004767997
-0.049882185 -0.0046252324 -0.036210418 -0.03865382 -0.03578944 0.0058981827 0.0029984792 0.016204864
0.022260102 0.021407956 0.020452471 0.011542631 0.017206542 0.016285745 0.021605857 0.021650158
0.021213371 0.011474772 0.018548323 -0.0007805707 -0.0009499046 0.0019882151 -0.00067639205 -0.0143551845
-0.015554621 -0.008476604 0.00033595276 0.019261315 -0.0032427523 -0.004939614 -0.02536056 -0.009077393
-0.002338862 0.022663604 -0.005324095 -0.012493708 -0.02990377 0.017178163 0.03279603 0.018303817
0.026301801 0.011212599 0.020439908 0.026199887 0.027988236 0.027669389 0.030077167 -0.0054010595

conv1.lin_l.bias f4 [128]
00000000: 72a9 8fbd bd7d 55bd 1cb7 c9bc cb91 b23c
00000010: 35d7 20bd c13e 63bd 28de 46bc 6f90 a3bc
00000020: 4854 38bd 3a7b b3bd 2016 08bd f76c 83bd
00000030: e077 41bd 7f3a 06bd 6dae 8a3d d5cf 6e3a
00000040: 35f8 15bd 9f18 74bd c90e a4bd 7020 fbbc
00000050: 4ee3 2bbd 1e90 763d fe38 dfbc 760b e0bd
00000060: 404d 17be 8a20 ddbc c586 80bd d08d f5bc
00000070: 06f4 74bd db00 553d 3b38 19bd e02a 7a3c
00000080: c24b 963c c596 1d3c 75f6 4fbd fae6 07bc
00000090: 89cf 6abd 2ef5 63bd b7ea a5bb cd59 f53c
000000a0: 669d 4abd 3b00 7fbd 566e 1f3c 1af5 c5bc
000000b0: 58e4 293d 89d8 50be e7fb 7d3d 1f79 8dbd
000000c0: cc77 1dbd c077 22bd bacd ecbc 9b4f 9abc
000000d0: 41f6 a4bb 81a9 94bd e96b e6bd 2e37 5abd
000000e0: 5054 4dbb bc1a 00bd b175 f8bc 135b 203d
000000f0: cd6e 1fbd d99d babc d54e 13bd a00b c3bc
00000100: 433b 3d3c c21e debc 79a5 51bd 6c03 4cbc
00000110: d16e f5bd 4d20 33bd 9644 e13c 931a c2bc
00000120: f317 fd3c e79a d03b 6636 2dbd 5d66 5abd
00000130: 4749 c7bd 7637 43bc 4f21 093d 1b8f 11bd
00000140: 95bb 38bd fa20 59bc 29c4 b2bc 8a46 1bbd
00000150: de68 6ebc 1233 44bd d88c 643b 6306 2b3c
00000160: 6f0c 24bd e2fb 9abd 9b12 7a3a 4c73 09bd
00000170: d24e 013d 69fc 34bc b5f9 f0ba 78b9 5dbd
00000180: 3b71 2bbd 6f05 33bd ede6 2dbd 2ce3 39bd
00000190: e76d 5dbb b20e d63c c2a6 493b 5f3f 53bd
000001a0: 158c 8abc 5607 88bc edc8 213d 36a7 53bd
000001b0: 6714 48bd 57d8 8ebd efe5 b1bc e728 b9bd
000001c0: 2b43 38bc 9e57 78be f73a e23b 3334 2cbd
000001d0: 0ae9 43ba 67d8 15bd 0b01 31bc c38e 45bd
000001e0: 526f 0ebd a084 b3bc fb84 cf3c 066f 0fbd
000001f0: a860 a7bd 7759 30bd afc9 e6bd 5271 81bd
-0.07014741 -0.052121866 -0.024623446 0.021798035 -0.039267737 -0.05547977 -0.012137927 -0.019966332
-0.045002252 -0.08763738 -0.033224225 -0.06417268 -0.047233462 -0.03277063 0.0677155 0.0009109949
-0.03661366 -0.059593793 -0.080106325 -0.030655116 -0.04196482 0.060196035 -0.027248856 -0.10939686
-0.14775562 -0.026993055 -0.06275705 -0.029974848 -0.05980303 0.05200277 -0.03740714 0.015269011
0.018346671 0.009618466 -0.05077215 -0.008294815 -0.057326827 -0.055653743 -0.0050633806 0.029950047
-0.049466513 -0.06225608 0.009730896 -0.024164725 0.04147753 -0.20395102 0.06200781 -0.06907868
-0.038444325 -0.039664984 -0.028906692 -0.018836787 -0.0050342386 -0.07258893 -0.11251051 -0.05327528
-0.0031330772 -0.031275496 -0.030329557 0.039149355 -0.038924027 -0.022780346 -0.035963852 -0.023809254
0.011549774 -0.027114276 -0.051183198 -0.012451988 -0.11984027 -0.043731976 0.027498525 -0.023694312
0.030895209 0.006366122 -0.042288207 -0.053320277 -0.097307734 -0.011915078 0.03347903 -0.035536867
-0.045100767 -0.013252491 -0.021822052 -0.03790907 -0.0145513695 -0.047900267 0.0034873988 0.010438534
-0.04005092 -0.07567574 0.00095395156 -0.03355722 0.03156931 -0.011046507 -0.0018384965 -0.054131955
-0.041856032 -0.043706354 -0.042456556 -0.045382664 -0.003378743 0.026130054 0.0030769561 -0.051574107
-0.0169125 -0.01660506 0.03949826 -0.051673137 -0.048847582 -0.06974857 -0.021716086 -0.09041005
-0.011246483 -0.24252173 0.006904002 -0.04204197 -0.0007473385 -0.03658333 -0.010803471 -0.04823185
-0.034774132 -0.021913826 0.025331965 -0.03501799 -0.081727326 -0.04305407 -0.11268937 -0.06320442

conv1.lin_r.weight f4 [128, 194]
00000000: 1317 caba 02f6 643c 9f68 58bd b772 9dbd
00000010: c410 b4bb cd1f 85bd ef83 173e 5fb1 ac3c
00000020: 7271 b83c 97f8 bbbb e9ee 973c 8ac8 6b3c
00000030: c2ec aebc 927e 8abb 561b 85bc 4ffb 203c
00000040: 0d8d d0bb 5316 1dbc d36d 07bc a6ae 69bc
00000050: 2130 83bc 9d66 5cbc 6a05 a93b 0d45 a53c
00000060: 9f59 b9bb abd5 36bc 1351 bbbc 225b 5abc
00000070: 15c1 a73b edce ab3c ef43 c9bb f5fe 36bc
00000080: 1935 a7bc acae 96bc bf1c a6bc 8832 1abc
00000090: f52f a9bc 825b f13c 67ec f83c 3d30 d93c
000000a0: ca7c bf3c bd50 e23b c40e 983c 1149 c1bc
000000b0: 7d14 053c 27e6 103d cd34 0b3d 41a4 b13b
000000c0: f1f9 063d 1934 073c 8e07 113d 5f9f fa3d
000000d0: c15d 823d 9955 11bd 6ffa aa3d 411c a53d
000000e0: 6cd7 cd3c 3fcf 1abd bc8e b63b 4f6a 203c
000000f0: 446a a33b 5327 903c 5bd9 c03c 780a 18bd
00000100: 664a cc3b 87d5 1a3c 5606 a03b c95c ac3c
00000110: 18cc d43c e026 afba 1d7e 9abd fac7 79bd
00000120: 2a51 75bd b428 d0bd b81c d1bd d39d 92bd
00000130: 5a2d a03c 1057 0f3d 8733 fb3c 74a8 a03c
00000140: 792f 4b3d 3b1e 42bd a555 ef3c 65b7 3b3d
00000150: bbc5 3e3d 6200 98bc f22e bb3b 90ac 313d
00000160: 2aa7 50bc dbb7 65bd 296e c7bd c287 cf3c
00000170: feb1 b4ba d24d 6b3c 1aa6 5f3c 0c19 623c
00000180: 2fae 4f3c 4ca0 e93c 9d99 63bd 5b35 ab3a
00000190: 6143 81bc 2083 47bc 7638 08bc 4cc4 efb9
000001a0: 8a85 a53c 578f 1d3d 0301 b23c b666 543c
000001b0: 4903 2c3d f3a0 193d 5d99 283d 67a6 85bd
000001c0: 59ad 8fbc 6130 0abd 55a0 33b9 527e 8cbc
000001d0: e70a 14bd 77ea d7bb ef14 24bd 5909 08bd
000001e0: e987 7bbc 9d66 a6bd abdd 30bd 6e58 5d3c
000001f0: 75cc 2dbd fb88 05bb 7485 743c a9b6 18bd
00000200: 937e b43b 2fc3 f43c 6003 c9bc 24ad 84bc
00000210: 1364 f1bc a380 b13c a0cd 7b3c 69ba 483c
00000220: 123f 953c 7ed8 463d 1ccc 9e3c 052c 02bd
00000230: 6d66 c1bc 6fe2 97bc 6ec4 183d 2645 da3c
00000240: b859 9b3c d021 b5bd 6f98 dcbd ef60 a53c
00000250: 9447 85bc ef17 bcbd 87c0 643a 9afe 143d
00000260: 9acf d43c 31ce 9dbc 3a0c d43c 1b7e f2bb
00000270: 93ab 533c b80a 94bd 27c5 74bd 1052 2fbd
00000280: dc6a 28bc bb9a 43bb ec44 bbbc afd0 c73b
00000290: 0fe6 ee3c 20e3 a3bb 8912 6e3d 0b2f feba
000002a0: 481c d03c 8905 b4bd 5b77 91bd d673 92bb
000002b0: f733 ac3c 0636 b93c 8575 973c 1ab2 9d3c
000002c0: 297b 09bb af9d 203c 6b00 d1bb 5f42 08bc
000002d0: 1c7f 0bbd 28e2 fbba 95e7 8ebb 3fac a5bd
000002e0: 6ee3 cc3c 18f4 4bbd 51f9 5d3d 06fc f0bb
000002f0: 017e b63c a5c4 6e3a 528b 5fbd 9c0e 09bd
00000300: 3567 893d f3ea c0bb aacc 963b 92e0 89bc
00000310: 245f 7f3d d00e 3f3c 22e3 fabb bbf8 ac3c
00000320: 8cf5 acbd 2714 313a 9588 893b 8aa8 423c
00000330: 14c9 2d3b d3ba d93c bd61 153c 10cc 7dbd
00000340: 94e9 323b aa6e b3bb c72b a33c ae3a 893c
00000350: ea23 ab3c b763 1bbc 488e cfbb 2aec 853c
00000360: 3fd2 c33c fc28 c43c 33ee b33c 114f c33c
00000370: ae9e c03b b5fd 813c 9d63 c03c 33d3 bd3c
00000380: acb4 b33c 38b6 c43c f1b3 f93b c096 763b
00000390: aee8 b03b f17e ca3b b3a6 9c3b 4c5a d7bb
000003a0: fef7 b6bb 8c59 f43b d5b9 623c bdd3 ae3c
000003b0: 493c 3f3c 80ec abbc 38e6 f7bc b405 b73b
000003c0: 328a 2d3c fed2 b03c 2d34 073c 4fb3 d3bb
000003d0: 3aa7 6abc ee86 303d b95d 2e3d e906 993a
000003e0: 84ee 1b3d 3ca5 bc3c b92e 053d 49f9 913c
000003f0: cbd9 cf3c 8ae7 cb3c 7688 de3c c4ac 3abc
-0.0015418254 0.013974668 -0.05283415 -0.07687896 -0.0054951627 -0.06500206 0.14796422 0.02108067
0.022515032 -0.0057364213 0.018546538 0.014391074 -0.02135313 -0.004226514 -0.016248386 0.009825542
-0.006364471 -0.009587842 -0.00826593 -0.014262831 -0.01601416 -0.013452199 0.005158116 0.020174528
-0.0056564356 -0.011159341 -0.022865808 -0.013327392 0.0051194527 0.020972693 -0.0061421315 -0.011169185
-0.020411061 -0.018393837 -0.02027738 -0.009411462 -0.02065275 0.02946258 0.030386163 0.02651226
0.023374934 0.0069065974 0.018561728 -0.023594411 0.008122561 0.03537574 0.0339859 0.005421192
0.032953206 0.008252167 0.035407595 0.12237429 0.063655384 -0.035482023 0.08348548 0.0806203
0.025127135 -0.0377953 0.0055712145 0.009790971 0.004987033 0.017596876 0.023541143 -0.03711936
0.006234455 0.009450323 0.004883568 0.021040337 0.025976226 -0.0013363026 -0.075435854 -0.060981728
-0.059891857 -0.101640135 -0.10210556 -0.07159009 0.019552875 0.03499514 0.030664219 0.019611575
0.04960582 -0.04739211 0.029215643 0.045829196 0.04657529 -0.01855487 0.0057123834 0.04337746
-0.0127351675 -0.05608354 -0.09737808 0.025333289 -0.0013785956 0.0143618155 0.013650442 0.013799917
0.012675806 0.028518818 -0.05556642 0.0013062166 -0.0157792 -0.012177259 -0.008314243 -0.00045731885
0.020205278 0.038466778 0.021728998 0.012963941 0.04199532 0.03750701 0.041161884 -0.06525879
-0.017538713 -0.033737544 -0.00017130499 -0.017150078 -0.03614321 -0.0065892297 -0.040059026 -0.03321204
-0.015352228 -0.08125041 -0.04318015 0.013509853 -0.042431314 -0.0020375836 0.014924396 -0.037283573
0.005508253 0.029878227 -0.024537742 -0.016195841 -0.029466664 0.021667784 0.015368849 0.012251475
0.01821855 0.048546307 0.019384436 -0.03178026 -0.02360841 -0.01854059 0.037296705 0.0266443
0.01896368 -0.0884434 -0.10771262 0.020187823 -0.016269483 -0.091842525 0.00087261986 0.03637562
0.025977898 -0.019263359 0.025884736 -0.007400287 0.012919324 -0.07228607 -0.05975833 -0.04280287
-0.0102793835 -0.0029846865 -0.022860013 0.006097875 0.029162435 -0.0050014406 0.058123145 -0.0019392682
0.02540411 -0.08790118 -0.071028434 -0.004469375 0.021020873 0.022608768 0.018488655 0.019249965
-0.002097795 0.00980322 -0.0063782237 -0.008316605 -0.034056768 -0.001921718 -0.004361103 -0.08089494
0.02501079 -0.049793333 0.054192845 -0.0073542623 0.02227688 0.0009108282 -0.054576226 -0.0334612
0.06709138 -0.005887383 0.0046020346 -0.016830716 0.062346593 0.011661246 -0.007656471 0.021114698
-0.08445272 0.0006755017 0.00419719 0.011881003 0.0026517557 0.026578343 0.009117541 -0.061962187
0.0027299868 -0.0054758387 0.019918336 0.016751613 0.020891149 -0.009484223 -0.0063341 0.016347963
0.023903964 0.023945324 0.021964168 0.023841413 0.005878291 0.015868047 0.023485 0.023171997
0.021936737 0.02401267 0.0076203276 0.0037626475 0.0053988313 0.0061796834 0.0047806143 -0.0065720435
-0.005583762 0.007456964 0.013838251 0.021341199 0.011672088 -0.020986795 -0.030261144 0.0055853967
0.01059203 0.021584984 0.008252186 -0.0064605842 -0.0143220965 0.04309743 0.04256985 0.0011675033
0.038069263 0.023028009 0.03251526 0.017819064 0.025372406 0.02489068 0.027164679 -0.01139373

conv2.lin_l.weight f4 [64, 128]
00000000: c174 ccbc b1e6 ffbc 6c24 94bc 7a98 61bd
00000010: 72d4 093c 0249 82bd d7a0 c1bc 388f 48bc
00000020: 51af d9bd 040b fa3b b601 0e3c 6a03 85ba
00000030: 5f8f 5dbb 7ef1 b4bd 3cd2 9bbc e237 82bd
00000040: 5937 25bd 8a97 d8bb e2bf 46bc 2b29 77bc
00000050: d0d3 3b3c 0bd1 c1bd 2d27 8ebd cae8 a0bb
00000060: 51b2 963c 2fb8 52bc a431 833b 2d24 24bd
00000070: 9739 2bbd b2be 11bd d547 67bd 56c5 16bd
00000080: eb93 073c d62e 28bd 01c9 84bd 3e33 543c
00000090: fe0d 54bd 89d4 2ebd 5f9c 82bd aeba 10bd
000000a0: 9447 183c ab13 b5bc 6b50 6cbd 2cd2 ef39
000000b0: 690a 2dbd 780a 05bc 250e 9fbd 5417 8cbd
000000c0: 30be c8bd 53ff b2bc 3a1f a0bd 3f12 98bd
000000d0: 9cdc c63c 1f8f d5bc 458f 103c a78b 67bc
000000e0: f1cd 86bd da84 c5bc 326d 18bd 362b 9dbd
000000f0: aecc 2b3c f563 d8bc dfdc 77bd e1b2 2cbd
00000100: f431 353b 7021 90bd b6a4 46bb 4a91 e2bc
00000110: ded8 8cbd cecf 3bbd e1e4 94bd 8de1 10bc
00000120: 6ac3 223c 3022 d0bd 804a ddbc 8fa1 21bd
00000130: 6024 10bc 3a90 b8bd 8f98 cdbd 3c11 18bd
00000140: 5fc3 8cbd fbae 39bc c891 e6bd 373e 31bc
00000150: 61d0 283b 5389 82bd 2740 0cbd 681b 7ebd
00000160: 8d5d 39bd e7c4 2abd d5e0 a7bd 3f1e afbd
00000170: 83fa c13a 259c a5bd 613b b1bc ee92 86bd
00000180: 6590 41bd e996 cbbb 1923 3abd d73d 87bd
00000190: f88c 14bd 8334 89bd 541e cebc bc27 8cbb
000001a0: 6344 bfbc 866d 96bd bf16 95bc c3d0 dcbd
000001b0: 64d5 8b3c c1d5 bbbc 6bf0 b8bc 3ef1 53bd
000001c0: a639 b3bd 65c3 1d3c 0bf9 19bd 7a64 8dbd
000001d0: 02ba ddbc 826e b2bd b1ed 72bc b869 9cbd
000001e0: fdb8 103a 54f9 20bc fbed bdbd 95df 763c
000001f0: 90c1 2a3b fcdc 9abc 4708 81bd 88b0 b8bd
00000200: 2f5a fcbb 1057 cf3c e339 143d eef3 e5bc
00000210: 9657 783d 7e4e 893d 2ec4 68bc b38a 833d
00000220: e7c1 003d 2561 d3bc 4e15 7abc d56d 81bb
00000230: f8bd 553d c555 0b3d 29b7 eabb 12a0 d4bb
00000240: 0631 97bc b262 a33c cde1 863d 70d4 fd3c
00000250: e6ac 71bc 75a0 c33b cbc6 d6bc ecde c13d
00000260: dd98 64bd 941c 903c 43cc 7b3d 01a3 c23a
00000270: 48cd e93c 5663 463c 72b2 243d 07f8 37bd
00000280: 5e03 973c 730d 573b 7c6d f9bc 9c0d eeba
00000290: c119 f6ba 2004 113d 6d50 773d dd94 bf3c
000002a0: 4dc0 bc3c 60b7 0a3a bdaa c73c 85a0 e33b
000002b0: 670e 82ba 7b26 9dba 610c 5d3d 81fb 9138
000002c0: b696 5a3d b2fa c4bc bda9 323d 989b 223d
000002d0: 6cdc 4abd 70cf 373d 6150 883d 7d32 34bd
000002e0: 2f00 813c 423c 1f3b 9138 0abd 8c76 03bd
000002f0: 4241 84bc 9330 443d 4350 823d 627c 973c
00000300: 23b0 653d a717 de3c 26ca 4bbc 537f a13c
00000310: 4ae2 983d 1983 963c 2d8f 573d 2b0a 8dbc
00000320: f172 193c f240 68bb 8831 06bd 16b1 7f3c
00000330: 5588 243c d77c 9d3c 2667 743b 99f9 74bb
00000340: ac15 953c b549 bcbb 864a 7f3c 912c 5fbb
00000350: 4d12 373d ba47 9cbd b867 92bc d6ea 2ebd
00000360: fb90 7abd 018d b73c 9505 28bd fb67 0b3d
00000370: b617 cfbc c6f6 383d f72d 24bb efec 683d
00000380: d3e8 8a3d 053c 553d 6e01 273c 7424 753d
00000390: d5bf a23c f2db adbc 30ca d23c a70b 273d
000003a0: af18 70bc 6987 92bc 7648 513d 61bc 333d
000003b0: 581f 133d 95a1 503c 6a6f 003c a06c efbc
000003c0: 2650 af3d 12d3 213b 8f61 003a 3111 ae3c
000003d0: 318b e2bb f265 4c3c f80f a13d da69 5ebb
000003e0: d311 d5ba 0baf 613d 53e4 913c 0c04 103d
000003f0: f653 013d 314b aa3b 4ae6 80bd 0623 77bc
-0.024958016 -0.031237932 -0.018083774 -0.055077054 0.008412467 -0.063615814 -0.023636265 -0.012241177
-0.10629142 0.0076307077 0.0086674 -0.0010148112 -0.003380738 -0.088351235 -0.019021146 -0.06358315
-0.040335987 -0.0066098617 -0.012130709 -0.015085499 0.011464074 -0.094637 -0.06941066 -0.004910563
0.018395575 -0.012861296 0.0040037204 -0.040073562 -0.04180297 -0.03558225 -0.05646499 -0.036809288
0.0082750125 -0.04106029 -0.06483651 0.01295167 -0.051771156 -0.042683158 -0.06377482 -0.03533428
0.009294409 -0.022104105 -0.05769388 0.00045742223 -0.042246256 -0.008120172 -0.0776637 -0.06840387
-0.098019004 -0.021850264 -0.07818456 -0.07425355 0.024275117 -0.026069222 0.008823221 -0.014132417
-0.06582249 -0.0241112 -0.03721351 -0.076742575 0.010485811 -0.02641485 -0.060513373 -0.04216278
0.0027648183 -0.07037628 -0.0030310578 -0.02765717 -0.06877302 -0.045852475 -0.07270218 -0.008842838
0.009934286 -0.10162771 -0.027013063 -0.039460715 -0.008797735 -0.09011884 -0.10038864 -0.03712581
-0.068732016 -0.0113332225 -0.11258274 -0.010818056 0.002575897 -0.06373849 -0.034240868 -0.062037855
-0.045255233 -0.041691687 -0.0819718 -0.08550691 0.001479939 -0.08086423 -0.02163476 -0.06570993
-0.047256846 -0.0062130583 -0.045443628 -0.06603592 -0.03626725 -0.06699469 -0.025160946 -0.0042771976
-0.023348039 -0.07345109 -0.018199323 -0.10782006 0.017069526 -0.022929074 -0.022575578 -0.05174374
-0.0875123 0.009629105 -0.03759102 -0.0690393 -0.027066234 -0.08712484 -0.014827178 -0.07637352
0.00055207295 -0.009825069 -0.09273907 0.015067955 0.0026055314 -0.018904202 -0.06300407 -0.09018046
-0.0077011804 0.02531007 0.036188018 -0.028070416 0.060630403 0.06704424 -0.014206929 0.06422939
0.03143492 -0.025803158 -0.0152638685 -0.0039498606 0.05218312 0.034017343 -0.0071629477 -0.0064888084
-0.018455993 0.019944523 0.06586037 0.030985087 -0.014750695 0.0059700557 -0.026217839 0.09466347
-0.055809844 0.017591752 0.061474096 0.0014849604 0.028540269 0.0121086445 0.04020924 -0.04491427
0.018434223 0.0032814413 -0.030447714 -0.0018162015 -0.0018775986 0.035404325 0.060379434 0.023386413
0.023040915 0.0005291607 0.024373407 0.0069466257 -0.0009922505 -0.0011989617 0.053966884 6.960985e-05
0.053366385 -0.024045322 0.043618906 0.039699167 -0.049526617 0.044875562 0.06655956 -0.043993462
0.015747158 0.002429739 -0.033745352 -0.032095477 -0.016144399 0.047897886 0.06362965 0.018491928
0.05607618 0.027110888 -0.012438333 0.019714033 0.07465036 0.01837306 0.052626777 -0.017216763
0.009365783 -0.00354391 -0.03276208 0.015606185 0.01004227 0.019224567 0.0037292927 -0.0037380217
0.01819881 -0.0057460913 0.015581733 -0.0034053663 0.044695187 -0.07630868 -0.017871723 -0.042704426
-0.06117342 0.022406103 -0.04102095 0.03403471 -0.025279861 0.045157216 -0.0025051811 0.056866582
0.06782689 0.052059192 0.010193212 0.059849218 0.019866863 -0.021223042 0.025731176 0.040782597
-0.0146543225 -0.017886834 0.051094495 0.043880824 0.035918564 0.012733837 0.007839063 -0.029226601
0.08560209 0.0024692458 0.000489735 0.021248432 -0.0069135656 0.0124754775 0.07864374 -0.0033937604
-0.0016255922 0.055098575 0.017809069 0.03516011 0.031574212 0.005196952 -0.06293924 -0.015084034

conv2.lin_l.bias f4 [64]
00000000: 8916 aebd 876e 63bd 3232 84bd ed64 81bd
00000010: 7ef1 a3bd 8403 93bd e11a 10bd 388a 83bc
00000020: 7171 bfbd 8ad5 87bd 852a 65bd ea5f b3bd
00000030: 29f2 e1bc 1cf8 c3bc b3f5 8abd f523 b2bd
00000040: 8e7f bfbd 2505 6a3e b298 baba 40b6 093e
00000050: 399d fdbd 3a3c 6abd 85cc 91bd d227 0fbd
00000060: 3ee6 d4bd d3a2 d6bd 2392 10bd 39f1 fbbd
00000070: d17d c2bc 89d0 8abc d935 94bd 3129 50bd
00000080: b9de 1abc 273d eabb a90f 71bd 7133 8bbd
00000090: fc7d 98bd 6385 5bbd 922a af3b 6a1f 4ebd
000000a0: 872f a6bd d27e 3fbd 9866 0abd 9ca1 3dbd
000000b0: 8f31 c4bd bce5 d2bd ebe4 40bc 2a7d 05bb
000000c0: 2310 a3ba 7ba5 6abd 4a54 1bbd 4d94 61bd
000000d0: dc3b 1c3b 0561 b6bd 0ab6 94bd 3299 80bd
000000e0: 01b3 4ebd 7e73 dfbb d1c5 27be 2aa7 babd
000000f0: d05e a9bd 3882 d4bd a61a 9ebd 6f9d 21bc
-0.08500392 -0.05552533 -0.064548865 -0.06318078 -0.08005045 -0.07178405 -0.035181884 -0.016057119
-0.09347809 -0.06632526 -0.055948753 -0.087585285 -0.027581291 -0.023922019 -0.06785145 -0.086982645
-0.09350501 0.22853525 -0.001423618 0.13448429 -0.123835035 -0.057186343 -0.07119087 -0.034950085
-0.10395478 -0.10480275 -0.035295617 -0.12301869 -0.023741635 -0.01694514 -0.07236833 -0.050820533
-0.009452515 -0.007148403 -0.058852825 -0.06796921 -0.074459046 -0.053594004 0.005345651 -0.050322928
-0.08114534 -0.046751805 -0.033789247 -0.0462967 -0.09579765 -0.102977246 -0.011773328 -0.0020368793
-0.0012440722 -0.05728672 -0.03792218 -0.05507307 0.002383939 -0.08905224 -0.07261284 -0.0627922
-0.05046368 -0.0068191877 -0.16384055 -0.09113915 -0.08270037 -0.103764 -0.077199265 -0.009864195

conv2.lin_r.weight f4 [64, 128]
00000000: 9879 21bd d019 02bd c1b3 0ebd 0e86 60bc
00000010: 86f4 91bd 85a5 34bd a7ce 5cbd 9952 edbc
00000020: ade9 7fbc 1458 c0bc 9019 b2bc de3f 9ebd
00000030: fb39 b3bb 1eae db3b 74c2 16bd 70af 70bd
00000040: f594 52bb 23cc 29bd c050 d0bc 5529 40bc
00000050: 0148 72bd 8bce cbbc 3bf2 4abb 70b6 64bd
00000060: f58c 843c 85b4 bcbd 93a3 9abb 60e9 bdbd
00000070: a90e 83bd b171 eebc 402e 31bc 68e7 9eba
00000080: ff65 a9bd 19be f2bc 09df 98bd a175 10bd
00000090: 70b2 53bd 0119 86bb 7feb 42bc 0d3f 9aba
000000a0: 0d06 91bd 2506 a2bd b317 90bd d5bb 9cbd
000000b0: ff3d debd de69 a7bc db71 93bd 8377 3abd
000000c0: c42e 52bd f385 413c b992 52bd 5d03 193c
000000d0: c31b 6dbc c5b5 c0bc 340b ccbd 85d8 5cbd
000000e0: 8c26 8d3b c37e 79bd a72e 82bc 2543 26bd
000000f0: b6c1 a739 821c a1bb 8b87 49bd 2367 1abd
00000100: 154a aabc 0083 c7bd 2e25 6abc 2a47 9fbb
00000110: 6090 b9bd 1922 ddbd 108b 59bd 2f04 cebd
00000120: 9fb8 82bd 5b6f 313b d32f 87bc a733 22bd
00000130: 5733 5fbb fd29 96bb 9131 dabd 21b5 91bd
00000140: 82a8 90bc c2f4 c7bd f001 9a3b d7ee 24bd
00000150: 5e8f 9abc f3a9 34bd 34f7 41bb 7a24 84bd
00000160: 00ab b1bc 3aec 8cbd 1c5f 2dbd 4713 96bc
00000170: 7e5e d4bd f13b f8bc ff7b 63bd d4a7 06bb
00000180: c463 51bd 024e 873c b44e c2bc 1165 343c
00000190: 9383 d9bd 4f39 1cbd 5c24 87bd 6351 7abd
000001a0: 453e 00bd 9bfb a03b bfdf eabd 3980 5e3c
000001b0: b160 11ba 5217 28bd 3d93 c53a 4b6e 643c
000001c0: c486 8ebc 841e b2bd 6a38 dabc 8825 803c
000001d0: 12ce 863b 52c7 babd 6f6f 9abd b351 5ebd
000001e0: 8bdb 46bd b20f 4ebc be30 34bd 04fe 89bc
000001f0: e5a1 94bd 1a35 b5bd b5f9 e53b 0b51 a6bc
00000200: 2468 92bc b372 5c3c 568f 1c3d de32 263d
00000210: f680 9b3d 4d2d 70bc 1276 883d 3fee 5c3d
00000220: e3c2 103d 62ee 6abc 2f59 a73c 3965 963c
00000230: bf63 8e3d b3d5 263d e043 cf3d 3f7d 953d
00000240: 7dae febc 488e 8b3d d09d df3c 706f 103d
00000250: 0640 393d 6a67 7d3c c890 ae3d fb33 1c3d
00000260: 117e 8ebd 458d f3bc 8819 7bbc 221a be3d
00000270: 3041 533d 4c74 7d3d 275f 423d ea9e 7ebd
00000280: cdbb d73c d82d 3d3d 9b9e 493d 2ff3 1dbc
00000290: a315 c73d 9af0 713d fc0e 553d 4285 363d
000002a0: 370a 683d c31e 3f3d 86a7 273d 5262 c63c
000002b0: 3282 8c3d c882 87bd e1a3 473d 43d3 483c
000002c0: c1f7 6b3d 4e96 713d 3989 873d 6512 50bc
000002d0: 8a23 4139 5168 07bd 51b5 873d b3b9 0e3d
000002e0: cd9f d33b 467c 603d 3cb6 7e3d 4edf ce3a
000002f0: 82e1 8a3d 49cd d3bc fa4d 143d debf e03c
00000300: 35be 873d c91d 453d b390 1dbd df42 943d
00000310: 7486 b33d 3c09 a13d 8ec8 523d ad9e 86bd
00000320: 847a ee3c 4e44 b93d ecac d23c 6a21 d73c
00000330: 8b30 7c3c eaa1 b63c c4e8 0e3d 8b4a 943d
00000340: 7801 e33c 7643 833d 4cec 593d 0b49 69ba
00000350: 2cd6 353d 9b29 2fbd 8eeb c63d ec6c 02bd
00000360: 0515 a93c d349 a73d 5aff 9c3b 6ee3 a63d
00000370: 8319 df3d 7e27 613d b4b1 c03d 62eb 703d
00000380: 7916 763d f745 963d c670 8a3c 1aff 7c3d
00000390: 0154 e63c f4f3 ff3c a07f 323d 0e8f 983d
000003a0: eefa f33a 4c28 123c 22f0 843d a987 313d
000003b0: 508b 303d 1bf9 6a3d 7c99 773d 5929 e2bc
000003c0: a2c7 bd3c 9c03 70bd e2e9 a83d b852 9d3d
000003d0: a5b8 783d 6ff6 843d 17e7 743d 39e3 a93d
000003e0: 75af 58bd 08f0 213d 7edd 16bd 5600 563d
000003f0: eb4c 92bd 2ecc 5f3c ad2b f1bc 9b90 423d
-0.0394226 -0.031762898 -0.034839395 -0.013703836 -0.07126717 -0.044103164 -0.053908017 -0.02897005
-0.0156196775 -0.023479499 -0.021740705 -0.077270254 -0.0054695583 0.006704106 -0.03680654 -0.05876106
-0.0032132242 -0.041454446 -0.02542913 -0.011728604 -0.0591507 -0.02487876 -0.0030967135 -0.05583805
0.016180495 -0.09214119 -0.0047192066 -0.092730284 -0.063992806 -0.029106947 -0.0108142495 -0.0012123408
-0.08271407 -0.029631661 -0.074644156 -0.03526843 -0.051683843 -0.004092336 -0.011896967 -0.0011768058
-0.07081232 -0.07911328 -0.0703577 -0.076530136 -0.108516686 -0.020436224 -0.071994506 -0.04552413
-0.05131413 0.011811721 -0.051409457 0.009339181 -0.014471951 -0.023524174 -0.09963074 -0.053917427
0.0043075737 -0.060911905 -0.015891386 -0.040591378 0.00031997048 -0.0049167285 -0.04920153 -0.037696015
-0.020787278 -0.09741783 -0.014291091 -0.0048607783 -0.090607405 -0.10797519 -0.053111136 -0.10059392
-0.0638287 0.002707443 -0.016502297 -0.03960004 -0.00340577 -0.004582642 -0.10653985 -0.07114626
-0.017658476 -0.09763481 0.004699938 -0.040266838 -0.01886719 -0.04410739 -0.0029596807 -0.0645227
-0.021687984 -0.06880994 -0.04232703 -0.018319739 -0.103695855 -0.03030202 -0.055538174 -0.002054681
-0.051120535 0.01651669 -0.02371917 0.011010424 -0.10620799 -0.03814059 -0.06598732 -0.061112773
-0.031309385 0.004912806 -0.114684574 0.013580375 -0.0005545719 -0.041037865 0.0015073788 0.0139423115
-0.017398246 -0.08697227 -0.026638228 0.015642896 0.004113921 -0.091200486 -0.075407855 -0.054277133
-0.048549216 -0.012576984 -0.043991797 -0.016844757 -0.072574414 -0.08848019 0.007018293 -0.020302316
-0.017871924 0.013455081 0.038222633 0.040575854 0.07592957 -0.014659238 0.06663145 0.053938147
0.03534211 -0.014339061 0.020428268 0.018358814 0.06952619 0.040731143 0.10120368 0.072992794
-0.031089062 0.06814247 0.02729693 0.035262525 0.045227073 0.01546655 0.085237086 0.03813551
-0.06957639 -0.029730448 -0.015325911 0.09282328 0.05157584 0.061878487 0.047454026 -0.06216327
0.026334668 0.046186298 0.049223524 -0.009640499 0.09720924 0.059067346 0.052016243 0.04456068
0.056650367 0.046660196 0.040931247 0.024216805 0.0686077 -0.066167414 0.04874027 0.0122574
0.057609323 0.058981232 0.0661797 -0.012699698 0.00018419154 -0.03305847 0.0662638 0.034845065
0.0064582587 0.054806016 0.06218551 0.0015783103 0.067812935 -0.025854724 0.036207177 0.02743524
0.06628076 0.04812411 -0.038468074 0.07239317 0.08765879 0.078630894 0.051460795 -0.06573234
0.029111154 0.09046231 0.025717221 0.02626105 0.015392433 0.022294004 0.03488995 0.072407804
0.027710661 0.064093515 0.053203866 -0.0008899129 0.044393703 -0.042764287 0.09712897 -0.031842157
0.020639906 0.08168378 0.0047911825 0.081488475 0.10893538 0.054969303 0.09408894 0.05881823
0.060080025 0.073375635 0.016899478 0.06176672 0.028116228 0.031244256 0.043578744 0.074491605
0.0018614212 0.00892074 0.06491114 0.043342266 0.04310161 0.05736647 0.06044911 -0.027607607
0.023166481 -0.058597192 0.082477346 0.07681793 0.060722966 0.06492316 0.059790697 0.082952924
-0.052901704 0.039535552 -0.036832325 0.052246414 -0.07143577 0.01365952 -0.029439772 0.047501188

classifier.weight f4 [2, 64]
00000000: fb71 74bd 59e9 b13d 14c3 62bb a295 663d
00000010: 1622 913d 0396 303d 935a 783d 4fda ac3d
00000020: 5b28 073e 3259 0c3e a884 063e 8928 2f3e
00000030: cd9a e93d 5325 0cbb 32f2 813d 39cb 393e
00000040: 11e8 db3d 407c 96be 2062 c8bb 77de bfbe
00000050: 681a 443e aa43 893d 1424 263e 8346 343e
00000060: f4b0 2d3e 7161 bc3c ee23 113e fd42 5c3e
00000070: 38ad edbc ddb2 b33d 5813 793e a51a b33d
00000080: 3e73 1fbc 7996 bcbc 8c50 d43b b636 b83d
00000090: 8512 163d 5839 b53d c0ef e23c a36c 123d
000000a0: 9895 b03d fa87 433e 98a3 9b3a 2310 b53c
000000b0: 3ce7 8a3d cbe7 213e dc36 4cbd f496 bb3d
000000c0: d6cd 9b3d 4483 493e 59b7 ef3c 5807 ea3d
000000d0: 8813 0a3c 7236 4e3d 5b54 293e cd23 c53d
000000e0: 899f da3c c72f 353d 4cf4 5d3e 45a9 8f3d
000000f0: a3e3 6fbd 685d e73d 7a45 893d dbe2 75bd
00000100: 218a a1bd 8936 52be fc22 a3bd cf96 ccbb
00000110: e75f 49be 326c 3dbe 128c 8ebb 8329 2abc
00000120: f279 3bbe 99d9 29be 97a8 afbd 8ac9 52be
00000130: 0dd1 0fbd 9f02 e3bd 5426 733d 5fc4 3cbd
00000140: c9e8 b0bd 7630 a23e 7de6 00be 38ac bc3e
00000150: 0fbe a9be c6fc 41be f6b9 5ebd 3afd 22be
00000160: 9cbb 5abe 47bd 52bb 351f 26be fb40 c1bd
00000170: cd16 2bbe 29db 493c af4f 59be ab58 803d
00000180: cae3 ef3b 9faf 92bd d8e5 8ebd 8476 b6bd
00000190: 0473 42be bdf1 3e3c 3dc9 163d 8064 c3bc
000001a0: 1e77 e23c 5766 3f3d 326e b5bd 0edf 1ebe
000001b0: a946 f3bd bfd6 71be 5969 dfbd d524 74bd
000001c0: 214c fbbd 59f8 02be 78fa c5bd 700b 8fbe
000001d0: 6734 91bd 824f 23be 9e89 0ebe f461 7cbd
000001e0: cd4b 58be de2c 21bd 8804 b5be e43a 25be
000001f0: 4780 09be df58 09be 2ebb afbd eff6 21be
-0.059679013 0.08687086 -0.003460114 0.056295045 0.070865795 0.043111812 0.060633253 0.084400766
0.13198988 0.137059 0.13136542 0.17105307 0.11406479 -0.0021384552 0.06345023 0.1814393
0.107376225 -0.2939167 -0.006115213 -0.37474415 0.19150698 0.06702359 0.162247 0.17605023
0.16962034 0.022995682 0.14173862 0.21509929 -0.029013261 0.0877435 0.24323785 0.087453164
-0.009732066 -0.02302097 0.0064793285 0.0899481 0.036638755 0.08848828 0.027702212 0.035748135
0.08622283 0.1909484 0.0011874316 0.022102421 0.06782386 0.15811078 -0.049857005 0.091596514
0.076076195 0.1967898 0.029262232 0.11427182 0.008427508 0.05034489 0.16536085 0.09625969
0.0266874 0.044235017 0.21675223 0.070147075 -0.0585667 0.11297113 0.06702705 -0.0600308
-0.07887674 -0.20528616 -0.07965657 -0.0062435637 -0.1966549 -0.18498304 -0.004350194 -0.010385874
-0.18308237 -0.16586913 -0.08577078 -0.20584694 -0.035111476 -0.11084484 0.059362724 -0.04608571
-0.0863815 0.31677598 -0.12587924 0.36850142 -0.33152816 -0.18944082 -0.054376565 -0.15916911
-0.2136063 -0.0032156275 -0.16222842 -0.09436222 -0.16707917 0.012320318 -0.21221803 0.06266912
0.0073208557 -0.07162403 -0.06977433 -0.08909324 -0.18989187 0.011654315 0.03681301 -0.023851633
0.02764469 0.04672846 -0.08858909 -0.15514776 -0.11878712 -0.23617075 -0.10908765 -0.05960544
-0.1227038 -0.1279005 -0.09666914 -0.27938414 -0.07090073 -0.15948299 -0.13919684 -0.061616853
-0.21122666 -0.03934943 -0.3535502 -0.16135746 -0.1342784 -0.13412808 -0.085806236 -0.15816854

classifier.bias f4 [2]
00000000: 0b1e bfbe 6c96 b63e
-0.37327608 0.35661638
