models/graphsage_baseline_ce_graphsage_model.pt (torch, 256744 bytes, 8 tensors)

conv1.lin_l.weight f4 [128, 182]
0	0x3b56285b	0.0032677862
1	0xbd367765	-0.044547457
2	0xbc920a22	-0.017827097
3	0x3d34f603	0.044179928
4	0x3c2bd11e	0.010486869
5	0x3d0dc9e3	0.034616362
6	0xbd767382	-0.06016875
7	0xbbf09338	-0.0073417686
8	0xb95b2c7c	-0.00020902039
9	0xbaffd766	-0.001951915
10	0xbbe38d47	-0.006944332
11	0x3b6acee2	0.0035828878
12	0x3bae404a	0.0053177224
13	0x3c301686	0.0107475575
14	0xbd0461f2	-0.03231997
15	0x3c22f0b9	0.009945088
16	0xbb6e9b65	-0.003640854
17	0xbae523f4	-0.0017482028
18	0x3bc7de67	0.0060995105
19	0xbd132ce8	-0.035931498
20	0xbd15b98c	-0.036553904
21	0x3bc87864	0.0061178673
22	0x3bee6b00	0.007275939
23	0x3b8029d2	0.0039112354
24	0x3bf48c74	0.0074630324
25	0xbbbc484a	-0.005745922
26	0xbc11548a	-0.008870253
27	0x3ba48133	0.0050202846
28	0x38ee785d	0.00011371144
29	0x3b997d12	0.004684099
30	0xb8e75dea	-0.00011032431
31	0xbbba532a	-0.0056861835
32	0xbc0c83da	-0.008576358
33	0xbb3dd9c2	-0.0028968905
34	0xbbcd9a67	-0.0062745097
35	0xbc5f6d97	-0.013636968
36	0xbb90f45e	-0.004423662
37	0x3c4fd420	0.012684852
38	0x3c609515	0.013707419
39	0x3a27423e	0.0006380415
40	0x3ad95ed4	0.0016584047
41	0x399a8344	0.0002947097
42	0x3af77c9f	0.0018881744
43	0xbc99b2ca	-0.018762011
44	0xbc7063f9	-0.014672273
45	0x3acd365a	0.0015656457
46	0x3b0e4c2d	0.0021712885
47	0x3b51c083	0.0032005615
48	0x3b47f143	0.0030508793
49	0xbc9eaff0	-0.019371003
50	0xbc80050e	-0.01562741
51	0x3c808397	0.015687747
52	0x3d3b5d14	0.045743063
53	0x3d13dee4	0.036101237
54	0x3cf5b481	0.029993298
55	0xbccf0b93	-0.025274074
56	0xbcb76c8e	-0.02239063
57	0x3c14302f	0.009044691
58	0x3c80d9a9	0.015728788
59	0x3c8f8df4	0.017523743
60	0x3c10d0f6	0.008838883
61	0xbc192885	-0.0093480395
62	0xbc3efa40	-0.011656344
63	0x3c1d92bc	0.009617504
64	0x3c1d0aee	0.009585125
65	0x3b9906ce	0.0046700006
66	0x3c799c77	0.015235058
67	0xbc2612ad	-0.010136289
68	0xbc259349	-0.010105916
69	0xbc216ef4	-0.009853113
70	0x3d24f018	0.040268034
71	0x3d3ec69d	0.04657613
72	0x3d3d6310	0.04623705
73	0x3a45da81	0.0007547513
74	0x3c568a9e	0.013094572
75	0x3c124330	0.008927152
76	0x3c4101ef	0.011780246
77	0x3c4b4fef	0.012409194
78	0x3c4ff984	0.0126937665
79	0xbaa51930	-0.0012596007
80	0x3c597d41	0.013274492
81	0x3c609024	0.013706241
82	0x3b462bf3	0.0030238598
83	0x3c3e126d	0.011601073
84	0x3c6fc8b1	0.014635251
85	0xba25d926	-0.0006326608
86	0x3be8186e	0.0070829904
87	0x3b6044cc	0.0034220694
88	0x3d707e65	0.05871429
89	0x3d1c6768	0.038184553
90	0x3d439951	0.047753636
91	0xba123733	-0.00055776833
92	0xbc2f9ea1	-0.010718972
93	0x3a85bbcf	0.0010203066
94	0x3b5e88ff	0.0033956168
95	0x3bba17b5	0.0056790956
96	0x3b37190b	0.002793851
97	0x3c01bc77	0.007918469
98	0x3bc67e9c	0.0060575735
99	0xbc7aa567	-0.015298224
100	0x39a3142d	0.00031104815
101	0xbb5df5cf	-0.0033868437
102	0xbbc2dde7	-0.005946863
103	0x3c4a6322	0.012352737
104	0x3c818444	0.01581014
105	0x3b5761d2	0.0032864702
106	0xbb8475c0	-0.004042357
107	0xbc280e71	-0.010257349
108	0xb9e7c3d6	-0.00044205663
109	0x3c138f9c	0.009006407
110	0x3c814696	0.015780728
111	0xbc901c4e	-0.017591622
112	0x3b41704a	0.0029516392
113	0x3d04e7a1	0.03244746
114	0xbc441ebb	-0.011970217
115	0x3c90711f	0.017632065
116	0x3c7d51db	0.01546141
117	0xbb8346df	-0.004006251
118	0x3c6637a2	0.01405135
119	0xbbf6a7eb	-0.0075273416
120	0xbc49ca39	-0.01231628
121	0xbbea06bc	-0.007141916
122	0xbbabcdf8	-0.0052430592
123	0x3b3bfd93	0.0028685078
124	0x3d09ff17	0.03369054
125	0x3cb916fd	0.02259397
126	0x3bf75f33	0.0075491904
127	0x3d08529a	0.0332819
128	0x3cbe9fa5	0.023269484
129	0xbbfecabe	-0.0077756336
130	0xb90bb4f0	-0.00013323477
131	0x3b8b21cd	0.0042459727
132	0x3b46e044	0.0030346075
133	0x3cbe0640	0.02319634
134	0x3c908659	0.017642187
135	0xbcc50c25	-0.024053643
136	0x3c229e5c	0.009925451
137	0x3c9396a5	0.018016169
138	0xbcbbcbfe	-0.02292442
139	0x3b33886d	0.0027394549
140	0x3a9d543f	0.0012003257
141	0xbc2e0401	-0.010621072
142	0xbc698571	-0.014253006
143	0xbb694167	-0.0035591961
144	0xbbe159cb	-0.0068771592
145	0x3c03f63c	0.008054312
146	0x3bb08bbd	0.005387752
147	0x3c8539f1	0.01626298
148	0x3c1eb5b3	0.009686875
149	0x3a4e83e9	0.00078779325
150	0x3ba985af	0.005173407
151	0x3c871720	0.016490519
152	0x3c8e93c3	0.017404443
153	0xbbcf6198	-0.0063287728
154	0xbc01c11f	-0.007919579
155	0xbb99cc0e	-0.0046935147
156	0xbc1452eb	-0.009052972
157	0x3c8e74c2	0.017389659
158	0x3c8aa5c8	0.016924754
159	0xbb829bd6	-0.0039858622
160	0xb9303647	-0.00016804888
161	0x3b9cef27	0.0047892514
162	0x3c1466ea	0.00905774
163	0xbcae7877	-0.021297676
164	0xbcb443d4	-0.022005
165	0x3cfc450d	0.030794645
166	0x3b338e8e	0.0027398202
167	0xbba60f29	-0.005067725
168	0xbd14ac51	-0.036297146
169	0x3ce1fa69	0.027585225
170	0x3ba6196f	0.00506895
171	0x3c326593	0.010888475
172	0xbbef7623	-0.007307784
173	0x3a08843f	0.00052076945
174	0xbb8dc4c2	-0.004326434
175	0xbb805e4d	-0.0039174915
176	0x3b8a753f	0.0042254026
177	0x3c1abe9f	0.009444862
178	0x3b448940	0.0029989034
179	0x3bfa2600	0.0076339245
180	0x3c5e663e	0.013574181
181	0xbb3156d3	-0.0027059808
182	0xbc9e0fbc	-0.019294612
183	0x3d25ae29	0.040449295
184	0xbd7f1127	-0.062272217
185	0x3cb50ae1	0.022099914
186	0x3bcbb73c	0.0062169116
187	0x3cc08223	0.023499554
188	0x3c99524d	0.018716002
189	0xbc8db565	-0.01729841
190	0xbd0022a1	-0.031283025
191	0x3ca31779	0.019908654
192	0xbcd8bfd2	-0.026458655
193	0x3d175103	0.036942493
194	0x3cef11f9	0.029183375
195	0x3b72248b	0.003694805
196	0xbd4a0920	-0.04932511
197	0xbcd26084	-0.025680788
198	0xbbfa3134	-0.00763526
199	0x3c69a9ba	0.014261657
200	0x3c128409	0.008942612
201	0xbc9a52c7	-0.0188383
202	0xbcd706be	-0.026248332
203	0x3ca5d8c1	0.020244958
204	0x3cd3648f	0.025804786
205	0x3c905a84	0.017621286
206	0x3cd8cc64	0.026464649
207	0x3cc46158	0.023972198
208	0x3d1595a9	0.03651968
209	0x3ca74eee	0.020423379
210	0x3cd256cd	0.025676155
211	0x3c91ca68	0.01779671
212	0x3cd7bf16	0.026336234
213	0x3cc80d35	0.02442036
214	0x3d1883b7	0.037234988
215	0x3b9564de	0.0045591434
216	0x3b90faa6	0.004424411
217	0xba30e9da	-0.0006748714
218	0x3b8845cd	0.0041587115
219	0x3c7da931	0.015482233
220	0x3ce69832	0.028148744
221	0xbba0ba64	-0.004905032
222	0xbbf85de9	-0.0075795543
223	0x3bba7646	0.005690369
224	0xba7dd439	-0.0009682808
225	0xbc8394cb	-0.016062161
226	0xbc8c49b2	-0.017124984
227	0xbbf919bb	-0.0076019443
228	0xbb5b9901	-0.0033507945
229	0x3c87b175	0.01656411
230	0xbb69224f	-0.0035573428
231	0xbd27bcf5	-0.040951688
232	0xbd374807	-0.044746425
233	0xb9c24b5d	-0.00037058713
234	0x3d1c516f	0.0381636
235	0xbc1ff026	-0.009761846
236	0xbba6492a	-0.00507464
237	0x3c8c6b0a	0.017140884
238	0x3bae32a5	0.005316096
239	0x3c71a043	0.014747682
240	0x3d05714b	0.032578748
241	0x3d0c2f61	0.03422487
242	0x3d1989d2	0.03748495
243	0x3c030f73	0.007999289
244	0xbc42531f	-0.011860638
245	0x3c70f3e3	0.014706585
246	0x3d056d16	0.032574736
247	0x3d0c077f	0.034186836
248	0x3d195fa7	0.037444737
249	0x3c1770b5	0.00924318
250	0xbc38525d	-0.011250106
251	0xbd166304	-0.036715522
252	0xbc5e1aaf	-0.013556167
253	0xbc0d797a	-0.008634919
254	0xbc22c64a	-0.009934971
255	0xbd253347	-0.040332105

conv1.lin_l.bias f4 [128]
0	0x3c8fb405	0.017541895
1	0xbd2e4cc4	-0.04255368
2	0xbd9533bd	-0.07285259
3	0xbcf6f82e	-0.030147638
4	0x3c14b948	0.009077378
5	0xbe60a2d8	-0.2193712
6	0xbd275323	-0.04085077
7	0xbd7f278f	-0.062293585
8	0xba61f79d	-0.0008619966
9	0xbd68b88f	-0.056816634
10	0xbc4c673f	-0.012475788
11	0xbdda6f34	-0.106657416
12	0x3af415e8	0.0018622251
13	0xbcc6b43f	-0.02425587
14	0xbda4876a	-0.08033641
15	0xbd910510	-0.07081044
16	0xbd69f853	-0.057121586
17	0xbd0ae738	-0.033911914
18	0xbdc5af82	-0.09652616
19	0xbdfab530	-0.1224159
20	0xbcd728b8	-0.026264533
21	0x3d32294f	0.043496426
22	0xbd75737f	-0.0599246
23	0xbd341904	-0.04396917
24	0xbc6fe6a8	-0.014642395
25	0x3b371c24	0.0027940357
26	0xbd110b62	-0.035411246
27	0xbdc29510	-0.09501088
28	0xbd4047ac	-0.04694335
29	0x3cd194dc	0.025583677
30	0x3d9a0a8d	0.07521544
31	0xbcb820ba	-0.022476543
32	0xbd00bbd5	-0.03142913
33	0x3c0918ba	0.008367712
34	0xbe8d2439	-0.27566698
35	0x3cf7ce51	0.030249747
36	0x3b86126d	0.004091552
37	0xbd598e02	-0.053113945
38	0xbd66842e	-0.0562784
39	0x3c86b3aa	0.016443092
40	0xbda029a5	-0.07820443
41	0xbd3c01fc	-0.04590033
42	0xbccd375c	-0.025050811
43	0xbd44b1e3	-0.04802121
44	0xbe42bc15	-0.1901706
45	0xbcacc9f7	-0.021092398
46	0xbb5b1e95	-0.0033434976
47	0xbbe42e4c	-0.006963527
48	0xbddeca5c	-0.10878441
49	0xbc38245a	-0.011239136
50	0xbd431624	-0.047628537
51	0x3d036a97	0.032084074
52	0x3c28cd74	0.01030289
53	0xbdd1644b	-0.102242075
54	0xbcce50e4	-0.025185056
55	0x3c8052d1	0.01566449
56	0xbdca12f0	-0.09866893
57	0x3c84b0ae	0.016197529
58	0xbd071eae	-0.032988243
59	0xbd2bc4b9	-0.041935656
60	0xbd070121	-0.03296006
61	0xbd03f07c	-0.032211766
62	0xbd184b9d	-0.037181485
63	0xbd4cd7ce	-0.050010495
64	0xbdc43e8a	-0.09582241
65	0xbd171c95	-0.036892492
66	0xbd405c7a	-0.046963193
67	0xbceaebf7	-0.02867697
68	0xbd8c305e	-0.06845163
69	0xbd25c3be	-0.040469877
70	0xbd60bf1a	-0.05486975
71	0xbd9fef15	-0.07809273
72	0xbd861574	-0.065470606
73	0x3c7f5f10	0.0155866295
74	0x3a84a6f9	0.0010120563
75	0xbca9483a	-0.020664323
76	0xbd12b784	-0.035819545
77	0xbda95854	-0.082688004
78	0xbd0dbb98	-0.03460273
79	0xbd7e0e1e	-0.062025182
80	0x3c09e174	0.008415569
81	0xbd80b4ba	-0.06284471
82	0xbd69c9a4	-0.057077065
83	0xbd8a9547	-0.06766754
84	0xbd4ff8aa	-0.050774254
85	0xbc9bcd9b	-0.019018939
86	0xbda4fe9f	-0.080563776
87	0x3b9599f5	0.0045654722
88	0xbd1aeb79	-0.03782222
89	0xbd9c161e	-0.07621406
90	0xbdb9e8d6	-0.09077613
91	0xbd87ad16	-0.066248104
92	0xbdb2ff56	-0.08740108
93	0xbd97b1da	-0.07406969
94	0xbd08bb13	-0.033381533
95	0xbcf1fac1	-0.029538514
96	0xbc3cd307	-0.011524922
97	0xbd29bd4b	-0.04144029
98	0x3d997fab	0.07495054
99	0xbd7fa249	-0.062410627
100	0xbd428542	-0.047490366
101	0x3b0f11a9	0.0021830595
102	0xbcdeacde	-0.027182039
103	0xbd9e7eed	-0.07739053
104	0xbdb8e9f6	-0.090289995
105	0xbc98e7da	-0.018665243
106	0x3afab829	0.001912837
107	0xbdc9f19e	-0.09860538
108	0xbc74ae80	-0.014934182
109	0x3d8a05f6	0.06739418
110	0xbd74e409	-0.059787784
111	0xbd2de856	-0.0424579
112	0xbd8c874b	-0.068617426
113	0xbd597938	-0.05309412
114	0xbddb9f15	-0.10723702
115	0xbcdad988	-0.026715055
116	0xbd375558	-0.044759125
117	0x3cda2c53	0.026632464
118	0xbc78d035	-0.015186359
119	0xbd36171a	-0.044455625
120	0xbd27fcc9	-0.04101256
121	0x3c6fc8f3	0.014635312
122	0xbd76b88f	-0.060234603
123	0xbda13643	-0.07871678
124	0x3b23dd25	0.0025003639
125	0xbd6dfd3e	-0.05810284
126	0xbc27745a	-0.0102206115
127	0xbc2cf03d	-0.010555324

conv1.lin_r.weight f4 [128, 182]
0	0x3c74a6d1	0.01493235
1	0xbc009175	-0.00784718
2	0x3b9a5f35	0.0047110566
3	0x3c33848d	0.010956896
4	0x3cead21f	0.028664647
5	0x3c7c6aec	0.015406352
6	0x3c95e361	0.0182969
7	0xbb3d8a34	-0.0028921487
8	0x3d1df2d7	0.03856167
9	0x3b3793f9	0.0028011783
10	0x3c47837d	0.012177345
11	0xbcd9017f	-0.026489971
12	0xbd00435c	-0.03131424
13	0x3ce6e6be	0.028186198
14	0x38f3004a	0.00011587197
15	0xbbb01cdd	-0.0053745345
16	0xbbcbf3a1	-0.006224111
17	0x3be8ed59	0.007108372
18	0xbbf232e4	-0.0073913205
19	0xbc0b8b38	-0.008517079
20	0xbc148fe5	-0.00906751
21	0x3beda552	0.0072523737
22	0x3b6c5323	0.0036060296
23	0x3b696b9c	0.0035617119
24	0x3c4f1c6a	0.012641052
25	0x39a318ea	0.00031108345
26	0xbb1c8b13	-0.0023886606
27	0x3c170fd5	0.009220083
28	0x3bb02bab	0.0053762994
29	0x3b715652	0.0036825133
30	0x3c13fb55	0.00903209
31	0xb95f5738	-0.00021299429
32	0xbb30fde4	-0.00270068
33	0x3c05b9a5	0.008161937
34	0x3be4d70b	0.006983643
35	0xba2a696b	-0.0006500694
36	0x3c087c58	0.008330427
37	0x3b06a647	0.0020545886
38	0x3b9dbddb	0.0048138923
39	0x3ab98d98	0.0014156578
40	0x3b399114	0.0028315233
41	0x3b4a76f2	0.003089365
42	0x3b8d9ceb	0.0043216846
43	0x3c5bf80d	0.013425839
44	0x3bd4cace	0.0064939028
45	0x3a57ff6e	0.0008239661
46	0x3ad77e18	0.0016440777
47	0x3ba64db3	0.0050751804
48	0x3baf14f1	0.0053430726
49	0x3bdaac9a	0.0066734077
50	0x3a0ca273	0.0005364783
51	0x3d367814	0.04454811
52	0x3dabd78c	0.08390722
53	0x3d08612f	0.033295806
54	0x3d333117	0.043747988
55	0xbc27c997	-0.010240934
56	0xbc18f4c5	-0.009335701
57	0xbb845bd2	-0.004039266
58	0x3bb93ce3	0.00565301
59	0x3c15ccae	0.009143038
60	0xbb052fb3	-0.002032262
61	0xbcbf3984	-0.023342855
62	0xbd112d3c	-0.03544353
63	0xbb801d2b	-0.003909727
64	0x3ca9828c	0.020692132
65	0x3c4fbecc	0.012679767
66	0x3c40980e	0.011755003
67	0xbcefbe1c	-0.029265456
68	0xbcf0198b	-0.029309055
69	0xbc4b8a6d	-0.01242314
70	0x3b1faeda	0.0024365694
71	0xbaed3911	-0.0018098672
72	0xbb8ac9aa	-0.004235466
73	0xbc4141f4	-0.01179551
74	0xbae5d88c	-0.001753585
75	0xbbb2e4cd	-0.005459404
76	0x3b111374	0.002213684
77	0x3c00d297	0.0078627085
78	0x3af920c7	0.0019006961
79	0xbcf94c4b	-0.030431887
80	0xbc3154e6	-0.010823464
81	0xbb9efbb5	-0.004851783
82	0x3c0f280f	0.008737578
83	0x3c1275b9	0.0089392
84	0x3b4d45f4	0.0031322213
85	0xbc4060fd	-0.011741874
86	0xbc4acdb4	-0.012378145
87	0xbcd900ad	-0.02648958
88	0x3dad4f8e	0.084624395
89	0x3d4c9177	0.049943414
90	0x3d930968	0.071795285
91	0xbbf19b50	-0.007373251
92	0xbb29d583	-0.0025914616
93	0xbb25ecd2	-0.0025318158
94	0x3b31f2ce	0.002715278
95	0x3befd911	0.0073195775
96	0xbaaec401	-0.001333356
97	0xbc92dbb9	-0.017927038
98	0xbca63b97	-0.020292087
99	0x3b0e3166	0.0021696924
100	0xbb481025	-0.00305272
101	0xbb42c0c3	-0.0029716946
102	0xbd2194e5	-0.039448638
103	0x3c22df79	0.009940975
104	0x3bfd900e	0.00773812
105	0x3ae4cd64	0.0017456231
106	0xb9dfd6cc	-0.0004269391
107	0xba8317a5	-0.0010001553
108	0xbba0d5e0	-0.0049083084
109	0xbb616b2a	-0.003439615
110	0xbc4a1ec4	-0.012336437
111	0xbd0d335e	-0.034472816
112	0xbbce6dfc	-0.0062997323
113	0x3d0f20f1	0.034943525
114	0xbb2386a7	-0.0024952085
115	0x3b14f923	0.0022731505
116	0x3b877b6b	0.0041345856
117	0xba64ceeb	-0.0008728343
118	0xbc5ea1d6	-0.013588389
119	0xbb3ca122	-0.0028782566
120	0x39db8a95	0.00041874187
121	0x3c2a2120	0.010383874
122	0x3c882bdc	0.016622476
123	0x3aee176b	0.0018164938
124	0x3bcf032b	0.0063175163
125	0x3b78f4dc	0.0037987744
126	0x3a911539	0.0011068947
127	0xbbb88d4c	-0.0056320783
128	0xbc3c8344	-0.011505906
129	0xbb473d58	-0.0030401554
130	0x3c195797	0.009359262
131	0x3b03793c	0.0020061275
132	0x3b099ab1	0.0020996744
133	0xbcfce2c8	-0.030869856
134	0xbccfb247	-0.025353564
135	0x3b8259a3	0.0039779707
136	0x3cd0b802	0.025478367
137	0x3d6b4283	0.057436477
138	0x3c52d9f6	0.012869349
139	0xbc251198	-0.010074995
140	0xbbf5ad46	-0.0074974624
141	0xbd044c08	-0.03229907
142	0x3d069b5e	0.032863013
143	0x3a4856c1	0.0007642322
144	0xbc143911	-0.009046809
145	0xbcb414b3	-0.021982526
146	0xbca08b00	-0.01959753
147	0xbcdb2da7	-0.026755167
148	0x3cc8a29e	0.024491604
149	0x3cbf40b1	0.023346277
150	0xbb526b25	-0.003210732
151	0x3c9597e2	0.0182609
152	0x3c8bbd1a	0.017057944
153	0x3a195053	0.0005848456
154	0xbca72200	-0.020401955
155	0xbc14efcc	-0.009090375
156	0xbc60b06a	-0.013713935
157	0x3b240fdf	0.0025033874
158	0x3a92bcab	0.0011195143
159	0x3aac2ca9	0.0013135868
160	0x3b742500	0.00372535
161	0xbb2ddc23	-0.0026528917
162	0xbb8ec53f	-0.0043570097
163	0xbc80b634	-0.015711881
164	0xbc84c7f7	-0.016208632
165	0xbd23d857	-0.04000124
166	0x3dca7b96	0.098868534
167	0xba3bd33e	-0.00071649614
168	0xbc03b9c0	-0.008039892
169	0x3d938dd5	0.07204787
170	0x3c31e00d	0.0108566405
171	0x3caab08d	0.02083614
172	0x3d0f1b10	0.03493792
173	0x3bae2d18	0.005315434
174	0x3cf34219	0.029694604
175	0x3d020380	0.03174162
176	0x3d0da079	0.034576867
177	0xbbb33106	-0.0054684905
178	0x3c9888be	0.018619891
179	0xbbeafd9f	-0.0071713473
180	0x3b22bb8f	0.0024831032
181	0x3cda373d	0.026637668
182	0xbc012496	-0.007882258
183	0xbdbf016a	-0.093264416
184	0xbc504fc3	-0.012714329
185	0x3cbee24c	0.023301266
186	0x3c429ca9	0.011878171
187	0x3d18c848	0.037300378
188	0x3d382fe6	0.044967555
189	0xbc3e4973	-0.011614191
190	0xbb9486c4	-0.004532667
191	0x3cd1090f	0.025517015
192	0xbbedc42b	-0.007256051
193	0xbd856842	-0.06514026
194	0xbd8dd4ee	-0.06925379
195	0x3c3ef43f	0.0116549125
196	0x3b1bc549	0.0023768714
197	0xbd4a17a9	-0.04933897
198	0xbc50cdcc	-0.012744378
199	0xbc4e9976	-0.01260983
200	0xbd24fda5	-0.040280957
201	0xbd7984fa	-0.060917832
202	0xbd67ab7b	-0.05656002
203	0x3cc03cf6	0.023466568
204	0x3cfd7637	0.030940158
205	0x3cb31b6a	0.021863658
206	0x3d0499b0	0.03237313
207	0xbd4f5e01	-0.05062676
208	0xbd7b7c5f	-0.061397906
209	0x3cbfaf19	0.023398923
210	0x3cfd57fc	0.030925743
211	0x3cb47519	0.022028493
212	0x3d04adc6	0.032392286
213	0xbd6cd0b2	-0.057816215
214	0xbd5b248d	-0.053501654
215	0xbc3aa53d	-0.011391935
216	0xbbed03dd	-0.0072331266
217	0x3be29b02	0.006915451
218	0xbc234981	-0.009966255
219	0x3d104718	0.03522405
220	0x3d6ebe04	0.05828668
221	0xbad65374	-0.0016351775
222	0x3c14376f	0.0090464195
223	0x3c93b720	0.018031657
224	0x3bb9d2b4	0.0056708697
225	0x3cfeef7a	0.03112005
226	0xbba1a8d8	-0.004933458
227	0xbbe40169	-0.006958176
228	0x3a6f49cd	0.00091281236
229	0x3cb1471c	0.021640353
230	0xbb240d99	-0.002503252
231	0x3d218418	0.039432615
232	0x3c2c8e01	0.010531903
233	0x3d98cf30	0.07461393
234	0x3d4203f9	0.04736707
235	0xbd953702	-0.072858825
236	0x3d4b3058	0.04960665
237	0x3c959418	0.018259093
238	0x3ae122aa	0.0017176468
239	0x3d558ffc	0.052139267
240	0x3d0cec1f	0.03440487
241	0x3cfe6c2d	0.031057442
242	0x3d298602	0.041387565
243	0xbd53e453	-0.05173142
244	0xbd3d61cd	-0.04623585
245	0x3d537b7e	0.051631443
246	0x3d0cfd2f	0.034421142
247	0x3cfe2886	0.031025182
248	0x3d252db0	0.040326774
249	0xbd19e9d9	-0.03757653
250	0xbcfe7342	-0.031060819
251	0xbd32a089	-0.04361013
252	0xbc2ca0f5	-0.010536422
253	0xbbf493ac	-0.007463893
254	0xbc69471e	-0.014238147
255	0xbd599aaa	-0.053126015

conv2.lin_l.weight f4 [64, 128]
0	0x3cff53f3	0.03116796
1	0x3d29a5ce	0.04141789
2	0x3d97b080	0.074067116
3	0x3a8303b1	0.0009995607
4	0x3d253517	0.040333834
5	0xbd0953b2	-0.033527084
6	0x3cb89af8	0.022534832
7	0x3c3affb5	0.011413504
8	0x3cc4cd55	0.024023691
9	0x3d289bc0	0.04116416
10	0x3c81bde2	0.015837613
11	0x3d290d2b	0.041272324
12	0xbbf06385	-0.0073360824
13	0x3d185f6c	0.037200376
14	0xbc6e0575	-0.014527668
15	0x3c865e4d	0.016402388
16	0xbd2cae44	-0.04215838
17	0xbd29b827	-0.041435387
18	0x3d168853	0.036751103
19	0x3def0f6b	0.116728626
20	0x3ca81b69	0.020520883
21	0x3c098130	0.008392617
22	0x3dba5483	0.090981506
23	0x3bac19fc	0.005252121
24	0xbc065d30	-0.008200929
25	0x3b8633ae	0.004095516
26	0x3c00fd88	0.007872947
27	0x3ca4252f	0.020037262
28	0x3b6a7234	0.0035773637
29	0x3d76f1d8	0.060289234
30	0x3c3e42ef	0.011612638
31	0x3c9aa366	0.018876743
32	0x3dba40a9	0.09094364
33	0xbd2e6aae	-0.042582206
34	0xbc58c9ab	-0.013231675
35	0xbc971c96	-0.018446248
36	0xbd52c2f8	-0.051455468
37	0x3cc61030	0.02417764
38	0x3c743ba3	0.014906797
39	0xbd6ec166	-0.058289908
40	0x3d03f746	0.03221824
41	0xbd1e9d05	-0.038723964
42	0x3cc0e2c2	0.023545627
43	0x3cc8f2c6	0.024529826
44	0x3b7ddb43	0.0038735426
45	0xbcd4e8f5	-0.025989989
46	0x3cf064d8	0.029344961
47	0xbccb1504	-0.024790294
48	0x3d1154a2	0.035481103
49	0xbcb82a67	-0.022481157
50	0xbd29090b	-0.04126839
51	0x3c65fca9	0.01403729
52	0x3ccd50a1	0.02506286
53	0x3d178143	0.036988508
54	0xbb27c1eb	-0.0025597762
55	0x3c9f03b0	0.019410938
56	0x3adfe016	0.0017080333
57	0x3d30ce5a	0.043165542
58	0x3d110640	0.03540635
59	0xbd03b46f	-0.032154497
60	0xbbeff475	-0.0073228427
61	0x3c57fa1b	0.013182188
62	0x3d017a10	0.03161055
63	0x3d884418	0.06653613
64	0x3cf6beb1	0.030120226
65	0xbb80702e	-0.003919623
66	0x3d10b166	0.03532543
67	0x3b779483	0.003777773
68	0x3c27292a	0.010202685
69	0x3d77e178	0.060517758
70	0x3d5e8360	0.054324508
71	0x3b4a1242	0.0030833636
72	0xbcb92cf0	-0.022604436
73	0x3d672564	0.056432143
74	0xbd755f41	-0.059905294
75	0x3d174662	0.036932357
76	0x3c5da619	0.01352837
77	0x3d318ef7	0.043349233
78	0x3b5f776a	0.0034098276
79	0xbb04a129	-0.002023766
80	0x3ce2a9fb	0.027668944
81	0x3c5beed2	0.013423638
82	0x3b7e5305	0.0038806808
83	0xbd76cf8a	-0.06025652
84	0x3cb756dc	0.022380285
85	0x3c8b2cbb	0.016989103
86	0xbd0d5344	-0.034503236
87	0x3bff1923	0.007784979
88	0x3c3ef449	0.011654922
89	0x3cb0e364	0.021592803
90	0x3d80b3be	0.06284283
91	0x3d47ff06	0.048827194
92	0xbc239b05	-0.00998569
93	0x3d0ba150	0.034089386
94	0x3cad505d	0.021156484
95	0xbd102cff	-0.03519916
96	0x3d858de2	0.065212026
97	0x3c3280bd	0.010894951
98	0x3c12630b	0.0089347465
99	0x3cda9340	0.026681542
100	0x3cc9b706	0.024623405
101	0xbc4b3798	-0.012403391
102	0x3d438bd8	0.047740787
103	0x3da679aa	0.08128674
104	0x3dc543fd	0.09632108
105	0xba3f8a22	-0.0007306655
106	0x3bd3f757	0.006468694
107	0x3b5c47ef	0.0033612212
108	0x3d83e81b	0.06440755
109	0x3ca70281	0.020386936
110	0x3cbba01b	0.022903493
111	0x3d645160	0.055741668
112	0x3caf7b28	0.02142103
113	0x3c860a6b	0.01636239
114	0x3d3a6c06	0.045513175
115	0x3cbe2391	0.023210319
116	0xbc9fe05a	-0.019516159
117	0x3d28e422	0.04123319
118	0x3c955c4c	0.018232487
119	0xbc9f8707	-0.019473566
120	0x3bbeb241	0.0058195894
121	0x3bada004	0.0052986164
122	0x3cf2991f	0.02961403
123	0x3d72f06a	0.059311308
124	0xbcae642e	-0.021288004
125	0xbb1f78e7	-0.0024333538
126	0xbd2e4133	-0.042542648
127	0xbd3060d7	-0.043061104
128	0x3cebc419	0.02878003
129	0x3cf1a2b0	0.02949652
130	0x3d13e907	0.036110904
131	0x3b27c1c6	0.0025597676
132	0x3cb3397f	0.021878002
133	0xbd3ab4c8	-0.045582563
134	0x3b8a6f52	0.004224696
135	0x3ceabe45	0.02865518
136	0x3ce3e8e4	0.027821012
137	0x3d16c729	0.036811028
138	0x3ca78f01	0.020453932
139	0x3db82688	0.08991724
140	0x3a5695f2	0.0008185796
141	0x3d4ca155	0.049958546
142	0xbc3c1218	-0.011478923
143	0x3c714bf6	0.014727583
144	0xbd04be7d	-0.032408226
145	0xbc218066	-0.009857273
146	0x3d9121a4	0.070864946
147	0x3d8864bc	0.066598386
148	0xbc4c4e0e	-0.012469782
149	0xbc5ccac3	-0.013476077
150	0x3dba4c3b	0.09096571
151	0xbc2dc2e4	-0.010605548
152	0x3bc85976	0.00611418
153	0xbc8e60ea	-0.017380197
154	0x3c4c37fa	0.012464518
155	0x3d2e2e1a	0.042524435
156	0x3c8155a6	0.01578791
157	0x3d9ccb79	0.07655997
158	0xbc4ec793	-0.012620824
159	0xbcd04650	-0.025424153
160	0x3db0e1b0	0.086367965
161	0xbc3ca499	-0.0115138525
162	0xbbdfc4b3	-0.0068288683
163	0xb9de2285	-0.0004236886
164	0xbd59e0b1	-0.053192798
165	0x3d523217	0.0513173
166	0x3cc363ac	0.023851238
167	0xbd31aef6	-0.043379746
168	0x3c4d989a	0.01254859
169	0xbd88e67f	-0.06684589
170	0x3aaba1c0	0.001309447
171	0xbce3cfe2	-0.027809087
172	0xbba6ab7d	-0.005086361
173	0xbc01760f	-0.0079016825
174	0x3c8e8950	0.01739946
175	0xbd2cc2f5	-0.042178113
176	0x3cd63cb0	0.026151985
177	0x3c41cb1b	0.011828209
178	0xbbdcd230	-0.0067389235
179	0xbbb973a6	-0.0056595383
180	0xbc62f905	-0.013853316
181	0x3d4d5275	0.050127465
182	0x3cb2b4f7	0.021814806
183	0x3a176ee5	0.00057767174
184	0x3c2238a2	0.009901198
185	0x3d859312	0.06522192
186	0x3d3a58df	0.04549491
187	0x3bcc3fb1	0.0062331785
188	0x3c21406e	0.009842021
189	0x3baf4ef6	0.005349989
190	0x3c93fc95	0.018064776
191	0x3c79971a	0.015233779
192	0x3cbbdeef	0.022933451
193	0x39dba0cb	0.00041890735
194	0x3d02a08f	0.0318914
195	0xbc9629eb	-0.018330535
196	0x3cb582b5	0.022157053
197	0xbbd034c3	-0.006353946
198	0x3cd289a4	0.025700398
199	0x3cd77e07	0.026305212
200	0xbd0016fb	-0.031271916
201	0x3b93c0b1	0.0045090546
202	0xbd6dea3e	-0.05808472
203	0xbd105bf8	-0.03524396
204	0x3d1d5ea8	0.03842035
205	0x3d1fc5d3	0.03900702
206	0xbb89644e	-0.0041928655
207	0xbb50c5bf	-0.0031856147
208	0x3d042187	0.032258537
209	0x3cbd17dd	0.023082668
210	0x3d5d3442	0.054004915
211	0xbd6dab24	-0.05802454
212	0x3c30809a	0.0107728485
213	0x3c879dd2	0.016554747
214	0xbd498b34	-0.04920502
215	0xbb9b4d2c	-0.004739424
216	0x3cccd762	0.025005046
217	0x3bf9fb2f	0.0076288204
218	0x3d36390a	0.04448799
219	0x3d295569	0.04134122
220	0xbc7d0334	-0.015442658
221	0x3cdd499e	0.027012642
222	0x3cad4e7e	0.021155592
223	0xbd58003a	-0.05273459
224	0x3d9c663f	0.076366894
225	0x3ca2c8dc	0.019871168
226	0x3b829d94	0.00398607
227	0x3d41cb41	0.04731298
228	0x3c696290	0.014244691
229	0xba5695a6	-0.00081857515
230	0x3d8767d8	0.066116035
231	0x3d73df44	0.059539095
232	0x3d598601	0.05310631
233	0x3b3ff03f	0.0029287485
234	0xba75ae86	-0.00093720143
235	0xba32506d	-0.00068021455
236	0x3d2ab488	0.041676074
237	0xbb9c7a60	-0.0047753304
238	0x3d126926	0.03574481
239	0x3cb86fd8	0.022514269
240	0x3b4c821c	0.003120548
241	0x3d1b87c6	0.03797128
242	0xbba7e4fe	-0.0051237335
243	0x3d2d2c0b	0.04227833
244	0x3a05d4de	0.0005105267
245	0x3c5dd757	0.013540111
246	0x3c221744	0.009893242
247	0xbc17e35d	-0.009270516
248	0x3c76d827	0.015066183
249	0x3a656591	0.00087507913
250	0x3c271887	0.010198719
251	0x3ca5ba10	0.020230323
252	0xbbeef17c	-0.007291971
253	0x3bb75f08	0.0055960454
254	0xbd131fda	-0.035919048
255	0xbd6b4ccb	-0.057446282

conv2.lin_l.bias f4 [64]
0	0xbd6868af	-0.05674046
1	0xbd4bfbca	-0.04980067
2	0xbd1adeff	-0.037810322
3	0xbd7f4c04	-0.062328354
4	0xbd3cdf2a	-0.046111263
5	0xbd7e8ec3	-0.062147867
6	0xbcd72f18	-0.026267573
7	0x3e22f6f2	0.15914515
8	0xbd832ab5	-0.0640463
9	0x3d0f67d2	0.03501112
10	0xbde3cdc4	-0.11123231
11	0xbdb1637d	-0.08661554
12	0xbdb8cbd8	-0.09023255
13	0x3cb0a655	0.021563688
14	0xbdb1c8b6	-0.08680861
15	0xbc3113c5	-0.010807936
16	0xbd8c5579	-0.0685224
17	0x3922b169	0.00015515614
18	0xbd9e34d7	-0.07724922
19	0xbd853179	-0.06503577
20	0xbda947f5	-0.08265678
21	0xbc44e3d8	-0.012017213
22	0xbc1373bb	-0.00899976
23	0xbe07c4ad	-0.1325862
24	0xbd918729	-0.07105858
25	0xbd13bab3	-0.036066722
26	0xbd82239f	-0.063544504
27	0xbd7912ae	-0.06080883
28	0xbd8e69f7	-0.06953805
29	0xbd51074e	-0.051032357
30	0xbd3d3f22	-0.046202786
31	0xbc088341	-0.008332075
32	0x3c994fad	0.01871475
33	0xbda1fe55	-0.07909838
34	0xbd5fb7ab	-0.05461852
35	0xbd4eb593	-0.05046613
36	0xbdcac70b	-0.09901246
37	0xbd91eb82	-0.07124998
38	0xbd2d3248	-0.04228428
39	0xbd81e0a6	-0.063416764
40	0xbc94fe9d	-0.018187815
41	0x3d9df630	0.07712972
42	0x3f06971c	0.52574325
43	0xbce5d038	-0.028053388
44	0xbd5715e5	-0.052511115
45	0xbdd4bd32	-0.10387649
46	0xbdc7375f	-0.09727358
47	0xbd95dfda	-0.07318087
48	0xbd08957a	-0.033345677
49	0xbcff906c	-0.031196795
50	0xbc38ef8d	-0.011287582
51	0xbc6ef7a5	-0.01458541
52	0xbdae43e2	-0.08509041
53	0xbd34cff5	-0.044143636
54	0xbcc4ced0	-0.024024397
55	0xbe0151f3	-0.12628917
56	0xbba735c7	-0.0051028463
57	0xbd8cfd3b	-0.068842374
58	0xbd656ebb	-0.056013804
59	0x3e646369	0.22303547
60	0xbcc36d2f	-0.023855774
61	0xbdc0496f	-0.09389006
62	0xbbdde0d7	-0.0067711878
63	0x3e99ceee	0.30040687

conv2.lin_r.weight f4 [64, 128]
0	0xbce98fda	-0.028510977
1	0x3d42ddaa	0.047574677
2	0x3d3bb312	0.04582507
3	0x3d86c618	0.06580752
4	0x3d4d5da3	0.050138127
5	0xbd203744	-0.039115205
6	0x3cd6b3ef	0.026208846
7	0x3da9fdfe	0.08300398
8	0x3da78619	0.08179874
9	0x3db005fa	0.0859489
10	0x3de611d6	0.11233871
11	0x3d46ba06	0.04851725
12	0x3c690211	0.014221684
13	0x3d1fa3ac	0.03897445
14	0xbb3fd822	-0.0029273112
15	0xbd9565b4	-0.07294789
16	0x3d3a36c0	0.04546237
17	0x3c6b005b	0.0143433465
18	0x3d483f62	0.04888857
19	0x3cc5f8a5	0.024166415
20	0x3d0ebb8d	0.03484683
21	0x3d9c2675	0.076245226
22	0x3d6600be	0.05615305
23	0x3db195b3	0.08671131
24	0x3d8d3f0c	0.06896791
25	0x3d836ddb	0.06417438
26	0x3d21a936	0.039468013
27	0x3dcedb2c	0.101003975
28	0x3d56387e	0.05229997
29	0x3dbc4a1e	0.09193824
30	0x3db1a510	0.08674061
31	0x3c18abb8	0.009318285
32	0xbbd4c3fa	-0.006493089
33	0x3d419a7f	0.04726648
34	0xbd0e0810	-0.034675658
35	0x3d530bcb	0.05152492
36	0x3d3cb618	0.046072096
37	0x3db3f60d	0.08787165
38	0x3ca17cdb	0.019712856
39	0xbca9e6a9	-0.02073987
40	0x3cb07e8b	0.021544715
41	0x3d30103d	0.042984236
42	0xbc79a3cd	-0.015236807
43	0x3c6453e7	0.0139360195
44	0xbbdbaff6	-0.006704326
45	0x3db2a628	0.08723098
46	0x3dc4fb1e	0.09618209
47	0x3d501c7b	0.05080841
48	0x3ce09c0e	0.027418163
49	0xbbb00109	-0.005371217
50	0x3d22bed5	0.039732773
51	0x3d211d49	0.03933457
52	0x3b7f094f	0.003891546
53	0x3d63f654	0.05565484
54	0x3cc43dc4	0.023955233
55	0x3db02568	0.08600885
56	0x3b2fa9a6	0.0026804
57	0x3dac358d	0.084086515
58	0x3d5a1a4c	0.053247735
59	0x39772401	0.00023569168
60	0x3bd3bc5c	0.006461663
61	0x3cfb20ca	0.030655283
62	0x3c8c0ce1	0.017095985
63	0x3d190d31	0.037366096
64	0x3d793011	0.060836855
65	0xbc5d3cb9	-0.013503247
66	0x3c4dfd2b	0.012572567
67	0x3d0e7b8c	0.034785792
68	0x3d88b6db	0.06675502
69	0x3c58afef	0.01322554
70	0x3da344b0	0.079720855
71	0x3d865604	0.06559375
72	0xbda0851e	-0.0783789
73	0x3d8d3fd2	0.068969384
74	0xbc306c86	-0.0107680615
75	0x3ca5cf82	0.020240549
76	0xbcad1823	-0.021129673
77	0x3cdcb689	0.026942508
78	0x3d863281	0.065526016
79	0x3daa403d	0.08313034
80	0x3cf923ea	0.030412633
81	0xbb8da6bb	-0.0043228543
82	0x3d002b89	0.03129152
83	0xbd08ec2f	-0.033428367
84	0x3c1f0cfd	0.0097076865
85	0x3dac36c9	0.08408887
86	0xbd58c9a0	-0.05292666
87	0xbc8e4ec0	-0.017371535
88	0x3d5505f1	0.05200762
89	0x3d5ca76a	0.053870596
90	0x3caa8070	0.020813197
91	0x3c912b78	0.017720923
92	0x3d2a699a	0.041604616
93	0x3c26a9c6	0.010172313
94	0x3d7177b6	0.058952056
95	0x3b5cf469	0.0033715016
96	0xbc9197f4	-0.017772652
97	0x3da623e9	0.08112318
98	0x3da7d597	0.08195036
99	0x3da306ed	0.07960305
100	0x3d3c9703	0.046042453
101	0x3d481c9a	0.0488554
102	0x3d22540f	0.039630946
103	0x3d0fc5da	0.035100795
104	0xbc7f2680	-0.015573144
105	0xbd68acf0	-0.05680555
106	0x3dac7e77	0.08422559
107	0x3d954b2c	0.072897285
108	0x3d128df4	0.03577991
109	0x3da0c5c5	0.078502215
110	0x3d5d0adf	0.053965446
111	0x3d83a3eb	0.06427749
112	0x3df003af	0.117194526
113	0x3d568442	0.052372225
114	0xba380c1a	-0.0007020846
115	0x3d310068	0.043213278
116	0x3d19599d	0.037438978
117	0x3d549e19	0.051908586
118	0x3d97dc20	0.074150324
119	0x3d033e81	0.03204203
120	0x3a916bbf	0.0011094733
121	0x3dc82688	0.09772974
122	0x3d1815b9	0.03713009
123	0x3c3a179e	0.01135817
124	0x3d8a6337	0.06757205
125	0xbd1eed99	-0.03880081
126	0xbd8798ed	-0.06620965
127	0x3d4530a0	0.048142076
128	0xbcb28656	-0.021792572
129	0x3d492cc0	0.049114943
130	0x3c582df0	0.013194546
131	0x3d888483	0.066658996
132	0x3d42ecc7	0.04758909
133	0xbd326aa4	-0.04355873
134	0x3d38ba96	0.045099817
135	0x3d51df70	0.051238477
136	0x3d5387d0	0.051643193
137	0x3d8d73e7	0.06906872
138	0x3de48dea	0.111598805
139	0x3d021e0c	0.031766936
140	0x3d5b8b67	0.05359974
141	0x3d7288d4	0.05921252
142	0xbba8bc04	-0.0051493663
143	0xbd720329	-0.059085045
144	0x3d2db329	0.04240719
145	0x3d8432fd	0.06455038
146	0x3d592e82	0.05302287
147	0x3cb34e2c	0.021887861
148	0x3c70bf67	0.014694071
149	0x3d7ec11a	0.062195875
150	0x3d73f5d1	0.0595606
151	0x3dc6c72c	0.09705958
152	0x3d0e0753	0.034674954
153	0x3d874e99	0.06606788
154	0x3db4cf72	0.088286296
155	0x3da76236	0.08173029
156	0x3d98e634	0.07465783
157	0x3d4c078c	0.049811885
158	0x3d8f5010	0.069976926
159	0x3cb830e4	0.02248425
160	0xbbe174b8	-0.006880369
161	0x3c4428fa	0.01197266
162	0xbd2829a7	-0.041055348
163	0x3d97ee91	0.0741855
164	0x3ce57f23	0.028014725
165	0x3d62e30a	0.055392303
166	0x3d7c2cfb	0.061566334
167	0x3cde32aa	0.027123768
168	0xba3ef1cd	-0.0007283956
169	0x3d3f6b11	0.046732966
170	0xbd217f2c	-0.03942792
171	0x3c5d41e7	0.013504482
172	0xbb3b9a7e	-0.002862602
173	0x3d047ebc	0.032347426
174	0x3d97f35f	0.07419466
175	0x3c5a1dbf	0.013312756
176	0x3d7bd317	0.061480608
177	0x3c80f3b2	0.015741203
178	0x3b94d342	0.0045417855
179	0x3d916030	0.070984244
180	0xb718458d	-9.0761e-06
181	0x3d889c95	0.06670491
182	0x3c32d4e3	0.010915014
183	0x3d844dab	0.064601265
184	0xbcb519c1	-0.022107007
185	0x3d8b10fb	0.06790348
186	0x3d5bdacf	0.05367547
187	0x3ce0cb58	0.027440712
188	0x3d7f1490	0.06227547
189	0x3d208586	0.039189838
190	0x3be18c95	0.0068832138
191	0x3d2f8a44	0.04285647
192	0x3d66012d	0.056153465
193	0xbc9cc469	-0.019136624
194	0x3cbc3a68	0.022977069
195	0x3d85d490	0.06534684
196	0x3d3e191e	0.046410672
197	0x3c10a19f	0.008827596
198	0x3c4ccaa4	0.012499485
199	0x3d2e60c8	0.042572767
200	0xbd95b1e0	-0.073093176
201	0x3d673123	0.056443345
202	0xbcd22f2e	-0.025657263
203	0xbbacc7b9	-0.0052728322
204	0xbccd0bac	-0.02502998
205	0x3d121244	0.03566195
206	0x3d6037ad	0.054740597
207	0x3d7d4374	0.061831906
208	0x3d4246c9	0.047430787
209	0x3bb74aaf	0.00559362
210	0x3d78efcd	0.060775567
211	0xbd012c14	-0.031536177
212	0x3c3e7dff	0.0116267195
213	0x3d777d7a	0.0604224
214	0xbd3f5717	-0.046713915
215	0x3c97dc7d	0.018537754
216	0x3d2fa28b	0.042879622
217	0x3d063aa2	0.03277076
218	0x3cc17c16	0.02361874
219	0x3d0da98b	0.034585517
220	0x3da6be28	0.08141738
221	0x3c6ad7a4	0.014333639
222	0x3d8de7c7	0.06928974
223	0xbbb03e67	-0.0053785327
224	0x3cae6a3a	0.021290887
225	0x3d9a9143	0.07547238
226	0x3db92caa	0.09041722
227	0x3ca891f7	0.020577414
228	0x3d285938	0.04110071
229	0x3d802eca	0.06258924
230	0x3d1c157e	0.038106434
231	0x3d026bc2	0.031841047
232	0xbcd19f39	-0.025588619
233	0xbd506373	-0.050876092
234	0x3d92200d	0.071350195
235	0x3d77515d	0.06038033
236	0x3d08c9bf	0.033395525
237	0x3d835626	0.06412916
238	0x3cb90453	0.02258507
239	0x3d40a187	0.047029044
240	0x3de7573a	0.11295934
241	0x3d64de94	0.05587633
242	0xbbced36a	-0.0063118236
243	0x3cc3c39b	0.023896983
244	0x3d6b4cb5	0.0574462
245	0x3d4ca2d0	0.049959958
246	0x3d9676ae	0.07346855
247	0x3cd7cc79	0.026342617
248	0x3b930e28	0.0044877715
249	0x3db8fba8	0.090323746
250	0x3cc0a727	0.023517204
251	0xbd04ffe1	-0.032470588
252	0x3d54f887	0.051994827
253	0xbd473d11	-0.04864222
254	0xbd8616f7	-0.06547349
255	0x3b8edd05	0.0043598437

classifier.weight f4 [2, 64]
0	0x3da43a57	0.0801894
1	0x3d8ec384	0.069708854
2	0x3d55ade7	0.0521678
3	0x3d809d1c	0.06279966
4	0x3c803387	0.01564957
5	0x3e1b0f0b	0.15142457
6	0x3d539a76	0.051660977
7	0xbe22c1cf	-0.15894245
8	0x3e24068b	0.16018121
9	0x3d096eb1	0.03355283
10	0x3e94f36a	0.2909196
11	0x3e77574d	0.24154396
12	0x3df415e3	0.11918237
13	0x3b0125cb	0.0019706364
14	0x3e4545bd	0.19264884
15	0x3bb92de7	0.005651224
16	0xbd269883	-0.04067279
17	0xbd71179e	-0.058860414
18	0x3e366502	0.17811969
19	0x3df4a014	0.11944595
20	0x3e8b035e	0.27151006
21	0xbc9b4d1f	-0.018957673
22	0xbd5279a1	-0.051385526
23	0xbd5230c9	-0.051316056
24	0x3d52d9cf	0.05147725
25	0x3c8f5a5f	0.017499147
26	0x3e17d03a	0.14825526
27	0x3d28d679	0.041220162
28	0x3e37b75f	0.17941044
29	0x3e085a13	0.1331561
30	0x3d9b5ce3	0.07586076
31	0xbcee555b	-0.029093435
32	0x3d89e290	0.067326665
33	0x3e2f5756	0.1712316
34	0x3dbff804	0.09373477
35	0xbcfa0938	-0.030521974
36	0x3eb382aa	0.35060626
37	0x3dfb41fa	0.122684434
38	0x3d80946d	0.0627831
39	0x3e1d836a	0.15382162
40	0x3ca31682	0.019908193
41	0xbd843f8d	-0.06457434
42	0xbed7d430	-0.42154074
43	0x3db026eb	0.08601173
44	0x3d290590	0.04126507
45	0xbd83761a	-0.064190105
46	0x3e7c7f26	0.24657878
47	0xbd57bb2b	-0.05266873
48	0x3d53b6a9	0.05168787
49	0xbd623ac9	-0.055231843
50	0x3c3ab42b	0.011395494
51	0x3e1ceb81	0.15324213
52	0x3e3e5fe4	0.18591267
53	0xbaca133d	-0.001541711
54	0x3ddfc580	0.10926342
55	0x3e83877a	0.25689298
56	0x3d9f3387	0.077735
57	0x3dd70d0e	0.10500537
58	0x3d5e4195	0.054261763
59	0xbe832e56	-0.2562129
60	0x3e1f784f	0.15573238
61	0x3e7da1ec	0.247688
62	0x3e078df5	0.13237746
63	0xbe82161e	-0.254075
64	0xbde9db02	-0.114187256
65	0xbe6647c8	-0.2248832
66	0xbe1fbde6	-0.15599784
67	0xbe0f0768	-0.13967669
68	0x3c07d7c6	0.0082911905
69	0xbc9876ad	-0.018611277
70	0xbd1aa1d2	-0.03775198
71	0x3e65fdb9	0.22460069
72	0xbd0a7cc2	-0.033810385
73	0x3d7e1aff	0.062037464
74	0xbea25c0a	-0.31710845
75	0xbe3a6b6d	-0.18205042
76	0xbe0c8895	-0.13723977
77	0xbc30ae3a	-0.010783726
78	0xbe66ec3c	-0.22551054
79	0xbd00c13f	-0.031434294
80	0xbdf92fe9	-0.12167341
81	0xbd56bc99	-0.052425954
82	0xbe130d34	-0.14360505
83	0xbde3e145	-0.11126951
84	0xbe566a88	-0.20939076
85	0xbd357bc6	-0.044307493
86	0xbdf795c0	-0.120891094
87	0x3d0bb53f	0.034108397
88	0xbbc2c22b	-0.005943557
89	0xbe0f24bb	-0.13978855
90	0xbd9c1e4c	-0.07622966
91	0xbd2dcfd0	-0.042434514
92	0xbd5d8068	-0.054077536
93	0xbdcefb2b	-0.101065
94	0xbe217da9	-0.15770592
95	0xbdf2b2c5	-0.11850504
96	0x3d83a105	0.064271964
97	0xbd0b1e3b	-0.033964377
98	0xbdbaf302	-0.09128381
99	0xbdcf06d2	-0.10108723
100	0xbe964d96	-0.29356068
101	0xbda2cb6a	-0.079489544
102	0xbe10340b	-0.14082353
103	0xbd2214cb	-0.03957061
104	0xbda661b3	-0.081241034
105	0x3d8b61b8	0.06805748
106	0x3ee2cb5b	0.44295773
107	0x3d76af38	0.060225695
108	0xbddb69a8	-0.10713512
109	0x3cb12346	0.021623265
110	0xbe2d5657	-0.16927467
111	0xbdd6ddf3	-0.10491552
112	0xbdf3666c	-0.1188477
113	0xbd3353e8	-0.04378119
114	0xbd7978b8	-0.060906142
115	0x3d4178e5	0.047234435
116	0xbe8b687a	-0.27228147
117	0xbe309a62	-0.17246392
118	0x3ccaa366	0.024736118
119	0xbeca354c	-0.39493787
120	0x3d3d508c	0.046219394
121	0xbdd432dd	-0.10361264
122	0xbdfddbff	-0.123954765
123	0x3e8fe3d6	0.28103513
124	0x3d8321ad	0.064029075
125	0xbea08358	-0.31350207
126	0x3cb5c2a0	0.022187531
127	0x3e9c7d14	0.30564177

classifier.bias f4 [2]
0	0xbe91fc46	-0.28512782
1	0x3e6fce54	0.23418552
